Basic_Path_Finding/Assets/TorchModels/results/PlayerMaze1/PlayerMaze/checkpoint.pt (torch, 447305 bytes, 44 tensors)

network_body.observation_encoder.processors.0.normalizer.running_mean f4 [8]
0	0x40966fc8	4.701145
1	0x3edfbb67	0.43697664
2	0xbed89734	-0.4230286
3	0xc19ffd6e	-19.998745
4	0x3efffcb3	0.49997482
5	0xb19d79b0	-4.5831356e-09
6	0x3ff72a7a	1.9309838
7	0x3e0d3651	0.13790251

network_body.observation_encoder.processors.0.normalizer.running_variance f4 [8]
0	0x471346e6	37702.9
1	0x44e6f460	1847.6367
2	0x490e0c34	581827.25
3	0x43c899a7	401.2004
4	0x3f9ffef6	1.2499683
5	0x3f800000	1.0
6	0x468801ff	17408.998
7	0x4745efc7	50671.777

network_body.processors.0.normalizer.running_mean f4 [8]
0	0x40966fc8	4.701145
1	0x3edfbb67	0.43697664
2	0xbed89734	-0.4230286
3	0xc19ffd6e	-19.998745
4	0x3efffcb3	0.49997482
5	0xb19d79b0	-4.5831356e-09
6	0x3ff72a7a	1.9309838
7	0x3e0d3651	0.13790251

network_body.processors.0.normalizer.running_variance f4 [8]
0	0x471346e6	37702.9
1	0x44e6f460	1847.6367
2	0x490e0c34	581827.25
3	0x43c899a7	401.2004
4	0x3f9ffef6	1.2499683
5	0x3f800000	1.0
6	0x468801ff	17408.998
7	0x4745efc7	50671.777

network_body._body_endoder.seq_layers.0.weight f4 [128, 8]
0	0xbea7b423	-0.3275462
1	0x3c8d018d	0.017212654
2	0xbd8172fc	-0.0632076
3	0x3eb79a7a	0.35860044
4	0xbf487ab1	-0.7831221
5	0xbd4c88ef	-0.049935278
6	0xbdbe063e	-0.09278534
7	0xbeee29d2	-0.4651628
8	0x3e2df3cc	0.16987532
9	0xbe6bc98f	-0.23026107
10	0xbdca9077	-0.09890836
11	0xbe88bcc9	-0.26706532
12	0xbdb81495	-0.08988301
13	0xbe21a27e	-0.15784642
14	0xbe39abd4	-0.18131953
15	0xbea52999	-0.322583
16	0xbdef73dd	-0.11692021
17	0x3ee42dea	0.4456628
18	0xbe8bbe01	-0.272934
19	0x3d7ba332	0.061434932
20	0xbe5ee0fe	-0.21765515
21	0xbec44f02	-0.38341528
22	0xbe809adf	-0.25118157
23	0xbe874afd	-0.264244
24	0xbd9f04ae	-0.077645645
25	0x3d535638	0.051595896
26	0xbe7b0600	-0.24514008
27	0xbe8cb6b3	-0.27483138
28	0x3e91d9a5	0.28486362
29	0x3eab7758	0.3348949
30	0x3e2028b3	0.15640526
31	0x3f0477f5	0.5174554
32	0xbeee82b5	-0.46584097
33	0x3ea922a0	0.3303423
34	0xbda60dd5	-0.08108107
35	0x3f167951	0.58778864
36	0xbf045630	-0.5169401
37	0xbf2f8560	-0.6856289
38	0xbc9cff19	-0.019164609
39	0xbe366fb1	-0.17816044
40	0xbc2ea12a	-0.010658542
41	0xbf1cf8c7	-0.61317104
42	0x3ed17e1f	0.40916535
43	0x3f8a14d2	1.0787604
44	0x3f107a49	0.5643659
45	0x3d76aff3	0.060226392
46	0x3c6ca8a8	0.014444508
47	0x3e9c60de	0.30542654
48	0x3edd23bc	0.43191326
49	0x3e8d8ba3	0.27645597
50	0xbf477d1d	-0.7792528
51	0x3e1123b0	0.1417377
52	0xbe494b4a	-0.19657627
53	0x3e0d6058	0.13806283
54	0x3ee172da	0.44032937
55	0xbe6608a2	-0.2246423
56	0x3e201d98	0.15636289
57	0x3e1cb596	0.15303645
58	0xbea342bd	-0.31886855
59	0x3ec26b0a	0.3797229
60	0x3e140827	0.14456235
61	0x3ed8e431	0.42361596
62	0xbf170d7a	-0.5900494
63	0x3d0ef3ec	0.03490059
64	0x3efb9526	0.4913723
65	0x3e75a8ff	0.23990248
66	0x3dc04803	0.09388735
67	0xbe8ae8c7	-0.2713072
68	0x3e8b3991	0.27192357
69	0xbda6e195	-0.08148495
70	0xbe9da165	-0.30787197
71	0x3edc693d	0.4304904
72	0x3f0b93fb	0.54522675
73	0xbedc7cac	-0.43063867
74	0xbe615e43	-0.22008614
75	0x3e0e6d67	0.13908921
76	0xbf45d249	-0.77273995
77	0x3d7f4837	0.06232473
78	0xbe570070	-0.2099626
79	0x3e25b48a	0.16182151
80	0x3e39c80b	0.18142717
81	0x3e7d27b2	0.24722174
82	0x3ef50f6f	0.47863337
83	0xbdbeb7e1	-0.09312416
84	0x3f177d30	0.59175396
85	0xbe2b305d	-0.16717668
86	0x3f762e15	0.96164066
87	0x3d9405ae	0.07227646
88	0x3f806254	1.0030007
89	0xbd598dc7	-0.053113725
90	0x3c233dfe	0.009963511
91	0xbdf3fb69	-0.11913187
92	0x3f06f654	0.52719617
93	0x3f560fc6	0.8361782
94	0x3d81a555	0.06330363
95	0xbeed6008	-0.4636233
96	0xbf1b32b6	-0.60624254
97	0xbe0e3092	-0.13885716
98	0x3ec1e3f5	0.3786923
99	0x3ec2cfb0	0.38049078
100	0xbf14a453	-0.5806324
101	0xbdb05bce	-0.0861126
102	0xbde2d8ec	-0.11076531
103	0xbeac58ba	-0.33661443
104	0xbbc315af	-0.0059535126
105	0x3ec6dfef	0.38842723
106	0x3e391dfd	0.18077846
107	0xbdcf6f02	-0.10128595
108	0xbd957d16	-0.07299249
109	0x3ece53a9	0.40298203
110	0x3d8100da	0.062989905
111	0xbe81e310	-0.25368547
112	0x3eda59a1	0.42646506
113	0xbdbf6bf9	-0.09346766
114	0xbd991fd1	-0.074767716
115	0xbf206e53	-0.6266834
116	0xbf42680e	-0.75940025
117	0x3ea956f4	0.33074152
118	0xbe52a5bd	-0.20571037
119	0x3c4f2685	0.012643461
120	0x3e8df51d	0.2772607
121	0x3e8b1118	0.2716148
122	0x3e0e01df	0.13867901
123	0xbe5b5fae	-0.21423218
124	0xbec51f17	-0.38500282
125	0x3eaa3e72	0.33250767
126	0xbe70285c	-0.23452896
127	0x3ea989f0	0.3311305
128	0x3ee12a40	0.43977547
129	0x3ebaa642	0.3645497
130	0xbe67d305	-0.22639091
131	0x3f359bd8	0.70940924
132	0xbf43be8d	-0.7646263
133	0x3d425c12	0.047451086
134	0xbeae9153	-0.3409525
135	0xbe2636da	-0.16231862
136	0x3ec27be2	0.3798514
137	0x3f9ef6b2	1.2419035
138	0x3dfe8845	0.12428335
139	0xbde0568a	-0.10954006
140	0xbe26bb71	-0.1628244
141	0x3ea7f7f8	0.32806373
142	0x3f08eebf	0.534893
143	0xbeb1a357	-0.3469493
144	0xbbd0f377	-0.0063766795
145	0x3dc955ba	0.09830804
146	0x3e55f633	0.20894699
147	0x3ebf06df	0.3730993
148	0x3ce58646	0.028018128
149	0x3f1345a7	0.57528156
150	0x3d26414e	0.040589623
151	0xbe19f68c	-0.15035456
152	0xbeeacb3e	-0.45858186
153	0xbd3ab794	-0.04558523
154	0xbe8b324b	-0.27186808
155	0xbe2e2819	-0.17007484
156	0xbe21bbca	-0.15794292
157	0xbedfe10b	-0.43726382
158	0xbe3a935f	-0.1822028
159	0x3ea98cc8	0.3311522
160	0x3e9b7c8c	0.3036846
161	0x3e238104	0.15967184
162	0xbf0c70a4	-0.54859376
163	0xbe8d59c5	-0.2760755
164	0xbe8d6d8e	-0.27622646
165	0x3ecb807c	0.39746463
166	0x3e875948	0.26435304
167	0xbead254a	-0.33817512
168	0xbe3027bb	-0.17202656
169	0x3effccff	0.49961087
170	0x3e5031fc	0.20331568
171	0xbe3d9cb1	-0.18516804
172	0xbedd0fee	-0.43176216
173	0x3e9df8ba	0.30853826
174	0xbed30dea	-0.41221553
175	0x3ca825bc	0.020525806
176	0xbf666258	-0.8999381
177	0x3c9654ac	0.018350922
178	0x3e1ac6c5	0.15114887
179	0x3f20f54b	0.6287429
180	0x3c8d63b8	0.017259464
181	0xbee469a7	-0.44611856
182	0x3d960df2	0.073268786
183	0x3ee68598	0.450238
184	0xbe04601b	-0.12927286
185	0x3ea01be6	0.31271285
186	0xbee979f1	-0.45600846
187	0xbe4e7e03	-0.20165257
188	0x3e3238b3	0.17404442
189	0xbeb6c38a	-0.3569606
190	0x3eb12b1e	0.34603208
191	0xbedff9a2	-0.43745142
192	0xbe892118	-0.2678306
193	0xbef13df1	-0.4711757
194	0xbecf86fe	-0.40532678
195	0xbe8691d2	-0.26283127
196	0x3f2c8b9b	0.6740052
197	0x3e4e10fd	0.20123668
198	0x3e8bc17d	0.27296057
199	0xbe581a37	-0.2110375
200	0xbf22f3e3	-0.6365339
201	0xbcdc972b	-0.026927551
202	0xbf5bd8ba	-0.85877573
203	0x3e0a3c6d	0.13499613
204	0xbf0762dd	-0.5288523
205	0x3d701b33	0.05861969
206	0x3dd528e7	0.10408192
207	0xbeca0139	-0.39454058
208	0x3f0feb33	0.5621826
209	0x3e917c6e	0.28415245
210	0x3dcb4cec	0.09926781
211	0xbe994cb8	-0.29941344
212	0xbf141418	-0.5784316
213	0xbdb151aa	-0.08658154
214	0xbe1cb1c6	-0.1530219
215	0x3e4537f1	0.19259621
216	0x3da27d93	0.07934108
217	0xbd8a91a6	-0.067660615
218	0xbe5a0ea3	-0.21294646
219	0xbd399901	-0.04531193
220	0xbf275c40	-0.6537514
221	0x3ea05b54	0.31319678
222	0xbd342fe4	-0.043990985
223	0x3e1ba5e0	0.15199995
224	0xbe19ff4e	-0.15038797
225	0x3f680284	0.9062884
226	0xbd274a08	-0.040842086
227	0x3dcefa8c	0.10106382
228	0x3ddaee0e	0.106899366
229	0x3e0e3a65	0.13889463
230	0x3eb6f676	0.3573491
231	0xbd9f30a6	-0.07772951
232	0x3de34a48	0.110981524
233	0xbea80cf4	-0.32822382
234	0xbe916a37	-0.28401348
235	0xbe66f693	-0.22554998
236	0x3e839a00	0.2570343
237	0x3e27f33c	0.1640138
238	0x3eb95eb6	0.3620507
239	0x3eae0281	0.33986285
240	0xbd14a801	-0.036293034
241	0x3d9d5e02	0.07683946
242	0x3de9d1ab	0.11416944
243	0xbe80ceeb	-0.25157866
244	0xbdf65d82	-0.12029554
245	0xbebb140b	-0.3653873
246	0xbead5514	-0.33853972
247	0xbeb52b54	-0.3538462
248	0x3e061ec1	0.13097669
249	0xbf1bb054	-0.6081593
250	0xbf043066	-0.5163635
251	0xbe34b342	-0.17646506
252	0xbcb1b133	-0.02169094
253	0xbe4f5993	-0.20249014
254	0xbd73b7a2	-0.059501298
255	0xbe79b07f	-0.24383734

network_body._body_endoder.seq_layers.0.bias f4 [128]
0	0xbd05e7ad	-0.032691646
1	0xbb738d5b	-0.0037163112
2	0xbc175036	-0.009235432
3	0x3c60bd89	0.013717064
4	0xbca49cd6	-0.020094316
5	0xbcaa9fe5	-0.020828197
6	0xbc339d8d	-0.010962856
7	0x3c9e5ecd	0.019332314
8	0x3c5a4901	0.01332307
9	0xbb46857f	-0.0030291972
10	0xbb60d165	-0.0034304496
11	0xbca70fe7	-0.020393325
12	0xbbf8d242	-0.007593424
13	0xbb32fcd3	-0.002731134
14	0xbd7b8784	-0.061408535
15	0xbbc9025c	-0.0061343145
16	0xbc83413b	-0.016022315
17	0xbc33ab55	-0.010966142
18	0xbbab72c8	-0.005232189
19	0xbc17ecfa	-0.009272808
20	0xbbdbf78e	-0.0067128604
21	0xbccf5227	-0.025307728
22	0xbc8f669e	-0.017504986
23	0xbcd91145	-0.026497493
24	0xbd12607f	-0.035736557
25	0xbc172fd6	-0.009227714
26	0x3c6251ae	0.013813419
27	0xbc5b0452	-0.013367729
28	0xbc788a9f	-0.015169769
29	0x3a7e6001	0.0009703637
30	0xbc6f1f3d	-0.01459485
31	0x3c16869d	0.009187368
32	0xbcb1cf34	-0.021705247
33	0x3a3999c1	0.0007080101
34	0xbb85cd24	-0.0040832926
35	0x3c1362af	0.008995696
36	0xbc7991ae	-0.015232487
37	0xbd097159	-0.033555362
38	0xbd1c0b96	-0.038096987
39	0xbcf1a035	-0.029495338
40	0xbc4ab0a3	-0.012371215
41	0xbca8921b	-0.020577481
42	0xbd0a4546	-0.03375747
43	0xbca2a6b0	-0.019854873
44	0x3b29a209	0.0025883934
45	0xbbeca78e	-0.0072221225
46	0xba926a5f	-0.0011170617
47	0xbccac133	-0.024750328
48	0xb9a6267b	-0.00031690657
49	0xbca54b68	-0.020177558
50	0xbca6e264	-0.020371623
51	0x3b0fd6a5	0.0021948006
52	0xbb0e9739	-0.0021757616
53	0xbc9c5c6c	-0.019087039
54	0x3bfec966	0.0077754734
55	0xbcba69e0	-0.022755563
56	0xbc782138	-0.015144639
57	0x399710fe	0.00028813625
58	0xbc2281f6	-0.00991868
59	0xbc899c8d	-0.016798282
60	0xbcbd175e	-0.023082431
61	0xbb42befc	-0.0029715886
62	0xbc54e6f7	-0.012994519
63	0xbd196285	-0.03744747
64	0x3ca722d0	0.020402342
65	0x3b74055d	0.0037234642
66	0xbcd87d03	-0.026426798
67	0xbc66c9cf	-0.014086201
68	0xbbfc7dc8	-0.007705424
69	0x3b9a9330	0.004717253
70	0x3b0966ed	0.002096589
71	0x3c53bab0	0.012922928
72	0x3bdf7ff6	0.006820674
73	0xbcb3e017	-0.02195744
74	0xbc848e54	-0.016181149
75	0xbd0ac386	-0.033877872
76	0xbceacef7	-0.028663142
77	0x3b37e3cc	0.0028059362
78	0xbcba4d06	-0.022741806
79	0xbbe6bc7c	-0.007041512
80	0xbcd3794d	-0.025814677
81	0xba955724	-0.0011393768
82	0xbca294bc	-0.019846313
83	0x3c5a46ba	0.013322527
84	0xbaf3122b	-0.0018544843
85	0xbc1e6cfd	-0.0096695395
86	0x3caf1a5a	0.02137487
87	0xbcc9bb6c	-0.024625503
88	0xbc2e324b	-0.010632108
89	0xbc4ab823	-0.012373003
90	0xbc8c1f76	-0.017104845
91	0xbca856dd	-0.020549232
92	0xbc866360	-0.016404808
93	0xbc022283	-0.007942799
94	0xbcc80742	-0.024417523
95	0xbc5ee99f	-0.013605504
96	0xbc0e9056	-0.008701405
97	0xbcb7dc5f	-0.022443948
98	0x3c1d81ad	0.009613437
99	0xbd0eb500	-0.034840584
100	0xbcbba04d	-0.022903586
101	0xbae641c6	-0.001756721
102	0x3c2d3073	0.010570633
103	0xbb39ba1e	-0.0028339694
104	0xbc4446b1	-0.011979745
105	0xbcc10cb6	-0.023565631
106	0xbba13b1a	-0.0049203755
107	0xbaa73055	-0.0012755493
108	0xbbe89d78	-0.00709885
109	0xbd45f55f	-0.048329707
110	0xbc0968fd	-0.008386848
111	0x3c9a3945	0.018826136
112	0xbab7495a	-0.0013983652
113	0x3b914270	0.004432969
114	0x3ba30cdd	0.0049758987
115	0xbac15569	-0.0014750186
116	0xbcb98100	-0.02264452
117	0xbd1e4e35	-0.038648803
118	0xbc01aa22	-0.007914098
119	0xbccdef82	-0.02513862
120	0xbcacbb27	-0.021085335
121	0xbd1cd3cd	-0.038287926
122	0xbcefbc8a	-0.029264707
123	0x3b535765	0.0032248136
124	0x3c9b8690	0.018985063
125	0xbc7808e2	-0.015138837
126	0xbd19da52	-0.037561722
127	0xbb2d4eec	-0.0026444746

network_body._body_endoder.seq_layers.2.weight f4 [128, 128]
0	0x3d7504b7	0.05981895
1	0x3dcca517	0.09992426
2	0x3d4464ed	0.047947813
3	0x3caa52e0	0.020791471
4	0xbcdf990c	-0.027294658
5	0x3d8b556f	0.068034045
6	0xbdc2bf32	-0.09509124
7	0xbde83396	-0.11337964
8	0x3d87aa23	0.06624248
9	0x3e39cb40	0.1814394
10	0xbd04912a	-0.032365
11	0xbd7e65d1	-0.06210882
12	0xbb8ca81c	-0.004292501
13	0xbdc358fd	-0.095384575
14	0x3ca5c674	0.020236231
15	0x3e0d9241	0.13825323
16	0x3e1af448	0.15132248
17	0x3d142473	0.036167573
18	0xbd6026d7	-0.05472454
19	0x3df1ade9	0.11800749
20	0xbd77be56	-0.060484253
21	0x3dbd66e7	0.09248143
22	0xbdb3e9d5	-0.08784834
23	0xbd19d5e1	-0.037557486
24	0xbe0e1a5f	-0.13877247
25	0x3d5363f4	0.051608995
26	0xbd48c56d	-0.049016405
27	0x3e230407	0.15919505
28	0xbdbd1849	-0.09233148
29	0xbd90b11c	-0.07065031
30	0x3e17f671	0.14840104
31	0xbd9abd90	-0.075556874
32	0xbe3ee062	-0.18640283
33	0x3dccce46	0.10000281
34	0xbd56e435	-0.05246373
35	0x3e229290	0.15876222
36	0xbdafd3e8	-0.0858534
37	0xbd0d45cb	-0.034490388
38	0xbe04fce4	-0.12987095
39	0xbe2fc8e0	-0.17166471
40	0xbdb12974	-0.08650485
41	0x3d836c7c	0.06417176
42	0x3db0703e	0.086151585
43	0x3e53e995	0.20694573
44	0x3d74f253	0.05980141
45	0xbd311936	-0.043236934
46	0xbda74af9	-0.08168597
47	0xbe10a356	-0.14124808
48	0x3d8fb234	0.070164114
49	0x3d9086d6	0.07056968
50	0xbcf163e4	-0.029466577
51	0xbc9dfe13	-0.019286191
52	0xbd26561e	-0.04060947
53	0xbd1c3538	-0.03813669
54	0x3da79297	0.08182257
55	0xbd1bf2df	-0.038073417
56	0x3e1032ed	0.14081927
57	0x3b94f735	0.004546071
58	0xbdb3c9e1	-0.0877874
59	0x3e1f805e	0.15576312
60	0x3e980d42	0.29697615
61	0x3cbe30c6	0.023216616
62	0x3d2dc2bd	0.042422045
63	0xbd7ce49e	-0.061741464
64	0xbcc92316	-0.024552863
65	0xbdf96d84	-0.121790916
66	0x3d9716e9	0.07377417
67	0x3d2b34c0	0.041798353
68	0x3e0d9a58	0.13828409
69	0xbde9998b	-0.11406239
70	0x3e2a1390	0.16609025
71	0xbd3ef9ba	-0.046624877
72	0xbd6e26b4	-0.05814238
73	0x3e440a9b	0.1914467
74	0x3ce842bf	0.02835214
75	0xbe8391fd	-0.25697318
76	0xbddefe0b	-0.108882986
77	0xbe15b596	-0.14620051
78	0xbc58a5bf	-0.013223111
79	0xbe555d06	-0.20836267
80	0x3cd07826	0.025447916
81	0x3e064352	0.13111618
82	0x3c4cb543	0.012494388
83	0xbe18dcd6	-0.14927992
84	0x3db3ccdf	0.087793104
85	0x3d91c5ba	0.071177915
86	0x3d412232	0.04715175
87	0x3e39606b	0.18103187
88	0x3dec5c8e	0.11541091
89	0xbd50891b	-0.050912004
90	0x3bf362a1	0.007427529
91	0x3d97557d	0.073893525
92	0x3cf2e8ee	0.029652085
93	0x3bff7ae4	0.007796632
94	0xbd0eba47	-0.034845617
95	0x3d192e9c	0.037397966
96	0x3b08aaf8	0.0020853858
97	0x3bfa2f71	0.00763505
98	0xbd72e8a0	-0.05930388
99	0xbdb83213	-0.08993926
100	0xbe4b6c75	-0.19865592
101	0xbba03fd4	-0.0048904214
102	0x3dcc0762	0.09962346
103	0x3d1ac339	0.037783835
104	0x3d5bf8c4	0.05370404
105	0x3d8d335b	0.06894561
106	0xbdeaacf4	-0.114587694
107	0xbceea46c	-0.029131137
108	0x3d5e928c	0.054338977
109	0xbdd49800	-0.10380554
110	0x3da0b1a5	0.07846383
111	0x3d259d6b	0.04043333
112	0x3db18ac7	0.08669048
113	0xbdc395aa	-0.095500305
114	0x3bddba18	0.006766569
115	0xbd11f52e	-0.035634212
116	0xbcdcaed7	-0.026938839
117	0xbd90ad66	-0.07064323
118	0xbd9a8482	-0.07544805
119	0xbe05d759	-0.1307043
120	0x3da2db04	0.0795193
121	0x3dd2dc27	0.10295897
122	0x3e1af358	0.15131891
123	0xbc5654aa	-0.013081709
124	0xbe53929c	-0.20661396
125	0xbd8ffaa8	-0.07030231
126	0xbd7752ea	-0.060381807
127	0x3ce96d76	0.028494578
128	0x3dc69b0c	0.096975416
129	0xbb14a5b6	-0.002268178
130	0x3e304f2a	0.17217699
131	0xbc6020c2	-0.013679685
132	0xbc16a873	-0.009195435
133	0xbd99902f	-0.07498204
134	0x3d52add8	0.05143532
135	0xbdbf06d1	-0.09327472
136	0xbdb86df7	-0.09005349
137	0xbdc2e4e8	-0.09516317
138	0xbe270b88	-0.16312993
139	0x3d1a1a1d	0.03762256
140	0x3d44d960	0.048058867
141	0x3cb70159	0.02233951
142	0x3cb78e58	0.022406742
143	0x3c80b46f	0.015711037
144	0xbd2798b4	-0.040917113
145	0x3d8c4a92	0.06850161
146	0xbd32e82d	-0.04367845
147	0xbd843ecd	-0.06457291
148	0xbde71eb2	-0.112851515
149	0xbb8c55d1	-0.004282691
150	0x3d880f63	0.0664356
151	0xbdab4c22	-0.083641306
152	0xbe066235	-0.131234
153	0x3d5744a6	0.052555703
154	0xbda2fbab	-0.07958158
155	0xbd994a46	-0.0748487
156	0x3cdb0172	0.026734088
157	0xbd4d2a31	-0.050089065
158	0xbd328341	-0.043582205
159	0xbd8b80e1	-0.06811691
160	0xbd880087	-0.066407256
161	0x3c03a8a7	0.008035815
162	0x3d63bfcb	0.05560283
163	0xbbd14aae	-0.0063870763
164	0x3de04a9f	0.10951733
165	0xbd4a15ef	-0.049337324
166	0x3d2d8025	0.042358536
167	0x3dd19dc6	0.10235171
168	0x3cb24119	0.021759557
169	0x3d88f3e6	0.06687145
170	0xbdd90b1e	-0.105978236
171	0xbe10bcd5	-0.14134534
172	0xbd7bea9d	-0.06150304
173	0xba19a36c	-0.00058608386
174	0xbbd5e26c	-0.0065272357
175	0xbdbbdec1	-0.09173346
176	0x39a546d4	0.00031524024
177	0x3e02e94c	0.12784308
178	0x3d8dc0a9	0.06921513
179	0x3d9f1e38	0.07769436
180	0x3d2ee332	0.04269714
181	0x3d9a6b51	0.0754
182	0x3dbc51a7	0.091952614
183	0xbe69913b	-0.22809307
184	0xbd28ae4e	-0.041181855
185	0xbd7ca333	-0.061679076
186	0xbcc728ef	-0.02431151
187	0x3dd6c8e7	0.10487538
188	0x3d6a1864	0.057152167
189	0xbdcffde7	-0.1015585
190	0x3e0f1a57	0.13974892
191	0x3d2a09b1	0.04151315
192	0xbd0cf879	-0.03441665
193	0x3d0463c9	0.032321725
194	0xbdedd3e7	-0.11612683
195	0x3c8975d4	0.016779818
196	0x3d5b521b	0.0535451
197	0xbe0b526e	-0.13605663
198	0x3c785553	0.015157062
199	0x3d9ea33e	0.0774598
200	0xbbaf97ee	-0.0053586876
201	0x3bd36217	0.006450902
202	0xbc3c0453	-0.01147564
203	0xbca0ca2f	-0.019627659
204	0x3dc58d18	0.09646052
205	0x3d3362f7	0.043795552
206	0xbc12b731	-0.008954809
207	0x3c3adf95	0.011405845
208	0xbaa2df43	-0.0012426156
209	0xbd62311e	-0.055222623
210	0x3cfb92ed	0.030709708
211	0x3e2cedd1	0.16887595
212	0x3e29cb82	0.16581538
213	0xb8f3c61f	-0.00011624046
214	0x3cb561f1	0.022141429
215	0x3d121da5	0.035672802
216	0x3e16becf	0.14721225
217	0x3e0e3ce5	0.13890417
218	0xbc35a347	-0.011086292
219	0xbce505b8	-0.027956828
220	0xbded1813	-0.115768574
221	0x3dd2478e	0.10267554
222	0x3dcc0a6a	0.09962924
223	0x3c7e9746	0.015538996
224	0xbdbb1e85	-0.091366805
225	0x3ddfbc05	0.10924534
226	0x3e4a88e7	0.19778787
227	0xbd49c902	-0.04926396
228	0x3d5931bd	0.05302595
229	0xbbbb3975	-0.0057136365
230	0xbdd769a8	-0.10518199
231	0x3ca53743	0.020167952
232	0x3d6cd1a9	0.057817135
233	0xbd995e75	-0.074887194
234	0xbdbf6557	-0.09345501
235	0xbd9c4801	-0.07630921
236	0x3c142100	0.009041071
237	0xbdedc3b8	-0.11609596
238	0xbc22fa49	-0.009947368
239	0xbe3fc19e	-0.18726203
240	0xbca68493	-0.020326888
241	0xbbd799d1	-0.0065796156
242	0xbd05f1ca	-0.03270129
243	0xbcbed7e9	-0.023296313
244	0xbe234b6e	-0.15946743
245	0xbce1f7cd	-0.027583981
246	0x3cd2bc9b	0.0257247
247	0x3d69005b	0.056885105
248	0x3b365865	0.0027823683
249	0xbc7ebc35	-0.015547802
250	0x3d31044e	0.043216996
251	0x3d69d6c2	0.057089575
252	0xbd4cc090	-0.04998833
253	0x3e246c5c	0.16056961
254	0xbca12cfb	-0.019674769
255	0x3d2fa4a4	0.042881623

network_body._body_endoder.seq_layers.2.bias f4 [128]
0	0x3b475fa2	0.0030421992
1	0xbb4c8f13	-0.0031213209
2	0x39ff3051	0.0004867339
3	0xbcc2609c	-0.023727708
4	0xbcada989	-0.021199005
5	0xbca6e0ea	-0.02037092
6	0xbc0c2950	-0.008554772
7	0x3bd3189e	0.0064421436
8	0x3c78764d	0.015164924
9	0xbcd4d085	-0.025978336
10	0xbbca0924	-0.0061656404
11	0xbc10c1d3	-0.008835274
12	0xbc992614	-0.018694915
13	0xbc72e590	-0.01482524
14	0xbca8f5d3	-0.02062503
15	0xbd23321d	-0.039842714
16	0xbc326b5c	-0.010889854
17	0x3bf60a44	0.007508548
18	0xbc3f6cef	-0.011683687
19	0xbc9bf694	-0.019038476
20	0xbbfa2f2d	-0.0076350183
21	0xbcadcf86	-0.021217119
22	0x3cae200c	0.021255516
23	0x3c6447ef	0.013933166
24	0xba10f098	-0.00055290153
25	0xbcc82f27	-0.024436546
26	0xbba38483	-0.004990162
27	0x39903f45	0.0002751296
28	0x3b354b9e	0.002766348
29	0xbcdabf4e	-0.02670255
30	0xbca4402b	-0.020050129
31	0x3a85b8e5	0.0010202198
32	0xbc8ab867	-0.016933633
33	0xbba9e1c4	-0.005184384
34	0xbbbe972e	-0.005816362
35	0x3b876050	0.0041313544
36	0xbd205460	-0.039142966
37	0xbc9df3bf	-0.019281266
38	0xbc9c40cb	-0.019073864
39	0xbc86d114	-0.016457118
40	0xbceed6e8	-0.02915521
41	0x3b14122b	0.0022593837
42	0x3b32999b	0.00272522
43	0xbc39dae2	-0.01134369
44	0xbb94966d	-0.0045345337
45	0x3c9a071b	0.018802216
46	0xbb740298	-0.0037232991
47	0x397a6a82	0.00023881535
48	0xbce61ac4	-0.028088935
49	0x3b12ddb1	0.002240997
50	0xbad2917c	-0.0016065086
51	0x3bcb43ee	0.006203166
52	0xbc717f33	-0.014739799
53	0xbce06c3c	-0.02739536
54	0x3cd866a4	0.02641613
55	0xbcc43b57	-0.023954077
56	0xbcd8e01f	-0.026474057
57	0xbc4f722b	-0.012661497
58	0xbc30e6ce	-0.010797216
59	0xbb82a1ee	-0.0039865887
60	0xbc3ecd80	-0.011645675
61	0xbcb00d45	-0.021490702
62	0x3b74b46f	0.0037338992
63	0xbc3a35ee	-0.011365397
64	0xbc8977f8	-0.016780838
65	0xbc7821a7	-0.015144742
66	0xbd01f4d9	-0.031727646
67	0x3a8cec7c	0.001075163
68	0xbcb50986	-0.022099268
69	0x3bb82b92	0.0056204284
70	0xbce9db25	-0.028546879
71	0xbc2ef057	-0.010677419
72	0xbca3f69f	-0.020015059
73	0xbcc47259	-0.023980306
74	0xbc960b25	-0.018315861
75	0x3ad78fcb	0.0016446052
76	0x3c3b4f62	0.011432501
77	0xbce655db	-0.028117111
78	0xbcd936a3	-0.02651531
79	0xbcc84e10	-0.024451286
80	0x3b374f60	0.0027970895
81	0xbc19e570	-0.009393081
82	0xbcabf175	-0.02098916
83	0xbb9e2105	-0.0048257136
84	0xbc5b30a6	-0.013378298
85	0x3c9d1f01	0.019179823
86	0x3a9cc1b7	0.0011959587
87	0x3c31e7d6	0.010858497
88	0x3bee7c05	0.007277968
89	0xbcd517a0	-0.026012242
90	0xbcdf082d	-0.027225578
91	0xbaf6687f	-0.0018799453
92	0xbcadd98a	-0.021221895
93	0xbb3620e1	-0.0027790593
94	0x3c2985b4	0.010346819
95	0xbb227edf	-0.002479486
96	0xbc668e1d	-0.014071968
97	0x3ba2c38d	0.004967159
98	0x3aa6a4f4	0.0012713955
99	0x3c4cdec1	0.012504281
100	0xbc30d27e	-0.010792373
101	0x3c369f3b	0.011146362
102	0x3b8f2825	0.0043687993
103	0xbb5a7a19	-0.0033336936
104	0xba1ff434	-0.0006101758
105	0xbce6405e	-0.028106865
106	0xbc88008c	-0.016601823
107	0x3c4745bd	0.012162623
108	0xbb93079a	-0.00448699
109	0xbd36c8d9	-0.044625137
110	0xbc67dcb2	-0.014151739
111	0xbb48ad04	-0.0030620703
112	0xbc89f924	-0.016842432
113	0xbcd1d86b	-0.025615891
114	0xbc9d47cb	-0.019199273
115	0x3b8d9fb1	0.004322015
116	0xbcfd8e6a	-0.030951697
117	0xbc1c17d1	-0.009527163
118	0x3ca06031	0.019577118
119	0xbcddd3df	-0.027078567
120	0xbc128d72	-0.008944856
121	0xbc9de123	-0.019272393
122	0xbcd9f70a	-0.026607055
123	0xbc13b2ce	-0.009014798
124	0xbc0ebb9c	-0.008711722
125	0x3c07ff27	0.008300579
126	0xbc3c6cf1	-0.011500583
127	0xbc414234	-0.011795569

action_model._continuous_distribution.log_sigma f4 [1, 2]
0	0x3ca8d921	0.020611348
1	0x3c187db6	0.009307316

action_model._continuous_distribution.mu.weight f4 [2, 128]
0	0xbb24ab02	-0.0025126343
1	0xbb35403e	-0.00276567
2	0xbc1ea300	-0.009682417
3	0xbb8ca0c5	-0.004291626
4	0x3cd7b754	0.026332535
5	0x3c865cae	0.016401615
6	0x3ce08aec	0.027409993
7	0xbc265c9c	-0.010153916
8	0xb9c17c43	-0.0003690441
9	0x3b88decd	0.0041769505
10	0x3c52e329	0.012871542
11	0x3c892c92	0.016744886
12	0xbb83c4dc	-0.00402127
13	0x3b837bae	0.0040125465
14	0x3ba53e0f	0.0050427984
15	0x3d2dc49c	0.04242383
16	0x3af25afe	0.0018490253
17	0xbc2a1c78	-0.010382764
18	0x3ac9fb29	0.0015409935
19	0x3c328190	0.010895148
20	0xbba28b43	-0.004960449
21	0x3d04ad3b	0.032391768
22	0xbce7177d	-0.028209442
23	0xba7ae172	-0.0009570337
24	0xbc695efc	-0.014243837
25	0x3b9b7799	0.0047444818
26	0x3a12d498	0.0005601137
27	0xbc4f4afe	-0.012652157
28	0xbc9aa732	-0.018878553
29	0x3c15f6d2	0.009153085
30	0x3c30bb4e	0.010786844
31	0xbc070832	-0.0082417
32	0x3c36d150	0.011158302
33	0xbc8e204f	-0.01734939
34	0x3c67703e	0.014125882
35	0xbca31ae6	-0.019910287
36	0x3ca00976	0.019535761
37	0x3d2e3237	0.042528357
38	0x3d14ac8f	0.036297377
39	0x3a16ab49	0.00057475694
40	0x3c067e50	0.008208826
41	0xbc619048	-0.0137673095
42	0xbbe5b58f	-0.007010169
43	0x3c968376	0.018373232
44	0xbd377b3f	-0.04479527
45	0xbbb87317	-0.005628954
46	0x3bca2814	0.0061693285
47	0x3afc3eeb	0.0019244825
48	0x3ce124ba	0.027483333
49	0xbc1ee5e8	-0.009698369
50	0xbbfa0dcb	-0.007631039
51	0x3b949b4b	0.004535114
52	0xbb3b68ac	-0.0028596325
53	0x3cb36797	0.021899981
54	0xbce31c44	-0.027723439
55	0x3c0a8a5a	0.008455837
56	0x3c1d4a76	0.009600272
57	0x3bd697eb	0.0065488718
58	0x3b484bd3	0.0030562773
59	0x3b70c5f3	0.003673908
60	0xbb62a141	-0.0034580978
61	0x3bdc1dfa	0.0067174407
62	0xbc7d3c08	-0.015456207
63	0x3c9377af	0.018001406
64	0x3bafd381	0.0053657894
65	0x3b4ad181	0.0030947628
66	0x3c33d265	0.010975455
67	0xba04b02a	-0.0005061651
68	0x3c9b1f13	0.018935716
69	0xbcbccff5	-0.02304838
70	0x3cdfc261	0.027314367
71	0x3a2488a6	0.0006276466
72	0x39fec136	0.0004859061
73	0x3c324e41	0.010882915
74	0xbb0be91d	-0.0021348663
75	0xbc5dfff1	-0.013549791
76	0xbcb9e860	-0.022693813
77	0x3cb6d648	0.022318974
78	0x3c822a2d	0.015889252
79	0x3ca5b3ea	0.020227391
80	0xbcaabb60	-0.0208413
81	0x3b232e1e	0.0024899314
82	0x3cf33af7	0.029691203
83	0x3ceecf10	0.02915147
84	0xb9db3b26	-0.00041815004
85	0xbd23b151	-0.039964024
86	0xbccc925f	-0.024972139
87	0xbc56f8b2	-0.013120817
88	0xbc56fce9	-0.013121822
89	0x3c85ffb4	0.01635728
90	0xb9f755a6	-0.00047175324
91	0x380b6f55	3.324387e-05
92	0x3b481c80	0.0030534565
93	0xbc0ef354	-0.008725006
94	0xbc2300e6	-0.009948945
95	0x3c1a4c76	0.009417644
96	0xba86ebfa	-0.0010293715
97	0xbb9279cb	-0.0044700853
98	0xbc15d80b	-0.009145747
99	0xbcc3e511	-0.023912938
100	0x3bd61816	0.006533633
101	0xbc0e7f79	-0.008697384
102	0x3beca277	0.0072215158
103	0x3bd7937e	0.0065788617
104	0xb85da3a6	-5.2842915e-05
105	0x3c8e77d3	0.017391121
106	0xbbc6a4f5	-0.006062145
107	0xbc241221	-0.010014088
108	0xbc1f83af	-0.009735986
109	0xba4c49f4	-0.00077930023
110	0xba6954f1	-0.0008900902
111	0xbc83d756	-0.016093891
112	0x3d07d70e	0.033164077
113	0x3c187613	0.009305495
114	0xbb548e6d	-0.0032433525
115	0xbc602e2e	-0.013682885
116	0x3cbf85b4	0.023379184
117	0xbbd050e1	-0.0063572978
118	0xbb8f8511	-0.0043798764
119	0xba1918ca	-0.00058401807
120	0x3cc6add2	0.024252806
121	0x3bdb5086	0.0066929488
122	0x3aa203d8	0.0012360765
123	0xbbc81032	-0.0061054463
124	0x3c20fbf0	0.009825692
125	0xbc8019f9	-0.015637385
126	0xbafdbc2e	-0.001935845
127	0x3be72ec3	0.007055135
128	0x3d018be8	0.031627566
129	0x3bef767c	0.0073078256
130	0xba871b53	-0.0010307826
131	0xbba614bf	-0.005068391
132	0xb92e7c57	-0.00016640253
133	0xbc56fd72	-0.0131219495
134	0x3cb1f314	0.021722354
135	0x3cd8e0a0	0.026474297
136	0x3b9c635d	0.004772587
137	0xbbcf6ece	-0.0063303476
138	0xbbe4f91c	-0.006987704
139	0x3ca94ecf	0.020667462
140	0x3b5bb72f	0.0033525934
141	0xbc23faab	-0.010008494
142	0xbcf2274b	-0.029559752
143	0xbccef2da	-0.025262285
144	0x3a34db4a	0.00068991317
145	0xbc0b0e8d	-0.008487356
146	0x3c011c12	0.007880228
147	0x3bfcf889	0.0077200574
148	0x3b38ef12	0.002821867
149	0xbc9099ea	-0.017651517
150	0x3cceebb5	0.025258878
151	0x3d0edf0a	0.034880675
152	0x3971f8b7	0.00023076205
153	0x3afae4de	0.0019141694
154	0xbb3c2864	-0.0028710598
155	0xb9dc8a35	-0.00042064642
156	0xbb9d4326	-0.0047992645
157	0xbc52ebde	-0.012873618
158	0xbc44f7d9	-0.012021982
159	0x3c055445	0.008137767
160	0x3bdac946	0.0066768257
161	0x38a9cfd1	8.097257e-05
162	0x3cfd4d94	0.030920781
163	0xbc374e1f	-0.011188059
164	0xbc80fb94	-0.015744962
165	0xba60b8ee	-0.00085724785
166	0x3b8337d0	0.004004456
167	0xbb300ed7	-0.0026864314
168	0xbc59df98	-0.013297938
169	0xbbcf55fa	-0.006327388
170	0x3c026606	0.007958895
171	0x3cbbf014	0.022941627
172	0xbcfca0dd	-0.030838424
173	0x3beca0fc	0.0072213393
174	0xbb805f5e	-0.0039176187
175	0x3bc52b9c	0.0060171615
176	0x3c0500ff	0.008117913
177	0x3c239da3	0.009986314
178	0x3b13759b	0.0022500518
179	0x3afb1dfb	0.0019158715
180	0x3bb80320	0.005615607
181	0xbc723cbc	-0.014784988
182	0x3c6126c4	0.013742153
183	0x3bba4bb6	0.005685295
184	0xbc0b0c9c	-0.008486893
185	0x391add94	0.00014769129
186	0x3b823ada	0.003974301
187	0x3b9c4948	0.004769478
188	0xbd05dc3d	-0.03268074
189	0x3a8b9ed6	0.0010652195
190	0x3bf09cdb	0.0073429174
191	0x3cb2eaa3	0.0218404
192	0x3b10f9b9	0.0022121503
193	0x3c8bc99b	0.017063906
194	0xba8b5fe1	-0.0010633433
195	0xbb2a431a	-0.0025979937
196	0xbcc372f4	-0.023858525
197	0xbb58b75c	-0.0033068275
198	0x39d70e8a	0.00041018828
199	0x3bf11cc0	0.0073581636
200	0xbc5907f1	-0.013246522
201	0x3ab98b37	0.0014155869
202	0xbc06ede3	-0.008235428
203	0xbb7b077d	-0.0038304024
204	0x3c2f1f5e	0.010688631
205	0xbaf9483d	-0.0019018721
206	0xbb8e1f14	-0.004337201
207	0xbc1c82c8	-0.009552665
208	0xbbab2710	-0.0052231625
209	0xbba720fe	-0.0051003685
210	0x3afb4d4d	0.0019172818
211	0x3c9e4804	0.01932145
212	0x3bb04203	0.005378963
213	0x3c94b109	0.018150823
214	0xbc6018af	-0.01367776
215	0x3bb6b7b7	0.0055760997
216	0x3c2cbff0	0.010543808
217	0xbc184381	-0.009293438
218	0xbadddf1c	-0.0016927454
219	0xbc06e018	-0.008232139
220	0xbc8b0911	-0.016972097
221	0x3b68167a	0.0035413788
222	0x3cd53223	0.026024884
223	0x3c8d599f	0.017254649
224	0xbb95b5da	-0.0045687975
225	0x3caa66c7	0.020800961
226	0xbaa93d06	-0.0012911863
227	0x3c80d486	0.01572634
228	0xb6dffbca	-6.67523e-06
229	0x3c1703a6	0.009217178
230	0xbb8075ce	-0.0039202934
231	0xbc4c8762	-0.01248345
232	0x3ba95da3	0.005168633
233	0xbc8f6ffd	-0.017509455
234	0xbcb1b2e4	-0.021691747
235	0x3c0b5cac	0.008505981
236	0xbadc21a7	-0.0016794697
237	0xbb958daf	-0.004564009
238	0xba8c5c0e	-0.0010708587
239	0x3a208f8b	0.0006124905
240	0x3c31e6d5	0.010858257
241	0x3c3bb828	0.0114574805
242	0x3b004f38	0.0019578468
243	0x3c1a747e	0.009427188
244	0xbc1cd5cc	-0.0095724575
245	0xbba9870e	-0.0051735705
246	0x3b95e923	0.004574911
247	0x3a64701e	0.00087142165
248	0x3cdfe580	0.027331114
249	0x3bfb27ad	0.007664642
250	0xbc067e03	-0.0082087545
251	0xbbeb0926	-0.0071727214
252	0x3c3ae639	0.011407428
253	0xba843abd	-0.0010088306
254	0x3ab341bd	0.0013676208
255	0x3c0a5408	0.008442886

action_model._continuous_distribution.mu.bias f4 [2]
0	0xbc8ac0a5	-0.016937563
1	0x3c37b030	0.01121144

exp_avg f4 [128, 8]
0	0xb8e779e2	-0.00011037641
1	0xb7eb7f2e	-2.8073406e-05
2	0xb8567c13	-5.113713e-05
3	0xb5846209	-9.863298e-07
4	0x34be85f3	3.548772e-07
5	0x317c901e	3.6752748e-09
6	0xb7b30ad5	-2.1343507e-05
7	0x3842ef53	4.6476092e-05
8	0xb8d07df4	-9.9416735e-05
9	0x3969d52c	0.00022300024
10	0xb88ecb68	-6.808975e-05
11	0xb50577d9	-4.972076e-07
12	0x3440c7bc	1.7954056e-07
13	0x30824157	9.477316e-10
14	0x37b65615	2.1736176e-05
15	0xb86fb92e	-5.7154502e-05
16	0x38ca8ad5	9.65797e-05
17	0xb7d29eec	-2.5107955e-05
18	0x390d3f18	0.00013470312
19	0x35def4c0	1.661152e-06
20	0xb5206f1c	-5.976633e-07
21	0xb16c44b3	-3.438157e-09
22	0x394812c6	0.0001908048
23	0xb7e88b01	-2.7721284e-05
24	0x3833f00a	4.290048e-05
25	0xb817678d	-3.6097645e-05
26	0x38a944f2	8.07139e-05
27	0x3575c45c	9.155535e-07
28	0xb4b0c1aa	-3.2923464e-07
29	0xb12301f4	-2.3720732e-09
30	0x38d1094c	9.967628e-05
31	0xb86edbbb	-5.694826e-05
32	0xb708390f	-8.119517e-06
33	0xb5b4c2ce	-1.3467741e-06
34	0xb82d0de7	-4.125936e-05
35	0x3464459d	2.125948e-07
36	0xb3a4372d	-7.6468815e-08
37	0xb020837c	-5.839451e-10
38	0x3785768d	1.591004e-05
39	0x37b70603	2.18181e-05
40	0x3901993d	0.00012359484
41	0xb90e8504	-0.00013591727
42	0x3868bbb9	5.548794e-05
43	0xb5cbc098	-1.5180731e-06
44	0x351274c4	5.4559155e-07
45	0x3045c5a0	7.1949025e-10
46	0x3981c0d3	0.00024748463
47	0x3680d882	3.839902e-06
48	0xb93caa90	-0.00017992617
49	0x3990405d	0.00027513775
50	0xb86deea4	-5.6727455e-05
51	0x366f3bd5	3.5648602e-06
52	0xb5ac0e41	-1.2819147e-06
53	0xb164ca4a	-3.3293355e-09
54	0xb9c941c0	-0.00038386695
55	0xb8dcf53c	-0.00010536096
56	0x37b27b8c	2.1276785e-05
57	0xb88af1b7	-6.625376e-05
58	0x37efbd23	2.8579094e-05
59	0x34d765f4	4.012105e-07
60	0xb41b1119	-1.444172e-07
61	0xb01bb0e1	-5.664003e-10
62	0x38df6f6d	0.00010654223
63	0xb761b7fc	-1.3453882e-05
64	0xb90a2a20	-0.00013176398
65	0x38b9e854	8.864762e-05
66	0x37ca88d7	2.4143998e-05
67	0x364703ea	2.965559e-06
68	0xb58f15c5	-1.0660666e-06
69	0xb18fc613	-4.184366e-09
70	0xb815d188	-3.571951e-05
71	0xb840d351	-4.597317e-05
72	0xb9150ad1	-0.00014213777
73	0x392b491e	0.00016335069
74	0xb79ec9bc	-1.8929008e-05
75	0x36099eee	2.05071e-06
76	0xb545c465	-7.367401e-07
77	0xb1224a46	-2.3616322e-09
78	0xb8628c55	-5.4013293e-05
79	0x370eaf93	8.504739e-06
80	0x398fb780	0.00027411804
81	0xba1838a6	-0.0005806781
82	0x395a7a51	0.00020835667
83	0xb6622b5b	-3.370186e-06
84	0x35a2a6a5	1.211844e-06
85	0x32112fbd	8.450965e-09
86	0x3a6ac4fa	0.00089557434
87	0x39462605	0.00018896915
88	0x39922825	0.000278772
89	0xb9928a77	-0.00027950454
90	0x38c8f015	9.581462e-05
91	0xb654aee0	-3.1692252e-06
92	0x3598e75e	1.1392219e-06
93	0x2f8f1be1	2.6031358e-10
94	0x3a3200db	0.00067902886
95	0xb72a20a3	-1.0140388e-05
96	0xb6b1ed83	-5.302661e-06
97	0xb734f25e	-1.0785267e-05
98	0xb6890c93	-4.084382e-06
99	0x3507a269	5.0527757e-07
100	0xb4430880	-1.8163882e-07
101	0xb0a6f224	-1.214691e-09
102	0xb84b255d	-4.843377e-05
103	0x380a0658	3.2907672e-05
104	0xb736ebb7	-1.0902927e-05
105	0x387ba512	5.9996797e-05
106	0xb7b2298c	-2.12386e-05
107	0x34ff078c	4.7502942e-07
108	0xb4379732	-1.7098208e-07
109	0xb0582113	-7.8627344e-10
110	0xb8984ed4	-7.262608e-05
111	0xb873dc1f	-5.814072e-05
112	0x34dec808	4.1496264e-07
113	0x363e450f	2.8352404e-06
114	0xb667899d	-3.4501784e-06
115	0x354bea90	7.5964726e-07
116	0xb492917e	-2.730048e-07
117	0xb0672f24	-8.41043e-10
118	0x38aee4fa	8.339617e-05
119	0x3804d4cc	3.1669435e-05
120	0xb6ce954f	-6.15666e-06
121	0x376d854f	1.4157339e-05
122	0x36bb6337	5.5845844e-06
123	0xb3ae32b8	-8.111732e-08
124	0x32fbe56a	2.9324571e-08
125	0x2fe3485a	4.1342468e-10
126	0x37ba51f4	2.221109e-05
127	0xb75fa984	-1.3331304e-05
128	0x37c0cddc	2.2984044e-05
129	0x35fd4a44	1.8871583e-06
130	0x37e58120	2.7359056e-05
131	0xb1694637	-3.3945875e-09
132	0x30a36cb5	1.1890707e-09
133	0xb019d945	-5.5969834e-10
134	0x388318fb	6.25122e-05
135	0xb77d3119	-1.5091407e-05
136	0xb94bea4d	-0.00019446872
137	0x391bfad6	0.00014875396
138	0xb9adac8f	-0.00033125698
139	0xb61601fa	-2.2352892e-06
140	0x35579654	8.03125e-07
141	0x3174e4a3	3.5636638e-09
142	0x3931cc78	0.00016956206
143	0xb9650f25	-0.00021844784
144	0xb84996ad	-4.8062462e-05
145	0x37ec87fa	2.8196711e-05
146	0x3788c92c	1.6306141e-05
147	0x34e64b0e	4.2895448e-07
148	0xb4258e5b	-1.5418611e-07
149	0xaf95ef85	-2.727313e-10
150	0xb7af0b50	-2.0866893e-05
151	0xb82cb5b1	-4.117721e-05
152	0x36fc129d	7.512352e-06
153	0xb7ba5674	-2.2213186e-05
154	0x382ad408	4.0728628e-05
155	0x356496c5	8.515602e-07
156	0xb4a462c6	-3.0619248e-07
157	0xb1206fe1	-2.334666e-09
158	0xb8456397	-4.706121e-05
159	0x376a0f24	1.3951012e-05
160	0xb8b406e9	-8.584356e-05
161	0x39813d51	0.00024650482
162	0x383c4090	4.488282e-05
163	0x363054cb	2.62754e-06
164	0xb57dacfe	-9.450158e-07
165	0xb113fc35	-2.1534678e-09
166	0xb99b0a67	-0.00029571654
167	0xb86ef94d	-5.69758e-05
168	0xb78ff419	-1.7160595e-05
169	0x373bb361	1.11878335e-05
170	0xb8ccff0c	-9.774984e-05
171	0xb42e6535	-1.6241832e-07
172	0x337b070b	5.8446897e-08
173	0x2ea37fa0	7.4350526e-11
174	0xb899cb79	-7.333508e-05
175	0x3803f1aa	3.14579e-05
176	0x36330c3b	2.6680198e-06
177	0xb689ff20	-4.1126186e-06
178	0xb90306bf	-0.00012495647
179	0x33721090	5.636008e-08
180	0xb2ae6584	-2.030243e-08
181	0xb11a41fb	-2.2447455e-09
182	0xb75bdf1d	-1.3105365e-05
183	0x38130ab7	3.505751e-05
184	0xb6684e31	-3.4616207e-06
185	0xb8b8846d	-8.79847e-05
186	0x39093528	0.0001308514
187	0x36018a3d	1.9302963e-06
188	0xb53a4b64	-6.940011e-07
189	0xb0938299	-1.0732776e-09
190	0xb974eca7	-0.00023357813
191	0x392cf5f0	0.00016494817
192	0x3870f545	5.7448884e-05
193	0xb9306d38	-0.00016825355
194	0xb7ce948a	-2.4626283e-05
195	0xb5fdbd26	-1.8905018e-06
196	0x3536709c	6.796415e-07
197	0x31418c0f	2.816481e-09
198	0x3882e175	6.240878e-05
199	0x38aefea1	8.344395e-05
200	0xb89e6a42	-7.553819e-05
201	0xb79a6b6d	-1.8408255e-05
202	0x38e37947	0.00010846793
203	0x362b3d47	2.5516654e-06
204	0xb57644ce	-9.1742265e-07
205	0xb10a1dec	-2.0098652e-09
206	0xb9e8d49c	-0.00044408895
207	0x38993535	7.305519e-05
208	0xb732c6c6	-1.0655907e-05
209	0x36f457b4	7.2819767e-06
210	0xb5b60b38	-1.3563322e-06
211	0x350c44bf	5.2254103e-07
212	0xb449a3a0	-1.877911e-07
213	0x2f4d04e3	1.8646377e-10
214	0xb7fc067f	-3.0043766e-05
215	0x37931a32	1.7535964e-05
216	0x38726df0	5.7799683e-05
217	0xb851be85	-5.0006918e-05
218	0x37bcc5da	2.2503478e-05
219	0xb3f405c7	-1.1363186e-07
220	0x332fa5f3	4.0896293e-08
221	0xafcde9ce	-3.745541e-10
222	0x393d440c	0.00018049794
223	0x35190bea	5.701428e-07
224	0x375c6197	1.3135744e-05
225	0xb82304cf	-3.8866707e-05
226	0x381c96eb	3.733385e-05
227	0x36034383	1.9559818e-06
228	0xb53cd52a	-7.034565e-07
229	0xb136d5d8	-2.6606042e-09
230	0xb8986cee	-7.2682145e-05
231	0x386303ba	5.4124488e-05
232	0xb852db75	-5.0272287e-05
233	0x33265d97	3.8735006e-08
234	0xb8bb2ec4	-8.9255656e-05
235	0xb5fd0cc8	-1.8853689e-06
236	0x3535fae7	6.7792865e-07
237	0x3150e689	3.0399028e-09
238	0x38aa2dc7	8.1147584e-05
239	0x37fc3e69	3.0069803e-05
240	0xb73c4b83	-1.1223255e-05
241	0x3884d492	6.333845e-05
242	0x383f80f7	4.5658056e-05
243	0x34edaeae	4.4271786e-07
244	0xb42b0d5c	-1.5930476e-07
245	0xb08ac6dc	-1.0097341e-09
246	0x387527bb	5.8449554e-05
247	0xb6cf11c8	-6.1711507e-06
248	0xb8a3de1f	-7.813819e-05
249	0x3858fb48	5.1732437e-05
250	0xb8e33e42	-0.000108358
251	0xb38c2e56	-6.5276865e-08
252	0x32cdbc10	2.3950662e-08
253	0xb086d8db	-9.811417e-10
254	0x379cd378	1.8695122e-05
255	0xb7b78440	-2.1876884e-05

exp_avg_sq f4 [128, 8]
0	0x34a8fb35	3.1475216e-07
1	0x344bc6e7	1.8978209e-07
2	0x34949109	2.7672675e-07
3	0x2ea10133	7.3216454e-11
4	0x2d26b95e	9.477167e-12
5	0x254943e6	1.7456976e-16
6	0x35d3b408	1.5773121e-06
7	0x34c4daee	3.6667137e-07
8	0x351f30e0	5.930324e-07
9	0x35e539bf	1.7078636e-06
10	0x34e172a1	4.199292e-07
11	0x2eb80a2c	8.369158e-11
12	0x2d3f4e6d	1.0874507e-11
13	0x25faeb17	4.352739e-16
14	0x34edebdd	4.4316303e-07
15	0x353e3602	7.085911e-07
16	0x33bc9ed5	8.7833236e-08
17	0x33253112	3.8461685e-08
18	0x341233c3	1.361614e-07
19	0x2e18ffed	3.4788106e-11
20	0x2c9e64b3	4.50181e-12
21	0x250a68a6	1.2005048e-16
22	0x34594096	2.0233196e-07
23	0x345aed36	2.0389129e-07
24	0x34084710	1.269184e-07
25	0x340e6d16	1.3264466e-07
26	0x3415e271	1.3959085e-07
27	0x2e202a1b	3.6417185e-11
28	0x2ca62892	4.722508e-12
29	0x252e0776	1.5094622e-16
30	0x34b633a7	3.3937724e-07
31	0x348687ab	2.5058156e-07
32	0x3381127c	6.010393e-08
33	0x326e6a8f	1.3877652e-08
34	0x338d9640	6.5931545e-08
35	0x2d7aebe9	1.4263237e-11
36	0x2c022cb2	1.8498922e-12
37	0x246062d8	4.865598e-17
38	0x34162238	1.3982287e-07
39	0x340faac2	1.3380034e-07
40	0x34504b96	1.9399008e-07
41	0x34c05955	3.5827784e-07
42	0x33f75ec8	1.15190744e-07
43	0x2ddb7cce	2.4952842e-11
44	0x2c633104	3.228585e-12
45	0x2490ca32	6.279258e-17
46	0x351bee59	5.808884e-07
47	0x3414b501	1.3849423e-07
48	0x35092ab0	5.1098596e-07
49	0x35323523	6.638749e-07
50	0x34f762ac	4.6079128e-07
51	0x2eec57dc	1.07476444e-10
52	0x2d748f9f	1.39016845e-11
53	0x253e2683	1.6492921e-16
54	0x362c42d1	2.566889e-06
55	0x34c5c810	3.6839674e-07
56	0x33348bc3	4.203663e-08
57	0x33aaaf73	7.948156e-08
58	0x33601eab	5.2181957e-08
59	0x2d53a889	1.2031384e-11
60	0x2bdb4aea	1.5581679e-12
61	0x243ec0ff	4.1363157e-17
62	0x3338511e	4.2914614e-08
63	0x33d06f52	9.706004e-08
64	0x34d2dc23	3.927572e-07
65	0x35142d18	5.5199916e-07
66	0x3532f671	6.6668787e-07
67	0x2f0e054e	1.291671e-10
68	0x2d932aab	1.6730914e-11
69	0x26190e2b	5.310174e-16
70	0x35085431	5.078646e-07
71	0x35b7b396	1.3686829e-06
72	0x34c7e155	3.723059e-07
73	0x358517c2	9.916187e-07
74	0x348ff458	2.681361e-07
75	0x2e81860b	5.8900516e-11
76	0x2d069e14	7.6521185e-12
77	0x25ba15d6	3.2280653e-16
78	0x34c508a4	3.6700396e-07
79	0x34fd1f38	4.7147637e-07
80	0x363da835	2.8261104e-06
81	0x3626af57	2.4837989e-06
82	0x361b441c	2.3136445e-06
83	0x30288c96	6.131783e-10
84	0x2eae67e2	7.931057e-11
85	0x269cc64c	1.0878423e-15
86	0x3780faf6	1.5375652e-05
87	0x362a4862	2.5374106e-06
88	0x351afca9	5.773714e-07
89	0x352e3481	6.4896454e-07
90	0x34c75b7c	3.7133202e-07
91	0x2ec75229	9.064067e-11
92	0x2d4e66c5	1.1732564e-11
93	0x24fd6141	1.09886014e-16
94	0x3656e704	3.2022954e-06
95	0x3495de81	2.7915306e-07
96	0x33871acf	6.291304e-08
97	0x337479d5	5.6921483e-08
98	0x339df05a	7.354602e-08
99	0x2d5c81c1	1.2534363e-11
100	0x2be44c06	1.6221475e-12
101	0x246994c7	5.064984e-17
102	0x33c13603	8.9970875e-08
103	0x344dae28	1.915547e-07
104	0x33bbc914	8.744442e-08
105	0x32d4ea83	2.4786692e-08
106	0x33d958ef	1.0121027e-07
107	0x2dddf99e	2.5235643e-11
108	0x2c65b807	3.2645013e-12
109	0x247fadd3	5.5441546e-17
110	0x352fd9dc	6.550961e-07
111	0x34266127	1.5495299e-07
112	0x33fdfd17	1.1827267e-07
113	0x3441af4f	1.8038303e-07
114	0x33917157	6.772705e-08
115	0x2d8989a8	1.5636228e-11
116	0x2c0e79a5	2.024694e-12
117	0x24056a8d	2.893003e-17
118	0x34d84cd2	4.028903e-07
119	0x3395e66a	6.980265e-08
120	0x333b0533	4.354406e-08
121	0x334aee0d	4.7248296e-08
122	0x339babee	7.249024e-08
123	0x2d117393	8.267958e-12
124	0x2b9ae2a4	1.1005264e-12
125	0x23dc4e66	2.388565e-17
126	0x32e79bdd	2.6962818e-08
127	0x35097663	5.120875e-07
128	0x32e0dbac	2.6176927e-08
129	0x32ea5517	2.727988e-08
130	0x33145ee7	3.454525e-08
131	0x2d1095ff	8.218758e-12
132	0x2b960381	1.0659114e-12
133	0x244532de	4.2760652e-17
134	0x331e7964	3.6897646e-08
135	0x33600f80	5.216816e-08
136	0x359dc9bb	1.1756123e-06
137	0x34cf3306	3.859388e-07
138	0x359ee7e3	1.1839405e-06
139	0x2faa73cb	3.1005096e-10
140	0x2e3046fa	4.0080807e-11
141	0x25e30858	3.9383877e-16
142	0x371eac02	9.457583e-06
143	0x3546bcc1	7.403542e-07
144	0x33a93b66	7.88048e-08
145	0x3395c396	6.97393e-08
146	0x33c405a2	9.127986e-08
147	0x2dab9a40	1.950895e-11
148	0x2c31da5f	2.5274433e-12
149	0x24819a3c	5.6206115e-17
150	0x34ce1cc8	3.839143e-07
151	0x341ae1f0	1.4424563e-07
152	0x3340710b	4.4806296e-08
153	0x32b06ad9	2.0537685e-08
154	0x335bdf13	5.1192796e-08
155	0x2d1cee50	8.920489e-12
156	0x2ba42c8b	1.1665264e-12
157	0x23bc3fbb	2.0409992e-17
158	0x34064bca	1.2507294e-07
159	0x34604fcf	2.089066e-07
160	0x358b7efb	1.0393263e-06
161	0x35903f69	1.0747291e-06
162	0x35580cc9	8.0484875e-07
163	0x2f67f3d2	2.109595e-10
164	0x2defefc9	2.727764e-11
165	0x2587a199	2.352827e-16
166	0x36d83d9c	6.444474e-06
167	0x34e74380	4.3076216e-07
168	0x3433988e	1.6726173e-07
169	0x3371338a	5.615906e-08
170	0x3486fa2f	2.5141478e-07
171	0x2e64a88c	5.1990898e-11
172	0x2ceefe04	6.7925682e-12
173	0x255fc385	1.9408411e-16
174	0x33c7cd16	9.3039645e-08
175	0x355bb271	8.1843524e-07
176	0x34532504	1.9664373e-07
177	0x33ab90df	7.98916e-08
178	0x348bb12c	2.6019677e-07
179	0x2e435a25	4.441793e-11
180	0x2ccc8708	5.81302e-12
181	0x24f2e8cc	1.05345144e-16
182	0x34dd8128	4.125843e-07
183	0x35a547ba	1.2314333e-06
184	0x35448af3	7.321789e-07
185	0x34a14176	3.0036216e-07
186	0x35369a39	6.8024707e-07
187	0x2f3bb963	1.7073414e-10
188	0x2dc22526	2.2071744e-11
189	0x256e2062	2.0654181e-16
190	0x36acb4e5	5.1470583e-06
191	0x34e8e292	4.337822e-07
192	0x34d3c5a0	3.9445604e-07
193	0x34ca039e	3.7628064e-07
194	0x34afd687	3.275238e-07
195	0x2eb76d81	8.341328e-11
196	0x2d3dad23	1.078185e-11
197	0x250f2dae	1.241875e-16
198	0x361f4851	2.373494e-06
199	0x3427ab9c	1.5615518e-07
200	0x34cafb07	3.7808078e-07
201	0x3421531b	1.5024527e-07
202	0x34b6872b	3.399849e-07
203	0x2ebb51cf	8.5183076e-11
204	0x2d41cc57	1.1016152e-11
205	0x24efe505	1.040377e-16
206	0x363aad17	2.7816911e-06
207	0x34b7c859	3.4232178e-07
208	0x33964b35	6.9985994e-08
209	0x34029120	1.215999e-07
210	0x339a38c8	7.181512e-08
211	0x2d46f173	1.1308609e-11
212	0x2bceb135	1.4686365e-12
213	0x23f83c57	2.6913769e-17
214	0x342cb738	1.6085403e-07
215	0x3450a852	1.9432744e-07
216	0x338ef676	6.657221e-08
217	0x33beb498	8.880414e-08
218	0x3348f081	4.6784866e-08
219	0x2d1abc2d	8.79567e-12
220	0x2ba08ead	1.1408284e-12
221	0x23b982cd	2.0113136e-17
222	0x3483446f	2.4450443e-07
223	0x33c1e22c	9.028403e-08
224	0x33f6b7d4	1.1488706e-07
225	0x32d03dc6	2.4242478e-08
226	0x34143407	1.3802502e-07
227	0x2df82548	2.8210892e-11
228	0x2c808208	3.652415e-12
229	0x24ab930c	7.4408536e-17
230	0x351ce92d	5.8453844e-07
231	0x348c0dd2	2.6087088e-07
232	0x34f09855	4.481432e-07
233	0x351657e2	5.600724e-07
234	0x34e76013	4.3097006e-07
235	0x2ec5a5d8	8.9879826e-11
236	0x2d4d06cf	1.1654413e-11
237	0x254dd6d9	1.7853709e-16
238	0x35eb7d0d	1.7545259e-06
239	0x3590d3ed	1.0790515e-06
240	0x34001d7c	1.1931655e-07
241	0x33d47d38	9.8947964e-08
242	0x3406b29c	1.25447e-07
243	0x2dc93db6	2.287846e-11
244	0x2c52c2b0	2.9950868e-12
245	0x24e96d66	1.0123297e-16
246	0x3395a940	6.9691396e-08
247	0x349ba59c	2.8991496e-07
248	0x346044a2	2.0886594e-07
249	0x34df7e86	4.1629045e-07
250	0x3422a1a2	1.5146227e-07
251	0x2e2d2ff1	3.9378226e-11
252	0x2cb39455	5.103954e-12
253	0x25871868	2.3435305e-16
254	0x349c6edc	2.9137925e-07
255	0x34619b67	2.1011293e-07

exp_avg f4 [128]
0	0x38550ace	5.079322e-05
1	0x37d6ca76	2.5605066e-05
2	0xb8b36670	-8.5544656e-05
3	0xb845c145	-4.7148456e-05
4	0xb737ad6c	-1.0948028e-05
5	0x38a3f2af	7.817649e-05
6	0xb9407f74	-0.00018358027
7	0xb7ad51ba	-2.0661264e-05
8	0xb92022e6	-0.0001527179
9	0xb8dd7892	-0.00010560559
10	0x3935fc56	0.00017355508
11	0x392b2254	0.00016320619
12	0xb7da4654	-2.6020374e-05
13	0xb7cd352b	-2.4462663e-05
14	0xb8241463	-3.9119634e-05
15	0x368c2b2b	4.1773505e-06
16	0x343bb261	1.7480626e-07
17	0x38f167c7	0.000115111055
18	0xb7b94dc6	-2.2089935e-05
19	0xb837eebb	-4.3852935e-05
20	0xb90de243	-0.00013531097
21	0x370c5378	8.364084e-06
22	0xb642c675	-2.902377e-06
23	0xb8d07790	-9.940483e-05
24	0x38cc2b55	9.735549e-05
25	0xb909c95f	-0.00013140355
26	0xb7e1bb62	-2.6909347e-05
27	0x36c45a13	5.851741e-06
28	0xb8d33dae	-0.00010072753
29	0x38cb9d79	9.709126e-05
30	0xb7bf3fd0	-2.279869e-05
31	0x36619954	3.3616861e-06
32	0xb8455efc	-4.705692e-05
33	0x37f0e838	2.8718365e-05
34	0xb7eb3e0c	-2.8043076e-05
35	0xb8c699bb	-9.47001e-05
36	0xb8a9be41	-8.0939855e-05
37	0x38ab9121	8.180948e-05
38	0xb6688a04	-3.465103e-06
39	0xb89eea1b	-7.577633e-05
40	0x390b01a4	0.00013256684
41	0xb70d181a	-8.4098665e-06
42	0xb7878586	-1.615543e-05
43	0xb8de8422	-0.000106103966
44	0x3773c984	1.4530848e-05
45	0x370b7a29	8.313488e-06
46	0xb8226902	-3.8721606e-05
47	0xb8873ac1	-6.4482454e-05
48	0x37ce3194	2.45802e-05
49	0x388d9d93	6.7527544e-05
50	0x38e6ae0d	0.00010999674
51	0x39125fae	0.00013959288
52	0x3899177b	7.299982e-05
53	0x379145d9	1.7317872e-05
54	0x383e06db	4.5305915e-05
55	0x34d5a08e	3.979116e-07
56	0xb8e5bde0	-0.00010954938
57	0xb8085ad4	-3.2509517e-05
58	0x3788aa87	1.6291871e-05
59	0x39051271	0.00012690738
60	0x38d5059d	0.00010157677
61	0xb920b3cd	-0.0001532577
62	0xb67885c4	-3.7032742e-06
63	0x3723b327	9.757269e-06
64	0xb8c83a02	-9.547548e-05
65	0xb88164bc	-6.1699626e-05
66	0x38c59544	9.421495e-05
67	0xb8a65e4f	-7.933063e-05
68	0x3814bce1	3.5461857e-05
69	0xb8838300	-6.2709674e-05
70	0x372ab0aa	1.0173922e-05
71	0xb804572b	-3.1552434e-05
72	0x386d0f68	5.651955e-05
73	0xb6f94f77	-7.430029e-06
74	0x386a9dd5	5.593694e-05
75	0x393299cc	0.00017032697
76	0x391fd7ea	0.00015243856
77	0xb916763c	-0.0001434916
78	0x38da8adf	0.00010420917
79	0xb7b8c557	-2.2026403e-05
80	0x38c76ba6	9.5091105e-05
81	0x36dfca29	6.6694524e-06
82	0x3901eb37	0.00012390023
83	0xb8b92956	-8.829187e-05
84	0xb90a2c2d	-0.00013177162
85	0x3959a335	0.00020755532
86	0xb8119f44	-3.471902e-05
87	0x378b6c03	1.6620388e-05
88	0xb8152292	-3.5556564e-05
89	0x393683e1	0.00017406001
90	0x37a3abe9	1.9511166e-05
91	0xb8b54d6e	-8.645175e-05
92	0x36a7352e	4.9831788e-06
93	0xb8b47854	-8.605482e-05
94	0x392b21c7	0.00016320414
95	0x383655a0	4.3471926e-05
96	0xb6bdda87	-5.658079e-06
97	0xb5bc06d9	-1.4009084e-06
98	0xb8629441	-5.402067e-05
99	0xb84d478c	-4.8942442e-05
100	0x39756274	0.00023401697
101	0xb89b6387	-7.4095144e-05
102	0xb8dd8981	-0.00010563713
103	0x376c2421	1.4075108e-05
104	0xb78516d1	-1.586546e-05
105	0x39bb2ee1	0.00035702347
106	0xb87acf38	-5.9797632e-05
107	0xb732d092	-1.0658188e-05
108	0x37f7222f	2.9460612e-05
109	0x3889e94b	6.576123e-05
110	0x366cdd16	3.529543e-06
111	0xb785a8df	-1.5933472e-05
112	0xb82624a4	-3.961161e-05
113	0x391b3d2f	0.00014804745
114	0xb72f1b32	-1.0437145e-05
115	0x38015027	3.0830644e-05
116	0x39024a85	0.00012425527
117	0xb84fbf05	-4.9530547e-05
118	0x39079043	0.00012928345
119	0x39482655	0.00019087766
120	0xb7a42175	-1.9565903e-05
121	0x38b060e4	8.410381e-05
122	0x38f0b61d	0.00011478013
123	0xb8e8fbfd	-0.000111095585
124	0xb86a223e	-5.5821838e-05
125	0x3934feca	0.00017261054
126	0x398144be	0.00024656014
127	0xb7aac99b	-2.0359459e-05

exp_avg_sq f4 [128]
0	0x34791e37	2.3200924e-07
1	0x34a70286	3.110801e-07
2	0x33f41ded	1.1367579e-07
3	0x33f8f722	1.1593353e-07
4	0x3362169d	5.2640292e-08
5	0x33b0d7a5	8.234864e-08
6	0x34ac5235	3.209731e-07
7	0x3321361f	3.7534956e-08
8	0x34e05276	4.178325e-07
9	0x34586bf8	2.0155846e-07
10	0x35fd8f0c	1.8891601e-06
11	0x34952d67	2.7786447e-07
12	0x336949c5	5.4316633e-08
13	0x33b70ad8	8.523574e-08
14	0x3353e743	4.9337597e-08
15	0x334a4027	4.7090136e-08
16	0x33057545	3.107313e-08
17	0x35790894	9.277221e-07
18	0x33915f27	6.769397e-08
19	0x331d24ac	3.6587764e-08
20	0x35253936	6.155054e-07
21	0x345debc6	2.0668003e-07
22	0x34485c3e	1.8660009e-07
23	0x3508e56d	5.0997807e-07
24	0x347f68db	2.3786872e-07
25	0x3490fa5e	2.7004256e-07
26	0x3337859f	4.2729535e-08
27	0x3309d92d	3.209532e-08
28	0x33d557dd	9.934568e-08
29	0x34a25292	3.023493e-07
30	0x33d62df3	9.97351e-08
31	0x3409c154	1.2829452e-07
32	0x3391d72c	6.791228e-08
33	0x33faaec4	1.1673322e-07
34	0x34f8cf08	4.6344235e-07
35	0x34424604	1.809313e-07
36	0x34a3b0d0	3.0489764e-07
37	0x34086845	1.270392e-07
38	0x32eee5c8	2.7811339e-08
39	0x33b10df4	8.244743e-08
40	0x351042ea	5.3741553e-07
41	0x33e151eb	1.049228e-07
42	0x3407b525	1.2638755e-07
43	0x34a9127e	3.1492158e-07
44	0x338cbb08	6.553279e-08
45	0x34c54983	3.6747596e-07
46	0x34320d1a	1.6582308e-07
47	0x348cbb34	2.621324e-07
48	0x33dc641b	1.02627574e-07
49	0x355e19a1	8.273874e-07
50	0x3513a9ad	5.500868e-07
51	0x345b8f58	2.0448113e-07
52	0x3461a180	2.1013511e-07
53	0x34d322c6	3.9327114e-07
54	0x3433700c	1.6711437e-07
55	0x336062b1	5.2243823e-08
56	0x3492f528	2.7372994e-07
57	0x345d084d	2.0585249e-07
58	0x33ac37b7	8.0195086e-08
59	0x34d68c4b	3.9962683e-07
60	0x3495aa17	2.787717e-07
61	0x342e0b11	1.6209039e-07
62	0x3399da10	7.164283e-08
63	0x33daf00c	1.019508e-07
64	0x34922fd5	2.7229422e-07
65	0x33c849fa	9.326682e-08
66	0x34837f9a	2.4493494e-07
67	0x34298aae	1.5789803e-07
68	0x3508a3e8	5.0902463e-07
69	0x3430c177	1.646166e-07
70	0x34a4030b	3.0549594e-07
71	0x33f4dc98	1.1402261e-07
72	0x34bf3ba7	3.5619925e-07
73	0x338d1db9	6.571231e-08
74	0x3406f09e	1.2567259e-07
75	0x354a3a1f	7.533544e-07
76	0x343ead75	1.7758232e-07
77	0x34fabcc5	4.6703477e-07
78	0x33d09433	9.712712e-08
79	0x33910447	6.752867e-08
80	0x33ccf2f2	9.543682e-08
81	0x340f37a5	1.3338156e-07
82	0x350089f3	4.788446e-07
83	0x33beea70	8.8902084e-08
84	0x34160c5a	1.3974332e-07
85	0x350d16f9	5.256002e-07
86	0x349bdcac	2.903156e-07
87	0x33fc2c54	1.1742728e-07
88	0x338d718c	6.586478e-08
89	0x35222019	6.039641e-07
90	0x346b03ce	2.1887465e-07
91	0x33a41569	7.6407396e-08
92	0x331869b4	3.5486394e-08
93	0x347cea7a	2.3554631e-07
94	0x349e8cc9	2.9532228e-07
95	0x340b05d9	1.2947511e-07
96	0x33d4df87	9.912679e-08
97	0x338d2c1d	6.573848e-08
98	0x339b64a4	7.2360564e-08
99	0x3401c15f	1.2084409e-07
100	0x358bed04	1.0425288e-06
101	0x34d10dd2	3.893934e-07
102	0x340cd49c	1.3115863e-07
103	0x34345340	1.6794093e-07
104	0x32d7b7bb	2.5112845e-08
105	0x363d4b9f	2.8207212e-06
106	0x345bbd21	2.0464769e-07
107	0x33989d28	7.106638e-08
108	0x33cbcbeb	9.4900166e-08
109	0x34428230	1.811502e-07
110	0x34cd52ca	3.8244463e-07
111	0x34a4fbec	3.0730678e-07
112	0x33febc7c	1.1862082e-07
113	0x33dba22f	1.0227483e-07
114	0x33f9fde3	1.1641148e-07
115	0x33d04e6d	9.70002e-08
116	0x3481f902	2.42093e-07
117	0x33f8c2fe	1.1583869e-07
118	0x350a9adb	5.163435e-07
119	0x354c7d77	7.61785e-07
120	0x34431eb9	1.8171967e-07
121	0x349a6f43	2.876569e-07
122	0x33cc6e69	9.519574e-08
123	0x3424e54d	1.535711e-07
124	0x33ee3604	1.1092564e-07
125	0x353ef622	7.1138686e-07
126	0x3569a4d4	8.703912e-07
127	0x34f52e4c	4.5668492e-07
