Basic_Path_Finding/Assets/TorchModels/results/PlayerMaze1/PlayerMaze/PlayerMaze-566.pt (torch, 154263 bytes, 20 tensors)

network_body.observation_encoder.processors.0.normalizer.running_mean f4 [8]
000000 0d e9 14 40 2e 23 f8 3e 24 4f 19 40 c3 b7 9f c1
       2.3267243 0.4846434 2.3954554 -19.964727
000010 69 8c ff 3e 5b a0 02 33 3e da 0e bf bf ec 97 3f
       0.49911812 3.0413826e-08 -0.5580176 1.1869124

network_body.observation_encoder.processors.0.normalizer.running_variance f4 [8]
000000 bb c9 08 44 08 19 70 40 08 3a 1e 45 e0 26 c8 43
       547.15204 3.7515278 2531.627 400.3037
000010 89 f1 9f 3f 00 00 80 3f f8 89 13 42 b0 4a 37 43
       1.2495586 1.0 36.884735 183.29175

network_body.processors.0.normalizer.running_mean f4 [8]
000000 0d e9 14 40 2e 23 f8 3e 24 4f 19 40 c3 b7 9f c1
       2.3267243 0.4846434 2.3954554 -19.964727
000010 69 8c ff 3e 5b a0 02 33 3e da 0e bf bf ec 97 3f
       0.49911812 3.0413826e-08 -0.5580176 1.1869124

network_body.processors.0.normalizer.running_variance f4 [8]
000000 bb c9 08 44 08 19 70 40 08 3a 1e 45 e0 26 c8 43
       547.15204 3.7515278 2531.627 400.3037
000010 89 f1 9f 3f 00 00 80 3f f8 89 13 42 b0 4a 37 43
       1.2495586 1.0 36.884735 183.29175

network_body._body_endoder.seq_layers.0.weight f4 [128, 8]
000000 43 05 31 bd f0 a3 0d 3e cc f3 62 3e ce 24 02 3e
       -0.04321791 0.13832068 0.22163314 0.12709352
000010 77 0d 03 be 7e d6 92 3d 09 ab 69 be 3c 83 4f 3e
       -0.12798105 0.071698174 -0.22819151 0.20264906
000020 07 50 d7 bd 3d 4f c5 3d 42 6a d4 be cf f9 02 bf
       -0.10513311 0.09634254 -0.41487318 -0.5116243
000030 b9 90 b2 be 98 26 b6 3e 68 e6 8f 3d 83 a7 ae be
       -0.3487604 0.3557632 0.070263684 -0.34112176
000040 f8 07 63 3e 18 f0 23 bf 29 30 39 bf 6e f1 34 3c
       0.22171009 -0.6403823 -0.7233911 0.011043889
000050 21 c9 54 3e 35 10 c0 be 00 20 86 3e 4f b8 89 be
       0.2077985 -0.37512365 0.2619629 -0.2689843
000060 df 7a 53 3e f3 bf 6a be 7a b6 70 be 88 e6 ff bd
       0.2065234 -0.22924785 -0.2350711 -0.12495142
000070 27 15 82 be 54 fd ac 3e c1 59 d4 3e fc ce 97 3b
       -0.25406763 0.33787024 0.41474727 0.0046328288
000080 de 98 c4 3e af c6 53 3e 73 54 48 3e c9 97 d2 3e
       0.38397878 0.2068126 0.19563465 0.41131428
000090 4b 61 e2 3e 82 af 22 bf fc 9b 25 bd d3 8c 09 be
       0.44214854 -0.63549054 -0.04043196 -0.13432626
0000a0 c2 a0 2d bf 50 c0 d3 3d ac 3d 01 3f c1 58 10 bf
       -0.6782342 0.10339415 0.5048473 -0.5638543
0000b0 3b ad fa 3e c6 8f 19 bf aa d8 32 be 1f 1b 69 3e
       0.4896029 -0.59985006 -0.17465463 0.22764252
0000c0 a6 a6 c9 3e 16 bd 05 be 54 20 3e bd d1 00 30 3e
       0.39384955 -0.13060412 -0.04641755 0.17187811
0000d0 97 94 7d bd 7e 81 d8 bd e1 7d 0f 3f 23 58 2b 3e
       -0.061909284 -0.10571574 0.5605145 0.1673284
0000e0 8e 09 72 3c ac 28 ce be 9d ad 62 bd 59 d8 a9 3d
       0.014772786 -0.40265405 -0.05534135 0.08293218
0000f0 ce 7e 71 3e d4 dd 37 be 97 78 05 be 46 76 29 bc
       0.23583528 -0.17955714 -0.13034283 -0.01034314
000100 59 12 24 3f 08 26 ec be 1c b8 19 bd 32 e2 95 be
       0.64090496 -0.46122766 -0.037529096 -0.29274136
000110 5b 6b 7d be d2 45 32 be ca 9b 08 bd ff 75 35 be
       -0.24747984 -0.17409447 -0.033351697 -0.17720793
000120 98 56 02 bf e0 38 bb 3d 68 16 f8 be 92 8f 1b bf
       -0.5091338 0.091417074 -0.48454595 -0.60765946
000130 66 55 d8 be 4a 14 82 3d 63 64 98 be 18 7a 84 be
       -0.42252654 0.06351526 -0.2976409 -0.258744
000140 ff 98 a2 be 85 18 51 3f 37 f2 ad ba 51 d3 83 be
       -0.31757352 0.8167804 -0.0013271038 -0.2574716
000150 1b a5 8b 3e 70 e3 48 bb 0e ab 0e 3e 59 8d 6c be
       0.27274403 -0.0030653141 0.1393244 -0.23100795
000160 2d 59 84 3d 9f e6 86 bc 2a c0 3c 3d ef 01 b7 3d
       0.064623214 -0.01646739 0.0460817 0.08935916
000170 7e c9 16 be 94 b8 c0 be cf 67 23 be f3 9d 58 3e
       -0.147253 -0.37640822 -0.15957569 0.21154003
000180 52 e3 8d bd fc 81 71 be 41 5f 85 3e b5 0e e2 3e
       -0.069281235 -0.23584741 0.26049235 0.44151846
000190 d9 c4 3a 3e ef 2d e4 bc 41 c5 19 3f 76 23 03 bf
       0.18239154 -0.027853934 0.6006661 -0.51225984
0001a0 d5 7f b8 be ff 91 37 3b 2c a1 f3 be 9c 50 08 3e
       -0.36035028 0.0028010604 -0.47583902 0.13312
0001b0 7f f0 03 3f 69 a2 92 be ab 4d 69 be 9f 8d 50 3d
       0.5153884 -0.28639534 -0.22783534 0.05091631
0001c0 a2 cf 96 3e bc 39 e6 be a0 1e 4c 3e 8f 11 c1 be
       0.29455286 -0.44965923 0.19933558 -0.3770871
0001d0 2c 8a 0d 3d ff b9 c6 3d bd 9d 60 3f 12 c9 ec 3e
       0.0345556 0.09703445 0.8774069 0.46247154
0001e0 0d c1 b5 3e 46 a1 9b 3d 29 f0 94 bc 62 af 49 3d
       0.3549885 0.0759912 -0.018180924 0.049239524
0001f0 30 98 dd 3e 96 53 b5 be 9e fd b5 3e 9d 03 00 3f
       0.43280172 -0.35415334 0.35545057 0.50005513
000200 fe 1c 1a be 3b bf ad 3e 06 32 e4 bd 8e d2 a4 3e
       -0.15050122 0.3393496 -0.11142354 0.3219189
000210 08 ef f8 be 5a 47 0a 3f 04 b5 9c 3e ce cc 66 bf
       -0.48619866 0.54015124 0.30606854 -0.9015626
000220 77 0a 85 be 9a 8f 8c 3d 08 44 45 be 4e a0 b5 3e
       -0.25984547 0.06863327 -0.19264233 0.35473865
000230 aa 40 2f be 5b 18 c2 be 8f 40 f6 bc 20 8f f8 bb
       -0.17114511 -0.37909207 -0.03006008 -0.007585421
000240 36 2f 9d be f9 61 a7 be dd d1 51 bf 06 46 5e be
       -0.30700082 -0.32691935 -0.8196085 -0.217064
000250 83 5b 53 3e 06 55 0f 3e c9 e5 ae 3d 2f 68 c1 3e
       0.20640378 0.13997278 0.08539922 0.37774798
000260 6a 87 44 bd 3e 65 b3 3d f3 9d 43 3f e6 97 56 3d
       -0.047980703 0.08759545 0.76412886 0.052390955
000270 4d 9f 9e bc 35 6d ed be f8 34 92 be 19 f9 9e 3e
       -0.01936307 -0.4637238 -0.28556037 0.3104942
000280 3d 6f 4f be ca c4 83 3e 3d 63 35 bf 9f 8e 87 3e
       -0.20257278 0.25736076 -0.7085455 0.26476
000290 e5 97 24 3c 74 d4 9c be 20 cc b3 be 9e a0 c4 bd
       0.01004598 -0.3063084 -0.35116673 -0.09600948
0002a0 e0 8e 40 be 79 10 08 3e 28 9e 84 be 2a 34 0e be
       -0.18804502 0.13287534 -0.25901914 -0.13887087
0002b0 7c 74 96 be 4e 67 74 3e 2a f2 3c be 0d 28 12 bf
       -0.29385746 0.23867533 -0.18451753 -0.5709236
0002c0 dc 80 33 bc 78 41 71 3e 44 76 a5 bb 85 8f 58 be
       -0.010956015 0.2356013 -0.0050494988 -0.21148498
0002d0 8a 62 56 be ae 14 3d bf 82 47 32 3e e7 2b c8 3e
       -0.20936027 -0.7385968 0.1741009 0.39095995
0002e0 64 1f 6c 3f 20 04 35 be ad 69 03 3e 2c 07 95 3e
       0.922354 -0.17677355 0.12833281 0.29107034
0002f0 75 b5 cc be c7 92 be bd 95 69 a5 be 83 4e 73 be
       -0.3998219 -0.09305339 -0.32307115 -0.23760419
000300 20 a2 75 3e d4 88 a9 3e f5 df d5 3d e3 54 b1 3e
       0.23987627 0.33112204 0.10443107 0.34635076
000310 37 bb 42 be e9 a6 00 bf 82 62 ab 3e 0c 96 75 be
       -0.1901673 -0.50254685 0.33473593 -0.2398302
000320 89 f4 86 be 12 27 05 3f 2a 55 07 3f 1e 08 79 3d
       -0.2635844 0.5201274 0.52864325 0.060798757
000330 80 f8 30 3c ae a9 ba bc 55 9e 16 3c d2 cc 94 3d
       0.0108014345 -0.022785988 0.009193023 0.07265629
000340 0c 78 89 be 57 99 79 3d 87 bd e5 3d ec c1 5e be
       -0.268494 0.060937252 0.1121779 -0.21753663
000350 66 e3 e6 be 23 f7 93 bb b3 b4 3c bd 4f 00 7f 3c
       -0.45095366 -0.004515545 -0.046070766 0.015564038
000360 ef 9d 2d bf 44 aa 65 bd b9 ce 43 bc e9 64 37 be
       -0.6781911 -0.05607058 -0.011951142 -0.17909588
000370 bd 8e aa be ac ec 61 bd c9 66 ca be b6 f4 ce be
       -0.33312026 -0.05515735 -0.39531544 -0.40421075
000380 92 e4 b6 3e f7 1c 40 be 88 d8 04 3d 1a 58 27 3f
       0.3572126 -0.18761049 0.032433063 0.6536881
000390 6c 1d 50 be 46 3c 18 3e 38 7b ac 3e 5b 62 e4 3e
       -0.20323724 0.14866742 0.33687758 0.4460629
0003a0 1c 16 10 bf c9 21 62 be 66 4c be 3e 87 6c 05 3d
       -0.56283736 -0.220832 0.37167662 0.032574203
0003b0 b2 30 80 bc 7f 96 46 be 4d 9c 3b 3e e8 9a 78 be
       -0.01564822 -0.19393347 0.18321343 -0.24277842
0003c0 7b 60 da 3c c0 00 99 be ed e9 81 bd 52 f0 0b be
       0.026657334 -0.29883385 -0.06343446 -0.13665894
0003d0 27 e6 91 3e cb 13 f8 3e 79 7b 92 3e 28 c8 d0 3d
       0.28495905 0.484526 0.28609827 0.10194427
0003e0 91 8c b6 be df 42 29 bd 7a ff 17 3f 43 63 c3 3e
       -0.3565412 -0.04132354 0.593742 0.38161668
0003f0 4d 60 09 3f d3 96 f4 3e 76 ee 32 bd ec aa 5f 3e
       0.5366257 0.4777132 -0.043684445 0.21842545

network_body._body_endoder.seq_layers.0.bias f4 [128]
000000 00 00 00 00 00 00 00 00 00 00 00 00 00 00 00 00
       0.0 0.0 0.0 0.0
000010 00 00 00 00 00 00 00 00 00 00 00 00 00 00 00 00
       0.0 0.0 0.0 0.0
000020 00 00 00 00 00 00 00 00 00 00 00 00 00 00 00 00
       0.0 0.0 0.0 0.0
000030 00 00 00 00 00 00 00 00 00 00 00 00 00 00 00 00
       0.0 0.0 0.0 0.0
000040 00 00 00 00 00 00 00 00 00 00 00 00 00 00 00 00
       0.0 0.0 0.0 0.0
000050 00 00 00 00 00 00 00 00 00 00 00 00 00 00 00 00
       0.0 0.0 0.0 0.0
000060 00 00 00 00 00 00 00 00 00 00 00 00 00 00 00 00
       0.0 0.0 0.0 0.0
000070 00 00 00 00 00 00 00 00 00 00 00 00 00 00 00 00
       0.0 0.0 0.0 0.0
000080 00 00 00 00 00 00 00 00 00 00 00 00 00 00 00 00
       0.0 0.0 0.0 0.0
000090 00 00 00 00 00 00 00 00 00 00 00 00 00 00 00 00
       0.0 0.0 0.0 0.0
0000a0 00 00 00 00 00 00 00 00 00 00 00 00 00 00 00 00
       0.0 0.0 0.0 0.0
0000b0 00 00 00 00 00 00 00 00 00 00 00 00 00 00 00 00
       0.0 0.0 0.0 0.0
0000c0 00 00 00 00 00 00 00 00 00 00 00 00 00 00 00 00
       0.0 0.0 0.0 0.0
0000d0 00 00 00 00 00 00 00 00 00 00 00 00 00 00 00 00
       0.0 0.0 0.0 0.0
0000e0 00 00 00 00 00 00 00 00 00 00 00 00 00 00 00 00
       0.0 0.0 0.0 0.0
0000f0 00 00 00 00 00 00 00 00 00 00 00 00 00 00 00 00
       0.0 0.0 0.0 0.0
000100 00 00 00 00 00 00 00 00 00 00 00 00 00 00 00 00
       0.0 0.0 0.0 0.0
000110 00 00 00 00 00 00 00 00 00 00 00 00 00 00 00 00
       0.0 0.0 0.0 0.0
000120 00 00 00 00 00 00 00 00 00 00 00 00 00 00 00 00
       0.0 0.0 0.0 0.0
000130 00 00 00 00 00 00 00 00 00 00 00 00 00 00 00 00
       0.0 0.0 0.0 0.0
000140 00 00 00 00 00 00 00 00 00 00 00 00 00 00 00 00
       0.0 0.0 0.0 0.0
000150 00 00 00 00 00 00 00 00 00 00 00 00 00 00 00 00
       0.0 0.0 0.0 0.0
000160 00 00 00 00 00 00 00 00 00 00 00 00 00 00 00 00
       0.0 0.0 0.0 0.0
000170 00 00 00 00 00 00 00 00 00 00 00 00 00 00 00 00
       0.0 0.0 0.0 0.0
000180 00 00 00 00 00 00 00 00 00 00 00 00 00 00 00 00
       0.0 0.0 0.0 0.0
000190 00 00 00 00 00 00 00 00 00 00 00 00 00 00 00 00
       0.0 0.0 0.0 0.0
0001a0 00 00 00 00 00 00 00 00 00 00 00 00 00 00 00 00
       0.0 0.0 0.0 0.0
0001b0 00 00 00 00 00 00 00 00 00 00 00 00 00 00 00 00
       0.0 0.0 0.0 0.0
0001c0 00 00 00 00 00 00 00 00 00 00 00 00 00 00 00 00
       0.0 0.0 0.0 0.0
0001d0 00 00 00 00 00 00 00 00 00 00 00 00 00 00 00 00
       0.0 0.0 0.0 0.0
0001e0 00 00 00 00 00 00 00 00 00 00 00 00 00 00 00 00
       0.0 0.0 0.0 0.0
0001f0 00 00 00 00 00 00 00 00 00 00 00 00 00 00 00 00
       0.0 0.0 0.0 0.0

network_body._body_endoder.seq_layers.2.weight f4 [128, 128]
000000 bc 20 20 be e9 79 0a 3e 1e 43 42 bc 83 5c 3c bd
       -0.15637487 0.13523068 -0.011856822 -0.045986664
000010 cc f9 73 3c 4e 21 6f bd 3f b0 08 3e ca 2a 33 3d
       0.014891099 -0.05838137 0.13348483 0.04374198
000020 ac 47 4e 3c 0c ca 7b bb 76 70 a9 3b ef 34 ca bd
       0.01259033 -0.003841999 0.005170877 -0.098733775
000030 a9 99 17 be 1c 19 e6 3d c8 35 26 be 50 1f f3 3d
       -0.1480471 0.11235258 -0.16231453 0.11871207
000040 2f 67 8f bd 93 4b 45 bd ea 0a 6a bd 90 b1 0c 3c
       -0.070021026 -0.048167776 -0.057139315 0.008587256
000050 ee 2e c9 bc ba a0 56 3e e4 ee a2 3d c6 e6 99 bd
       -0.02455851 0.2095975 0.07955721 -0.0751472
000060 87 e9 3a be e9 5b 08 bc d8 e5 e0 3d ee be b3 bd
       -0.18253146 -0.008322694 0.10981339 -0.08776651
000070 b7 8e 4b 3c 85 30 88 3d 0d 39 d4 bd d4 b1 05 bd
       0.012424163 0.06649879 -0.10362444 -0.032640293
000080 91 da 74 bd 51 5c f7 bd 93 f8 4a 3d 93 13 86 3d
       -0.059778754 -0.12078155 0.049553465 0.06546702
000090 58 3b e8 bc 22 49 c3 bc 74 78 ad bd 07 77 85 3d
       -0.02834861 -0.023838583 -0.0847024 0.06516843
0000a0 5e 0d 44 3d db b2 2e bb 53 39 a5 bd 67 09 60 3e
       0.04786431 -0.00266569 -0.08067574 0.21878587
0000b0 0c 32 27 bd c3 ae 92 bd 34 5a 58 bd 2c 3f 58 bd
       -0.040819213 -0.071622394 -0.0528204 -0.05279462
0000c0 9f 7b 99 bd 3b a1 87 3c 81 73 fa 3d 7f 81 07 3e
       -0.07494282 0.016556373 0.12229062 0.13232993
0000d0 92 bd 06 3d a9 9d 50 be fd e0 a1 3d 2e c3 37 3d
       0.032895632 -0.20372643 0.07904241 0.044863872
0000e0 46 f1 52 3d be 2f 2a 3e 64 5e 85 3d 59 50 ae bc
       0.051499628 0.16619775 0.06512144 -0.021278547
0000f0 c2 0f 7c 3d 62 3d 1e 3e fc 37 ea bd cd 15 b9 3d
       0.061538465 0.15453103 -0.114364594 0.09037361
000100 c7 7c 8d 3c 79 55 98 bd ad ce 23 3d 77 cc 9f bd
       0.017271413 -0.074381776 0.039992023 -0.078026704
000110 2d 30 fd bc 1c 58 7a bc bb fc 14 bc 65 f2 cd bc
       -0.030906761 -0.015279796 -0.009093459 -0.025139997
000120 8a 1f 56 bd be 5d 9d 3c 17 80 2e 3e 64 0c 38 bd
       -0.05227617 0.019209739 0.1704105 -0.04493369
000130 c8 5b b9 bc f0 84 98 3d 2f af fc bb cc af da bd
       -0.022626773 0.07447231 -0.007711313 -0.10678062
000140 4f f5 59 bd 7b ed 8e 3d 96 39 9b 3d 9f 63 32 bd
       -0.05321246 0.069788896 0.07579343 -0.043552037
000150 45 fd d4 3d 7d 44 2d bd ed 4d 06 3d 8c 9f b3 3b
       0.1039987 -0.042301644 0.03278916 0.005481666
000160 68 19 f7 bd 28 63 94 3d a2 27 67 bd 11 2c 73 3e
       -0.12065393 0.07245475 -0.05643428 0.23747279
000170 03 e4 c8 3c 65 65 90 bc 27 13 99 3d 12 6c 25 be
       0.024522787 -0.017626474 0.07474356 -0.16154507
000180 46 c0 d6 bd 22 86 83 3b 0e fc d8 3d 37 a5 c8 bd
       -0.10485892 0.0040137926 0.105949506 -0.09797137
000190 a6 95 ba 3b c8 a7 d8 bd 9c 93 c8 bd ff 75 eb 3c
       0.005694109 -0.10578877 -0.09793779 0.028742788
0001a0 ba 28 cb 3d 98 88 17 3c 6e 90 fe bd b0 d0 da 3c
       0.09919877 0.009248875 -0.124298915 0.026710838
0001b0 75 a2 71 3c fc 8c cf 3d de 08 8d bd 75 2d a9 3d
       0.014748205 0.101343125 -0.06886457 0.08260623
0001c0 9a eb f7 3b cb 6b 7d be dc f8 23 be b4 8e 90 bc
       0.0075659277 -0.24748151 -0.16012901 -0.017646171
0001d0 1e fe 0b be ec 17 42 3d d0 66 b3 bd 91 44 0f 3d
       -0.13671157 0.047386095 -0.08759844 0.0349775
0001e0 63 30 71 3d 00 6f bb 3d 93 8c de bd 30 3c 8d bc
       0.058884036 0.09152031 -0.10866656 -0.017240614
0001f0 6a 87 51 bb 30 6c 72 bc 8f 19 02 3d bb 2f 15 3e
       -0.0031971582 -0.014796302 0.031762656 0.14568989
000200 05 7c 64 bb a4 4f 0b 3e d4 e8 7c bc bc 37 5d bd
       -0.003486396 0.13604599 -0.01543637 -0.05400823
000210 c5 33 85 3c 15 f6 29 3d ea fb 93 3d e1 4e 9c 3c
       0.016260037 0.041494448 0.07225783 0.019080581
000220 0d a4 bc bc 00 e1 33 bd 76 5a d4 bc 62 a6 0a 3d
       -0.023027444 -0.04391575 -0.025922041 0.03385008
000230 7e da fd 3d 0a 37 3f bc 26 38 e0 bd cc 12 b3 bd
       0.1239519 -0.011670837 -0.109482095 -0.087438196
000240 8a 4d 00 bd 7b 93 b6 bd b6 a3 89 3d 10 78 52 3d
       -0.031323947 -0.089148484 0.067206785 0.05138403
000250 0d 8d 64 3d 34 e8 83 bb 04 c4 b4 3d 23 c7 dc 3d
       0.05579858 -0.0040254835 0.088264495 0.1078017
000260 59 4c 85 bd 5a bb 4a 3d 1a e4 5b bd e9 9b 8d bc
       -0.06508703 0.04949508 -0.05368433 -0.017286258
000270 38 1f 1c 3e c8 36 1d bd 4d dd df 3d 18 f4 f1 3b
       0.15246284 -0.03838232 0.10930882 0.0073838346
000280 c6 47 2d 3d b3 24 95 3d d3 6e 37 3c e7 04 ce 3c
       0.042304777 0.072823904 0.011195856 0.025148822
000290 17 c6 dc bd 66 35 4f be 0b d0 8d 3d 2f cf d5 3c
       -0.1077997 -0.20235214 0.06924447 0.02609977
0002a0 ab c1 0b 3e 4e 9c bd 3c b8 40 7b be 67 44 b4 bd
       0.13648097 0.023145821 -0.24536407 -0.08802109
0002b0 f3 2f 1c 3d d1 53 a4 bd 93 be 6f bd 1b bd 86 bd
       0.038131665 -0.08023799 -0.058531355 -0.06579038
0002c0 69 fd 97 bd 81 b8 10 bd d1 ec d4 bd a3 a3 a7 3d
       -0.07421381 -0.035332207 -0.10396732 0.08185508
0002d0 c0 a9 02 3d 9f 0d c4 bd f9 dc 2a 3d ff 75 05 bd
       0.031900167 -0.095729105 0.041714642 -0.032583233
0002e0 79 14 8c bd 27 8d 40 bc 80 58 b2 bc 20 b5 8b bc
       -0.06839842 -0.011752403 -0.021770716 -0.01705414
0002f0 06 93 b6 bc 6a 55 fe bd 3a ff 03 3c db 3c 14 bc
       -0.022286903 -0.12418635 0.008056456 -0.009047712
000300 f4 ff 43 bc 77 ae c1 3d af df 2d 3d fa 81 b0 bd
       -0.011962879 0.09457105 0.04244965 -0.08618541
000310 80 cb 05 3c 54 d3 f9 bb 49 e0 44 bd ab bf 49 bd
       0.008166194 -0.007624069 -0.048065457 -0.049255054
000320 a9 89 77 3d 3d c5 45 3d 17 d2 7d 3d b2 fb d5 bd
       0.060434017 0.048283804 0.061967935 -0.10448398
000330 d4 1b bb bc 21 4e 0d be 74 7a 08 3c 60 03 ca 3d
       -0.022840418 -0.13799335 0.008329976 0.09863925
000340 76 12 81 3e 11 13 13 ba 0a 61 3d be 51 b4 d8 3d
       0.25209397 -0.0005610446 -0.18494049 0.105812676
000350 48 0b f3 bb 38 35 d6 3d cb 23 a2 3d 2c e2 cf bd
       -0.0074171163 0.104593694 0.07916983 -0.10150561
000360 85 f5 15 bd fd 4f e7 3d c3 e9 00 3e f4 ab 9b bd
       -0.0366111 0.112945534 0.12589173 -0.07601157
000370 af ab 17 3e 74 a6 83 bc 87 8c 09 3d 3b 53 a4 bd
       0.14811586 -0.016070582 0.033581283 -0.080236875
000380 5f 1e b7 bc 1e 0d a4 3d 9e 5b d7 bc 76 95 07 be
       -0.02235335 0.080103144 -0.026288804 -0.13240609
000390 67 79 49 bb 40 0b 54 bd ed 6b fe 3d 1a bd 26 3d
       -0.0030742527 -0.05176854 0.12422929 0.040707685
0003a0 ea 23 c0 3d 6b cf ec 3c fc 9e 61 bd 62 52 f4 bd
       0.0938185 0.028907498 -0.05508326 -0.11929776
0003b0 73 eb 86 3d 6a 95 5d 3d 3e 82 d5 bd 6f 17 13 bc
       0.06587877 0.05409757 -0.10425232 -0.008977755
0003c0 4e d9 bb bd d8 11 15 bc b3 ca 7c bd d3 fa 1e be
       -0.09172307 -0.009098493 -0.061716747 -0.1552537
0003d0 07 3d dc 3c 12 e2 c7 bc a7 e0 94 bd f3 19 53 bd
       0.026884569 -0.02439979 -0.072694115 -0.05153842
0003e0 cb c5 ec 3d f3 75 82 bd 65 c9 0e be c2 ce a1 bd
       0.115611635 -0.06370153 -0.13944013 -0.07900764
0003f0 0c cd 45 3c 47 ea 20 3c 7c ef 91 bb 4d e8 da bc
       0.012072813 0.009821481 -0.0044535976 -0.026722098

network_body._body_endoder.seq_layers.2.bias f4 [128]
000000 00 00 00 00 00 00 00 00 00 00 00 00 00 00 00 00
       0.0 0.0 0.0 0.0
000010 00 00 00 00 00 00 00 00 00 00 00 00 00 00 00 00
       0.0 0.0 0.0 0.0
000020 00 00 00 00 00 00 00 00 00 00 00 00 00 00 00 00
       0.0 0.0 0.0 0.0
000030 00 00 00 00 00 00 00 00 00 00 00 00 00 00 00 00
       0.0 0.0 0.0 0.0
000040 00 00 00 00 00 00 00 00 00 00 00 00 00 00 00 00
       0.0 0.0 0.0 0.0
000050 00 00 00 00 00 00 00 00 00 00 00 00 00 00 00 00
       0.0 0.0 0.0 0.0
000060 00 00 00 00 00 00 00 00 00 00 00 00 00 00 00 00
       0.0 0.0 0.0 0.0
000070 00 00 00 00 00 00 00 00 00 00 00 00 00 00 00 00
       0.0 0.0 0.0 0.0
000080 00 00 00 00 00 00 00 00 00 00 00 00 00 00 00 00
       0.0 0.0 0.0 0.0
000090 00 00 00 00 00 00 00 00 00 00 00 00 00 00 00 00
       0.0 0.0 0.0 0.0
0000a0 00 00 00 00 00 00 00 00 00 00 00 00 00 00 00 00
       0.0 0.0 0.0 0.0
0000b0 00 00 00 00 00 00 00 00 00 00 00 00 00 00 00 00
       0.0 0.0 0.0 0.0
0000c0 00 00 00 00 00 00 00 00 00 00 00 00 00 00 00 00
       0.0 0.0 0.0 0.0
0000d0 00 00 00 00 00 00 00 00 00 00 00 00 00 00 00 00
       0.0 0.0 0.0 0.0
0000e0 00 00 00 00 00 00 00 00 00 00 00 00 00 00 00 00
       0.0 0.0 0.0 0.0
0000f0 00 00 00 00 00 00 00 00 00 00 00 00 00 00 00 00
       0.0 0.0 0.0 0.0
000100 00 00 00 00 00 00 00 00 00 00 00 00 00 00 00 00
       0.0 0.0 0.0 0.0
000110 00 00 00 00 00 00 00 00 00 00 00 00 00 00 00 00
       0.0 0.0 0.0 0.0
000120 00 00 00 00 00 00 00 00 00 00 00 00 00 00 00 00
       0.0 0.0 0.0 0.0
000130 00 00 00 00 00 00 00 00 00 00 00 00 00 00 00 00
       0.0 0.0 0.0 0.0
000140 00 00 00 00 00 00 00 00 00 00 00 00 00 00 00 00
       0.0 0.0 0.0 0.0
000150 00 00 00 00 00 00 00 00 00 00 00 00 00 00 00 00
       0.0 0.0 0.0 0.0
000160 00 00 00 00 00 00 00 00 00 00 00 00 00 00 00 00
       0.0 0.0 0.0 0.0
000170 00 00 00 00 00 00 00 00 00 00 00 00 00 00 00 00
       0.0 0.0 0.0 0.0
000180 00 00 00 00 00 00 00 00 00 00 00 00 00 00 00 00
       0.0 0.0 0.0 0.0
000190 00 00 00 00 00 00 00 00 00 00 00 00 00 00 00 00
       0.0 0.0 0.0 0.0
0001a0 00 00 00 00 00 00 00 00 00 00 00 00 00 00 00 00
       0.0 0.0 0.0 0.0
0001b0 00 00 00 00 00 00 00 00 00 00 00 00 00 00 00 00
       0.0 0.0 0.0 0.0
0001c0 00 00 00 00 00 00 00 00 00 00 00 00 00 00 00 00
       0.0 0.0 0.0 0.0
0001d0 00 00 00 00 00 00 00 00 00 00 00 00 00 00 00 00
       0.0 0.0 0.0 0.0
0001e0 00 00 00 00 00 00 00 00 00 00 00 00 00 00 00 00
       0.0 0.0 0.0 0.0
0001f0 00 00 00 00 00 00 00 00 00 00 00 00 00 00 00 00
       0.0 0.0 0.0 0.0

action_model._continuous_distribution.log_sigma f4 [1, 2]
000000 00 00 00 00 00 00 00 00
       0.0 0.0

action_model._continuous_distribution.mu.weight f4 [2, 128]
000000 9e b3 c2 bc 5d 3e 98 3b cd e4 84 bc 47 80 9c bc
       -0.023767289 0.004646106 -0.016222382 -0.019104136
000010 27 93 cf bb 9b 77 06 bb 49 3a 03 3d 67 74 6e 3c
       -0.0063346806 -0.0020518068 0.032038007 0.01455412
000020 e7 e2 14 3d 39 06 3e bc 70 02 a1 bb ad 63 82 bb
       0.036349203 -0.011598163 -0.0049136207 -0.0039791674
000030 17 e0 1a bd aa 15 4b 3c c4 40 03 bd ba 5a 1a ba
       -0.037811365 0.012395302 -0.032044187 -0.0005888153
000040 bb d8 ce 3b b3 0e 38 bc 2f 4e fb 39 ab 2d 88 39
       0.0063124574 -0.011233973 0.00047932702 0.00025973967
000050 67 b2 96 3c 95 7b 9e bc c5 1f 43 3c 46 19 a1 bb
       0.018395616 -0.019346038 0.01190943 -0.004916343
000060 ae 7d 8a 3b ed 80 33 3c f5 b1 4a bb ff 81 d9 3c
       0.004226408 0.010956031 -0.0030928825 0.026551245
000070 1e 42 bd 3c 91 4e ac 3c d1 3e 96 3c d2 59 00 3c
       0.023102816 0.021033557 0.0183405 0.007833915
000080 2a 1e 6a 3c bd 20 d9 3b 47 29 0b bb 5a 36 bb bb
       0.014289418 0.006626217 -0.002123432 -0.0057132663
000090 f8 12 ed bc 15 56 8d bb 87 b6 26 ba 78 3a a4 3c
       -0.028939709 -0.0043132403 -0.0006359596 0.020047411
0000a0 c7 65 a7 b9 33 1c 24 bc c5 88 82 3c 87 59 f3 3b
       -0.00031928552 -0.010016489 0.015934357 0.007426444
0000b0 9b 8c e7 bb 5b 4d a5 bc b8 80 59 3c f7 ad 1f 3a
       -0.007066322 -0.020178488 0.013275318 0.00060912914
0000c0 df c7 ce 3c d2 80 60 bd e3 1f 5d 3c 32 ce fe bc
       0.02524179 -0.054810353 0.013496372 -0.031104181
0000d0 48 0a 5b 3c 99 16 06 bc 7d 22 6f bb fa 15 a7 38
       0.01336915 -0.008184099 -0.0036489062 7.967274e-05
0000e0 e3 09 84 bc 63 67 b5 bc 1c e6 b4 ba 2b 6c b9 bc
       -0.016117996 -0.022144025 -0.0013801488 -0.022634586
0000f0 c9 7e cb 3c 4f 37 9e 3b 0f 48 03 bd d0 2b 75 3b
       0.02484073 0.0048283706 -0.032051142 0.0037410147
000100 6d de 00 bd a1 dc c1 3c 77 7c cb bc 51 8d 84 3a
       -0.03146212 0.023664774 -0.024839623 0.0010112916
000110 52 6f 03 3c 95 67 02 bc 49 c4 2e ba 29 1b 4c 3b
       0.008022146 -0.007959266 -0.0006666822 0.0031144118
000120 8f 53 17 3c 4d f5 55 3a d7 5e 05 bc ed 01 8e 3c
       0.0092362305 0.0008161858 -0.008140287 0.017334903
000130 83 20 07 3c fb 41 5e 38 72 be 78 bb cc f7 9b bb
       0.0082474975 5.2990374e-05 -0.003795531 -0.0047597643
000140 c3 e0 1a 3c 91 46 86 bc 2b fb 98 b9 4c bf 0e 3b
       0.009453001 -0.01639107 -0.00029178834 0.0021781502
000150 b8 84 1b 3c d8 25 a0 bc 30 c2 a5 ba 3d 65 5f 3c
       0.009492092 -0.019549295 -0.0012646373 0.013634977
000160 4f 76 68 3c 9b 78 4e bb 4d a9 66 3c c7 ca 83 bc
       0.014188363 -0.0031504992 0.01407845 -0.016087903
000170 70 99 3e 3d 7a 99 79 3c f8 69 3b 3c da d5 1b 3a
       0.04653305 0.015234346 0.011438839 0.0005944647
000180 aa cc fa 3c 77 4b d2 3c 71 e7 10 bc b0 7c c5 3b
       0.03061517 0.02567075 -0.008844242 0.006026827
000190 d5 d7 b5 3c 07 f2 b3 bc bc 3a 19 bd 75 b1 d7 bb
       0.022197643 -0.021965994 -0.03740953 -0.006582434
0001a0 9f f8 a8 3a 4a d6 0f bb 8a 6d 05 3d 4b 27 5c 3c
       0.0012891478 -0.0021947795 0.032575168 0.013437103
0001b0 90 5f 5f 3c 8d ad ed 3b 82 30 d8 3c 5f e7 91 bc
       0.013633624 0.007253355 0.026390318 -0.017810522
0001c0 90 ea a7 bc 7f 07 2b 3c db ec 9c 3c 7c 9e 95 3c
       -0.02049759 0.010438799 0.01915591 0.018264048
0001d0 77 4e b1 bc 17 d2 8e bc f3 3e e6 3b 7d 8c c6 3a
       -0.02164386 -0.017434163 0.007026547 0.001514807
0001e0 ab 8c 7e bc f5 9a 57 3c a3 6c dc 3a 97 af d6 3b
       -0.015536468 0.013159503 0.0016817044 0.0065516937
0001f0 d3 00 ad bc 98 4e 84 bc b1 61 84 bc 3f c6 1e 3d
       -0.021118557 -0.016150758 -0.016159864 0.03876328
000200 4f 4a 2d bd b2 bd d2 bb 98 29 8f 3c 5a 6d 02 bb
       -0.042307194 -0.006431305 0.017475888 -0.0019901604
000210 73 bb b8 3c de 3a 8d 3c 08 d9 0b bc 12 76 e9 bb
       0.02255032 0.017239984 -0.008535631 -0.007124671
000220 f4 87 90 bc 3b 7d 8c bc 4f ad 2c bb 67 82 3a bc
       -0.017642953 -0.017149558 -0.0026348417 -0.011383629
000230 07 b5 1f 3c 3f a7 c2 3c 03 7a 0c 3d 69 b7 c9 bc
       0.00974775 0.02376139 0.034296047 -0.02462359
000240 cf 39 9e 3c 0b 55 7b ba 0b 57 52 3b a5 a3 af 3c
       0.019314675 -0.00095875625 0.0032095339 0.021440336
000250 3a 02 33 bb d2 e2 e5 ba f2 51 9c bc 88 02 81 bb
       -0.002731456 -0.0017538911 -0.019082043 -0.0039370693
000260 9a 0e 4b bd 23 c3 fb 3b 23 84 0f bd f3 02 df bc
       -0.049574472 0.007683174 -0.035038125 -0.027223086
000270 f6 67 32 3c 6e 19 0d bc aa 66 7a 3c 8d ed 60 bc
       0.010889044 -0.00861202 0.015283266 -0.0137285115
000280 8b fb ab 3c 23 0f 5d 3a 44 35 4a bc b8 7f f6 b9
       0.020993968 0.00084327365 -0.012341801 -0.00047015934
000290 de e0 2f bc 81 24 8d 3c e3 0f f2 3c ef 54 02 bd
       -0.010734765 0.01722932 0.029548591 -0.03181928
0002a0 99 68 4a bc f8 e0 64 ba 12 c5 83 3b 43 26 3e bc
       -0.01235404 -0.0008731033 0.0040212953 -0.011605802
0002b0 eb 5f cc 3c e7 7c 00 3d ed 48 4d 3c ab d4 97 bc
       0.024948081 0.031369116 0.012529594 -0.018534025
0002c0 ad a6 2a 3c 98 bd 9d bc bb 95 7f bc 9b 8b f6 3b
       0.010415715 -0.019255444 -0.015599663 0.0075239665
0002d0 19 63 9d 3b 21 b0 ac 3c 8d c1 82 bc 8d 3f 0d 3c
       0.004803073 0.021080079 -0.015961433 0.008621109
0002e0 d0 30 a9 bc 15 7f 9d 3c 2d 05 c9 3b 3b 24 9d 3c
       -0.020653158 0.019225636 0.00613465 0.019182315
0002f0 0a c5 5b b9 5f bd 01 bd b9 3d a5 bc 86 bc 03 bc
       -0.0002095887 -0.03167474 -0.020171033 -0.008040553
000300 d5 34 9e bc 83 fe a0 3c ae 58 c2 3c 17 3a 97 bc
       -0.019312302 0.01965261 0.023723926 -0.018460317
000310 f7 b2 96 bb cc 86 05 3c 37 3e 95 bb 72 14 83 3c
       -0.004598971 0.008149814 -0.0045545357 0.01600096
000320 97 f9 86 bc 33 9c 1e bb 0b a8 23 bc ca 00 ea 3c
       -0.016476436 -0.0024201989 -0.009988795 0.02856483
000330 9b ac 9f 3c 7b 08 1a 3c 9b 62 29 bd a6 f9 91 bb
       0.019491484 0.009401436 -0.041353803 -0.0044548092
000340 b6 6b b7 3b 9d e8 05 3c 21 8e 04 bd a1 00 93 bc
       0.005597557 0.008173135 -0.032362107 -0.017944636
000350 6f b8 7b bc 83 2e 36 bd ef 6e 30 3c 37 0d d3 bb
       -0.015363797 -0.04447795 0.010768636 -0.0064407843
000360 45 b6 59 bc 7f 11 80 bc d3 72 60 bc c3 28 69 bd
       -0.013288085 -0.015633343 -0.013699251 -0.05692364
000370 27 ef ce bb 29 2e 09 3b 40 3f 57 3c 2a a3 74 3c
       -0.0063151303 0.0020932055 0.013137639 0.0149314795
000380 e7 bc 29 3c 77 3d 04 3c 64 2e 1f bd b3 3e a9 3c
       0.010359979 0.008071295 -0.0388626 0.02065978
000390 83 05 c8 3c d1 44 c9 bc ff f2 dc 3c 77 d7 2c bc
       0.02441669 -0.024568947 0.026971338 -0.010549418
0003a0 c5 8c 97 3b 0d 13 6f 3b 98 5a 95 3b 92 d4 a9 3c
       0.0046249353 0.003647986 0.0045579188 0.020731244
0003b0 79 0e 0d 3d f2 d6 4a bc 06 79 40 3c ed 70 e4 3b
       0.03443763 -0.0123803485 0.011747604 0.0069714696
0003c0 ed ba 4e 3c df 22 f3 3c 0d 75 78 bb 0f 1b 39 bc
       0.012617809 0.029679714 -0.0037911565 -0.011297955
0003d0 e6 18 a8 3c b0 83 da bb 45 e5 e2 bb 76 bb a5 3c
       0.020519685 -0.0066685304 -0.0069243037 0.02023099
0003e0 3f b0 28 bc d7 c9 5a bb f4 b5 1c bc 23 3d 57 3c
       -0.010295927 -0.0033384466 -0.009564865 0.013137135
0003f0 0a c4 d6 3a c7 fe 4c 3c bc fa 82 3b b0 93 19 bc
       0.0016385328 0.0125119155 0.003997175 -0.00937359

action_model._continuous_distribution.mu.bias f4 [2]
000000 00 00 00 00 00 00 00 00
       0.0 0.0

network_body.observation_encoder.processors.0.normalizer.running_mean f4 [8]
000000 0d e9 14 40 2e 23 f8 3e 24 4f 19 40 c3 b7 9f c1
       2.3267243 0.4846434 2.3954554 -19.964727
000010 69 8c ff 3e 5b a0 02 33 3e da 0e bf bf ec 97 3f
       0.49911812 3.0413826e-08 -0.5580176 1.1869124

network_body.observation_encoder.processors.0.normalizer.running_variance f4 [8]
000000 bb c9 08 44 08 19 70 40 08 3a 1e 45 e0 26 c8 43
       547.15204 3.7515278 2531.627 400.3037
000010 89 f1 9f 3f 00 00 80 3f f8 89 13 42 b0 4a 37 43
       1.2495586 1.0 36.884735 183.29175

network_body.processors.0.normalizer.running_mean f4 [8]
000000 0d e9 14 40 2e 23 f8 3e 24 4f 19 40 c3 b7 9f c1
       2.3267243 0.4846434 2.3954554 -19.964727
000010 69 8c ff 3e 5b a0 02 33 3e da 0e bf bf ec 97 3f
       0.49911812 3.0413826e-08 -0.5580176 1.1869124

network_body.processors.0.normalizer.running_variance f4 [8]
000000 bb c9 08 44 08 19 70 40 08 3a 1e 45 e0 26 c8 43
       547.15204 3.7515278 2531.627 400.3037
000010 89 f1 9f 3f 00 00 80 3f f8 89 13 42 b0 4a 37 43
       1.2495586 1.0 36.884735 183.29175

network_body._body_endoder.seq_layers.0.weight f4 [128, 8]
000000 6c f0 bb 3c 11 c2 b6 3e d8 c0 25 3f b8 68 22 bd
       0.02294179 0.35694936 0.6474738 -0.03965065
000010 59 cb 8f bd 11 75 88 3e 53 28 2f bf 84 71 b1 3e
       -0.07021207 0.26651815 -0.68420905 0.34656918
000020 d7 4c 79 3e 1c 85 8c be 27 7c fa bc d7 66 4b bf
       0.24345718 -0.27445304 -0.030576779 -0.79453796
000030 64 c6 1c be 6c aa 0c 3f 85 d2 dc 3e 9c 62 79 3e
       -0.15310055 0.54947543 0.43129364 0.24354023
000040 0c dc e1 3d 7c 7d 8e 3e a5 7f fb be f3 72 81 be
       0.11028299 0.27830112 -0.49120823 -0.25283012
000050 8e cf 90 be 90 4e b9 be d2 c5 a3 be 84 ef 0d be
       -0.28283352 -0.3619275 -0.31986862 -0.13860899
000060 77 ea 35 3e d3 d1 be 3e 50 a2 16 3e 67 d1 92 3e
       0.17765222 0.37269458 0.14710355 0.28675386
000070 72 81 48 3d 4c ba a1 3e 62 24 0e bf e5 50 8b 3e
       0.048951574 0.31587446 -0.55524266 0.27210155
000080 d3 f1 b0 bb ee 26 92 3e 5b b8 da bd 88 cd 00 3e
       -0.0053999214 0.28545326 -0.10679694 0.12578404
000090 dc 56 81 3d 7b 73 4d 3d 64 91 26 bf 92 60 62 3e
       0.06315395 0.05015896 -0.650656 0.22107151
0000a0 1b 78 c3 3d ef c7 f1 be bc 98 c2 be e7 a1 d1 3c
       0.09544393 -0.4722285 -0.38007152 0.025589896
0000b0 76 a1 b5 3e 6c 38 b1 be 03 74 11 bf be f5 00 3e
       0.35474747 -0.3461336 -0.56817645 0.12593743
0000c0 c5 6b ae 3e bb ea 21 3e 76 00 b3 3e 8a 73 7f be
       0.34066597 0.15812199 0.3496129 -0.24946418
0000d0 60 6b 93 3d 57 f6 e4 3e 43 f3 02 bd d6 0c 09 3e
       0.071982145 0.44719192 -0.031970274 0.13383803
0000e0 c7 c4 1b 3d cc 46 1b be 53 04 8e be ea 22 87 be
       0.03802946 -0.15163726 -0.27737674 -0.26393825
0000f0 99 8b 4c 3e 36 12 d5 bd 56 07 b6 3e 56 9e 9c be
       0.19975127 -0.10403864 0.35552472 -0.3058955
000100 31 3a 06 be 5f 9c b2 be f9 e7 6d bd 3b 5f a7 be
       -0.13108136 -0.34884927 -0.058082554 -0.32689843
000110 c4 de ab 3d 52 90 8e be e3 bc 1b 3f a1 f1 8a 3e
       0.083920985 -0.27844483 0.60835093 0.27137473
000120 35 70 f1 be 7c 20 2c 3d 94 03 4c be 9a 8a 59 3e
       -0.4715592 0.042023167 -0.1992324 0.21244279
000130 dc 32 01 3f 31 9b 3f bc 42 e3 bd be 47 b6 6d 3f
       0.5046823 -0.011694715 -0.37087446 0.9285626
000140 73 7b 09 be 3d 54 e0 bc fc b9 2c 3d 00 3e fc be
       -0.13425998 -0.027383918 0.042169556 -0.49266052
000150 62 23 82 bd 3c 23 b8 bd 08 a2 43 be 1d 20 94 bd
       -0.06354405 -0.089910954 -0.19104779 -0.072326876
000160 8c 50 0b bf a7 4c c8 3e 45 d9 20 3e 14 eb ea be
       -0.5441978 0.3912098 0.15707882 -0.45882475
000170 6f 46 75 3e d9 15 7f 3e 7e b4 02 be 9e 06 ce 3e
       0.2395265 0.24910678 -0.12764165 0.40239424
000180 1a e7 b7 3e 46 8d 04 3f e4 2b 81 be 79 16 e1 3d
       0.35918504 0.51778066 -0.25228798 0.109906144
000190 17 39 4d be 4d 19 78 3d e5 d3 0f be ea 9d c2 be
       -0.2004131 0.060571004 -0.14045675 -0.38011104
0001a0 64 02 13 be af a2 20 3f 19 b7 de 3d 58 0e d5 be
       -0.1435638 0.62748235 0.10874767 -0.41612506
0001b0 6f a4 35 3c 2e 05 ed 3e 5c 64 1e 3f 38 3b b6 bc
       0.011086567 0.46293014 0.61871886 -0.022245035
0001c0 89 08 2a 3e b3 d4 e9 3e 48 6f 32 3e 5c a0 31 bf
       0.16604818 0.4567009 0.17425263 -0.69385314
0001d0 41 f3 e6 3e 30 39 16 be 4c 62 c5 3e e4 4e 69 bd
       0.45107463 -0.14670253 0.38551557 -0.05696
0001e0 8a ef b7 3e b2 b3 07 3d fc da 10 be 04 96 a1 bd
       0.3592494 0.033130355 -0.14146036 -0.07889941
0001f0 ac 20 04 3f aa 66 bd be b2 e1 b7 be 04 00 10 be
       0.51612353 -0.3699239 -0.3591438 -0.14062506
000200 c7 2d 81 3e 1d 74 20 be e2 da 09 bd 99 7f 16 3e
       0.25230238 -0.15669294 -0.03365601 0.14697112
000210 da a1 9a 3d b2 c5 46 3f 06 58 2b 3f a4 fa 91 3b
       0.07550402 0.7764541 0.6693119 0.0044549275
000220 6f d7 13 3f 26 f1 dc be c5 2f 2c be 83 70 af bd
       0.577506 -0.43152732 -0.16815098 -0.08566382
000230 28 0e 21 3e d7 cd 92 be fc cf 79 3e 87 b5 c8 be
       0.15728056 -0.28672668 0.24395746 -0.39200994
000240 dd 5f c0 be 3b 2e 49 bd 86 ee 02 be 7a b6 85 be
       -0.37573138 -0.049116354 -0.12786302 -0.2611578
000250 24 0b 4b be 25 eb 18 3d 0f 06 22 be 5e 7c 5a 3e
       -0.19828469 0.037333626 -0.15822624 0.21336505
000260 fb c7 8f 3e 43 f9 93 3e 32 4b 90 3e d9 ee 8f 3d
       0.2808226 0.2890111 0.2818237 0.070279785
000270 6f fa a3 be 36 ef dd 3e c1 ec 0a be bb 7e 6d 3e
       -0.32027003 0.43346566 -0.13566877 0.23192875
000280 ea 79 0e bf 53 b5 87 be de c9 f7 bd a5 6a 36 bc
       -0.55654776 -0.26505527 -0.1209905 -0.0111338245
000290 1d db 72 bf 3c c0 03 bf 24 a3 bf be a8 63 83 bf
       -0.9486559 -0.514652 -0.37429154 -1.0264788
0002a0 70 85 ee 3d 91 ba 54 3e 7d 16 d8 3e 6b dd 06 3f
       0.11646545 0.20774294 0.42204657 0.52681607
0002b0 87 0b 41 3d fa 0c cf 3c e7 34 08 bf 2a 1e 7e be
       0.047130134 0.025274742 -0.5320572 -0.24816194
0002c0 cb ae 04 bf fd 43 2d 3f 3d c2 85 be 1a 42 57 bf
       -0.5182921 0.67681867 -0.26124755 -0.8408524
0002d0 d6 9c d5 be d8 71 0d be b5 fc 71 3e 89 c7 a4 bc
       -0.4172122 -0.13812959 0.23631556 -0.020114677
0002e0 91 8a d5 3d 7f 3a 4f 3e 03 14 1e be 16 95 90 bd
       0.1042682 0.20237158 -0.15437321 -0.07059686
0002f0 0f d7 33 be 0f 20 ab 3b 41 f2 1a bf 17 5c e2 3d
       -0.17562507 0.0052223275 -0.605259 0.11052721
000300 ab 9a ce 3e 69 6a ec 3e a9 4a d1 3d d3 ea 38 3f
       0.40352377 0.46174935 0.102193184 0.72233313
000310 06 f9 e2 3e ec 67 92 be f6 a0 8b bd 76 04 b1 be
       0.44330615 -0.2859491 -0.0681781 -0.34573716
000320 5d d5 92 3d dd b2 0e bd 04 a4 37 3e f0 0f 3d bf
       0.07169602 -0.034838546 0.17933661 -0.73852444
000330 64 aa f0 3e 28 95 e0 bc 33 3d 0a bc 9e 45 8c be
       0.47004998 -0.027414873 -0.008437443 -0.27396864
000340 d2 72 3f bd 2e e3 6f 3e 7b 5c dc be 86 d8 1b 3e
       -0.04674036 0.23426506 -0.43039307 0.15219316
000350 24 bf 06 3e f0 53 30 3f 96 f2 61 3e a0 8e 30 3e
       0.13158852 0.6887808 0.22065195 0.17241907
000360 83 fa 26 3d 6c 89 cf 3d 2e 99 07 3f e7 ba 09 3f
       0.04076625 0.10133633 0.5296811 0.53800815
000370 60 f8 8b 3e c5 2b 32 3d ec a6 2b be 9e 32 ad 3b
       0.27337933 0.043498773 -0.16762894 0.005285575
000380 9f 2d bf bd b7 f6 79 be 81 63 8f 3d d1 70 91 3f
       -0.093348734 -0.2441052 0.07001401 1.1362554
000390 12 c1 45 3e b7 0e ca 3e 07 08 3b bf 1f db 2a 3e
       0.19311932 0.39464352 -0.73059124 0.1668515
0003a0 1d 20 67 be 8c 6c ba 3d 55 08 0d 3e e2 57 a8 3e
       -0.22570844 0.09102735 0.1377271 0.3287955
0003b0 87 44 b4 be 41 e7 3b bd b4 85 90 be e2 67 35 3d
       -0.35208532 -0.045874838 -0.28227007 0.044288523
0003c0 0b 4d ff bd 12 f3 43 bf 53 3a b2 3e 34 f9 47 3f
       -0.12465867 -0.7654277 0.34810123 0.7811463
0003d0 a7 03 0c 3f 3b 63 69 3e ec 58 c6 be 75 d7 15 3d
       0.54693073 0.2279176 -0.38739717 0.03658243
0003e0 55 59 85 be d5 ce 3d bd d7 2a d7 3e 84 c5 81 be
       -0.26044717 -0.04633983 0.42024872 -0.25346005
0003f0 34 fb 95 3e 78 4e c1 bd c4 57 22 3f 02 f2 f3 3a
       0.29293215 -0.09438795 0.6341517 0.0018611553

network_body._body_endoder.seq_layers.0.bias f4 [128]
000000 00 00 00 00 00 00 00 00 00 00 00 00 00 00 00 00
       0.0 0.0 0.0 0.0
000010 00 00 00 00 00 00 00 00 00 00 00 00 00 00 00 00
       0.0 0.0 0.0 0.0
000020 00 00 00 00 00 00 00 00 00 00 00 00 00 00 00 00
       0.0 0.0 0.0 0.0
000030 00 00 00 00 00 00 00 00 00 00 00 00 00 00 00 00
       0.0 0.0 0.0 0.0
000040 00 00 00 00 00 00 00 00 00 00 00 00 00 00 00 00
       0.0 0.0 0.0 0.0
000050 00 00 00 00 00 00 00 00 00 00 00 00 00 00 00 00
       0.0 0.0 0.0 0.0
000060 00 00 00 00 00 00 00 00 00 00 00 00 00 00 00 00
       0.0 0.0 0.0 0.0
000070 00 00 00 00 00 00 00 00 00 00 00 00 00 00 00 00
       0.0 0.0 0.0 0.0
000080 00 00 00 00 00 00 00 00 00 00 00 00 00 00 00 00
       0.0 0.0 0.0 0.0
000090 00 00 00 00 00 00 00 00 00 00 00 00 00 00 00 00
       0.0 0.0 0.0 0.0
0000a0 00 00 00 00 00 00 00 00 00 00 00 00 00 00 00 00
       0.0 0.0 0.0 0.0
0000b0 00 00 00 00 00 00 00 00 00 00 00 00 00 00 00 00
       0.0 0.0 0.0 0.0
0000c0 00 00 00 00 00 00 00 00 00 00 00 00 00 00 00 00
       0.0 0.0 0.0 0.0
0000d0 00 00 00 00 00 00 00 00 00 00 00 00 00 00 00 00
       0.0 0.0 0.0 0.0
0000e0 00 00 00 00 00 00 00 00 00 00 00 00 00 00 00 00
       0.0 0.0 0.0 0.0
0000f0 00 00 00 00 00 00 00 00 00 00 00 00 00 00 00 00
       0.0 0.0 0.0 0.0
000100 00 00 00 00 00 00 00 00 00 00 00 00 00 00 00 00
       0.0 0.0 0.0 0.0
000110 00 00 00 00 00 00 00 00 00 00 00 00 00 00 00 00
       0.0 0.0 0.0 0.0
000120 00 00 00 00 00 00 00 00 00 00 00 00 00 00 00 00
       0.0 0.0 0.0 0.0
000130 00 00 00 00 00 00 00 00 00 00 00 00 00 00 00 00
       0.0 0.0 0.0 0.0
000140 00 00 00 00 00 00 00 00 00 00 00 00 00 00 00 00
       0.0 0.0 0.0 0.0
000150 00 00 00 00 00 00 00 00 00 00 00 00 00 00 00 00
       0.0 0.0 0.0 0.0
000160 00 00 00 00 00 00 00 00 00 00 00 00 00 00 00 00
       0.0 0.0 0.0 0.0
000170 00 00 00 00 00 00 00 00 00 00 00 00 00 00 00 00
       0.0 0.0 0.0 0.0
000180 00 00 00 00 00 00 00 00 00 00 00 00 00 00 00 00
       0.0 0.0 0.0 0.0
000190 00 00 00 00 00 00 00 00 00 00 00 00 00 00 00 00
       0.0 0.0 0.0 0.0
0001a0 00 00 00 00 00 00 00 00 00 00 00 00 00 00 00 00
       0.0 0.0 0.0 0.0
0001b0 00 00 00 00 00 00 00 00 00 00 00 00 00 00 00 00
       0.0 0.0 0.0 0.0
0001c0 00 00 00 00 00 00 00 00 00 00 00 00 00 00 00 00
       0.0 0.0 0.0 0.0
0001d0 00 00 00 00 00 00 00 00 00 00 00 00 00 00 00 00
       0.0 0.0 0.0 0.0
0001e0 00 00 00 00 00 00 00 00 00 00 00 00 00 00 00 00
       0.0 0.0 0.0 0.0
0001f0 00 00 00 00 00 00 00 00 00 00 00 00 00 00 00 00
       0.0 0.0 0.0 0.0

network_body._body_endoder.seq_layers.2.weight f4 [128, 128]
000000 ef 79 9f be fb a0 18 3e 05 7c 06 be 73 b8 dc 3d
       -0.31147715 0.14905159 -0.13133247 0.107773684
000010 23 8e 1f 3c 94 a0 e8 3c 9a 16 66 bd 97 f0 09 3e
       0.009738478 0.028396882 -0.0561739 0.13470684
000020 a4 c2 fe bd 2c 0c 81 bd dc 41 b6 bd a1 d9 8a bc
       -0.124394685 -0.0630115 -0.088992804 -0.016949477
000030 14 74 d8 bd 79 25 ca 3b d7 9e 54 3d 34 28 25 bb
       -0.10569015 0.006169018 0.051909294 -0.0025200965
000040 3d 2a 28 3d 31 fe 8c 3c 89 06 13 bd 6e ec 33 bd
       0.041055907 0.017211052 -0.035894904 -0.04392665
000050 ca ad 86 bd d7 29 a4 3d 05 78 6c bd 85 1c c7 bd
       -0.065761164 0.08015793 -0.057731647 -0.097222365
000060 73 18 17 bc e9 31 ad bd 0e 3f 10 be ea 9a f6 bd
       -0.009222138 -0.08456785 -0.14086553 -0.12041266
000070 99 ca 4e bd 35 0d 43 3e 73 29 19 3d 4d 5e 10 be
       -0.05048618 0.19048007 0.037393045 -0.14098473
000080 38 ed 04 be a1 67 5f ba f3 a8 63 3d 5d 0d c9 3d
       -0.12981117 -0.0008522217 0.055581044 0.09817002
000090 06 70 a6 bd af 11 29 3d 1a 5c 7e 3d 0d b1 c8 bd
       -0.081268355 0.04127663 0.062099554 -0.09799395
0000a0 38 08 16 3e 28 bd 09 3d bb f9 91 3d b8 c0 35 bd
       0.14651573 0.03362766 0.071277104 -0.044373244
0000b0 57 fa 7c bc 06 00 c2 3d 8a 1e 72 3d ed 70 e9 bd
       -0.015440545 0.09472661 0.059111156 -0.11398492
0000c0 96 43 84 bd 8c fe 98 3d f3 3b a0 bd fc c2 26 3e
       -0.064582035 0.07470426 -0.078239344 0.16285318
0000d0 39 17 90 3d 50 1b 64 bd 89 18 e6 3d 1a 91 9f bd
       0.07035679 -0.05569011 0.112351485 -0.07791348
0000e0 4a d7 99 ba 8a 2c 78 bd 77 3a 3d 3e 87 ee a7 bd
       -0.0011737135 -0.06058935 0.18479334 -0.08199792
0000f0 14 cd bf bd 47 56 a3 bd 82 8f 4a bd e0 34 09 bd
       -0.093652874 -0.079754405 -0.049453266 -0.03349769
000100 ee ce ae 3d 0f eb bc bd f3 46 8d bd 0b 13 61 3e
       0.085355625 -0.09224521 -0.06898298 0.2197992
000110 f3 3d 8b bd 00 34 16 be a3 30 5e bd f5 6d 16 be
       -0.06798925 -0.14668274 -0.054245602 -0.14690383
000120 df 3b b1 bd 10 b8 f3 3a 66 11 26 bc 39 87 6d 3d
       -0.08653998 0.0018594284 -0.010135984 0.057990286
000130 00 3a 25 3d 93 1e 12 3c da 9d 2d 3d fd d4 39 bd
       0.040338516 0.008918422 0.042386867 -0.045369137
000140 60 63 8a 3c 25 20 06 3d fc 3b e2 bd 9f d5 e5 3d
       0.016893089 0.0327455 -0.11046597 0.112223856
000150 c9 82 8b bc 1f 74 4e 3d a5 48 ba 3d 74 f3 5f be
       -0.017030137 0.05040371 0.09095887 -0.21870214
000160 14 37 41 bd c0 65 36 bd 56 a7 d1 3c d4 80 17 3e
       -0.047171667 -0.04453063 0.025592487 0.14795238
000170 a1 81 e8 3d b3 11 08 3c 53 a8 e3 3c 78 cc 57 bd
       0.1135285 0.008305001 0.027790224 -0.05268523
000180 de 22 df 3d b2 93 ca 3d 74 b6 fa 3b 1d 24 21 3c
       0.10895322 0.09891452 0.0076511446 0.00983527
000190 1d 11 d9 3c f2 c7 65 be 81 9b 04 be 0f c9 01 be
       0.026497418 -0.22439554 -0.12949945 -0.12674354
0001a0 96 8f 00 bc a2 e9 71 bc 60 45 ac 3d 9f 56 9e 3c
       -0.007846734 -0.014765175 0.0841167 0.019328414
0001b0 6c 09 44 3d ed 4d 82 3d 07 04 92 bd bb e4 dd bb
       0.047860548 0.063625194 -0.071296744 -0.0067716516
0001c0 b7 9d 08 3b 06 98 0b bd 1c 84 a5 3c 90 d0 99 3d
       0.0020845958 -0.034080528 0.020204596 0.07510483
0001d0 f0 0a a7 bd 79 8c d0 3d 20 1b ab bd d0 71 2a 3d
       -0.08156383 0.10183043 -0.08354783 0.041612446
0001e0 48 8d 81 bd 77 48 d4 3d 64 e1 38 bd 33 a8 66 be
       -0.063257754 0.10365384 -0.045136824 -0.225251
0001f0 81 2d 4f bd c5 64 b9 3d 2b bd ba 3d 57 40 f5 bd
       -0.050580505 0.090524234 0.09118112 -0.119751625
000200 e9 8f 59 bc 18 e3 19 3c 6f 73 0c be 4a 9b ec 3b
       -0.01327894 0.009392522 -0.1371591 0.0072206603
000210 15 67 01 be a9 34 87 bd 04 94 22 be 61 69 2a 3d
       -0.12636979 -0.06601841 -0.15876776 0.041604403
000220 54 cf 76 3d 22 9d 8c 3d fc ed 2f bd b7 26 f9 bd
       0.060256317 0.06865908 -0.04295157 -0.121655874
000230 6b 42 db bd 45 ac 80 be 6c 4e a3 3c 8b f2 72 3d
       -0.107060276 -0.2513143 0.019934855 0.05931334
000240 fd 09 a4 3d 10 02 ad bd c5 83 a4 bd c5 0e b2 bd
       0.080097176 -0.08447659 -0.080329455 -0.08694223
000250 70 97 e1 bd 1a c9 38 bd c5 73 93 bc 1e 6d bc 3d
       -0.110152125 -0.04511366 -0.01799954 0.092005
000260 2b 3f 1e 3e f7 c8 c3 bd 71 83 d0 bd 14 7d 33 3e
       0.15453784 -0.095598154 -0.101813205 0.17528182
000270 56 8a 63 3d 1a b0 87 3d b1 34 3f 3d 14 98 4d 3d
       0.05555185 0.066253856 0.04668111 0.05019386
000280 21 53 92 3c db 60 06 bd 54 20 6f bd f5 f0 a5 b9
       0.017861905 -0.032807212 -0.05838044 -0.0003165078
000290 fc 61 dd bd e7 c1 8a bd b4 b6 26 bc a7 7e 5b bd
       -0.10809705 -0.06775265 -0.010175396 -0.053587582
0002a0 01 cb 3d 3d d5 65 9a bd 90 26 e7 bd 10 4a 25 bd
       0.046336178 -0.07538954 -0.11286652 -0.040353835
0002b0 45 96 8c 3d f7 ca 96 bd 3b f9 6b bd c2 5f b3 3c
       0.06864599 -0.07362931 -0.05761073 0.021896247
0002c0 72 43 c3 bd 57 5c 82 bd 7f 88 87 bd a4 3f 3a 3e
       -0.095343485 -0.06365269 -0.066178314 0.1818834
0002d0 88 5c a5 be 30 75 19 be 64 9b 25 3d 9a 14 17 bd
       -0.32297158 -0.1498611 0.040431395 -0.03688488
0002e0 da 68 ab bd 81 47 86 bd 50 59 9f bd b5 ad 40 3d
       -0.08369608 -0.06556607 -0.07780707 0.04704066
0002f0 49 ed bb 3c 30 c1 ac 3d 55 05 9d be 4b 3d 35 ba
       0.022940295 0.08435285 -0.3066813 -0.00069137354
000300 36 ad 15 be 67 51 3e 3c c9 cf b8 bc 61 cc ea 3d
       -0.14616856 0.0116160875 -0.022560017 0.114647634
000310 06 7c 00 be 35 7d 6d 3e 2a 88 0d bd b9 a0 86 bd
       -0.12547311 0.23192294 -0.034553684 -0.06573624
000320 84 95 50 3e 45 65 98 3d 48 e9 fe bd 49 35 a1 3d
       0.20369536 0.07441191 -0.124468386 0.078714915
000330 0e 55 e9 3d ea 2e e5 3d 00 fa 00 3e 90 33 d7 bd
       0.11393176 0.11190589 0.12595367 -0.10507882
000340 22 40 68 bd 9f 05 5c 3c e7 9e 6e bc 84 b0 03 3e
       -0.056701787 0.013429075 -0.014564252 0.12860304
000350 77 6b 52 3e de 38 a4 bd e9 d4 35 bd 0d 0f 7f 3d
       0.20548807 -0.08018659 -0.0443925 0.062270213
000360 5a 35 d3 3d 05 16 34 be 2e 15 5b bd d8 6f 02 3e
       0.103129104 -0.17586525 -0.053486995 0.12737978
000370 ee 8b 13 3d 6b d6 a3 bc 39 76 89 bd 43 ea 0d bc
       0.03602212 -0.019999703 -0.06712002 -0.008661809
000380 93 d6 cf bc 21 9c b0 bd 02 55 62 be 1d 5f 89 bd
       -0.025370872 -0.08623529 -0.2210274 -0.067075945
000390 e5 86 01 bd 43 dc 23 bd 36 96 d2 3d 79 eb db 3d
       -0.031622786 -0.04000498 0.10282557 0.10738272
0003a0 76 0a 99 bd f6 eb b3 bd 76 cb ba bd f6 0c 27 3d
       -0.074726984 -0.0878524 -0.09120838 0.040783845
0003b0 b9 eb 2e be f6 76 f2 bd c2 d1 2c bd ab d1 d9 bd
       -0.17082109 -0.11839096 -0.04219223 -0.10635694
0003c0 30 9e 78 3d 94 1f 9c bd 50 75 f4 bd 59 aa fc bd
       0.060697734 -0.076232105 -0.11936438 -0.12337179
0003d0 a3 38 7f bd 69 c2 b0 3c ef 33 a4 3d 6c c6 f7 3c
       -0.062309872 0.021577077 0.08017718 0.030245982
0003e0 31 30 c9 bc b8 7c bd 3d 33 2b ed 3d 1d 2f 54 3e
       -0.024559112 0.09252304 0.11580505 0.20721097
0003f0 94 0f 88 3d 03 76 56 be 71 30 92 3e 1f 2d 0a 3e
       0.06643596 -0.20943455 0.28552583 0.13493775

network_body._body_endoder.seq_layers.2.bias f4 [128]
000000 00 00 00 00 00 00 00 00 00 00 00 00 00 00 00 00
       0.0 0.0 0.0 0.0
000010 00 00 00 00 00 00 00 00 00 00 00 00 00 00 00 00
       0.0 0.0 0.0 0.0
000020 00 00 00 00 00 00 00 00 00 00 00 00 00 00 00 00
       0.0 0.0 0.0 0.0
000030 00 00 00 00 00 00 00 00 00 00 00 00 00 00 00 00
       0.0 0.0 0.0 0.0
000040 00 00 00 00 00 00 00 00 00 00 00 00 00 00 00 00
       0.0 0.0 0.0 0.0
000050 00 00 00 00 00 00 00 00 00 00 00 00 00 00 00 00
       0.0 0.0 0.0 0.0
000060 00 00 00 00 00 00 00 00 00 00 00 00 00 00 00 00
       0.0 0.0 0.0 0.0
000070 00 00 00 00 00 00 00 00 00 00 00 00 00 00 00 00
       0.0 0.0 0.0 0.0
000080 00 00 00 00 00 00 00 00 00 00 00 00 00 00 00 00
       0.0 0.0 0.0 0.0
000090 00 00 00 00 00 00 00 00 00 00 00 00 00 00 00 00
       0.0 0.0 0.0 0.0
0000a0 00 00 00 00 00 00 00 00 00 00 00 00 00 00 00 00
       0.0 0.0 0.0 0.0
0000b0 00 00 00 00 00 00 00 00 00 00 00 00 00 00 00 00
       0.0 0.0 0.0 0.0
0000c0 00 00 00 00 00 00 00 00 00 00 00 00 00 00 00 00
       0.0 0.0 0.0 0.0
0000d0 00 00 00 00 00 00 00 00 00 00 00 00 00 00 00 00
       0.0 0.0 0.0 0.0
0000e0 00 00 00 00 00 00 00 00 00 00 00 00 00 00 00 00
       0.0 0.0 0.0 0.0
0000f0 00 00 00 00 00 00 00 00 00 00 00 00 00 00 00 00
       0.0 0.0 0.0 0.0
000100 00 00 00 00 00 00 00 00 00 00 00 00 00 00 00 00
       0.0 0.0 0.0 0.0
000110 00 00 00 00 00 00 00 00 00 00 00 00 00 00 00 00
       0.0 0.0 0.0 0.0
000120 00 00 00 00 00 00 00 00 00 00 00 00 00 00 00 00
       0.0 0.0 0.0 0.0
000130 00 00 00 00 00 00 00 00 00 00 00 00 00 00 00 00
       0.0 0.0 0.0 0.0
000140 00 00 00 00 00 00 00 00 00 00 00 00 00 00 00 00
       0.0 0.0 0.0 0.0
000150 00 00 00 00 00 00 00 00 00 00 00 00 00 00 00 00
       0.0 0.0 0.0 0.0
000160 00 00 00 00 00 00 00 00 00 00 00 00 00 00 00 00
       0.0 0.0 0.0 0.0
000170 00 00 00 00 00 00 00 00 00 00 00 00 00 00 00 00
       0.0 0.0 0.0 0.0
000180 00 00 00 00 00 00 00 00 00 00 00 00 00 00 00 00
       0.0 0.0 0.0 0.0
000190 00 00 00 00 00 00 00 00 00 00 00 00 00 00 00 00
       0.0 0.0 0.0 0.0
0001a0 00 00 00 00 00 00 00 00 00 00 00 00 00 00 00 00
       0.0 0.0 0.0 0.0
0001b0 00 00 00 00 00 00 00 00 00 00 00 00 00 00 00 00
       0.0 0.0 0.0 0.0
0001c0 00 00 00 00 00 00 00 00 00 00 00 00 00 00 00 00
       0.0 0.0 0.0 0.0
0001d0 00 00 00 00 00 00 00 00 00 00 00 00 00 00 00 00
       0.0 0.0 0.0 0.0
0001e0 00 00 00 00 00 00 00 00 00 00 00 00 00 00 00 00
       0.0 0.0 0.0 0.0
0001f0 00 00 00 00 00 00 00 00 00 00 00 00 00 00 00 00
       0.0 0.0 0.0 0.0
