Basic_Path_Finding/Assets/TorchModels/results/PlayerMaze1/PlayerMaze/PlayerMaze-10528.pt (torch, 154263 bytes, 20 tensors)

network_body.observation_encoder.processors.0.normalizer.running_mean f4 [8]
00000000: 3aa4 8940 c64b e83e a2f3 80bf 0dfc 9fc1
00000010: dcf9 ff3e 1db7 d4b1 ef09 9c3f 6ffd e2be
4.301297 0.4537031 -1.0074351 -19.998072 0.49995315 -6.1908296e-09 1.2190531 -0.4433398

network_body.observation_encoder.processors.0.normalizer.running_variance f4 [8]
00000000: ff5c 0446 0a11 0d43 6130 8b47 9e7a c843
00000010: 0dff 9f3f 0000 803f 7c1f 1346 3bb3 0646
8471.249 141.06656 71264.76 400.95795 1.249971 1.0 9415.871 8620.808

network_body.processors.0.normalizer.running_mean f4 [8]
00000000: 3aa4 8940 c64b e83e a2f3 80bf 0dfc 9fc1
00000010: dcf9 ff3e 1db7 d4b1 ef09 9c3f 6ffd e2be
4.301297 0.4537031 -1.0074351 -19.998072 0.49995315 -6.1908296e-09 1.2190531 -0.4433398

network_body.processors.0.normalizer.running_variance f4 [8]
00000000: ff5c 0446 0a11 0d43 6130 8b47 9e7a c843
00000010: 0dff 9f3f 0000 803f 7c1f 1346 3bb3 0646
8471.249 141.06656 71264.76 400.95795 1.249971 1.0 9415.871 8620.808

network_body._body_endoder.seq_layers.0.weight f4 [128, 8]
00000000: 6315 413f b612 363e 4997 c43e 940e c73c
00000010: c6b3 653e 2d7e 743e 14fb 1c3f 0fdc a53c
00000020: 660f f9bd f8e1 a5be 16e5 cb3c 139a 0bbe
00000030: 1d1f 953e bb53 37be 487c b03e a828 c8be
00000040: 844f 13bf f3d6 05bf 01b3 15bf 22cd 8abe
00000050: b8f4 b63d bbc3 623c 7cfc 543d 693c d8be
00000060: 3ee6 86be 64eb bdbd fb07 5c3e 813a 59be
00000070: e4f8 07be f399 c73e e3ab 59bc 594e c23d
00000080: a544 4abf 7806 4d3e 9a8e 093f ab50 45be
00000090: 0a8d e13b 113c d5bd 11a7 8fbe 8ad9 833e
000000a0: 9e3f babe 32ae 053f fa94 433c c48c 533d
000000b0: 60fe 05bf d558 833e 3038 913e dfdd 053f
000000c0: a513 1fbf b083 59be c770 053e f051 c23e
000000d0: 908c 6c3d 21ce 5f3e 4caf ca3c a265 fbbd
000000e0: 59ff da3d a7d3 8bbd 3311 22be 6a54 debe
000000f0: fbe0 90bd 9990 45be d591 88bd 91a1 573d
00000100: ef07 66bf 6585 bb3c fb2a 64be f853 50be
00000110: 2502 bdbe 6892 8c3e 7da9 663c cdb4 1d3f
00000120: 0747 df3e 2ef3 0c3f 67cd cbbc 9b32 eb3e
00000130: fae0 bdbe f88b c8bd 085b 66be ecb4 cc3e
00000140: a1c0 45bc c544 24be 1bf3 453f 2cd1 cebe
00000150: 99da a8be 62b6 8bbe addd 42be c613 8b3e
00000160: d17d ce3d 7638 70be 1c63 abbd 6366 0dbf
00000170: 29b5 3dbe 8a96 163e 3583 3a3f 0451 f5bd
00000180: 9042 023e bee5 49bf 9e7a 0b3d fc95 d3be
00000190: 2396 bdbe 595b c03d 8e3b 8cbd 2b5a aebe
000001a0: e630 1fbd 2dd7 d83e 9288 bbbc 2a30 01be
000001b0: d7e9 143e a7c9 c4be 4f40 1abe b289 b43e
000001c0: 658e c1bd 9a6c 5d3e 4569 f2be bd79 a13d
000001d0: e882 0abf 1653 80be 243e 8fbe 0cd7 083f
000001e0: eaa1 d7be b8be 90be 3d1c 2e3f 8626 3a3d
000001f0: 47fc 39be f6be 5b3e 2a2f 8a3e 52d2 143f
00000200: 2a5b ac3c 84a2 dabd d530 bf3e 337f 3ebe
00000210: b76a d6bd f242 4e3d 6704 063e 0b02 413f
00000220: caed 2e3f e978 78be b861 c7be 9227 b1be
00000230: 965e 933e 2437 323e 0794 343e 8984 8b3e
00000240: 708a 28bb 3e20 b13e 18a6 633e fa1d 503d
00000250: b3cd e93c 0c07 99be 0860 223d 90dc 8bbe
00000260: 7b22 403f a65d d03e afbb 1b3e 7f68 a6be
00000270: 37cf 4e3e 8a07 b63d 6c19 993e 09e5 743f
00000280: da8b d9bd 697e df3e 26e5 843d 995d b0bd
00000290: c517 85be 46aa 5f3e 0155 84be c955 2d3d
000002a0: b0d2 693d e671 113f 4163 a83c 56bf 6dbf
000002b0: bdc7 903d 153d d33e 0171 853d 7d9f 92be
000002c0: 88ed 14be be9b 1cbd 0603 083e 5cd5 e63d
000002d0: 18e9 9c3e bcce 5dbe 2ea1 f33e 58b6 b13e
000002e0: 87b9 c63e 86d3 ff3d 1c65 43bf 3e14 a23f
000002f0: 39fc d43e 8339 5fbd ca27 323e b4a7 87be
00000300: 7c66 28bf 6761 da3e cb1a f33e 256a cebc
00000310: 603e 2abf 569e babe ce77 9abe f329 95be
00000320: ad8a b33e 23ec e63e 6a54 97ba 9d5a a2be
00000330: 7b5c 8bbd ad4f b7be 1b1d abbe 1208 a43e
00000340: e628 b3bd 4946 5bbe 958a 673e 3702 c8be
00000350: 65e7 1c3e ec59 d5be 1887 24be 927b dabe
00000360: 0183 0bbf ad54 8ebe a9e5 733e e518 cebe
00000370: eae0 a33e fa84 4f3f 37ed 29bd 7673 9bbc
00000380: 9330 1abe 855a 383e e483 083e d10f 763e
00000390: 0769 f33e 6125 03be 244f 31bf af0e a6be
000003a0: 1887 0ebd 94e6 823d a0d0 ac3e 8642 82be
000003b0: 32f2 c6be 2658 583e 1d37 febe d058 a3bd
000003c0: 9add bc3a 6081 83be 3746 c2bd 050c 993e
000003d0: 3c25 263e f59c ec3e 28b8 babc cd55 aa3e
000003e0: a639 bc3c 2014 163d 0ba9 debe a4d8 033d
000003f0: 2cce 67be 045e 7c3e 5e07 003e ce96 67be
0.7542326 0.17780575 0.3839667 0.024298944 0.2243186 0.23876257 0.61320615 0.020246534
-0.1216114 -0.32398963 0.02488951 -0.13632993 0.291253 -0.17903034 0.3446982 -0.39093518
-0.57543206 -0.5228111 -0.58476263 -0.2710963 0.08933395 0.013840611 0.0519986 -0.4223359
-0.26347536 -0.09273413 0.2148742 -0.21213724 -0.13278538 0.3898464 -0.01328561 0.094876
-0.79010993 0.20021999 0.5373322 -0.19269054 0.0068832682 -0.104118474 -0.2805715 0.25751907
-0.3637666 0.52218926 0.011937374 0.051647916 -0.5234127 0.2565371 0.2836318 0.52291673
-0.6213935 -0.21241641 0.13031302 0.37953138 0.05775124 0.21855976 0.024741791 -0.12275244
0.10693235 -0.06827479 -0.15826873 -0.43423778 -0.070741616 -0.19293441 -0.0666844 0.052644316
-0.89855856 0.022890756 -0.22282021 -0.20344532 -0.369157 0.2745545 0.014078495 0.61604005
0.43608877 0.5505856 -0.024878217 0.45937046 -0.37085706 -0.09792322 -0.22495663 0.39981782
-0.012069852 -0.16041858 0.77324075 -0.4039396 -0.32979277 -0.27287585 -0.19029875 0.27163523
0.10082591 -0.23459038 -0.08368513 -0.55234355 -0.18526138 0.14705864 0.72856456 -0.11978343
0.12720704 -0.78866184 0.034052484 -0.41325366 -0.37028608 0.09392423 -0.06847297 -0.34053168
-0.038864993 0.42351666 -0.02289227 -0.1261603 0.14542328 -0.384351 -0.15063594 0.35261303
-0.09450988 0.2162346 -0.4734594 0.07884548 -0.54106 -0.2506339 -0.27977097 0.53453135
-0.42115718 -0.28270507 0.6801184 0.045446895 -0.18162642 0.21459565 0.26989108 0.58133423
0.021039564 -0.10675529 0.37341943 -0.1860321 -0.10469573 0.050356813 0.13087617 0.7539374
0.6833159 -0.24264874 -0.3894174 -0.34600502 0.287831 0.17403847 0.17634593 0.27249554
-0.002571728 0.3459491 0.22231328 0.050809838 0.028540468 -0.2988819 0.039642364 -0.27316713
0.75052613 0.40696448 0.15208314 -0.325016 0.20196234 0.08888157 0.29902208 0.9566198
-0.10622378 0.4365113 0.06489019 -0.08611602 -0.25994697 0.21842298 -0.25846103 0.04231814
0.057085693 0.5681442 0.02055514 -0.9287008 0.07069347 0.4125754 0.065156944 -0.28637305
-0.14543736 -0.038234465 0.13282403 0.11271164 0.30646586 -0.21660894 0.47583908 0.3470943
0.3881342 0.12491517 -0.76326156 1.2662427 0.4159868 -0.054498207 0.17397991 -0.26495135
-0.6578138 0.42652437 0.4748138 -0.025197098 -0.66501427 -0.36448926 -0.3016953 -0.29133567
0.3506674 0.45102033 -0.0011545543 -0.31709757 -0.068047486 -0.35802975 -0.33420643 0.32037407
-0.08748035 -0.2141353 0.22611459 -0.3906419 0.15322645 -0.41670167 -0.16067159 -0.42672402
-0.5449677 -0.27798977 0.23818077 -0.40253368 0.32007533 0.8106228 -0.04148599 -0.018975955
-0.15057592 0.1800328 0.13331562 0.24029471 0.47541067 -0.12807228 -0.69261384 -0.32433078
-0.034796804 0.063916355 0.33752918 -0.25441378 -0.38856655 0.21127376 -0.49651423 -0.07975924
0.0014409304 -0.25684643 -0.09486049 0.29891983 0.16225141 0.462135 -0.02279289 0.33268586
0.022976708 0.036640286 -0.43488345 0.032189026 -0.22637242 0.24645239 0.1250281 -0.22616121

network_body._body_endoder.seq_layers.0.bias f4 [128]
00000000: 0000 0000 0000 0000 0000 0000 0000 0000
00000010: 0000 0000 0000 0000 0000 0000 0000 0000
00000020: 0000 0000 0000 0000 0000 0000 0000 0000
00000030: 0000 0000 0000 0000 0000 0000 0000 0000
00000040: 0000 0000 0000 0000 0000 0000 0000 0000
00000050: 0000 0000 0000 0000 0000 0000 0000 0000
00000060: 0000 0000 0000 0000 0000 0000 0000 0000
00000070: 0000 0000 0000 0000 0000 0000 0000 0000
00000080: 0000 0000 0000 0000 0000 0000 0000 0000
00000090: 0000 0000 0000 0000 0000 0000 0000 0000
000000a0: 0000 0000 0000 0000 0000 0000 0000 0000
000000b0: 0000 0000 0000 0000 0000 0000 0000 0000
000000c0: 0000 0000 0000 0000 0000 0000 0000 0000
000000d0: 0000 0000 0000 0000 0000 0000 0000 0000
000000e0: 0000 0000 0000 0000 0000 0000 0000 0000
000000f0: 0000 0000 0000 0000 0000 0000 0000 0000
00000100: 0000 0000 0000 0000 0000 0000 0000 0000
00000110: 0000 0000 0000 0000 0000 0000 0000 0000
00000120: 0000 0000 0000 0000 0000 0000 0000 0000
00000130: 0000 0000 0000 0000 0000 0000 0000 0000
00000140: 0000 0000 0000 0000 0000 0000 0000 0000
00000150: 0000 0000 0000 0000 0000 0000 0000 0000
00000160: 0000 0000 0000 0000 0000 0000 0000 0000
00000170: 0000 0000 0000 0000 0000 0000 0000 0000
00000180: 0000 0000 0000 0000 0000 0000 0000 0000
00000190: 0000 0000 0000 0000 0000 0000 0000 0000
000001a0: 0000 0000 0000 0000 0000 0000 0000 0000
000001b0: 0000 0000 0000 0000 0000 0000 0000 0000
000001c0: 0000 0000 0000 0000 0000 0000 0000 0000
000001d0: 0000 0000 0000 0000 0000 0000 0000 0000
000001e0: 0000 0000 0000 0000 0000 0000 0000 0000
000001f0: 0000 0000 0000 0000 0000 0000 0000 0000
0.0 0.0 0.0 0.0 0.0 0.0 0.0 0.0
0.0 0.0 0.0 0.0 0.0 0.0 0.0 0.0
0.0 0.0 0.0 0.0 0.0 0.0 0.0 0.0
0.0 0.0 0.0 0.0 0.0 0.0 0.0 0.0
0.0 0.0 0.0 0.0 0.0 0.0 0.0 0.0
0.0 0.0 0.0 0.0 0.0 0.0 0.0 0.0
0.0 0.0 0.0 0.0 0.0 0.0 0.0 0.0
0.0 0.0 0.0 0.0 0.0 0.0 0.0 0.0
0.0 0.0 0.0 0.0 0.0 0.0 0.0 0.0
0.0 0.0 0.0 0.0 0.0 0.0 0.0 0.0
0.0 0.0 0.0 0.0 0.0 0.0 0.0 0.0
0.0 0.0 0.0 0.0 0.0 0.0 0.0 0.0
0.0 0.0 0.0 0.0 0.0 0.0 0.0 0.0
0.0 0.0 0.0 0.0 0.0 0.0 0.0 0.0
0.0 0.0 0.0 0.0 0.0 0.0 0.0 0.0
0.0 0.0 0.0 0.0 0.0 0.0 0.0 0.0

network_body._body_endoder.seq_layers.2.weight f4 [128, 128]
00000000: d31f c3bd a812 803d ffca 8e3d a8eb 6b3d
00000010: 174a a8bd c7ca a2bd ef0e ff3c e68a 62bd
00000020: 5573 a6bc b649 75bd 3816 a2bd 223e 9e3b
00000030: 92e9 c63d c639 74bd 3bab 9a3d 8442 18bd
00000040: 3cc2 813d 4188 5bbd 9538 06bd 3d74 b3bd
00000050: 550c 64bc a11e e2bb d817 f43d 89cf a3bc
00000060: a9a4 693d cb76 c3bd e8b2 fa3c 252b c7b9
00000070: 92cf 36be af30 1e3e 4930 c1bd 5bff 0ebd
00000080: 613b 133e 22e1 68bb 4a58 fabd 8544 993a
00000090: d608 703d 00c8 cfbd ee2a dfbd 38c4 3ebd
000000a0: 04c3 a93b ceec 90bd 42c0 c1bb cd20 5cbd
000000b0: dd93 4cbd 2fee aebd 2924 a03d 4ec8 3b3d
000000c0: 7399 55bc 6031 9a3d b954 cebb 31cf 063c
000000d0: 4020 0abe 0d0d e33d 22c1 58bc f671 7c3d
000000e0: 72b3 7c3d b669 e03c 8a69 65bd 7ac4 2f3d
000000f0: 99d6 11bd e68e 67bc 44e7 87bd 06d3 f8bc
00000100: 0459 153e 7094 95bd 47c4 0ebd 5e0b 813d
00000110: 15d1 823d 89f8 233c bf0b 84bc 0313 593d
00000120: 7b07 123b 636b 8cbd 1854 013b fed6 ad3d
00000130: c8df a6bd 5772 29bd 3c2b a6bc fffa b6bc
00000140: b126 84bd 553c a2bd c0ab 9e3d 4dfe 65bd
00000150: 661e 1e3e 7b8c 93bd 3fe0 f2bb c32b c63d
00000160: d4ce 423d ae05 d03d b4ea 0f3e 331d 80bd
00000170: fa6a da3c 324a 2c3d d65f 873c bec8 6b3a
00000180: 00d5 ddbc 4a7e efbd 558d 9c3d 4dbb c8bd
00000190: 52e0 50bc 4a71 acbd 90ff cdba a9bd 953c
000001a0: fc03 f4bd acd7 043e 3df5 993a a9b9 853e
000001b0: 7118 53bd 2037 803d f1f8 d33b 7cbf ce3a
000001c0: 6841 81bb 0c16 6b3b 9a02 f03d d017 89bd
000001d0: aa3c 893d a64f a83d 3ee4 3ebc 3bdf e63c
000001e0: ccdc 3f3c 1753 353d a91f 36bc f100 86bd
000001f0: 01f2 9cbd 3d10 1b3d dbd6 da3c 0797 b3bd
00000200: ae7d 783e 8dde 87bd 6466 afbd 3794 f23d
00000210: 39f9 28bd da67 2b3e fda5 bebc 9ab6 81bc
00000220: ff9b 62bd df54 d6bd 6d5b 903d 6c77 f03b
00000230: 42f7 e33c ecd3 c73d cb72 b13d 9425 77bb
00000240: 2d56 b23d d6b5 f53c 001b 4f3d 34e5 3d3c
00000250: a73f c03d 43fb 2dbe 73c5 24be ce5f 46bc
00000260: 60b1 223d 1711 34be 999e 4dbd d9d4 bdbd
00000270: 87a4 213c 1404 7e3d 97a6 62bc f218 ecbd
00000280: 8003 463d 4342 3fbd de42 f23d 5a08 023c
00000290: 26dc 1f3d 7fea 1dbd 1ec6 bc3c b58d a2bc
000002a0: 6baf 4fbc 91bd 343d f34e d53d 85aa 433e
000002b0: 18ee 5cbe 71c4 d33c 109d 323e b053 f5bb
000002c0: ad4c d7bc 35d2 dbbd a3ed 853c 0c07 36bc
000002d0: e88e cebd a04b b13b a2e9 603c 8297 053e
000002e0: 94f7 b23c a996 263e de9f b4bd 3579 8a3d
000002f0: dcd5 c03c 6f31 82bd 46a1 813c 7baa a23d
00000300: 411d 423c 6b15 cc3d 40b9 11bd 5a7e 0e3d
00000310: e6a4 8ebb 08ae b63c b448 8bbc b3a0 493d
00000320: 50fe 54bd aee0 223d fd6d c83d 8dc0 69bc
00000330: 0631 2a3e 01cf 993d b061 6bbd 652e 0abe
00000340: 3f7a 1cbd b354 e03d 488d c43d 432a 043e
00000350: b2d9 01bd 4345 163e 8fab 093e 953f 67bd
00000360: 77d5 293c a8d8 9cbc 10ba ce3d 3a18 18be
00000370: 40b6 8ebd ed2b 9bbd f1b8 08bd d3bb f43c
00000380: 66b4 27be a216 f43d 2b4f ef3c ab6a 783d
00000390: b60f 873d 5fe6 36bd 6584 06be ddb9 92bd
000003a0: 385b 7b3d b6fc 5cbb 4000 013e bc83 b03d
000003b0: c28e bcbc aff5 563d 18e4 a9bc 2f07 2b3d
000003c0: 0d97 df3d 3b20 febb b10b 3b3d 6e67 55bd
000003d0: 625f 1bbe 628c 0abe 5662 38be 8bdb d8bc
000003e0: defe 12be d7d7 343d 6951 70bb 9c51 6f3d
000003f0: ad61 5f3d b757 003c 14cd 54be 2c85 d33a
-0.09527554 0.062535584 0.06972312 0.057597786 -0.082172565 -0.07948833 0.03113505 -0.055308245
-0.020318666 -0.05988475 -0.07914394 0.004829184 0.09712519 -0.05962541 0.07552191 -0.03717281
0.063358754 -0.05359674 -0.032768805 -0.08762405 -0.013918956 -0.006900624 0.1191861 -0.019996421
0.057041798 -0.09544142 0.030602887 -0.00037988383 -0.1785262 0.15448259 -0.09433038 -0.034911495
0.1437812 -0.003553458 -0.12223871 0.0011693394 0.058602177 -0.10145569 -0.1089686 -0.046573848
0.0051807184 -0.07076417 -0.0059128115 -0.05374222 -0.0499457 -0.08541524 0.07819397 0.045845322
-0.013037073 0.07528949 -0.006296721 0.008228109 -0.13488865 0.110864736 -0.01322964 0.06163212
0.06169457 0.027394157 -0.056008853 0.042911984 -0.035605047 -0.014133191 -0.06635907 -0.030374061
0.14584738 -0.07303703 -0.034855153 0.06300996 0.063875355 0.010007986 -0.016118882 0.052996647
0.002228229 -0.0685642 0.0019733962 0.08488272 -0.08148152 -0.04136881 -0.020284288 -0.022336481
-0.06452692 -0.07921664 0.077476025 -0.056150723 0.15441284 -0.07204529 -0.007411986 0.09676316
0.047560528 0.10157333 0.14054376 -0.06255569 0.026662339 0.042062946 0.01652519 0.00089944515
-0.027079105 -0.116940096 0.076441444 -0.0980135 -0.012748795 -0.08420046 -0.0015716422 0.018278914
-0.119148225 0.12972897 0.001174606 0.2611821 -0.05153698 0.06260514 0.006468885 0.001577362
-0.0039445646 0.0035871295 0.11719246 -0.06693995 0.06701024 0.08218317 -0.011651097 0.028182616
0.011710357 0.044268694 -0.011115947 -0.06543148 -0.07663346 0.037857283 0.02671378 -0.087690406
0.24266693 -0.06634245 -0.08564451 0.11844676 -0.041253302 0.16738835 -0.023272509 -0.015834142
-0.05532455 -0.104654066 0.07048688 0.007338455 0.027827863 0.09757218 0.08664473 -0.0037711607
0.08707843 0.029993933 0.05056286 0.011590291 0.09387141 -0.1699038 -0.16090946 -0.012107803
0.03971994 -0.17584644 -0.05020008 -0.09269113 0.0098658865 0.062015608 -0.013833663 -0.115281954
0.04834318 -0.04669405 0.1182916 0.0079365615 0.03902831 -0.03855371 0.023043688 -0.019842962
-0.0126761 0.044126097 0.10415449 0.19108017 -0.215752 0.025850506 0.17442727 -0.007486783
-0.026281679 -0.10733453 0.016348666 -0.011110079 -0.10085851 0.0054106265 0.013727577 0.13046077
0.02184657 0.1626841 -0.08819555 0.067614 0.023539476 -0.06357085 0.015823971 0.07942673
0.011847795 0.09965023 -0.03557706 0.034788467 -0.0043531535 0.022299781 -0.017002441 0.04922552
-0.052000344 0.039765052 0.097866036 -0.014267099 0.16620263 0.07510186 -0.05746621 -0.1349426
-0.03820252 0.10953655 0.0959726 0.12906747 -0.03170175 0.14674859 0.1344435 -0.05645712
0.010365835 -0.019146279 0.10094082 -0.14852992 -0.06968355 -0.075767376 -0.0333795 0.029874718
-0.1637741 0.11918379 0.029212555 0.0606486 0.065947935 -0.044653293 -0.13136442 -0.07164357
0.06136629 -0.0033719963 0.12597752 0.08618876 -0.023017291 0.052480396 -0.020738646 0.041754898
0.109174825 -0.007755307 0.045665447 -0.05210059 -0.15173104 -0.13530114 -0.18006262 -0.026471874
-0.14355037 0.044151153 -0.0036669618 0.05842744 0.05453651 0.007833413 -0.20781356 0.0016137711

network_body._body_endoder.seq_layers.2.bias f4 [128]
00000000: 0000 0000 0000 0000 0000 0000 0000 0000
00000010: 0000 0000 0000 0000 0000 0000 0000 0000
00000020: 0000 0000 0000 0000 0000 0000 0000 0000
00000030: 0000 0000 0000 0000 0000 0000 0000 0000
00000040: 0000 0000 0000 0000 0000 0000 0000 0000
00000050: 0000 0000 0000 0000 0000 0000 0000 0000
00000060: 0000 0000 0000 0000 0000 0000 0000 0000
00000070: 0000 0000 0000 0000 0000 0000 0000 0000
00000080: 0000 0000 0000 0000 0000 0000 0000 0000
00000090: 0000 0000 0000 0000 0000 0000 0000 0000
000000a0: 0000 0000 0000 0000 0000 0000 0000 0000
000000b0: 0000 0000 0000 0000 0000 0000 0000 0000
000000c0: 0000 0000 0000 0000 0000 0000 0000 0000
000000d0: 0000 0000 0000 0000 0000 0000 0000 0000
000000e0: 0000 0000 0000 0000 0000 0000 0000 0000
000000f0: 0000 0000 0000 0000 0000 0000 0000 0000
00000100: 0000 0000 0000 0000 0000 0000 0000 0000
00000110: 0000 0000 0000 0000 0000 0000 0000 0000
00000120: 0000 0000 0000 0000 0000 0000 0000 0000
00000130: 0000 0000 0000 0000 0000 0000 0000 0000
00000140: 0000 0000 0000 0000 0000 0000 0000 0000
00000150: 0000 0000 0000 0000 0000 0000 0000 0000
00000160: 0000 0000 0000 0000 0000 0000 0000 0000
00000170: 0000 0000 0000 0000 0000 0000 0000 0000
00000180: 0000 0000 0000 0000 0000 0000 0000 0000
00000190: 0000 0000 0000 0000 0000 0000 0000 0000
000001a0: 0000 0000 0000 0000 0000 0000 0000 0000
000001b0: 0000 0000 0000 0000 0000 0000 0000 0000
000001c0: 0000 0000 0000 0000 0000 0000 0000 0000
000001d0: 0000 0000 0000 0000 0000 0000 0000 0000
000001e0: 0000 0000 0000 0000 0000 0000 0000 0000
000001f0: 0000 0000 0000 0000 0000 0000 0000 0000
0.0 0.0 0.0 0.0 0.0 0.0 0.0 0.0
0.0 0.0 0.0 0.0 0.0 0.0 0.0 0.0
0.0 0.0 0.0 0.0 0.0 0.0 0.0 0.0
0.0 0.0 0.0 0.0 0.0 0.0 0.0 0.0
0.0 0.0 0.0 0.0 0.0 0.0 0.0 0.0
0.0 0.0 0.0 0.0 0.0 0.0 0.0 0.0
0.0 0.0 0.0 0.0 0.0 0.0 0.0 0.0
0.0 0.0 0.0 0.0 0.0 0.0 0.0 0.0
0.0 0.0 0.0 0.0 0.0 0.0 0.0 0.0
0.0 0.0 0.0 0.0 0.0 0.0 0.0 0.0
0.0 0.0 0.0 0.0 0.0 0.0 0.0 0.0
0.0 0.0 0.0 0.0 0.0 0.0 0.0 0.0
0.0 0.0 0.0 0.0 0.0 0.0 0.0 0.0
0.0 0.0 0.0 0.0 0.0 0.0 0.0 0.0
0.0 0.0 0.0 0.0 0.0 0.0 0.0 0.0
0.0 0.0 0.0 0.0 0.0 0.0 0.0 0.0

action_model._continuous_distribution.log_sigma f4 [1, 2]
00000000: 0000 0000 0000 0000
0.0 0.0

action_model._continuous_distribution.mu.weight f4 [2, 128]
00000000: c058 a63c fbd3 a53b 2b8f 9d3c 655d d4bc
00000010: 3347 8dbc 05f8 a9bb 0b42 cc3c 0406 a73c
00000020: da9a 4bbc aba8 33bc effb 97bc 2be6 0a3d
00000030: 67b1 37bd c614 30bb 4727 c6bb d337 19bc
00000040: 7f67 0abd af20 72bb 7d11 6fbc 2022 b7bc
00000050: 473f 06bd 2c35 86bb 435f d73b eb9f 26bc
00000060: 9aa7 71bb d30b 86bc a773 083b 79dd 3d3b
00000070: 735c 85bb 2125 89bc 2b00 c33c 9373 453c
00000080: 2afe 69bc a69b 11bc 2c8a a03b d3c4 11bc
00000090: 2a2f d4bb bb94 67bc bbd8 cb3c 34c5 95b9
000000a0: c762 c2bc a870 75bb 7219 fa3b ff83 3fbd
000000b0: 8fe6 853b 1a99 74bc f262 4f3c e959 90bc
000000c0: 9ea5 a6bc 701a 22bd 39c0 c43b 38da da3c
000000d0: 3a5e c23b 5dad 04bd 2768 b2bc aaf8 b03a
000000e0: 1831 d1bc ab06 e4bc 0b8c 033c 3f5c 563c
000000f0: f2f5 e43a d7d6 1abc 25b5 b5ba 20f9 4dbc
00000100: bf0e 04bc ff06 99bc e1d1 133c c486 39bd
00000110: 8980 013d f390 7ebc 825d 15bc 80ad 74bc
00000120: a98c ad3c fcd1 33bd 7a37 5fbc 0796 0cbc
00000130: d383 723c 3459 99bc 4258 8cbb b5d3 eabc
00000140: 0eac 89bc 2952 bc3c 83d9 79bc db25 a6bb
00000150: 5f44 6bbc fb63 fb3c a706 1c37 67db c6bb
00000160: dbf3 483d 1b17 09bc bf46 da3c d6d9 1dbd
00000170: e730 313c 356d 96bc 308c f03c 9262 debb
00000180: 3923 953b 2b52 9ebc d3e8 1aba 5f50 5e3c
00000190: 2554 40bc fb12 ad3b d5cc 6dbc cf56 f53b
000001a0: 1cca adbc a089 153c 5740 033c 82cc 40bc
000001b0: 6050 853b 1502 a3bc 95cb efbc fbf6 5c3c
000001c0: 4328 283b 5829 6d3b 2f3b e23c 530c dcbc
000001d0: 7222 903c c5ab 71bc 70c6 d03c e350 d9bb
000001e0: 4bb3 633c 12c0 183c 22f6 fa3b 9fdb bfbb
000001f0: f7b8 55bc 81eb 8fbb b015 4d3c 92e6 91bc
00000200: 4aaf 24bc 7dcf b83b faee d5bc 2b98 bb3c
00000210: a1a4 153d 9b17 2bbc c32c 55bb 3207 9b3a
00000220: 0ace ab3b 1305 d1ba df63 c13a a3f8 063d
00000230: 0ba9 bebc 3a63 af39 c288 743c db39 91ba
00000240: e3b5 92bc 97d8 9c3c 9f7d a3ba 9242 8ebc
00000250: babf d03a 4477 90bc cce9 4a3c 4658 833c
00000260: 11ed 3abc c455 11bc 5f3e c83c ba3f 2e3b
00000270: 836a 743c 703a 193a df4d 393c dbe2 163c
00000280: abb2 863a 97f9 013d eb29 a6bc 883f 9b3b
00000290: 0952 8b3b 5fd6 debb abf1 9bbc 828d af3b
000002a0: ed0f 9e3b 3362 123c 1a6b 443d 39ae 993c
000002b0: b74a 53bc e06b 75bc e1ef 8f3b 8a8b f83c
000002c0: b5cd 4dbc ea37 c33c e751 79ba e851 50bc
000002d0: 0b34 113d d6ae 843b 7b1e cb3c f8ba 383a
000002e0: e413 abbb 1f3e 363c 7875 10bb 408e 12bd
000002f0: 9ac8 a73c 36e5 04bc c326 4a3c 6199 8e3b
00000300: 7b23 5a3c bff2 983c 1159 8fbb 32b3 d2bc
00000310: cbc0 a3bc c975 96bc d824 a63b c775 5dbb
00000320: 6473 b1bb 7a1d d53b c7cd 80bc e2bd 7f3c
00000330: 647a 00b9 d872 333c 3123 c23c 7c60 40bc
00000340: 48e7 5d3c 57e4 cf39 2bcd 75bc d7e8 893c
00000350: b4fa 35bc 720e 8cbc 7b66 34bc e2ff d7bc
00000360: 5a8b 6e3b 3db9 d9bb 0a84 c63c 6a19 b4bc
00000370: 45da 593c 364e bfbb 5b55 7ebc d647 37ba
00000380: 65ab 6cbc 53b7 983c 11f2 af3c 7a66 69bc
00000390: c29f 6e3a 4659 3bbc afe1 c5bc 0844 ef3c
000003a0: 437e 82bc 3641 93bc cbb8 a3bc 976b 3a3c
000003b0: 8f30 ff3c b564 ba3c c7a4 83bb 55af d4bc
000003c0: 8b43 0d3c cde2 ba3c 1c8e 8abc 4fe1 35bc
000003d0: 3f2e 6a3c 6bb8 12bc bad7 d53b b23e 62bb
000003e0: d170 1a3c aa17 33bc 3bd5 c53b 1f8d 173c
000003f0: 1cbc 143d 713b 153c 6645 c7bc 1072 063c
0.020305991 0.0050606704 0.019233307 -0.02592344 -0.017245864 -0.005187037 0.024933835 0.02038861
-0.012427056 -0.010965507 -0.018552748 0.03391091 -0.04484692 -0.002686785 -0.0060471627 -0.009351688
-0.033790108 -0.003694575 -0.014591572 -0.02235514 -0.03277519 -0.004095694 0.0065726354 -0.010169963
-0.003687358 -0.01636306 0.0020820887 0.002897112 -0.0040698587 -0.016741337 0.023803791 0.012051481
-0.014281789 -0.008887207 0.004899284 -0.008897024 -0.006475349 -0.014134581 0.024883619 -0.00028566422
-0.023728741 -0.0037451182 0.007632428 -0.04675674 0.0040863226 -0.01492908 0.012657868 -0.017620998
-0.020342644 -0.039575994 0.00600436 0.026715383 0.005931643 -0.032391895 -0.02177818 0.0013501842
-0.025536105 -0.02783521 0.008028994 0.013083517 0.0017468317 -0.009450636 -0.0013863189 -0.012571603
-0.008060156 -0.018680094 0.009022207 -0.04529454 0.03161672 -0.015537488 -0.009116532 -0.014933944
0.021185236 -0.04390143 -0.0136240665 -0.008580691 0.014801937 -0.018719293 -0.004282982 -0.028665403
-0.016805675 0.022988396 -0.015249613 -0.0050704307 -0.014359563 0.030687323 9.299873e-06 -0.0060686353
0.049060684 -0.008367325 0.026645062 -0.038537823 0.010814882 -0.01836262 0.029363722 -0.006786653
0.004551318 -0.01932629 -0.00059093273 0.013568967 -0.011738812 0.0052818037 -0.014514168 0.007487155
-0.021214537 0.009127051 0.008010945 -0.011767508 0.0040684193 -0.019898454 -0.02927188 0.013486619
0.0025658763 0.0036187973 0.027616112 -0.026861345 0.01759455 -0.014750426 0.025485247 -0.006631957
0.013897727 0.009323137 0.007658736 -0.0058550383 -0.013044587 -0.004392088 0.012517378 -0.01781014
-0.010051558 0.005639969 -0.02611493 0.022899708 0.036533955 -0.01044264 -0.00325279 0.0011827706
0.0052430676 -0.0015946947 0.0014754495 0.032951962 -0.023273965 0.0003345253 0.014925184 -0.0011079864
-0.017908996 0.019146247 -0.0012473351 -0.017365728 0.001592628 -0.017634995 0.012384843 0.016033303
-0.01140906 -0.008870546 0.024443803 0.0026588277 0.0149179725 0.00058451947 0.01131007 0.00920936
0.0010276636 0.031732168 -0.02028366 0.004737798 0.0042517227 -0.0068004574 -0.019036135 0.005357445
0.004823676 0.008934545 0.047953703 0.018759834 -0.012896231 -0.014979333 0.0043926095 0.030339975
-0.012561251 0.023830373 -0.00095108006 -0.0127148405 0.035450023 0.0040491624 0.024794808 0.00070469035
-0.005220877 0.011123209 -0.0022042673 -0.03578019 0.020481396 -0.008111289 0.012338343 0.0043517803
0.013314123 0.018670438 -0.004374631 -0.025720213 -0.019989392 -0.018366711 0.00507031 -0.0033792125
-0.005415367 0.006503758 -0.015723122 0.015609236 -0.00012252625 0.010952674 0.023698421 -0.011741754
0.013543911 0.00039652243 -0.015002529 0.01683466 -0.011107136 -0.017096732 -0.011010761 -0.026367132
0.0036398978 -0.0066443966 0.024232883 -0.021984775 0.013296668 -0.005838181 -0.01552328 -0.00069916004
-0.0144451605 0.018642103 0.021477731 -0.014245624 0.0009102785 -0.011434859 -0.024155466 0.029207245
-0.015929347 -0.017975431 -0.019985577 0.0113781905 0.031151084 0.022753099 -0.0040174457 -0.025962511
0.0086220605 0.022813225 -0.016913466 -0.011101081 0.0142932525 -0.0089551015 0.0065259608 -0.0034522233
0.009426312 -0.010930935 0.006037382 0.0092499545 0.036312208 0.00910841 -0.024325084 0.008205906

action_model._continuous_distribution.mu.bias f4 [2]
00000000: 0000 0000 0000 0000
0.0 0.0

network_body.observation_encoder.processors.0.normalizer.running_mean f4 [8]
00000000: 3aa4 8940 c64b e83e a2f3 80bf 0dfc 9fc1
00000010: dcf9 ff3e 1db7 d4b1 ef09 9c3f 6ffd e2be
4.301297 0.4537031 -1.0074351 -19.998072 0.49995315 -6.1908296e-09 1.2190531 -0.4433398

network_body.observation_encoder.processors.0.normalizer.running_variance f4 [8]
00000000: ff5c 0446 0a11 0d43 6130 8b47 9e7a c843
00000010: 0dff 9f3f 0000 803f 7c1f 1346 3bb3 0646
8471.249 141.06656 71264.76 400.95795 1.249971 1.0 9415.871 8620.808

network_body.processors.0.normalizer.running_mean f4 [8]
00000000: 3aa4 8940 c64b e83e a2f3 80bf 0dfc 9fc1
00000010: dcf9 ff3e 1db7 d4b1 ef09 9c3f 6ffd e2be
4.301297 0.4537031 -1.0074351 -19.998072 0.49995315 -6.1908296e-09 1.2190531 -0.4433398

network_body.processors.0.normalizer.running_variance f4 [8]
00000000: ff5c 0446 0a11 0d43 6130 8b47 9e7a c843
00000010: 0dff 9f3f 0000 803f 7c1f 1346 3bb3 0646
8471.249 141.06656 71264.76 400.95795 1.249971 1.0 9415.871 8620.808

network_body._body_endoder.seq_layers.0.weight f4 [128, 8]
00000000: 4410 4f3e 05dd 88be f4f9 4f3d 0c96 30bf
00000010: e4fe 3a3b 3893 fa3e 0319 fcbd 5772 5b3f
00000020: a641 f2be d42d b9bd 360e dabc 921c ad3e
00000030: ee3a 323f aef4 963e 3b58 cd3c 9cee ecbe
00000040: 0722 bfbd 4c8b 85bd d802 d43c e753 92be
00000050: c61a db3c 5617 bc3e b748 5abe b6b2 1b3f
00000060: e24e d6bd 7182 d23e bcb9 a8be 81b8 e9be
00000070: f730 d1be 8445 74be 3a83 05be 2669 b6be
00000080: f215 fdbe 7c46 e1bd 3f04 ecbd 8693 1c3e
00000090: 3dcd 203e a169 1bbe a359 03bf b2d0 d0be
000000a0: f33a 1c3f 9135 8bbe 4dfc 7e3e 2840 c23e
000000b0: e1f2 883e c1e9 283e d185 343d b819 553d
000000c0: 26b1 a23e c6e1 bd3e 0420 bebe b6e7 09bf
000000d0: 0629 013d 1db6 b13d 52e5 3c3e 3590 7d3e
000000e0: c60f ffbe d5b4 013e 1861 e0be c6e5 a9be
000000f0: d25b 4a3d b59a 89be ecf5 a93d 26b4 773e
00000100: be17 de3e 0926 ab3d 733f 583e a57a 0f3e
00000110: 0f72 763c fdfa ddbd 3a2d 863d 7a1f 9abc
00000120: 8823 1abe be1d 3a3e f823 cbbd fc70 2e3f
00000130: ebff 963e 2d97 2ebe eee6 983e 99d1 8fbc
00000140: b044 613e a815 11be e71a 2c3f 8ba1 6b3d
00000150: eb7d 433d 04d9 5a3f 34e4 2cbe e05f be3e
00000160: f8da e6be ef69 053f 1018 c33e 8d2a 1e3d
00000170: a660 95bb a00c 76be 7c17 673e 9776 5a3e
00000180: 603c 81be 9cfe 633d 33de 8f3e 273e 743d
00000190: 2833 24be ee0b 8d3e ab1b 1cbe 8de7 8dbe
000001a0: 141f 0cbf e035 113f 48b9 3a3e 3888 fbbe
000001b0: e9cf 343e b2e1 a13b 3234 fd3e 5950 1fbe
000001c0: 9184 6fbe 8a52 293f 43df 80be b625 17bc
000001d0: f012 08be 91cc 703e be2c a43e 83ed ad3d
000001e0: 0688 26bf cca4 093c 7ff4 67be f7cf 00bf
000001f0: 7369 ad3d f9ee 8ebe 90f1 6ebe b7f5 9cbe
00000200: d16e 02be c63c f73d c84b 70be 6fd6 033e
00000210: 74cb 033e fc1d a83e 9def 463c d22b 0ebd
00000220: c846 6dbf 7d4e 3b3f 6ab6 c43e e5ad 113f
00000230: e6eb 11be 14c5 afbe 012c dd3e 3be4 a4be
00000240: 22d8 cbbc 3f5b 21bf f02f e93d f7b5 ca3e
00000250: f4f0 82bf 24f8 173f 779d e3be ae65 b3be
00000260: 0227 733e bdae 133e 40b2 033e 13e4 b7be
00000270: 3786 eb3d d322 193e a8fc 36bf c95b ed3e
00000280: 41e7 593e cf43 033e 818a 043f 0cb9 833e
00000290: 71ec fa3d edcb 553f 0eda 943c 013c 44bf
000002a0: bd16 bc3e 15ea c43e e429 513d ac31 b4be
000002b0: 099e 1fbf 6996 a1bb 6400 ef3e 8039 073d
000002c0: 83be e13e 952e b6be 0f40 19be e13f b23e
000002d0: a3cc a53e 50a2 c73d 13b2 af3d b0b5 4fbf
000002e0: 38fb 8cbe 7fec 27bd f6f9 f1be 4e6b 033f
000002f0: 31ba 3a3f 6336 d1bd 3bf8 483e d499 02bf
00000300: 2cab 16bf 2bae de3d 5dbb f83d a1e4 41bd
00000310: 3380 c63d b67b f0be 2499 063f 4ecd 33be
00000320: 1a6c 88be cd31 6ebd e33c 88bd c48f 303f
00000330: 0ab5 00be 24cf 51be 53c9 2cbd 0d3a 8e3e
00000340: d2d9 74bb 4281 f7bd 75eb 793d 4310 42be
00000350: a0ba 88be 65f8 5ebc dfee 7ebe a326 5cbe
00000360: a957 82be 473d 1c3f 3fb3 61be dcd3 0d3f
00000370: d7d1 c93e 02de 55bc 9adc 49bf 7ecb dcbd
00000380: 5a4c 9dbd 176d 9a3e ca12 093f 95d3 0abe
00000390: b4f6 88bb e5cc 9dbe 7b72 afbc d0ec d9be
000003a0: f513 d73e 0a52 29bf d4f7 2dbf 9d14 14bd
000003b0: dfe8 0c3f 1041 c63d 9f4a 36bb 3e95 b03e
000003c0: df05 55be 867c 2fbe 3ce4 ce3d 477c 97be
000003d0: 18db 2e3f 0496 c8be 494a b63e f36b 27bf
000003e0: 1baa 9d3d 03e0 ad3d 4b38 e0be ce51 3b3e
000003f0: 1e2c de3e 9347 4fbe f144 d5bc b4d1 aabe
0.20221049 -0.26731125 0.050775483 -0.68978953 0.0028533274 0.48940444 -0.12309458 0.85721344
-0.4731571 -0.09041944 -0.026618104 0.3381086 0.6962117 0.2948355 0.025066486 -0.46275795
-0.09332662 -0.065207094 0.025880262 -0.28579637 0.026746165 0.36736554 -0.21316801 0.60819566
-0.104642645 0.41115144 -0.32954204 -0.45648578 -0.4085767 -0.23854643 -0.1303834 -0.35627097
-0.49430805 -0.10999772 -0.115242474 0.1529065 0.15703292 -0.15177013 -0.5130865 -0.40784222
0.6102745 -0.27189305 0.24900933 0.37939572 0.26747802 0.1649542 0.04407293 0.05202648
0.3177578 0.37086314 -0.371338 -0.5386919 0.031533264 0.086773135 0.18446854 0.24762042
-0.49816722 0.12666638 -0.43824077 -0.33183116 0.049403973 -0.26875845 0.08298859 0.24189815
0.4337749 0.08356864 0.21117954 0.14011629 0.015041842 -0.10838888 0.06551595 -0.018813837
-0.15052617 0.18175408 -0.0991897 0.6814115 0.29492125 -0.17049856 0.29863685 -0.017555999
0.21998858 -0.14168417 0.6722855 0.057527106 0.047727507 0.8548739 -0.16883928 0.37182522
-0.45088935 0.52114767 0.38104296 0.0386148 -0.0045586405 -0.24028254 0.22567552 0.21334301
-0.25241375 0.055662736 0.28099212 0.059629586 -0.1603514 0.27548164 -0.1524493 -0.27715722
-0.5473492 0.5672283 0.18234742 -0.49127364 0.17657436 0.004940235 0.49453884 -0.15557994
-0.23390414 0.6614157 -0.25170335 -0.0092253 -0.13288474 0.23515536 0.32065386 0.084925674
-0.65051305 0.008401107 -0.22651862 -0.5031733 0.084673785 -0.27916697 -0.23334336 -0.30656216
-0.12737586 0.120721385 -0.23466408 0.12874769 0.1287058 0.32835376 0.012142089 -0.03470976
-0.9268613 0.7316664 0.3842042 0.56905967 -0.14250144 -0.34330046 0.43197635 -0.32205376
-0.024883334 -0.63029855 0.113860965 0.39591953 -1.0229783 0.5936301 -0.44456074 -0.35038513
0.23745349 0.14422126 0.12860966 -0.35916194 0.11500209 0.1495469 -0.7147927 0.4635909
0.21279623 0.12818836 0.5177384 0.25727117 0.12252129 0.8351429 0.018170383 -0.7665406
0.36736098 0.3845984 0.05106534 -0.35194147 -0.6235052 -0.0049312604 0.46679986 0.03301382
0.4409066 -0.35582414 -0.14965843 0.3481436 0.32382688 0.097477555 0.08578887 -0.8113661
-0.27535415 -0.040997025 -0.47261018 0.5133561 0.72940356 -0.102154516 0.19625942 -0.51015973
-0.5885494 0.10873064 0.12145112 -0.04733718 0.09692421 -0.46969384 0.52577424 -0.17558786
-0.26644975 -0.058152962 -0.06652238 0.6896937 -0.12569061 -0.20489174 -0.042184185 0.27778664
-0.0037361276 -0.12085201 0.061015565 -0.18951516 -0.26704884 -0.013609027 -0.2489581 -0.21499114
-0.25457504 0.61031 -0.22041033 0.55401397 0.39417908 -0.013053419 -0.78852236 -0.107810006
-0.076805785 0.30161354 0.53544295 -0.13557275 -0.0041798 -0.30820385 -0.021416893 -0.42563486
0.42007414 -0.66140807 -0.6795628 -0.03615247 0.55042833 0.096803784 -0.0027815474 0.34488863
-0.20803021 -0.17137346 0.10102126 -0.29587004 0.6830306 -0.39176953 0.3560355 -0.6539909
0.07698461 0.084899925 -0.43792948 0.18292925 0.43393034 -0.20242147 -0.02603385 -0.33363116

network_body._body_endoder.seq_layers.0.bias f4 [128]
00000000: 0000 0000 0000 0000 0000 0000 0000 0000
00000010: 0000 0000 0000 0000 0000 0000 0000 0000
00000020: 0000 0000 0000 0000 0000 0000 0000 0000
00000030: 0000 0000 0000 0000 0000 0000 0000 0000
00000040: 0000 0000 0000 0000 0000 0000 0000 0000
00000050: 0000 0000 0000 0000 0000 0000 0000 0000
00000060: 0000 0000 0000 0000 0000 0000 0000 0000
00000070: 0000 0000 0000 0000 0000 0000 0000 0000
00000080: 0000 0000 0000 0000 0000 0000 0000 0000
00000090: 0000 0000 0000 0000 0000 0000 0000 0000
000000a0: 0000 0000 0000 0000 0000 0000 0000 0000
000000b0: 0000 0000 0000 0000 0000 0000 0000 0000
000000c0: 0000 0000 0000 0000 0000 0000 0000 0000
000000d0: 0000 0000 0000 0000 0000 0000 0000 0000
000000e0: 0000 0000 0000 0000 0000 0000 0000 0000
000000f0: 0000 0000 0000 0000 0000 0000 0000 0000
00000100: 0000 0000 0000 0000 0000 0000 0000 0000
00000110: 0000 0000 0000 0000 0000 0000 0000 0000
00000120: 0000 0000 0000 0000 0000 0000 0000 0000
00000130: 0000 0000 0000 0000 0000 0000 0000 0000
00000140: 0000 0000 0000 0000 0000 0000 0000 0000
00000150: 0000 0000 0000 0000 0000 0000 0000 0000
00000160: 0000 0000 0000 0000 0000 0000 0000 0000
00000170: 0000 0000 0000 0000 0000 0000 0000 0000
00000180: 0000 0000 0000 0000 0000 0000 0000 0000
00000190: 0000 0000 0000 0000 0000 0000 0000 0000
000001a0: 0000 0000 0000 0000 0000 0000 0000 0000
000001b0: 0000 0000 0000 0000 0000 0000 0000 0000
000001c0: 0000 0000 0000 0000 0000 0000 0000 0000
000001d0: 0000 0000 0000 0000 0000 0000 0000 0000
000001e0: 0000 0000 0000 0000 0000 0000 0000 0000
000001f0: 0000 0000 0000 0000 0000 0000 0000 0000
0.0 0.0 0.0 0.0 0.0 0.0 0.0 0.0
0.0 0.0 0.0 0.0 0.0 0.0 0.0 0.0
0.0 0.0 0.0 0.0 0.0 0.0 0.0 0.0
0.0 0.0 0.0 0.0 0.0 0.0 0.0 0.0
0.0 0.0 0.0 0.0 0.0 0.0 0.0 0.0
0.0 0.0 0.0 0.0 0.0 0.0 0.0 0.0
0.0 0.0 0.0 0.0 0.0 0.0 0.0 0.0
0.0 0.0 0.0 0.0 0.0 0.0 0.0 0.0
0.0 0.0 0.0 0.0 0.0 0.0 0.0 0.0
0.0 0.0 0.0 0.0 0.0 0.0 0.0 0.0
0.0 0.0 0.0 0.0 0.0 0.0 0.0 0.0
0.0 0.0 0.0 0.0 0.0 0.0 0.0 0.0
0.0 0.0 0.0 0.0 0.0 0.0 0.0 0.0
0.0 0.0 0.0 0.0 0.0 0.0 0.0 0.0
0.0 0.0 0.0 0.0 0.0 0.0 0.0 0.0
0.0 0.0 0.0 0.0 0.0 0.0 0.0 0.0

network_body._body_endoder.seq_layers.2.weight f4 [128, 128]
00000000: 2039 4abe 0b8d ff3b 5e68 133b cc80 28be
00000010: b72e 9ebd 81af 16bd ddd1 113e d945 7d3e
00000020: cc11 30bc d8b5 16be 4b77 1abd 0996 ec3d
00000030: 9366 783e 1875 383d 9419 323e 9c24 0bbd
00000040: ad43 ac3d 3eaf 84bd 09b5 afbd 0030 50be
00000050: a950 cd3d 35db d8bb 23cf 17be 1cfa 21be
00000060: f015 b53c dbb7 77ba 469f 563c 3065 86bb
00000070: ec4e e33d ed67 6bbc 17fe 393d c0af 203d
00000080: 6114 cebd 78be 693a 3e3e a6bd 6249 8bbd
00000090: bf3c 85bb 2a16 babd 6837 9cbd cda9 25bd
000000a0: b67c 9a3d 8067 413d 8016 f5bd babf 1fbd
000000b0: 3218 74bd 1927 7fbd 2db7 fdbd 1eed 09be
000000c0: 21cb 393e 62f1 f93d a7f3 df3d 1b0d 8c3d
000000d0: 2d24 453d aa37 32bd f9c6 34be 2b41 c43c
000000e0: 95cb e7bd c1c3 a73d f83b d0bd 4022 4c3c
000000f0: 0331 093c d345 69bd c1fc d1bc 50e2 753e
00000100: e8ab 613d a312 023e 0a91 4dbe 5dad 843d
00000110: 3412 c03d a427 b3bc b7fe 85bd 1685 693d
00000120: d76f bdbd dcee dc3d 1574 efbc f642 503c
00000130: 51fd b6bd a65c 7dbd d7b8 6d3d d5c2 11be
00000140: 0848 4f3e 4147 d13d c7e9 c0bd 2fc0 bbbc
00000150: e3ba a03d 353c 8e3c 8bae 2ebd 6e54 69bd
00000160: 8f4c 283e 2208 56bd d53f 9c3b 4259 8d3d
00000170: 6ed9 963d 26b5 a6bd 5e55 04be a513 af3d
00000180: 831b 11bd cc05 1b3d 6271 d93d 3be6 693d
00000190: 69ec c33c cfc0 373d 5a49 f03d e433 a13c
000001a0: 5ea8 9bbd d961 39be d623 9cbd 91ea afbd
000001b0: 4784 42bd 41b6 68bd 46f9 afbd a93a cabd
000001c0: ec89 9abc 2735 cabd 2a7c 8d3d e2a0 f9bd
000001d0: 5a20 e63d 7b11 183d 1948 9ebd f068 8cbd
000001e0: b34f e0bd ef5f 193d 077f aabc e723 e63c
000001f0: 6a22 86bd 594f 453c 9ec7 023e 0984 65be
00000200: 4dc0 14be 77e3 f13d 2b1e 3a3d 19ef df3d
00000210: 1ef8 9d3d 949c 563d 6622 473d 444f 163e
00000220: 7987 f5bc 9c9b 37ba dc30 d93c c9d1 bb3d
00000230: 5668 e13b 4faf 2cbd a255 203d 6e5f 353d
00000240: a0cb 9fbd 30f2 053e a2df ef3c e526 05bd
00000250: 74d9 d13d acfb 29bd c5ff d13d 3ed4 073e
00000260: 238f 3c3d 168b a3bd 5cdd 443b 2b94 a63c
00000270: 90a7 713b 1103 093d 8df8 2d3a 2786 7e3d
00000280: bd64 ac3d cb43 ba3c 56c4 d1bd dc7f 353d
00000290: 060b e9bc 442c 9ebd fe1f a83d a4ad 0c3e
000002a0: d504 f0bc cb7f 1abd 4134 ac3d 45bb bfbd
000002b0: 05ee 17be 8759 1dbe eea8 523d ef81 a43d
000002c0: 2e56 e4bc 0ac9 9f3d c536 423e d6a5 163e
000002d0: ea28 c23d a070 39bc cad5 cbbd f6cf 89bd
000002e0: 832d febd f796 2abd 8076 db3c f7ac 8c3d
000002f0: 7590 1ebd 9c54 acbb 0d93 cbbd 3cfe 7d3d
00000300: 32a9 353b 1fa7 493e ea85 f33b db81 8b3d
00000310: 1d86 18bb f622 91bd 3648 bcbd 5f76 9e3d
00000320: fbdd 243d 8eb4 743d 36a5 c03d c4bc 32be
00000330: 390e 1a3d 76ee 3ebd f609 7a3d 7bb5 d3bd
00000340: b894 31bd 02a2 a1bd 54b1 6cbd 2065 00be
00000350: 40e6 ef3c 1616 a83d da14 46bd 397b 17be
00000360: 900d 103d 0c96 3fbd b134 013e b903 a5bc
00000370: 6ca0 27bd a580 adbc 2061 48bd 8a70 70be
00000380: 0173 f53b 7941 a1bd 69e1 81bd 9175 15be
00000390: 80fb 0bbe f5e7 f43b 6d8c 4a3d 27ad 433d
000003a0: 7e9d a13d fd11 f23d 17c1 6dbd d1e0 323d
000003b0: 7d76 c7bd b721 84bd 1dab c8bd 0e20 dabc
000003c0: c64b af3a 25f5 053d 6106 cb3c b637 5a3d
000003d0: cca7 133c 70d2 d53d a93b 353e 6079 403b
000003e0: 71af 523d 3a7a 27be f679 c03d 1c17 df3a
000003f0: 0cfb aabd a2da 9c3d 8db8 acbc 01f0 823c
-0.19748354 0.007798796 0.0022492628 -0.16455382 -0.07723754 -0.036788467 0.14240213 0.24733676
-0.010746431 -0.14717805 -0.037711423 0.115520544 0.24257879 0.045033544 0.1739257 -0.03397046
0.08411346 -0.06478737 -0.085794516 -0.2033081 0.1002515 -0.0066179284 -0.1482511 -0.15818065
0.022105187 -0.0009449699 0.013099497 -0.004101418 0.110990375 -0.01436804 0.045408335 0.03923011
-0.10062481 0.00089166267 -0.081173405 -0.06801106 -0.0040660794 -0.09086259 -0.076277554 -0.040445138
0.07543318 0.047217846 -0.11967182 -0.039001204 -0.059593387 -0.062293146 -0.12388454 -0.1346936
0.18143894 0.12204243 0.10935145 0.06838437 0.048130203 -0.043510117 -0.17654027 0.023956856
-0.11318127 0.08191634 -0.10167688 0.012459338 0.008373502 -0.056951355 -0.025633218 0.24012113
0.055095583 0.12702422 -0.2007486 0.06478379 0.09378472 -0.021869488 -0.065427236 0.057011686
-0.092498474 0.10787746 -0.029230157 0.012711277 -0.08935035 -0.061855935 0.058037605 -0.14234479
0.20242321 0.10218669 -0.094195895 -0.022918789 0.07848146 0.017362693 -0.042646926 -0.056965284
0.16435455 -0.05225385 0.0047683516 0.0690179 0.0736569 -0.0814002 -0.1292319 0.08548669
-0.035426628 0.037847325 0.10617329 0.05710433 0.02391644 0.04486161 0.11732741 0.019678064
-0.07600473 -0.18103732 -0.07624023 -0.08589662 -0.04748943 -0.056814436 -0.08592467 -0.0987447
-0.018864594 -0.09873419 0.06908448 -0.12188889 0.11236639 0.037126046 -0.07728595 -0.06855953
-0.109527014 0.037445005 -0.020812524 0.028093291 -0.06549533 0.012042844 0.1277146 -0.22413649
-0.14526482 0.118109636 0.045438927 0.10934276 0.0771334 0.05239542 0.04861679 0.14678675
-0.029971825 -0.00070040836 0.026512556 0.09170873 0.006878893 -0.042159375 0.039144166 0.044280462
-0.0780251 0.13080668 0.029281441 -0.032507796 0.10246554 -0.04149978 0.10253862 0.13264558
0.046034943 -0.07985513 0.0030039167 0.020334324 0.0036873557 0.03345019 0.0006636463 0.062139656
0.08417652 0.022737404 -0.10242526 0.04431139 -0.02844764 -0.07723287 0.08209227 0.13738114
-0.02929918 -0.03771953 0.08408404 -0.09361891 -0.14836891 -0.15366183 0.051430635 0.08032595
-0.027873125 0.07802017 0.18966205 0.14711699 0.0948046 -0.011318356 -0.099528864 -0.067291185
-0.124110244 -0.041647878 0.026789904 0.06868928 -0.038711984 -0.0052591097 -0.09940157 0.062010035
0.0027719256 0.19692658 0.0074317353 0.06811877 -0.0023273297 -0.070867464 -0.09193461 0.07737421
0.04025076 0.059742503 0.094065115 -0.17454821 0.03761122 -0.046614133 0.061044656 -0.10337349
-0.04335472 -0.07892229 -0.0577863 -0.12538576 0.029284596 0.082073376 -0.04835973 -0.147931
0.035169184 -0.046773955 0.12617756 -0.020143377 -0.040924475 -0.021179507 -0.04892075 -0.2348043
0.007490516 -0.07873816 -0.06341822 -0.1459563 -0.13670158 0.0074739405 0.049450327 0.047772553
0.078913674 0.11819837 -0.058045473 0.043671433 -0.09739397 -0.06451743 -0.09798262 -0.026626613
0.0013374023 0.03270449 0.024783315 0.053275786 0.009012174 0.104405284 0.1769854 0.002936922
0.051436845 -0.1635522 0.09398262 0.0017020437 -0.08348665 0.076588884 -0.021084094 0.015983583

network_body._body_endoder.seq_layers.2.bias f4 [128]
00000000: 0000 0000 0000 0000 0000 0000 0000 0000
00000010: 0000 0000 0000 0000 0000 0000 0000 0000
00000020: 0000 0000 0000 0000 0000 0000 0000 0000
00000030: 0000 0000 0000 0000 0000 0000 0000 0000
00000040: 0000 0000 0000 0000 0000 0000 0000 0000
00000050: 0000 0000 0000 0000 0000 0000 0000 0000
00000060: 0000 0000 0000 0000 0000 0000 0000 0000
00000070: 0000 0000 0000 0000 0000 0000 0000 0000
00000080: 0000 0000 0000 0000 0000 0000 0000 0000
00000090: 0000 0000 0000 0000 0000 0000 0000 0000
000000a0: 0000 0000 0000 0000 0000 0000 0000 0000
000000b0: 0000 0000 0000 0000 0000 0000 0000 0000
000000c0: 0000 0000 0000 0000 0000 0000 0000 0000
000000d0: 0000 0000 0000 0000 0000 0000 0000 0000
000000e0: 0000 0000 0000 0000 0000 0000 0000 0000
000000f0: 0000 0000 0000 0000 0000 0000 0000 0000
00000100: 0000 0000 0000 0000 0000 0000 0000 0000
00000110: 0000 0000 0000 0000 0000 0000 0000 0000
00000120: 0000 0000 0000 0000 0000 0000 0000 0000
00000130: 0000 0000 0000 0000 0000 0000 0000 0000
00000140: 0000 0000 0000 0000 0000 0000 0000 0000
00000150: 0000 0000 0000 0000 0000 0000 0000 0000
00000160: 0000 0000 0000 0000 0000 0000 0000 0000
00000170: 0000 0000 0000 0000 0000 0000 0000 0000
00000180: 0000 0000 0000 0000 0000 0000 0000 0000
00000190: 0000 0000 0000 0000 0000 0000 0000 0000
000001a0: 0000 0000 0000 0000 0000 0000 0000 0000
000001b0: 0000 0000 0000 0000 0000 0000 0000 0000
000001c0: 0000 0000 0000 0000 0000 0000 0000 0000
000001d0: 0000 0000 0000 0000 0000 0000 0000 0000
000001e0: 0000 0000 0000 0000 0000 0000 0000 0000
000001f0: 0000 0000 0000 0000 0000 0000 0000 0000
0.0 0.0 0.0 0.0 0.0 0.0 0.0 0.0
0.0 0.0 0.0 0.0 0.0 0.0 0.0 0.0
0.0 0.0 0.0 0.0 0.0 0.0 0.0 0.0
0.0 0.0 0.0 0.0 0.0 0.0 0.0 0.0
0.0 0.0 0.0 0.0 0.0 0.0 0.0 0.0
0.0 0.0 0.0 0.0 0.0 0.0 0.0 0.0
0.0 0.0 0.0 0.0 0.0 0.0 0.0 0.0
0.0 0.0 0.0 0.0 0.0 0.0 0.0 0.0
0.0 0.0 0.0 0.0 0.0 0.0 0.0 0.0
0.0 0.0 0.0 0.0 0.0 0.0 0.0 0.0
0.0 0.0 0.0 0.0 0.0 0.0 0.0 0.0
0.0 0.0 0.0 0.0 0.0 0.0 0.0 0.0
0.0 0.0 0.0 0.0 0.0 0.0 0.0 0.0
0.0 0.0 0.0 0.0 0.0 0.0 0.0 0.0
0.0 0.0 0.0 0.0 0.0 0.0 0.0 0.0
0.0 0.0 0.0 0.0 0.0 0.0 0.0 0.0

value_heads.value_heads.extrinsic.weight f4 [1, 128]
00000000: 3623 5fbd 3822 803d 604f e6bc 770a 113e
00000010: bb8a 213d 7fa9 303c 1cde 1bbe 3e46 4dbe
00000020: 22c9 1c3e 5dd3 293e 71d7 49be d9ba d5bd
00000030: 9da2 223e 59f5 373d 587e 44bd 6a2c ad3d
00000040: 32d7 19be 4466 32bd 4443 913d dca8 173e
00000050: 43bd 493e edb1 d53d f089 12be 08a3 423e
00000060: e079 1c3e 53b4 1bbe 863a 3f3e b105 a73d
00000070: 4c38 003d 5259 f5bd 74a7 f0ba a0b0 a33d
00000080: 77c7 26be a0ef 31be 4046 f93d 0cf9 90bc
00000090: 4ce9 5abe 41f8 20be 3ed8 bfbd b144 c6bd
000000a0: b500 993d 66ca d93d 2b35 5cbe cd15 b13d
000000b0: fc66 52be 8fc9 42be f738 93bd d6b3 ad3d
000000c0: e490 b43a 12a5 c1bc 81cf 5cbe 82e2 1abe
000000d0: 3f83 a53d b191 e1bc 218d 2cbd 500f 29be
000000e0: 92fc 0f3e 7781 b5bc 2d38 583e 9d73 24be
000000f0: 23e1 66bd fc90 ddbd d9a9 0ebe ab21 7ebc
00000100: 46ef f4bd 7ea9 00bd 4f38 09be cb18 30be
00000110: 5c8c 14be 824c 1ebe 159c 4ebe 764f 0abe
00000120: a823 11be dbdb 303c b34d 4f3e fe7f 3b3e
00000130: 0c72 0e3e b69a fcbd ea87 e73d de70 d4bc
00000140: 6ea0 10be 560b 763d 9d7d 0f3d 122b ed3d
00000150: b037 99bd 75cf 363e 1e21 52be 37c9 92bc
00000160: 577c 26bd f386 6e3d 19f8 243e 2cd2 a93d
00000170: 71ca 4dbe 0a1e 97bd b862 383d eaf9 14be
00000180: cc02 dfbd 9c3a 42bc f542 2bbe f242 f13b
00000190: f37d 583d f314 cfbd f552 dbbd aa22 e1bd
000001a0: 74a7 41be a58f 5b3e 8668 163d 969f 0e3e
000001b0: 538d 1c3e dbba fc3d 9fad 343e 9718 163e
000001c0: c9d1 1f3e 3895 5abd 61bd 253e bd05 1f3e
000001d0: 4388 dfbd 8905 043e 3f9d 1abd 624e cd3d
000001e0: c707 46be 6dec 09bd 80e5 86bd fd9d c5bc
000001f0: 5919 263e ef11 06be 6e13 1f3e dd9b 8ebc
-0.05447694 0.06256527 -0.02811402 0.14164148 0.039438944 0.0107825985 -0.15221447 -0.20046327
0.15311101 0.16584535 -0.1971109 -0.10436029 0.15882345 0.044911716 -0.047972053 0.08455737
-0.15023497 -0.04355456 0.07092908 0.14810508 0.19701104 0.10434327 -0.14310431 0.19007504
0.15280867 -0.15205507 0.18674669 0.081553824 0.03130369 -0.11979927 -0.0018360452 0.07992673
-0.16287027 -0.17376566 0.12171602 -0.01769688 -0.21378058 -0.15719701 -0.09367417 -0.096810706
0.07470838 0.106343076 -0.21504657 0.08646736 -0.20547098 -0.19022201 -0.071885996 0.084815666
0.0013776091 -0.023638282 -0.21563531 -0.15125468 0.08081674 -0.027535291 -0.04212678 -0.16509748
0.14061192 -0.02215646 0.2111518 -0.16059728 -0.05636705 -0.10818669 -0.13931979 -0.015510957
-0.119597 -0.03141164 -0.13400386 -0.17196958 -0.14506668 -0.15458873 -0.20176728 -0.13506874
-0.14173758 0.010794605 0.20244484 0.18310544 0.13910693 -0.12334196 0.113052204 -0.025932726
-0.14123699 0.060069405 0.035031904 0.11580481 -0.07481325 0.17852576 -0.20520446 -0.017918212
-0.040645923 0.058234166 0.16110267 0.0829204 -0.20096757 -0.07378776 0.04501602 -0.1454846
-0.10889205 -0.011854794 -0.16724761 0.007362717 0.05285449 -0.101114176 -0.10709182 -0.1099294
-0.18911535 0.21441515 0.036720775 0.13928065 0.15288286 0.12340327 0.17644356 0.14657818
0.1560737 -0.053364962 0.16185524 0.15529533 -0.10914662 0.12892736 -0.037747618 0.10024716
-0.19338904 -0.03367274 -0.065867424 -0.024123186 0.16220607 -0.13092779 0.15534756 -0.017408306
