Basic_Path_Finding/Assets/TorchModels/results/PlayerMaze1/PlayerMaze/PlayerMaze-12912.onnx (onnx, 74869 bytes, 9 tensors)

network_body.observation_encoder.processors.0.normalizer.running_mean f4 [8]
00000000: 12ef 6a40 778c ea3e a79d 04bf e6fc 9fc1
00000010: d5fa ff3e 1e82 10b2 2a8b 853f bead a03e
3.6708417 0.4581029 -0.5180306 -19.998486 0.49996057 -8.411488e-09 1.0433095 0.31382555

network_body._body_endoder.seq_layers.0.weight f4 [128, 8]
00000000: 9223 2c3f ac0d 5ebe a694 42bf bdba 36be
00000010: 79e5 e83d 5218 453e 5f27 4abf 1a7e 513e
00000020: 553f 013f 313b f0bd 0f6c acbe 1845 03be
00000030: 550b a2be 29bd 7fbe aee1 67be 5b4a 3e3f
00000040: 2e46 973e 84eb a7be ecf3 e6be 62fc 0cbe
00000050: befb 9abe 9f60 513e 0673 fa3d 7784 cfbe
00000060: 436b a4be eb0c 213e a260 82bc 9f85 813e
00000070: 7f64 fa3e 8efb 823e 8719 4ebe 5392 92bc
00000080: 2b1f f1be 590f 603e d97b 093e 78d6 0f3e
00000090: 4273 63be 2cbb d73e bf7b 8c3e 40d4 f4bc
000000a0: 3e04 f7be cc27 50bf 7231 e1bc 08bf 1dbf
000000b0: ebbd 4dbe 3910 edbc 2ff0 703d eb5f 92be
000000c0: a4af cbbe bfbf 943e 39b3 393e 2a89 853e
000000d0: c8ff 443d 35ef 09be bfba 503d 1835 ed3d
000000e0: c4f9 debd 6ee9 b7bd 654f 323e 79e6 89be
000000f0: 688d 42bf aae8 a33e 6b22 243f 1fb1 acbe
00000100: be06 083e 63f2 87be a2fa 783e 3c16 2a3e
00000110: e527 0abf df1b ff3e 92d7 0d3e 45b6 0b3d
00000120: 1853 26bd 1981 c9bd 1f06 a5be 99b5 123f
00000130: 9b37 1abe e3b2 b4bd 645d 15bf b7a6 f6be
00000140: 7105 173e c1e7 11bf 6ac8 2b3e 9098 a63c
00000150: 5225 dfbd 6add 91be b48e 56be 4437 763e
00000160: d1c9 e93d b3ce 0cbf a090 58be 79b4 af3c
00000170: 349a 5b3d 7445 29bc 32c9 b63e 1a8f 283f
00000180: e5e2 d93d 28d1 46be 4247 853e ce0f 80bd
00000190: e9d2 ab3e ccdf 503e 2ef0 1a3f 03bd d43e
000001a0: 25f4 79bc 360e b03d fd0f 01bf a0de 12bf
000001b0: 1dc9 373e 8448 03be d0c2 553d 24e2 4b3e
000001c0: 477e 943e a250 53bd e4dd 11be 8d03 e5be
000001d0: d90e edbd 655c 333f 0b03 e3be e78a 71be
000001e0: 98d9 183e c99f 3b3e 7046 123f d943 773e
000001f0: 0332 a2be bf53 333e f021 e4bd 1716 babe
00000200: 3ed2 54bf c838 1bbd fe2d cbbd 8ab7 3fbe
00000210: d6d7 603e f188 27be 0826 263e 2f89 be3d
00000220: 8145 97be 1ab0 84be cd70 a33c 2cfe 933e
00000230: 6dd9 b13e c33b dcbd 0e4f 0c3e 3eaa b2be
00000240: 2902 9dbe 323f 15be 4e09 913e 82ec 42bd
00000250: 6687 5e3e 476a 5d3e f80b 073f 5298 bd3e
00000260: 95e7 74be 5231 6dbe f963 283f 8de7 283f
00000270: 1fe2 1d3c ad06 f03e 62f8 a1be b69c 90be
00000280: e3d9 de3d c953 123f 04fa dd3e 7f5f a5be
00000290: abcf f5bd 6248 3abe 8b83 29bf ee02 753d
000002a0: 5f48 99be 8b03 e33e 437b efbd b15c d23e
000002b0: ff5a 6d3e d44c cd3e 4fdd 23be 3bd9 7d3e
000002c0: 8214 e53e 3c63 abbe 9361 f9be 774f b9bc
000002d0: 29e1 543f 28da cf3d 6c6a 56be 241b 473e
000002e0: e7e0 c53c 87af e7bc 00ef 6dbf aeae 183e
000002f0: bf53 e6be 3f6b 35bb 2db1 143f 204d abbe
00000300: 6a45 57be 8988 3d3e 0379 623e 3b42 66be
00000310: ab8a 57be baa6 5e3e df01 353d 146f acbe
00000320: 4768 ec3e 212f a9be 424d 663d b512 fcbd
00000330: 4054 083f 4d47 3f3e 6a30 763e 9993 8f3e
00000340: 4e5f 86bd a77a 793e f270 063e f9ae 10be
00000350: f596 54be 92fd 4abd e058 1abf 4fcd 73bf
00000360: 079e 54be 319a 03be 3269 2f3d cd4d 853d
00000370: 9ade e0bd bb6b a5bd 4ee7 0e3e d40b 833e
00000380: 577f bdbd 97b1 afbe 3866 85be 046a 013e
00000390: c3c2 18bf 9d98 d4bd b94e 80bd 59c3 c83e
000003a0: 1db0 14bf 8319 08bf 0199 393e 69db 9e3e
000003b0: 7fc8 e33d f405 30be 698a b53c f320 c7be
000003c0: f702 17bf 4699 263e 25ac 47bf 886a 083f
000003d0: 367c 7d3e e7a4 233f 8758 c9bd 54f7 c3be
000003e0: dc5b fcbe 1bb0 42bd 38be e83c 747f 29bf
000003f0: 358c 0c3e 88e4 f4bd b343 063f ac6d d5be
0.67241776 -0.21684903 -0.7600807 -0.17844673 0.113718934 0.19247559 -0.78966326 0.2045826
0.5048726 -0.1173004 -0.33676192 -0.12819326 -0.3164927 -0.24974503 -0.22644684 0.7433221
0.2954573 -0.32796872 -0.45107973 -0.13768151 -0.3027019 0.20447014 0.1222897 -0.4053075
-0.32113084 0.15727584 -0.015915219 0.25297257 0.48904797 0.25582546 -0.20126925 -0.017892038
-0.47094092 0.21880855 0.1342615 0.14046657 -0.22211936 0.42134988 0.2743816 -0.029886365
-0.48245424 -0.81310725 -0.027489398 -0.61619616 -0.20091979 -0.0289384 0.058822807 -0.28588805
-0.3978244 0.2905254 0.18134774 0.2608121 0.048095495 -0.13470156 0.050959345 0.115823925
-0.10887483 -0.0898007 0.17413099 -0.2693365 -0.7599702 0.32013446 0.6411502 -0.33728883
0.13283822 -0.26552114 0.24314359 0.16610044 -0.53967124 0.4982595 0.13851765 0.034109373
-0.040606588 -0.098390765 -0.32231233 0.57308346 -0.15060274 -0.088231824 -0.5834563 -0.48174068
0.1474817 -0.56994253 0.1677567 0.02033642 -0.1089579 -0.28489238 -0.20952874 0.2404452
0.114154465 -0.550029 -0.2114892 0.02144836 0.053613856 -0.0103315 0.35700375 0.65843356
0.1063898 -0.19415724 0.26030928 -0.062530145 0.3355935 0.20397872 0.60522735 0.41550454
-0.0152559625 0.085964605 -0.5041502 -0.5737095 0.17947812 -0.12820631 0.05218774 0.19910485
0.29002592 -0.05159057 -0.14244801 -0.44729272 -0.115750976 0.7006286 -0.4433826 -0.23588143
0.14926755 0.18322672 0.5713873 0.24146976 -0.3167878 0.17512415 -0.111392856 -0.36344978
-0.83133304 -0.037895948 -0.09920882 -0.18722358 0.21957335 -0.16360833 0.16225445 0.093035094
-0.29545215 -0.25915605 0.019951249 0.28904855 0.34736195 -0.10753586 0.13702032 -0.3489551
-0.3066571 -0.14574888 0.2832741 -0.047588833 0.21731338 0.21622573 0.5275264 0.37030274
-0.23916467 -0.23163345 0.65777546 0.6597832 0.009636431 0.46880093 -0.31634814 -0.2824456
0.10881402 0.57159096 0.4335481 -0.3229942 -0.120025 -0.18191674 -0.66216344 0.059817247
-0.29938027 0.4433864 -0.11693432 0.41086343 0.23179244 0.40097678 -0.16002391 0.24789898
0.4474221 -0.33474147 -0.48707256 -0.0226209 0.8315607 0.10149032 -0.20939034 0.19443947
0.024155093 -0.02828194 -0.9294281 0.14910385 -0.44985768 -0.0027682332 0.5808285 -0.3345728
-0.21022573 0.18509115 0.22116475 -0.22486202 -0.21048991 0.21743289 0.044191238 -0.33678496
0.46173307 -0.3304377 0.056226023 -0.123082556 0.53253555 0.18679543 0.24041906 0.28042296
-0.06561147 0.24363194 0.13129023 -0.14129247 -0.2076071 -0.04955823 -0.6029186 -0.9523515
-0.20763408 -0.12851788 0.04282493 0.0650898 -0.10979958 -0.080771886 0.13955423 0.25594962
-0.09252804 -0.34315178 -0.2605455 0.12638098 -0.5967218 -0.10380671 -0.06265015 0.39211538
-0.5808123 -0.5316393 0.18124773 0.31026772 0.11122226 -0.17189771 0.022160726 -0.38892326
-0.589889 0.16269407 -0.77997047 0.53287554 0.24754414 0.63923496 -0.098313384 -0.38274634
-0.49288833 -0.04753123 0.028411016 -0.66210103 0.1372536 -0.119576514 0.5244705 -0.41685236

network_body._body_endoder.seq_layers.0.bias f4 [128]
00000000: 0c47 fcbb 94d4 873a ae5f 0cbc a9b0 e83b
00000010: 03c6 d33b e104 1dbc ae05 773b c1b7 9dbb
00000020: 39bd 163a 95b9 d3bb 1aa1 e3ba 9d76 413a
00000030: 3eb2 05bc 1cff acbb cb9d 313b 7332 8bbb
00000040: e2ee 9cbb 293d a4bb 9286 80ba a454 053b
00000050: 178e 273c 9d91 1ebc 4610 b0ba eca2 b4ba
00000060: 3ada 3dba 9af7 b9bb 4106 04bc 8bb3 523a
00000070: b32a 0dbc 79f8 2cbc 325f 8abb 6ea2 183b
00000080: 6e06 c539 8ff4 11bc 531b c7bb ac31 90b8
00000090: 4f6d 843a e490 dfbb 240d 9bbb c6ca 06bc
000000a0: a106 8dbb 6b84 ea3b ea6a 58bb 3567 a5bb
000000b0: 9b7f 913b 81c0 26bc 775f 47bc 6db9 ba3b
000000c0: d602 c1bb 8f7a 8539 3cde adbb 8d74 f239
000000d0: abb1 c2bb cfc7 3cbb 62d4 07bb a560 12ba
000000e0: 456f abba f604 8f3a d8e3 eebb 411b 033c
000000f0: 5d66 29bc 0fed 13bc 0c24 2bbb 1a96 403b
00000100: d327 e2bb b029 2bbb bd22 92bb ddc3 1a3b
00000110: 2786 23bb 395c 8cbb 90b9 9938 4aea 4839
00000120: 6d41 5b3a 7800 37bb cd00 0abc 9c58 dc3b
00000130: 849d d7ba bf0e 9fbb 9038 49bc ccbd 2c3b
00000140: 7bb9 9ebb 982f 91bb c4f6 f43b 6f3f d5bb
00000150: 9d58 c2bb d63d 8ebb b9c7 d3bb 2216 a9bb
00000160: 2bce 9f3a fa65 113b 64a9 d6bb 88ab a2bb
00000170: 8e12 413b 6d2b 94bb 09e7 87b9 489d af3b
00000180: 5232 873b 151a ea38 0c4d a2bb f87e b5bb
00000190: 704f 5fbb 2a29 78bb bac9 623b 8ac3 92bb
000001a0: 0646 5139 b08a d13b 0ee7 77bb 7b78 f6bb
000001b0: 18e3 e0bb c0dc 863b 52ff 86bb f686 86bb
000001c0: 87d5 6b3b 29e6 48ba d826 293b a4d4 53bb
000001d0: 5058 103c 1686 a23b c735 0d3c 4ee9 18bc
000001e0: 5be5 a0bb 0bf3 c6bb d581 92bc 7d3f 06ba
000001f0: 62ac fcbb 9d2b 72bb 755b e03a c2ee e5ba
-0.007698899 0.0010363036 -0.008567734 0.0071011377 0.006462814 -0.009583683 0.0037692594 -0.004813165
0.0005750242 -0.006461332 -0.0017366738 0.00073800405 -0.008160172 -0.005279435 0.0027102109 -0.0042479574
-0.0047892192 -0.0050121737 -0.000980573 0.002034464 0.010226748 -0.009678272 -0.0013432584 -0.0013781465
-0.0007242296 -0.0056752684 -0.008058132 0.0008037618 -0.008616137 -0.010557287 -0.004222774 0.0023290175
0.0003757956 -0.008908405 -0.0060762553 -6.875707e-05 0.0010103377 -0.006822692 -0.004731791 -0.008227056
-0.0043037687 0.0071568987 -0.003302271 -0.0050477036 0.0044402606 -0.010177732 -0.012168757 0.005698374
-0.0058902306 0.0002545905 -0.0053060334 0.00046244674 -0.00594159 -0.0028805619 -0.0020725955 -0.0005583859
-0.0013079426 0.0010911513 -0.0072903447 0.008002103 -0.010339347 -0.009028687 -0.0026114015 0.0029386343
-0.00690172 -0.0026117377 -0.0044597075 0.0023615279 -0.0024951787 -0.0042834547 7.330172e-05 0.00019160766
0.0008363936 -0.0027923863 -0.0084230425 0.0067244302 -0.0016450142 -0.004854053 -0.012281552 0.0026358245
-0.0048438883 -0.0044307224 0.007475706 -0.006507806 -0.0059309737 -0.0043408675 -0.006463018 -0.005160109
0.001219218 0.0022186027 -0.0065509547 -0.004964296 0.0029460522 -0.0045217783 -0.0002592134 0.0053593256
0.0041258717 0.00011162848 -0.0049530324 -0.0055388175 -0.0034074448 -0.0037866333 0.0034605102 -0.0044788765
0.00019957879 0.0063947067 -0.0037826928 -0.0075216866 -0.006863009 0.004115671 -0.004119792 -0.004105444
0.0035985427 -0.0007663691 0.0025810506 -0.0032322789 0.008810118 0.004959832 0.008618779 -0.009332968
-0.004910154 -0.0060714534 -0.017884174 -0.0005121155 -0.0077109793 -0.0036952265 0.00171171 -0.0017542469

network_body._body_endoder.seq_layers.2.weight f4 [128, 128]
00000000: 1958 1ebd 6000 043e 2a98 cf3d d2a3 27bd
00000010: 4a90 e23d c2e6 ce3c 73ac 9c3c 5515 03bd
00000020: db5e ecba 2e90 873d adcd a13d cd30 dbbc
00000030: 308d 89bd b584 fdbd 2145 b7bc 0eb2 83bd
00000040: 176b 39bd 0c12 3d3e fe30 9cbd c914 963a
00000050: c591 a8bc 31a9 c33c c80e a2bc e1b3 e13d
00000060: 810e ec3c e061 603e 519e 123e bd31 24bd
00000070: 7603 7dbd 0f00 563d 75fd debd 0fb7 18bd
00000080: eac2 7bbd 1c28 40bd 2eb6 15be afa7 b63d
00000090: 2569 8bbc d528 413d c3b9 cabc d7fe 5cbd
000000a0: 8f17 82bc fd90 5a3d 8d50 7d3d 8382 25bd
000000b0: b520 153e da88 443d 236f c6bd b58c 07be
000000c0: 47e0 883c e325 6f3d f241 ea3c 8403 603c
000000d0: 755e 0bbd 8ba4 06bd 7dcb 5a3c 33e9 693d
000000e0: 1f8c 913d d535 d5bc b306 ccbc d015 9f3d
000000f0: c377 083e 60f5 a33d d9e9 e53d 6923 bdbd
00000100: 061a 483d 8923 b03d 49a8 c73d 36eb 72bd
00000110: 4031 0b3d 18c1 433c 9e56 053e 15b0 bcbc
00000120: f963 c6bc 2e7f a5bc 5dde da3d 31fa d7bd
00000130: 0922 0abe 56fc 6ebd 1a0e 93bd 26b4 913a
00000140: 9021 48be c21c c3bc 4872 5b3c ac3c bfbd
00000150: 9ba2 e7bd 0b39 eb3d 44a4 113e 2d37 083d
00000160: f9c8 9cbc 98c3 c73d ef05 10be 644e 8dbd
00000170: db14 8c3d 638c 703d 4617 20bc d7d9 21be
00000180: 7a21 7abd b7a8 3c3b 6d1c 22bd a3db c2bd
00000190: 6315 cebd 4297 083e b5e9 c5bd 1602 043c
000001a0: 3b08 213a c29d 6d3c 155a 633e ddd0 b23d
000001b0: c88a 58be 34fe 45bc 4344 abbd 274b 0e3c
000001c0: c1f4 2d3d 2bee fb3d f766 95bc 28f7 83bd
000001d0: ca36 eebd d538 123e 73de 52bd 61d3 f6bb
000001e0: 3e07 12be f07f 25be 0f3f d8bc bb2b 30bc
000001f0: d5c5 8a3c c554 e1bc 5680 9abc cc17 60bd
00000200: 08b7 f8bc 9cf0 eb3c 496b 9d3d f1c3 8fbd
00000210: 21a3 9fbd 544c 1d3e 44a1 bfbd 622a 273e
00000220: d140 42be e9dd c23c 7230 463e a48d 8c3d
00000230: feca 13bd 7791 213e ee56 4bbd baac 04be
00000240: 146d b3bd dc6f bdbd f86f 2a3e 29d1 10be
00000250: a46b a93d 0985 39bd 07ee 20be bf33 02bd
00000260: d37e dcbc 81c0 f83d da18 f33c 2a1f 8a3d
00000270: d355 ae3c 22c4 c83c 8bfa 23bc 4ac6 0fbd
00000280: 4a36 36bb 8390 2d3d 4cc1 1e3e 5199 83ba
00000290: 4702 b8bd af99 51bc 106a 743d bf19 d23d
000002a0: 7bc6 ddbc 7231 ed3b 9ca6 20bd 1265 a33d
000002b0: 734b 85bc 0cb9 a3bd 77e5 0abe 0761 9dbd
000002c0: da84 a7bd 692b 9fbd ec72 b2bb 9b32 8b3c
000002d0: 03b5 c83c bcb9 0bbe bb44 143e 66bb 07bd
000002e0: fa34 04bd 823e 473d 4d34 00be 91cf 073e
000002f0: 92d3 833d 16e4 02be f79b 423d cfa3 c5bd
00000300: 79fc 49bd b451 213d b5ea e63b 64fd a9bd
00000310: ff1e 0c3e 746a d63b 00d0 063d 874b 993d
00000320: dafd bc3d 294f 733b a995 40bd 9ebb 293e
00000330: 9b40 fcbb 3496 01be 0371 1fbd d756 03be
00000340: 4758 db3d 6a81 093c 50cd 2f3c 5ce3 6c3d
00000350: 2624 c3bb 2b2c 173b ddaf 0f3d 4737 82bc
00000360: 32ac bb3d a576 203e 7065 2dbd c996 d13d
00000370: 8395 393e a9c3 a6bd e5da 46bd c4ec 9dbd
00000380: 29a5 0a3c b583 bb3c c0f0 47be bb06 e93d
00000390: c66e d23d 9613 21bd c74e aebc 0db4 a23c
000003a0: e3a2 0ebb 4db6 9b3c e0e3 3ebd 27ac 9a3d
000003b0: 0018 353e 69f0 943d f07d bb3d 0f88 f43d
000003c0: 7f63 213e 011e 1b3e 65b3 bf3d 7a32 dc3c
000003d0: 923e 5abd 27dd 2c3d 2f77 e83d 96d7 173d
000003e0: 7560 0cbd aa39 2bbc 39da 5d3d dedb 63bc
000003f0: d4c3 b339 d10f 093d 430b 11bc b66a 133e
-0.038658235 0.12890768 0.10136445 -0.040927716 0.11062677 0.025256518 0.019125199 -0.032002766
-0.001803364 0.06619297 0.07900558 -0.026756668 -0.067163825 -0.123788275 -0.02237183 -0.064304456
-0.045268144 0.18463916 -0.07626532 0.0011450286 -0.02057732 0.023884388 -0.019782439 0.11020637
0.02881551 0.21912336 0.14318205 -0.040086497 -0.06177088 0.05224615 -0.10888187 -0.037283953
-0.06146518 -0.04691325 -0.14620277 0.08918702 -0.01701791 0.04715808 -0.024746781 -0.05395397
-0.015880374 0.053360928 0.061844397 -0.04040767 0.14563258 0.047982074 -0.096891664 -0.13237269
0.016708506 0.05838574 0.028595898 0.013672713 -0.034025628 -0.032871764 0.013354179 0.05710716
0.07106804 -0.026026646 -0.024905538 0.07767832 0.13326935 0.08005786 0.112262435 -0.092352696
0.048852943 0.08600528 0.09748895 -0.059306346 0.033982515 0.011947893 0.13021323 -0.023033181
-0.024217593 -0.020202246 0.10686944 -0.10545767 -0.13489546 -0.058346115 -0.07180424 0.001111631
-0.19544053 -0.023817424 0.013393946 -0.09337744 -0.113103114 0.114854895 0.14222819 0.033255745
-0.0191388 0.097541034 -0.14064763 -0.068997175 0.06839915 0.058727633 -0.009771174 -0.15805756
-0.061067082 0.0028787085 -0.03957789 -0.09514549 -0.10062673 0.1333895 -0.09663717 0.008057138
0.0006142889 0.014502944 0.22202332 0.08731244 -0.21146691 -0.0120845325 -0.08362629 0.00868491
0.042469744 0.12301286 -0.018237574 -0.06443626 -0.11631544 0.14279492 -0.051481675 -0.0075325225
-0.14260575 -0.16162086 -0.026397256 -0.010752614 0.016940037 -0.027506242 -0.018860023 -0.054710194
-0.030360714 0.028801255 0.07686479 -0.07019795 -0.07794786 0.15361148 -0.09356931 0.16324762
-0.18970038 0.023787456 0.19354418 0.06862953 -0.03608226 0.15778147 -0.04964345 -0.12956515
-0.087610394 -0.09249851 0.16644275 -0.14142288 0.08272484 -0.045292888 -0.157158 -0.03178763
-0.026915943 0.12146092 0.029674936 0.06744225 0.021281159 0.024507586 -0.010008465 -0.035101213
-0.0027803355 0.042374145 0.15503424 -0.0010040199 -0.08984809 -0.012792989 0.05967146 0.10258817
-0.027072182 0.0072385604 -0.03922139 0.07978262 -0.016271329 -0.07994279 -0.13564096 -0.07684522
-0.08179636 -0.07771952 -0.0054458287 0.016991904 0.024500376 -0.13645071 0.14479344 -0.0331377
-0.032277085 0.048643596 -0.12519951 0.13262774 0.06436838 -0.1278232 0.04751202 -0.09650385
-0.049313042 0.03938456 0.007047022 -0.083002836 0.13683699 0.006543452 0.032913208 0.07485109
0.09228106 0.003712604 -0.047017727 0.16575477 -0.0076981313 -0.12654954 -0.038926136 -0.12826096
0.10710197 0.008392671 0.010730103 0.057834014 -0.005955237 0.0023067098 0.035079826 -0.015895499
0.09163703 0.1567026 -0.042333066 0.10233838 0.1812344 -0.08142788 -0.048548598 -0.07711175
0.008462229 0.022889951 -0.19525433 0.11378237 0.102750346 -0.03932532 -0.021277798 0.019861246
-0.0021764569 0.019007826 -0.046604037 0.07552367 0.17684937 0.07272417 0.0915488 0.119400136
0.15760611 0.15148164 0.09360389 0.026879538 -0.053282328 0.042203095 0.113508575 0.037070833
-0.034271676 -0.01045076 0.05416319 -0.013907401 0.00034287444 0.03346235 -0.008852783 0.14396176

network_body._body_endoder.seq_layers.2.bias f4 [128]
00000000: a1ca 0c3a d1ce ddbb 34c1 96b9 6d62 543b
00000010: b00d dabb 3c51 7dba 4372 5d3a 946e 743c
00000020: fa7b 893b 11e9 eabb 9e47 11ba e5c7 ddbb
00000030: 2d71 b2bb ac45 c839 3f8e 10bc ccc5 e93a
00000040: 82be d1bb 5910 ecbb ce7e 85bb 9456 2c3a
00000050: 4fa0 113b e545 a0bb afd6 973a 7dca b8ba
00000060: c1cb 003b 5619 7ebb 5f25 81bb b52c c53a
00000070: 3334 d03b 20ff d43b 861e 6b3b 7035 3abb
00000080: 3187 8b3a c136 163c 0a57 3cbb e916 b1bb
00000090: 5091 6fbb aa2a 973b 0878 fdbb a43e b2bb
000000a0: 394c 5b38 da2a dd3a a960 0cbc c8ee b43b
000000b0: e951 35bc faa1 0bbc 82ec 85bb f6b0 5bbb
000000c0: 5505 1d3b 789b b3b8 026a 653b 77ec 05ba
000000d0: 6bd8 b0ba e1f3 cfbb 222d 483b 6b30 673b
000000e0: 9913 b23a 7598 2cbb 966e bdbb 1cb5 caba
000000f0: 9d08 d83a 7364 3a3b f1d2 87ba a74a 1e3c
00000100: 89db 643b bd29 c1bb 1f62 09bc ba05 86ba
00000110: cb30 993b 744b 673b 220f cc3a e871 a1ba
00000120: 9133 6c3b 4f5f 4c3b 62ae b9bb b94d f239
00000130: 7478 eebb 0206 c9bb 22e7 333b 923d 703a
00000140: e88b d73a 796a 0fbc de8e 5e3b f62f ccbb
00000150: c497 26bc 9fde e6bb 0650 9dba 041d f7bb
00000160: 80db ebbb bdf6 4a3b 8d74 7b3b c4ce d53b
00000170: b027 543a 4b13 08bc a8c6 9d39 d4d4 1bbb
00000180: c9dc 793b fa96 8cbb 794d 09bc 7627 da38
00000190: ec7b c8bb f39d f7bb 51ef 1fb7 d4d3 de3b
000001a0: 01c3 53bb 9694 f43b 0c50 bf39 c11b f0bb
000001b0: 9929 583b 5aa6 803b 8f93 a33b e286 5eba
000001c0: 1aec 9b3b dae5 91bb eae2 94bb a07b 0cbc
000001d0: 177e 92bb 35f9 f9bb 40e2 003c 017b af3a
000001e0: f335 e9bb 8b6c 32ba 76de 473b f6d3 03bc
000001f0: ade2 9dbb 1f1b 903b ffa3 00bb 4294 c6bb
0.000537077 -0.006769039 -0.00028754177 0.00324073 -0.0066544637 -0.0009663289 0.0008447507 0.014918942
0.0041956874 -0.007168897 -0.0005541983 -0.006768214 -0.0054456205 0.00038198882 -0.008822977 0.0017835437
-0.006400884 -0.007204097 -0.004073954 0.00065741804 0.0022220796 -0.0048911446 0.0011584366 -0.0014098432
0.0019652697 -0.0038772426 -0.0039412226 0.0015043231 0.006353879 0.00650014 0.0035876348 -0.00284132
0.0010645149 0.009168328 -0.0028738403 -0.0054043424 -0.003655512 0.0046132402 -0.007735256 -0.0054395963
5.2284657e-05 0.0016873733 -0.008567967 0.005521629 -0.011066892 -0.008522505 -0.004087032 -0.0033522225
0.0023959477 -8.5643434e-05 0.0035005813 -0.00051087834 -0.0013492232 -0.0063462113 0.003054448 0.0035276662
0.0013586163 -0.0026335989 -0.005781005 -0.0015465352 0.0016482059 0.002844122 -0.0010362548 0.009661353
0.0034920892 -0.005894868 -0.00838521 -0.0010225095 0.004675006 0.0035292776 0.0015568475 -0.0012317272
0.0036041478 0.0031184738 -0.00566654 0.00046215745 -0.0072775427 -0.0061347494 0.0027450998 0.0009164448
0.0016444894 -0.008753412 0.0033959667 -0.0062313033 -0.01016802 -0.0070455815 -0.0012001998 -0.0075413007
-0.0071977973 0.0030969821 0.003836903 0.0065248925 0.0008093072 -0.008305381 0.00030093384 -0.0023777978
0.0038125983 -0.0042904587 -0.008380287 0.000104024 -0.0061182883 -0.007556671 -9.532859e-06 0.006800154
-0.0032312276 0.007464002 0.00036489998 -0.0073275273 0.0032983779 0.0039260807 0.0049919556 -0.0008488727
0.00475837 -0.0044524493 -0.004543652 -0.008574396 -0.0044705975 -0.0076285847 0.007866442 0.0013388098
-0.007117027 -0.00068063353 0.0030497587 -0.008046141 -0.0048182816 0.0043977643 -0.0019629 -0.006060154

action_model._continuous_distribution.log_sigma f4 [1, 2]
00000000: bb3e c53b 7ba2 3f3c
0.006019441 0.011696453

action_model._continuous_distribution.mu.weight f4 [2, 128]
00000000: 00d5 28bc 65c0 ff3a 6957 333b 1ac6 133d
00000010: 5be7 063c 4934 173c 662a e33b da8d a13c
00000020: 4b8e 503c 407d 42bc f3cc 403c 2d34 ce3a
00000030: d41e b73a dd20 e73c aafc 00bc be62 ca3c
00000040: 4568 b1bc 8c2b 8bbc 447f 8ebc 3014 1a3a
00000050: 9e74 a33a 6869 ccbc dd2d 89bb f76a 11bc
00000060: b21b 123d bead c5bb b5e2 1ebb c520 693c
00000070: b267 393c 1c05 b83c 95c3 113c fe83 eebb
00000080: cab4 0bbc 70ec 543c 6485 82bc 744f 04bc
00000090: 9fe3 f1bc 8ae1 9a3c 2c3a 2cbc d047 55bc
000000a0: 7644 c43b cb26 81bc 92be adbb 9c1c 863c
000000b0: 8171 cfbc 7e4c 1ebc a02c f63b 7cfc b53b
000000c0: 08f8 883c 6091 ea3b d0ad af3c eec4 ca3a
000000d0: 26fc f4ba c79f c2bb 1f19 ff3a b733 9e3c
000000e0: d630 8e3c 622a f8bc 942c c4bc 0823 843c
000000f0: 49eb 803c e610 58bb e461 873c a940 c13c
00000100: 3f8b b33c 8180 5f39 f01b f3bc 4a35 273c
00000110: 88ee e53c c18c 0e3d db7e 813c 01f4 6bbc
00000120: ba81 d9bb f4ea 843c 3cf4 a0bc 00d8 ab3c
00000130: a665 a9bc 9c91 bebb d137 233b fcf7 433c
00000140: cef5 6b3b 8682 81bc 3f88 313c eee8 9fbb
00000150: 431f 60bc 09c3 0dbd dcb6 59bc 973f 4ebc
00000160: ece2 1cbb 594a d739 2656 483c 2c5b 853c
00000170: bb21 853a cb5c 0abc 8ba1 e83a 1b91 e0bb
00000180: cec8 413c 6d07 063c 235d f6bb a89c 953c
00000190: 1c47 f6bc 5126 94bc 02f3 95bb 2e21 823c
000001a0: dad7 493c 2861 253d d795 cdba 8fc2 20bc
000001b0: 6e70 ea3c 139c 0b3d b0ce 4d3d 7792 69bc
000001c0: 890e 803c 6671 a5bb 15e4 f53b 95ae e3bb
000001d0: ab66 97bb 1846 85bc dbb0 8f3c b597 4a3c
000001e0: df03 23bb dec2 55bc 9bf7 9a3b f30e 97bc
000001f0: e96f bdbc dc81 7e3c 6aed 07bd 4b5a efbb
00000200: f250 d03c 087f 57bb de58 22bb 3e25 44ba
00000210: 61fb 05bd c7fb ecbb c317 393b 7e8c 903c
00000220: 70ad 163d 6656 99bb e5a3 2ebc 2e3e c939
00000230: 3f7f 5abb c2a7 6cbc 51cc 9dbb 3f9c e3bb
00000240: 1744 06bc 84c5 efbc b134 093c a320 803c
00000250: d8f0 173c e740 26bd 8ed9 9a3c 5eac 943c
00000260: 1219 e2bb 45be d43b a314 86b9 1e8a 3b3c
00000270: 1498 8d3b 374a 143c cd60 b83c bd53 d33b
00000280: f5f6 d63c 347f 66b9 9491 bf3b 4475 dc3b
00000290: 78d0 933c 3834 fb3c d272 d5bc 2891 42bc
000002a0: 1788 ac3b 5a63 0e3d 8205 75bc f4d4 913c
000002b0: 29b5 9dbc 26c1 84bc 9294 88bc 9f1f 98bb
000002c0: 5bb0 813b dbf0 0dbb dd73 0c3d 6a6b db3b
000002d0: 972e 913c 80a9 923b 7efc a53c 3f9b 08bc
000002e0: ec19 73bb 5f31 203c 5f5f eebb eb5c 86bc
000002f0: 797d 06ba 9966 a43a 7d9a 76bc e7a3 193c
00000300: 90cb 0d3d ba9e 08bd 83b4 a1bc a34e 43bc
00000310: fe6d 723c 99a1 f6ba 7c45 d0ba 47d3 293c
00000320: 15ec da3c 971e 023d 2b58 713c 033e 51bb
00000330: e38e afbc 041d 54b9 82a4 143d 6443 573b
00000340: ed3b 593c 7f87 e5bc 1d38 473c 4100 98b9
00000350: bd5a 86bc 6736 8abc 46e0 9d3c ab72 91ba
00000360: 3a7b a1bc 91d8 773c 5c55 3dbb 6771 943a
00000370: 979a 863b ea3b 30ba 9504 b03b 7a06 903b
00000380: 491d 2a3d 67f5 acbc fa50 4bbc fb9a 4dbb
00000390: bad8 a3bb 997c c3bc 8665 a43c b911 28bb
000003a0: f75f e7bc 1c74 203d f911 cc3c a900 4dbc
000003b0: afba 20bc 2b64 1b3b 12a1 c93b d1cd 883c
000003c0: fdb9 033c f244 c93b 6547 a0bc 8495 78bc
000003d0: c784 193b 7919 95bb c550 483d 3023 cc3c
000003e0: aacd e7bc 0fe8 6f3c 7009 123b a021 8dbb
000003f0: fee4 bbba b775 613b 8211 183d 3fd6 56bd
-0.010304689 0.0019512294 0.0027365333 0.036077596 0.00823387 0.009228774 0.0069325445 0.01972096
0.012729238 -0.011870682 0.011767614 0.0015732102 0.001397098 0.028213913 -0.00787274 0.024705287
-0.021656165 -0.016988538 -0.01739467 0.0005877642 0.0012470668 -0.024952605 -0.0041863755 -0.0088756
0.035670944 -0.0060326746 -0.0024244015 0.014229004 0.011316227 0.022463374 0.008896728 -0.0072789183
-0.00852699 0.012995824 -0.015932746 -0.008075584 -0.029527484 0.018906374 -0.010511916 -0.01301761
0.0059896065 -0.015765568 -0.005302259 0.016371064 -0.025322678 -0.009661792 0.007512644 0.00555378
0.016719833 0.0071584433 0.021445185 0.0015470067 -0.0018690869 -0.005939457 0.0019462443 0.019311769
0.017357271 -0.030293647 -0.023947038 0.016129985 0.015737193 -0.0032969057 0.01652617 0.023590403
0.021916984 0.00021314809 -0.029676408 0.010205576 0.028067842 0.034802202 0.01580756 -0.014401437
-0.006637779 0.016225316 -0.01964771 0.02097702 -0.020678353 -0.005815698 0.0024905095 0.01196098
0.0036004665 -0.015809309 0.010835706 -0.0048800623 -0.013679328 -0.03460983 -0.013288226 -0.012588403
-0.0023938967 0.0004106339 0.012227571 0.016278826 0.0010157147 -0.008444975 0.0017748339 -0.0068532354
0.011827661 0.008180481 -0.007518427 0.018263176 -0.030063204 -0.018084677 -0.004576088 0.015884962
0.012319529 0.04037586 -0.0015684915 -0.009812011 0.028618064 0.03408439 0.05024594 -0.014256111
0.01563193 -0.0050489185 0.007503996 -0.006948302 -0.0046203933 -0.016268775 0.017540386 0.012365271
-0.0024874134 -0.013046948 0.004729224 -0.018439746 -0.023124652 0.015533891 -0.0331854 -0.007304465
0.025429223 -0.0032882113 -0.0024772207 -0.0007482356 -0.032710437 -0.0072321626 0.0028242923 0.017645117
0.036786497 -0.004679489 -0.010659193 0.00038384035 -0.0033340005 -0.014444293 -0.004815616 -0.006946116
-0.008194945 -0.029268987 0.008374379 0.015640562 0.00927373 -0.04058924 0.018902566 0.018148597
-0.0068999613 0.0064924085 -0.00025573847 0.011446504 0.0043211076 0.009050897 0.022507096 0.0064491914
0.026240805 -0.00021981896 0.0058462117 0.0067278463 0.018043742 0.030664548 -0.026055727 -0.011875428
0.0052652466 0.034762718 -0.014954926 0.01780174 -0.019251423 -0.016205382 -0.016672406 -0.0046424414
0.003957791 -0.0021658454 0.034290183 0.0066961544 0.017722411 0.0044757724 0.020262 -0.008337795
-0.0037094308 0.009777396 -0.0072745527 -0.016401729 -0.0005130391 0.0012542784 -0.015051481 0.009377456
0.03461796 -0.0333545 -0.019739395 -0.011920604 0.014796732 -0.001881647 -0.0015889849 0.010365314
0.0267239 0.031767454 0.014730494 -0.003192783 -0.021430438 -0.00020228705 0.0362897 0.0032846564
0.013258916 -0.028018711 0.012159375 -0.00028991888 -0.01640069 -0.016871644 0.019271981 -0.0011096796
-0.01971208 0.015127317 -0.002888999 0.00113253 0.004107784 -0.0006722795 0.00537164 0.0043953033
0.041531835 -0.02111311 -0.012409443 -0.0031372893 -0.005000201 -0.023863124 0.020067941 -0.002564533
-0.028244002 0.03917323 0.024910914 -0.012512364 -0.009810134 0.0023710828 0.0061532343 0.016699703
0.0080399485 0.006142252 -0.019565294 -0.015172366 0.0023425089 -0.0045501557 0.048905153 0.024919122
-0.02829631 0.014642729 0.0022283457 -0.004306987 -0.0014335213 0.003440244 0.03712607 -0.052450415

action_model._continuous_distribution.mu.bias f4 [2]
00000000: e20e 983b 3fa8 b23b
0.004640446 0.0054521854

onnx::Div_51 f4 [8]
00000000: 4185 1440 53d2 e13d c945 2240 a171 343e
00000010: 5a32 213c 312e 103c 6595 8d3f a7ef 653f
2.3206332 0.11026444 2.5355093 0.17621471 0.009838665 0.008800075 1.1061217 0.89818805
