Basic_Path_Finding/Assets/TorchModels/results/PlayerMaze1/PlayerMaze/PlayerMaze-1665.onnx (onnx, 74869 bytes, 9 tensors)

network_body.observation_encoder.processors.0.normalizer.running_mean f4 [8]
3.3065476 0.46552536 -1.4582933 -19.98799 0.49969983 -8.966511e-09 0.4216042 -1.4432104
00000000: 7a9e 5340 5759 ee3e 5ba9 babf 67e7 9fc1
00000010: a8d8 ff3e 220b 1ab2 81dc d73e 1ebb b8bf

network_body._body_endoder.seq_layers.0.weight f4 [128, 8]
-0.5354138 0.03166138 -0.040455 -0.14874041 0.042596918 0.10606586 0.231074 -0.19254279
-0.24694192 0.13347903 0.013203015 0.4580829 0.46186236 -0.4505458 -0.29077953 -0.03976407
-0.2864919 0.40780792 0.21998933 0.07609374 0.13236612 0.087022655 -0.30971062 0.23999973
-0.057152007 -0.62012315 0.65320873 0.62493306 0.8475806 -0.03258668 0.19164808 -0.23488174
0.31648248 0.23056635 0.08900547 0.30861226 -0.4240497 0.14337672 -0.2881189 0.017260721
-0.17752995 -0.21454425 0.3866573 0.12944318 -0.032468513 0.23239376 0.15244739 0.20698647
-0.5501471 0.22655877 0.36696902 -0.17987598 0.030641826 -0.099231824 -0.09300715 0.093053885
-0.3077883 -0.100111775 0.06333562 0.038096137 -0.4763192 -0.30309907 0.51193035 -0.1859466
0.23837104 -0.09887915 0.0011745788 0.17830224 0.4608608 0.30296943 -0.034486976 -0.023120759
0.23301454 0.013416286 0.17669757 0.39686188 0.34189686 -0.50611806 -0.036572535 0.0062710973
0.03240519 -0.14562999 0.10613839 -0.73718697 0.30955875 -0.58786666 -0.41263467 0.45570606
-0.25749624 -0.54131246 -0.0073965583 -0.18086253 -0.31519544 -0.07215211 0.07756355 0.073120795
-0.2525722 0.26870137 0.019640978 -0.1197554 -0.8835355 0.3130941 0.07609504 -0.22516608
-0.870459 0.8668029 -0.14861552 0.2765797 0.081779405 0.34710264 -0.20207772 -0.11870978
-0.02158038 0.26395786 0.36050126 0.020729903 0.60474944 0.07662177 -0.26791492 -0.12878922
0.5196187 0.09060653 -0.15624249 -0.2206203 -0.042288523 0.0027825197 0.498063 0.34737405
-0.029153304 -0.07909613 -0.0631476 -0.22583978 0.02369709 -0.37530863 0.12820137 -0.29213652
-0.24379098 -0.41144127 0.20343308 -0.6059209 -0.234014 -0.21951042 -0.5343074 0.43247512
-0.2577861 0.24617137 0.30778793 -0.34159404 -0.5451254 -0.088804305 0.12211661 -0.59542894
-0.29133424 0.3367168 -0.11082858 0.46884808 -0.46132228 -0.023563594 -0.43402526 0.09610302
-0.5072837 0.023324858 0.1444411 0.18476537 -0.09651959 -0.10472073 -0.70045257 0.023935031
-0.21350586 -0.14722215 -0.4527213 -0.23325233 0.2093499 0.14965914 0.40551186 -0.2986
0.003520007 0.20142545 -0.26822373 0.39098468 -0.3874335 0.18921866 0.4582753 -0.11005051
-0.02604966 0.31455582 -0.060883604 -0.5297435 -0.27673948 0.1959303 0.19484414 0.30881384
-0.101474844 0.1287027 -0.69310164 0.14995696 -0.21215534 0.08657882 0.2474748 -0.28130782
-0.35547158 0.30314067 -0.18896066 0.11908883 -0.6817026 0.50482476 -0.3043417 -0.10772748
-0.09366899 1.0728738 -0.22468476 -0.060333032 -0.44498068 0.09849828 -0.0148630645 -0.3815496
-0.21753523 0.5593488 -0.45785043 -0.20812136 -0.22818752 -0.22445555 -0.032928072 -0.25840458
-0.2894519 -0.20337774 -0.6272798 -0.025013717 -0.4823794 0.44802642 0.55867314 -0.2891604
-0.19339254 0.27191386 0.40208742 -0.16593844 0.47070602 0.3594438 0.28569883 -0.053419303
0.031213377 1.3765019 -0.40643433 0.6609677 0.39011848 -0.3773606 0.36734185 0.12629394
0.24760994 -0.25678402 0.22089626 0.35129753 -0.10070326 -0.60151327 -0.34358206 0.57045686
00000000: e110 09bf 5daf 013d 24b4 25bd 684f 18be
00000010: 1b7a 2e3d 0f39 d93d aa9e 6c3e f029 45be
00000020: 58de 7cbe baae 083e 7551 583c d889 ea3e
00000030: 3979 ec3e f0ad e6be 0ee1 94be a6df 22bd
00000040: 11af 92be 33cc d03e e244 613e 09d7 9b3d
00000050: fc8a 073e ef38 b23d 6492 9ebe 7dc2 753e
00000060: 3918 6abd 64c0 1ebf b038 273f 9dfb 1f3f
00000070: 0bfb 583f 9c79 05bd 653f 443e d784 70be
00000080: fe09 a23e 9619 6c3e 8048 b63d 6d02 9e3e
00000090: 0b1d d9be 59d1 123e 5284 93be 5b66 8d3c
000000a0: 69ca 35be 7db1 5bbe f2f7 c53e c18c 043e
000000b0: b4fd 04bd a1f8 6d3e 2b1b 1c3e 43f4 533e
000000c0: 71d6 0cbf 06ff 673e 5de3 bb3e 6931 38be
000000d0: 9104 fb3c 0e3a cbbd 887a bebd 0993 be3d
000000e0: 6e96 9dbe 6707 cdbd 1bb6 813d b20a 1c3d
000000f0: 1ce0 f3be cd2f 9bbe de0d 033f c968 3ebe
00000100: 8a17 743e 2781 cabd 53f4 993a dd94 363e
00000110: f2f5 eb3e cf1e 9b3e 3742 0dbd bf67 bdbc
00000120: 5d9b 6e3e fbcf 5b3c 35f0 343e 7b31 cb3e
00000130: 1b0d af3e f490 01bf 15cd 15bd c77d cd3b
00000140: 4ebb 043d 0720 15be 165f d93d 49b8 3cbf
00000150: 7c7e 9e3e 6e7e 16bf da44 d3be 4e52 e93e
00000160: 8cd6 83be 7493 0abf d45e f2bb 0734 39be
00000170: 4c61 a1be 7cc4 93bd a3d9 9e3d 5bc0 953d
00000180: 2551 81be 3a93 893e 1ee6 a03c 5242 f5bd
00000190: 622f 62bf df4d a03e b7d7 9b3d f091 66be
000001a0: 67d6 5ebf cbe6 5d3f ab2e 18be db9b 8d3e
000001b0: f67b a73d 70b7 b13e 76ed 4ebe 1d1e f3bd
000001c0: 56c9 b0bc 7c25 873e 9f93 b83e c2d1 a93c
000001d0: dcd0 1a3f e0eb 9c3d 252c 89be 52e1 03be
000001e0: bb05 053f eb8f b93d 08fe 1fbe 4aea 61be
000001f0: bb36 2dbd ef5a 363b 1d02 ff3e 03db b13e
00000200: e9d2 eebc 27fd a1bd 8753 81bd 8b42 67be
00000210: 6620 c23c 7428 c0be 3847 033e eb92 95be
00000220: 58a4 79be 6ea8 d2be c350 503e a21d 1bbf
00000230: 5ea1 6fbe 57c7 60be 5fc8 08bf 616d dd3e
00000240: 8afc 83be 5914 7c3e 6196 9d3e 6ae5 aebe
00000250: 578d 0bbf 08df b5bd 4618 fa3d 086e 18bf
00000260: c329 95be 2566 ac3e 18fa e2bd db0c f03e
00000270: 6f32 ecbe 7008 c1bc 8f38 debe a9d1 c43d
00000280: 58dd 01bf c613 bf3c 5ee8 133e 2233 3d3e
00000290: 10ac c5bd d277 d6bd dc50 33bf 6613 c43c
000002a0: 48a1 5abe 67c1 16be 16cb e7be b3d9 6ebe
000002b0: d25f 563e 3f40 193e 409f cf3e 19e2 98be
000002c0: ebaf 663b 7942 4e3e 9f54 89be 252f c83e
000002d0: af5d c6be 89c2 413e 0fa3 ea3e 2962 e1bd
000002e0: 1966 d5bc 760d a13e 1661 79bd 459d 07bf
000002f0: ccb0 8dbe f4a1 483e 3985 473e d91c 9e3e
00000300: 0bd2 cfbd a4ca 033e 1c6f 31bf 518e 193e
00000310: 403f 59be 3d50 b13d 096a 7d3e 9407 90be
00000320: 5f00 b6be 4135 9b3e e77e 41be d8e4 f33d
00000330: 1084 2ebf 323c 013f add2 9bbe 3aa0 dcbd
00000340: 87d5 bfbd ee53 893f c313 66be c51f 77bd
00000350: 82d4 e3be 77b9 c93d 3684 73bc 785a c3be
00000360: 8ec1 5ebe 7c31 0f3f 5f6b eabe c41d 55be
00000370: fda9 69be add7 65be 96df 06bd 9b4d 84be
00000380: 0a33 94be 4142 50be 6995 20bf 91e9 ccbc
00000390: 6ffa f6be b863 e53e 3405 0f3f d50c 94be
000003a0: b208 46be 4b38 8b3e 67de cd3e c4eb 29be
000003b0: 6100 f13e 0509 b83e 1e47 923e 33ce 5abd
000003c0: 32b3 ff3c 3731 b03f 2918 d0be 2e35 293f
000003d0: 9cbd c73e 6935 c1be 3b14 bc3e 3353 013e
000003e0: 768d 7d3e 3279 83be a132 623e 45dd b33e
000003f0: 833d cebd c6fc 19bf fde9 afbe 7609 123f

network_body._body_endoder.seq_layers.0.bias f4 [128]
0.0 0.0 0.0 0.0 0.0 0.0 0.0 0.0
0.0 0.0 0.0 0.0 0.0 0.0 0.0 0.0
0.0 0.0 0.0 0.0 0.0 0.0 0.0 0.0
0.0 0.0 0.0 0.0 0.0 0.0 0.0 0.0
0.0 0.0 0.0 0.0 0.0 0.0 0.0 0.0
0.0 0.0 0.0 0.0 0.0 0.0 0.0 0.0
0.0 0.0 0.0 0.0 0.0 0.0 0.0 0.0
0.0 0.0 0.0 0.0 0.0 0.0 0.0 0.0
0.0 0.0 0.0 0.0 0.0 0.0 0.0 0.0
0.0 0.0 0.0 0.0 0.0 0.0 0.0 0.0
0.0 0.0 0.0 0.0 0.0 0.0 0.0 0.0
0.0 0.0 0.0 0.0 0.0 0.0 0.0 0.0
0.0 0.0 0.0 0.0 0.0 0.0 0.0 0.0
0.0 0.0 0.0 0.0 0.0 0.0 0.0 0.0
0.0 0.0 0.0 0.0 0.0 0.0 0.0 0.0
0.0 0.0 0.0 0.0 0.0 0.0 0.0 0.0
00000000: 0000 0000 0000 0000 0000 0000 0000 0000
00000010: 0000 0000 0000 0000 0000 0000 0000 0000
00000020: 0000 0000 0000 0000 0000 0000 0000 0000
00000030: 0000 0000 0000 0000 0000 0000 0000 0000
00000040: 0000 0000 0000 0000 0000 0000 0000 0000
00000050: 0000 0000 0000 0000 0000 0000 0000 0000
00000060: 0000 0000 0000 0000 0000 0000 0000 0000
00000070: 0000 0000 0000 0000 0000 0000 0000 0000
00000080: 0000 0000 0000 0000 0000 0000 0000 0000
00000090: 0000 0000 0000 0000 0000 0000 0000 0000
000000a0: 0000 0000 0000 0000 0000 0000 0000 0000
000000b0: 0000 0000 0000 0000 0000 0000 0000 0000
000000c0: 0000 0000 0000 0000 0000 0000 0000 0000
000000d0: 0000 0000 0000 0000 0000 0000 0000 0000
000000e0: 0000 0000 0000 0000 0000 0000 0000 0000
000000f0: 0000 0000 0000 0000 0000 0000 0000 0000
00000100: 0000 0000 0000 0000 0000 0000 0000 0000
00000110: 0000 0000 0000 0000 0000 0000 0000 0000
00000120: 0000 0000 0000 0000 0000 0000 0000 0000
00000130: 0000 0000 0000 0000 0000 0000 0000 0000
00000140: 0000 0000 0000 0000 0000 0000 0000 0000
00000150: 0000 0000 0000 0000 0000 0000 0000 0000
00000160: 0000 0000 0000 0000 0000 0000 0000 0000
00000170: 0000 0000 0000 0000 0000 0000 0000 0000
00000180: 0000 0000 0000 0000 0000 0000 0000 0000
00000190: 0000 0000 0000 0000 0000 0000 0000 0000
000001a0: 0000 0000 0000 0000 0000 0000 0000 0000
000001b0: 0000 0000 0000 0000 0000 0000 0000 0000
000001c0: 0000 0000 0000 0000 0000 0000 0000 0000
000001d0: 0000 0000 0000 0000 0000 0000 0000 0000
000001e0: 0000 0000 0000 0000 0000 0000 0000 0000
000001f0: 0000 0000 0000 0000 0000 0000 0000 0000

network_body._body_endoder.seq_layers.2.weight f4 [128, 128]
0.006159136 0.012456209 0.06323148 0.09710093 0.14360052 0.034318905 0.038943976 0.14468598
0.03336007 -0.16578758 0.23532996 0.07354833 -0.17914139 0.17076571 0.040399604 -0.14867449
-0.0291404 0.029806022 -0.17801933 -0.10186927 0.1652392 0.029055864 -0.035600003 -0.11156965
0.20041499 0.07254101 0.018791484 -0.12749779 0.014205084 0.13313475 -0.05166263 0.1485739
-0.102637924 0.020670582 -0.0384522 -0.003094706 -0.014428363 0.07623694 0.084470175 0.007307746
-0.073381506 0.025479158 0.13714142 -0.029040502 0.114991434 0.045588687 -0.12568852 0.0009327144
0.08685951 -0.09050371 -0.010907555 0.02434818 0.0985163 0.12464577 -0.019660207 0.047328714
-0.09087697 -0.14953123 -0.0019417858 0.045182258 -0.03197713 -0.0785682 0.0011880967 0.08900176
0.07062431 -0.122927375 0.024312343 0.24100651 -0.029112097 -0.0142896 0.023065742 0.05815756
0.075039744 -0.13024035 -0.10415617 0.006249478 -0.10002035 -0.020694125 -0.030688308 -0.06442799
-0.06999435 0.12615675 0.008896341 0.09302728 -0.06058087 -0.004437063 0.09308431 -0.06746164
0.11634573 -0.010818714 0.054613207 -0.05845065 -0.10857403 0.050868396 -0.19909233 0.06255691
0.17020123 -0.0045970296 -0.013439975 -0.11764627 0.10869815 -0.18175566 0.048816733 0.043561876
-0.044270866 -0.045382474 -0.15506868 -0.016816523 0.07764041 0.020836173 0.07846649 -0.034585718
0.040146377 0.011242449 -0.06016719 0.09515382 -0.10865805 -0.03375871 0.028011369 0.049438026
0.058645077 0.08678635 -0.14310344 -0.052033108 -0.009056247 -0.020357603 0.06333711 -0.0527747
0.036796555 -0.055462524 0.012140737 -0.0915041 0.10336375 0.03576604 -0.06281086 0.23383334
-0.18447562 -0.16280413 0.017353335 -0.054878168 -0.097249165 0.16470885 0.0055155642 0.016102992
0.1176693 -0.13400124 -0.036427338 -0.06206481 -0.12281573 -0.056621097 -0.15128562 -0.030411394
-0.013184406 0.059770633 -0.09846363 -0.005966994 -0.01915461 0.077785656 -0.08866883 -0.0012248785
-0.13669641 0.08659702 -0.09322895 -0.17175066 0.0025277785 0.049866818 -0.045162417 0.07855441
0.10470281 -0.113604166 -0.040196605 -0.13170144 -0.12262272 0.13138099 0.07719075 -0.04376078
-0.1627622 0.11839765 -0.007539956 -0.03655913 -0.013146942 0.08644923 -0.067409426 -0.04164642
-0.058332007 0.00059267203 0.1655904 0.09837835 -0.047527008 -0.07481199 -0.010420705 0.012067043
-0.04310474 0.17138615 -0.040587995 0.10069244 -0.058049664 0.04432697 -0.095219746 -0.0072686807
-0.013846418 -0.023376092 0.03230083 0.1185771 -0.06755589 0.10829211 0.041144114 -0.085994855
-0.1237824 0.0856783 0.010893585 0.07976251 -0.04341218 -0.0454375 0.099525325 -0.016262377
0.008013753 -0.051736172 -0.05921884 -0.027993158 0.13925931 0.16414161 -0.07178021 0.005867836
0.048185796 0.043527696 -0.0045473995 0.1854917 -0.07940097 -0.03422651 -0.011729789 -0.025646783
0.26310414 -0.06897635 0.16239296 -0.11219313 -0.14139867 -0.004897176 -0.1719957 0.024436506
0.012561846 0.050512627 0.021812063 -0.021571262 0.12452832 0.11745836 0.09129532 0.082791395
-0.044871047 0.083994724 -0.08189635 0.041617274 -0.039728712 0.042307872 0.013936195 0.063070886
00000000: 94d2 c93b 2115 4c3c 827f 813d dadc c63d
00000010: 040c 133e fb91 0c3d b883 1f3d 9028 143e
00000020: 92a4 083d 38c4 29be 56fa 703e 82a0 963d
00000030: d770 37be 35dd 2e3e 0e7a 253d 203e 18be
00000040: d9b7 eebc c22b f43c b34a 36be d6a0 d0bd
00000050: 7734 293e 9006 ee3c 4fd1 11bd a17e e4bd
00000060: 9639 4d3e 6290 943d 99f0 993c c88e 02be
00000070: 71bc 683c 7a54 083e 329c 53bd c223 183e
00000080: d533 d2bd 5a55 a93c 0e80 1dbd 8dd0 4abb
00000090: f164 6cbc 1d22 9c3d b3fe ac3d d175 ef3b
000000a0: 0b49 96bd abb9 d03c cd6e 0c3e 59e6 edbc
000000b0: a180 eb3d 34bb 3a3d 7eb4 00be 6781 743a
000000c0: 66e3 b13d 025a b9bd 9ab5 32bc d675 c73c
000000d0: eac2 c93d 4846 ff3d 710e a1bc c1db 413d
000000e0: b41d babd b71e 19be 8583 feba 0811 393d
000000f0: 73fa 02bd 5de8 a0bd e9b9 9b3a 8e46 b63d
00000100: 7aa3 903d 59c1 fbbd ae2a c73c 69ca 763e
00000110: 7e7c eebc ed1e 6abc 5ef4 bc3c 9f36 6e3d
00000120: 70ae 993d ba5d 05be d44f d5bd 6cc8 cc3b
00000130: 78d7 ccbd ba86 a9bc 0c66 fbbc d2f2 83bd
00000140: 3359 8fbd 3c2f 013e f5c1 113c 1685 be3d
00000150: a523 78bd c864 91bb fda2 be3d 5429 8abd
00000160: ac46 ee3d fa40 31bc 19b2 5f3d f369 6fbd
00000170: 105c debd 615b 503d dcde 4bbe d61d 803d
00000180: 3b49 2e3e aea2 96bb 5733 5cbc 87f0 f0bd
00000190: 239d de3d 281e 3abe 0ef4 473d f06d 323d
000001a0: 5e55 35bd f9e2 39bd 53ca 1ebe cec2 89bc
000001b0: ef01 9f3d 9fb0 aa3c 0ab3 a03d c1a9 0dbd
000001c0: 8770 243d 4032 383c df71 76bd 02e0 c23d
000001d0: 1d88 debd 9346 0abd 1978 e53c 877f 4a3d
000001e0: d235 703d 0bbd b13d b589 12be ab20 55bd
000001f0: a760 14bc fdc4 a6bc e3b6 813d 492a 58bd
00000200: fcb7 163d ac2c 63bd f1e9 463c 8066 bbbd
00000210: 60b0 d33d 697f 123d fba2 80bd 0272 6f3e
00000220: 2de7 3cbe 20b6 26be 9528 8e3c eec7 60bd
00000230: 922a c7bd 70a9 283e e8bb b43b 6cea 833c
00000240: 9afc f03d 9f37 09be d534 15bd ac37 7ebd
00000250: d086 fbbd 86eb 67bd 9eea 1abe 5121 f9bc
00000260: 6803 58bc 0dd2 743d 4da7 c9bd c686 c3bb
00000270: 21ea 9cbc 164e 9f3d 0198 b5bd 1a8c a0ba
00000280: 25fa 0bbe c759 b13d d2ee bebd 68df 2fbe
00000290: 16a9 253b 2641 4c3d 3afc 38bd 22e1 a03d
000002a0: 6d6e d63d 4da9 e8bd 32a5 24bd bedc 06be
000002b0: 9f21 fbbd bd88 063e 2f16 9e3d 813e 33bd
000002c0: 22ab 26be 787a f23d bc11 f7bb 07bf 15bd
000002d0: 4566 57bc 4b0c b13d f40d 8abd 7095 2abd
000002e0: 8bed 6ebd 8c5d 1b3a 8890 293e 977a c93d
000002f0: aeab 42bd 0737 99bd 9bbb 2abc d9b4 453c
00000300: 998e 30bd da7f 2f3e 993f 26bd d737 ce3d
00000310: 7cc5 6dbd 3290 353d 9202 c3bd 1d2e eebb
00000320: 16dc 62bc 387f bfbc e04d 043d 8dd8 f23d
00000330: be5a 8abd 41c8 dd3d bb86 283d 121e b0bd
00000340: a081 fdbd 1b78 af3d 027b 323c 875a a33d
00000350: f8d0 31bd ac1c 3abd efd3 cb3d ad38 85bc
00000360: 1e4c 033c 4fe9 53bd 748f 72bd e851 e5bc
00000370: fe99 0e3e bd14 283e 8101 93bd fa46 c03b
00000380: 785e 453d 194a 323d 5a02 95bb 89f1 3d3e
00000390: fa9c a2bd 1931 0cbd 4d2e 40bc 3419 d2bc
000003a0: 96b5 863e 7943 8dbd 574a 263e 83c5 e5bd
000003b0: d0ca 10be 7d78 a0bb a41f 30be 112f c83c
000003c0: 33d0 4d3c 54e6 4e3d 36af b23c 37b6 b0bc
000003d0: b408 ff3d 028e f03d 0af9 ba3d 898e a93d
000003e0: b4ca 37bd 6d05 ac3d 46b9 a7bd e076 2a3d
000003f0: 93ba 22bd 054b 2d3d a354 643c 4f2b 813d

network_body._body_endoder.seq_layers.2.bias f4 [128]
0.0 0.0 0.0 0.0 0.0 0.0 0.0 0.0
0.0 0.0 0.0 0.0 0.0 0.0 0.0 0.0
0.0 0.0 0.0 0.0 0.0 0.0 0.0 0.0
0.0 0.0 0.0 0.0 0.0 0.0 0.0 0.0
0.0 0.0 0.0 0.0 0.0 0.0 0.0 0.0
0.0 0.0 0.0 0.0 0.0 0.0 0.0 0.0
0.0 0.0 0.0 0.0 0.0 0.0 0.0 0.0
0.0 0.0 0.0 0.0 0.0 0.0 0.0 0.0
0.0 0.0 0.0 0.0 0.0 0.0 0.0 0.0
0.0 0.0 0.0 0.0 0.0 0.0 0.0 0.0
0.0 0.0 0.0 0.0 0.0 0.0 0.0 0.0
0.0 0.0 0.0 0.0 0.0 0.0 0.0 0.0
0.0 0.0 0.0 0.0 0.0 0.0 0.0 0.0
0.0 0.0 0.0 0.0 0.0 0.0 0.0 0.0
0.0 0.0 0.0 0.0 0.0 0.0 0.0 0.0
0.0 0.0 0.0 0.0 0.0 0.0 0.0 0.0
00000000: 0000 0000 0000 0000 0000 0000 0000 0000
00000010: 0000 0000 0000 0000 0000 0000 0000 0000
00000020: 0000 0000 0000 0000 0000 0000 0000 0000
00000030: 0000 0000 0000 0000 0000 0000 0000 0000
00000040: 0000 0000 0000 0000 0000 0000 0000 0000
00000050: 0000 0000 0000 0000 0000 0000 0000 0000
00000060: 0000 0000 0000 0000 0000 0000 0000 0000
00000070: 0000 0000 0000 0000 0000 0000 0000 0000
00000080: 0000 0000 0000 0000 0000 0000 0000 0000
00000090: 0000 0000 0000 0000 0000 0000 0000 0000
000000a0: 0000 0000 0000 0000 0000 0000 0000 0000
000000b0: 0000 0000 0000 0000 0000 0000 0000 0000
000000c0: 0000 0000 0000 0000 0000 0000 0000 0000
000000d0: 0000 0000 0000 0000 0000 0000 0000 0000
000000e0: 0000 0000 0000 0000 0000 0000 0000 0000
000000f0: 0000 0000 0000 0000 0000 0000 0000 0000
00000100: 0000 0000 0000 0000 0000 0000 0000 0000
00000110: 0000 0000 0000 0000 0000 0000 0000 0000
00000120: 0000 0000 0000 0000 0000 0000 0000 0000
00000130: 0000 0000 0000 0000 0000 0000 0000 0000
00000140: 0000 0000 0000 0000 0000 0000 0000 0000
00000150: 0000 0000 0000 0000 0000 0000 0000 0000
00000160: 0000 0000 0000 0000 0000 0000 0000 0000
00000170: 0000 0000 0000 0000 0000 0000 0000 0000
00000180: 0000 0000 0000 0000 0000 0000 0000 0000
00000190: 0000 0000 0000 0000 0000 0000 0000 0000
000001a0: 0000 0000 0000 0000 0000 0000 0000 0000
000001b0: 0000 0000 0000 0000 0000 0000 0000 0000
000001c0: 0000 0000 0000 0000 0000 0000 0000 0000
000001d0: 0000 0000 0000 0000 0000 0000 0000 0000
000001e0: 0000 0000 0000 0000 0000 0000 0000 0000
000001f0: 0000 0000 0000 0000 0000 0000 0000 0000

action_model._continuous_distribution.log_sigma f4 [1, 2]
0.0 0.0
00000000: 0000 0000 0000 0000

action_model._continuous_distribution.mu.weight f4 [2, 128]
0.0002595335 0.03027737 0.016251665 -0.0090900725 -0.0057192547 -0.01896116 -0.011991623 -0.016770806
-0.0048790234 -0.0046916003 -0.01952391 -0.032300238 -0.026404181 0.021728855 0.012253179 -0.00094388047
0.03325197 0.037848726 0.02661475 0.014343852 0.030478451 0.026659185 0.004235485 0.0028296073
0.0030868046 0.008573806 -0.05140248 -0.027015695 0.01870063 -0.016470343 -0.026809761 -0.025063619
-0.011354409 0.0035002863 -0.011312607 -0.00725273 0.017529523 0.00359983 0.021774115 -0.004340095
0.010133821 0.011849941 -0.0149849905 -0.0077836006 0.005599136 -0.012570125 -0.011160175 -0.0050685955
-0.002408386 -0.0036725884 0.009755802 -0.028624833 0.03192007 0.004050231 0.0039265747 -0.004532241
0.00922259 -0.0015455582 -0.0134970145 0.004775261 -0.002898142 0.006081996 0.0075194165 -0.019257607
-0.0021047897 -0.0049371696 -0.021788321 0.028196398 -0.007115196 0.012532598 -0.008465714 0.011503142
0.005289215 -0.006862218 -0.018522792 0.009293562 0.0022340927 -0.002833186 -0.00033291167 0.021130241
0.014232068 -0.009435917 0.004594684 -0.026584385 -0.0016038871 -0.05561843 0.023935672 0.00811421
-0.016284434 0.018214785 0.020170229 0.015917074 0.004560039 -0.008629323 0.015053458 0.0027380583
0.013120155 0.011871751 0.042150334 0.008410308 -0.0035313522 0.0062405197 -0.0016355722 -0.008623145
0.0009061194 -0.006065472 -0.014657072 -0.0021951178 -0.007866029 -0.014797645 0.016524984 0.02312748
-0.0003374006 -0.013382497 -0.020192022 0.024803184 -0.032427635 -0.0013065676 -0.009729442 0.0036275543
0.004713248 -0.010625477 0.01248199 0.0025279867 -0.039134502 0.0045630713 -0.019150928 0.03744089
-0.0021484857 -0.0011129524 -0.038903646 -0.0018449532 0.01136158 0.021656275 0.0021910665 0.031746816
-0.044083655 0.017285313 -0.009967239 -0.0253944 -0.01628071 -0.0026774884 0.024813762 0.011285158
6.0344017e-05 0.0025613129 0.0018647 0.004847555 0.0057098037 0.0019962045 0.009691009 -0.010960707
-0.01260266 0.025635121 0.0032532532 -0.007277413 -0.025598649 0.023995068 -0.026103292 0.0029339714
0.011480656 0.025109926 -0.00053264986 -0.028243104 0.008771017 -0.01654658 0.015880456 0.014050208
-0.014446762 0.031372014 -0.010236091 0.007268471 -5.05454e-06 -0.010874706 0.0011508762 0.012820325
0.010638921 -0.018964568 -0.015781762 -0.009182512 -0.026056206 -0.015852964 0.028298868 0.018938012
-0.004484719 -0.00048973487 -0.012125965 0.023131132 0.0051523964 0.03526381 0.023918679 0.038037185
0.0033089512 -0.014049052 -0.020316457 0.0138951335 -0.0062367986 0.007441014 -0.008230178 -0.0584321
-0.017823506 -0.017055592 -0.012228268 0.009500003 -0.0037730776 -0.0066649057 0.014050059 0.02458126
-0.025351599 0.020603308 -0.015323224 -0.007377989 -0.022303542 0.0027456714 -0.009250232 -0.033873614
0.0015654545 0.02547588 -0.012191359 -0.010425708 0.0103980545 -0.025854735 -0.0069664414 0.013396347
0.00010233168 0.018052854 0.008570214 -0.004996684 0.0012476463 0.012943514 0.009748513 -0.0078053563
0.025372742 0.002517072 0.035654347 -0.017367616 -0.036816437 -0.04158845 -0.014452 0.016533853
-0.012537399 -0.010899456 0.011031382 -0.0019153239 -0.032664053 -0.011420558 0.020328408 -0.013927017
0.015436294 0.003330333 -0.016806733 -0.0009628145 0.005294807 -0.0038379903 -0.01863104 0.010880257
00000000: ff11 8839 3f08 f83c 3622 853c 87ee 14bc
00000010: 9668 bbbb 6f54 9bbc 8378 44bc ee62 89bc
00000020: 37e0 9fbb ffbb 99bb 9bf0 9fbc 414d 04bd
00000030: 954d d8bc b600 b23c 8fc1 483c bf6e 77ba
00000040: 3833 083d 4407 1b3d 2d07 da3c 7a02 6b3c
00000050: f2ad f93c 5d64 da3c d3c9 8a3b ef70 393b
00000060: fd4b 4a3b 2679 0c3c 688b 52bd 0550 ddbc
00000070: 1032 993c d0ec 86bc 25a0 dbbc 3852 cdbc
00000080: d807 3abc 0f65 653b 8358 39bc 4fa8 edbb
00000090: 139a 8f3c 20eb 6b3b a15f b23c 5b37 8ebb
000000a0: 5308 263c 4126 423c 9b83 75bc 930d ffbb
000000b0: f578 b73b edf2 4dbc 2bd9 36bc 7616 a6bb
000000c0: 03d6 1dbb cfaf 70bb cdd6 1f3c a07e eabc
000000d0: 9fbe 023d cdb7 843b 7faa 803b 3183 94bb
000000e0: 591a 173c 5494 caba 9522 5dbc cb79 9c3b
000000f0: c1ee 3dbb 7b4b c73b 7065 f63b 21c2 9dbc
00000100: 83f0 09bb fbc7 a1bb 6c7d b2bc 22fc e63c
00000110: 9726 e9bb 8755 4d3c c7b3 0abc ad77 3c3c
00000120: 2751 ad3b 75dc e0bb 1cbd 97bc 0644 183c
00000130: db69 123b f9ac 39bb a68a aeb9 5419 ad3c
00000140: 9f2d 693c 1b99 1abc 018f 963b 7fc7 d9bc
00000150: 8539 d2ba 27d0 63bd be14 c43c 77f1 043c
00000160: ef66 85bc 2c37 953c 093c a53c 8664 823c
00000170: 616c 953b 0162 0dbc c7a2 763c ff70 333b
00000180: ebf5 563c bc81 423c d4a5 2c3d 63cb 093c
00000190: 426e 67bb 467d cc3b b260 d6ba 1748 0dbc
000001a0: a588 6d3a dec0 c6bb 3724 70bc f7db 0fbb
000001b0: 84e0 00bc d271 72bc 675f 873c d775 bd3c
000001c0: 24e5 b0b9 4342 5bbc bd69 a5bc 0c30 cb3c
000001d0: d7d2 04bd 2241 abba 3d68 1fbc 43bc 6d3b
000001e0: 9771 9a3b 7b16 2ebc 4381 4c3c 94ac 253b
000001f0: 804b 20bd d185 953b 68e2 9cbc 9e5b 193d
00000200: 9ccd 0cbb 7ce0 91ba 6e59 1fbd 5bd2 f1ba
00000210: ec25 3a3c 8068 b13c ff97 0f3b f308 023d
00000220: 1091 34bd ee99 8d3c a14d 23bc eb07 d0bc
00000230: 205f 85bc cd78 2fbb 3b46 cb3c 62e5 383c
00000240: e519 7d38 b3db 273b f368 f43a 3dd8 9e3b
00000250: 4e19 bb3b c1d2 023b 0ac7 1e3c 8a94 33bc
00000260: 637b 4ebc bf00 d23c 8834 553b 5d77 eebb
00000270: 42b4 d1bc 4e91 c43c 92d6 d5bc df47 403b
00000280: 5d19 3c3c 55b3 cd3c 87a1 0bba 155e e7bc
00000290: 50b4 0f3c b18c 87bc bb17 823c d832 663c
000002a0: 1db2 6cbc f17f 003d 47b5 27bc 5b2c ee3b
000002b0: 2b9a a9b6 d32b 32bc ffd8 963a 570c 523c
000002c0: de4e 2e3c 955b 9bbc c148 81bc 3f72 16bc
000002d0: d373 d5bc 13de 81bc 07d3 e73c e423 9b3c
000002e0: 8df4 92bb 8d61 00ba fcab 46bc 807d bd3c
000002f0: 6fd5 a83b c970 103d 1bf1 c33c e1cc 1b3d
00000300: fdda 583b ff2d 66bc b36e a6bc 6aa8 633c
00000310: 0f5e ccbb c0d3 f33b ded7 06bc 7f56 6fbd
00000320: 9a02 92bc 2bb8 8bbc 1359 48bc e7a5 1b3c
00000330: bd45 77bb 4865 dabb 3832 663c a35e c93c
00000340: 28ae cfbc 45c8 a83c 420e 7bbc 0fc3 f1bb
00000350: ebb5 b6bc b9f0 333b 498e 17bc 0fbf 0abd
00000360: f02f cd3a cbb2 d03c 44be 47bc 97d0 2abc
00000370: 9a5c 2a3c 4fcd d3bc bf46 e4bb 5a7c 5b3c
00000380: e79a d638 94e3 933c 156a 0c3c 39bb a3bb
00000390: 1088 a33a 0811 543c 3ab8 1f3c 13c4 ffbb
000003a0: 7fda cf3c 76f5 243b 4b0a 123d 8846 8ebc
000003b0: d5cc 16bd a758 2abd 15c8 6cbc 0172 873c
000003c0: aa69 4dbc a293 32bc f8bc 343c 9b0b fbba
000003d0: beca 05bd 4b1d 3bbc c387 a63c 252e 64bc
000003e0: 82e8 7c3c b741 5a3b 46ae 89bc 6365 7cba
000003f0: 0f80 ad3b cb86 7bbb 1fa0 98bc 1b43 323c

action_model._continuous_distribution.mu.bias f4 [2]
0.0 0.0
00000000: 0000 0000 0000 0000

onnx::Div_51 f4 [8]
1.9948175 0.10443796 2.6003516 0.49046203 0.027390007 0.024499798 1.0353608 0.47805548
00000000: 2e56 ff3f 92e3 d53d 296c 2640 d71d fb3e
00000010: 0261 e03c cdb3 c83c b486 843f b0c3 f43e
