Basic_Path_Finding/Assets/TorchModels/results/PlayerMaze1/PlayerMaze/PlayerMaze-682.onnx (onnx, 74869 bytes, 9 tensors)

network_body.observation_encoder.processors.0.normalizer.running_mean f4 [8]
0.92329526 0.4860393 1.9971285 -19.97072 0.49926788 -3.544582e-08 -1.2425354 1.0522988
00000000: 145d 6c3f 25da f83e e8a1 ff3f 09c4 9fc1
00000010: 0aa0 ff3e 173d 18b3 660b 9fbf bab1 863f

network_body._body_endoder.seq_layers.0.weight f4 [128, 8]
0.2917441 0.18893752 0.5720129 0.0850699 0.2039503 0.28803197 0.08134003 0.5132101
0.0041945586 0.07856366 -0.3313108 0.39461294 0.84613353 -0.056527838 -0.6010813 -0.32458243
-0.6994868 -0.048954934 0.4252647 -0.58114374 -0.35982147 0.15392414 0.21470441 0.57295734
0.06869511 0.18804674 0.13095243 -0.3340648 -0.29443568 -0.25644827 -0.17858543 0.91897625
-0.19198097 0.094806366 1.0697553 -0.22483632 -0.07202641 0.22807819 -0.35459328 -0.19897962
-1.0101368 0.34671125 -0.25562352 0.08164595 -0.02729927 0.49048513 0.17464836 0.21120799
0.084228165 0.34247807 0.6171679 0.13290347 0.116740696 -0.07260095 0.19329624 -0.1289372
-0.3193583 -0.3745271 -0.034115776 -0.10260844 0.7318765 0.22038753 0.30411562 -0.46606216
0.116918676 0.06382245 -0.4613931 0.1973954 -0.76655054 0.0014176969 0.17334239 -0.17820764
0.025992893 0.107867196 0.19912331 0.07031197 0.2593516 0.11412863 -0.12865417 -0.01003647
0.038672414 -0.15568103 0.34741548 0.16764985 0.66180885 0.03416598 -0.17362934 0.050528444
-0.072911546 0.0035710202 0.5238827 0.24338983 0.23766439 -0.488763 -0.18580547 0.053860985
0.53884184 0.49735105 -0.042295314 0.09228632 -0.28174376 0.05654359 -0.30551335 0.43843532
-0.27500954 0.08545202 1.247858 -0.05508022 0.059660718 0.46528834 -0.3390311 0.019100584
-0.22176917 -0.27271163 -0.47538677 -0.1022251 -0.07093446 0.36940086 0.32318893 0.27076006
0.33323684 0.31945342 -0.41679803 0.13038285 -0.7868619 -0.18281354 0.6109959 -0.20189339
-0.26449943 0.24821612 -0.31712577 0.09665686 -0.26108408 -0.406882 0.06575306 0.34770417
-0.23432265 -0.31187263 -0.31697226 -0.22218743 0.5733325 -0.37369132 -0.063213095 0.127995
-0.42759845 0.1965903 0.26731607 -0.1657891 0.15242611 0.10146492 0.3695933 -0.21160357
-0.41209608 -0.0030761077 -0.4841602 -0.2842206 -0.31113896 -0.3782139 -0.36297452 0.36257353
-0.37982076 -0.03170345 0.022589918 0.15860254 -0.067280896 0.19295447 0.25846243 0.08993416
-0.4880424 -0.41349486 0.41344526 -0.22563273 -0.5070405 0.8524865 0.47917184 0.27329543
-0.55394906 0.5177071 0.58020455 -0.5268648 -0.2197445 -0.22228427 -0.14444286 -0.10517039
0.26569548 0.36858302 0.32209775 0.31519192 0.4135729 0.20129208 -0.46184617 0.3051932
0.12807678 -0.15047252 -0.4432082 0.06683929 -0.11548057 -0.035410013 -0.26514733 0.18180639
-0.0881508 -0.6241506 -0.061744865 0.37054873 -0.78940904 -0.41505527 0.037218302 0.37827858
0.030826075 0.14237247 -0.035388596 -0.10756708 0.27016312 -0.7850436 0.852473 0.13166058
0.5232308 -0.07145962 0.3803357 0.45548335 -0.2768834 -0.1713859 0.18248552 0.4084407
0.34770554 0.20353667 -0.003777506 -0.50715303 0.28259715 0.25624877 0.12613605 0.46669924
-0.06385678 -0.15849835 0.042319506 -0.37996817 -0.30309266 0.2415954 -0.13800499 -0.40063593
-0.356779 0.01765718 -0.23231313 -0.05228601 0.36269772 0.03337566 -0.20258535 0.15718715
0.27149588 0.1676964 0.25701365 -0.202934 -0.016587771 0.39394647 -0.10142368 0.22474428
00000000: 7c5f 953e d678 413e 706f 123f 2139 ae3d
00000010: 59d8 503e ed78 933e 9a95 a63d bd61 033f
00000020: 8272 893b fce5 a03d 92a1 a9be b50a ca3e
00000030: 359c 583f bc89 67bd 77e0 19bf ab2f a6be
00000040: 9111 33bf f884 48bd 4bbc d93e d6c5 14bf
00000050: 853a b8be 4a9e 1d3e 79db 5b3e 55ad 123f
00000060: 06b0 8c3d 538f 403e 6518 063e 8b0a abbe
00000070: 46c0 96be 304d 83be 19df 36be 0742 6b3f
00000080: a996 44be d729 c23d beed 883f 7e3b 66be
00000090: 9582 93bd 548d 693e 408d b5be 50c1 4bbe
000000a0: 2a4c 81bf 2384 b13e 16e1 82be fe35 a73d
000000b0: b8a2 dfbc de20 fb3e 05d7 323e e846 583e
000000c0: d17f ac3d 4959 af3e b7fe 1d3f d917 083e
000000d0: bf15 ef3d cfaf 94bd 73ef 453e 1d08 04be
000000e0: ee82 a3be 04c2 bfbe fcbc 0bbd 6024 d2bd
000000f0: 425c 3b3f 45ad 613e 0bb5 9b3e b39f eebe
00000100: 0f73 ef3d 58b5 823d b73b ecbe 0522 4a3e
00000110: a83c 44bf 04d2 b93a ab80 313e 107c 36be
00000120: 0cef d43c 7ae9 dc3d fbe6 4b3e b9ff 8f3d
00000130: bcc9 843e 45bc e93d ebbd 03be 0270 24bc
00000140: f766 1e3d d96a 1fbe 71e0 b13e 67ac 2b3e
00000150: 4e6c 293f a0f1 0b3d e4cb 31be eaf6 4e3d
00000160: a652 95bd c707 6a3b 2d1d 063f 2f3b 793e
00000170: 4b5e 733e 253f fabe ca43 3ebe 569d 5c3d
00000180: 8af1 093f cca4 fe3e da3d 2dbd 9c00 bd3d
00000190: b840 90be 409a 673d 3f6c 9cbe 987a e03e
000001a0: 0dce 8cbe 7801 af3d d0b9 9f3f cc9b 61bd
000001b0: cc5e 743d 463a ee3e 7c95 adbe d478 9c3c
000001c0: 7517 63be dca0 8bbe e565 f3be 655b d1bd
000001d0: 1646 91bd 1c22 bd3e 0579 a53e 10a1 8a3e
000001e0: 059e aa3e 668f a33e 8d66 d5be 1583 053e
000001f0: c86f 49bf 7933 3bbe 3a6a 1c3f 24bd 4ebe
00000200: 786c 87be 5e2c 7e3e 4f5e a2be 08f4 c53d
00000210: d0ac 85be d652 d0be 8aa9 863d 4806 b23e
00000220: 47f2 6fbe c5ad 9fbe 304a a2be 1a85 63be
00000230: ebc5 123f 7854 bfbe de75 81bd 1f11 033e
00000240: 2fee dabe f84e 493e a7dd 883e 9ec4 29be
00000250: 9715 1c3e d7cc cf3d 553b bd3e 9bae 58be
00000260: 42fe d2be 8698 49bb d9e3 f7be 5d85 91be
00000270: 9b4d 9fbe 41a5 c1be ccd7 b9be 3da3 b93e
00000280: de77 c2be 7adb 01bd 7e0e b93c b468 223e
00000290: 91ca 89bd db95 453e 3055 843e 672f b83d
000002a0: b2e0 f9be 99b5 d3be 19af d33e 440c 67be
000002b0: 68cd 01bf 8e3c 5a3f 0356 f53e 61ed 8b3e
000002c0: 9bcf 0dbf 7488 043f 4988 143f 9de0 06bf
000002d0: b404 61be 7d9e 63be d4e8 13be 9363 d7bd
000002e0: 3d09 883e eab6 bc3e ffe9 a43e d660 a13e
000002f0: d4bf d33e 831f 4e3e 1a77 ecbe 4842 9c3e
00000300: 8f26 033e 7815 1abe 2fec e2be 0ae3 883d
00000310: 1481 ecbd 170a 11bd 64c1 87be 742b 3a3e
00000320: 6888 b4bd 55c8 1fbf 2fe8 7cbd 90b8 bd3e
00000330: b616 4abf 2082 d4be 3872 183d bbad c13e
00000340: f786 fc3c 17ca 113e a2f3 10bd 214c dcbd
00000350: d252 8a3e 9ef8 48bf ac3b 5a3f 08d2 063e
00000360: 74f2 053f 6c59 92bd 5cbb c23e 1d35 e93e
00000370: a9c3 8dbe c97f 2fbe 7cdd 3a3e 241f d13e
00000380: 7606 b23e eb6b 503e 0990 77bb c8d4 01bf
00000390: 93b0 903e 0a33 833e cf29 013e 34f3 ee3e
000003a0: 58c7 82bd 644d 22be 3857 2d3d 308b c2be
000003b0: f62e 9bbe c964 773e 2e51 0dbe 2720 cdbe
000003c0: bdab b6be caa5 903c 7ee3 6dbe db29 56bd
000003d0: 84b3 b93e ebb4 083d 8972 4fbe abf5 203e
000003e0: 8201 8b3e 9bb8 2b3e 4b97 833e eecd 4fbe
000003f0: 14e3 87bc 5ab3 c93e 38b7 cfbd 5d23 663e

network_body._body_endoder.seq_layers.0.bias f4 [128]
0.0 0.0 0.0 0.0 0.0 0.0 0.0 0.0
0.0 0.0 0.0 0.0 0.0 0.0 0.0 0.0
0.0 0.0 0.0 0.0 0.0 0.0 0.0 0.0
0.0 0.0 0.0 0.0 0.0 0.0 0.0 0.0
0.0 0.0 0.0 0.0 0.0 0.0 0.0 0.0
0.0 0.0 0.0 0.0 0.0 0.0 0.0 0.0
0.0 0.0 0.0 0.0 0.0 0.0 0.0 0.0
0.0 0.0 0.0 0.0 0.0 0.0 0.0 0.0
0.0 0.0 0.0 0.0 0.0 0.0 0.0 0.0
0.0 0.0 0.0 0.0 0.0 0.0 0.0 0.0
0.0 0.0 0.0 0.0 0.0 0.0 0.0 0.0
0.0 0.0 0.0 0.0 0.0 0.0 0.0 0.0
0.0 0.0 0.0 0.0 0.0 0.0 0.0 0.0
0.0 0.0 0.0 0.0 0.0 0.0 0.0 0.0
0.0 0.0 0.0 0.0 0.0 0.0 0.0 0.0
0.0 0.0 0.0 0.0 0.0 0.0 0.0 0.0
00000000: 0000 0000 0000 0000 0000 0000 0000 0000
00000010: 0000 0000 0000 0000 0000 0000 0000 0000
00000020: 0000 0000 0000 0000 0000 0000 0000 0000
00000030: 0000 0000 0000 0000 0000 0000 0000 0000
00000040: 0000 0000 0000 0000 0000 0000 0000 0000
00000050: 0000 0000 0000 0000 0000 0000 0000 0000
00000060: 0000 0000 0000 0000 0000 0000 0000 0000
00000070: 0000 0000 0000 0000 0000 0000 0000 0000
00000080: 0000 0000 0000 0000 0000 0000 0000 0000
00000090: 0000 0000 0000 0000 0000 0000 0000 0000
000000a0: 0000 0000 0000 0000 0000 0000 0000 0000
000000b0: 0000 0000 0000 0000 0000 0000 0000 0000
000000c0: 0000 0000 0000 0000 0000 0000 0000 0000
000000d0: 0000 0000 0000 0000 0000 0000 0000 0000
000000e0: 0000 0000 0000 0000 0000 0000 0000 0000
000000f0: 0000 0000 0000 0000 0000 0000 0000 0000
00000100: 0000 0000 0000 0000 0000 0000 0000 0000
00000110: 0000 0000 0000 0000 0000 0000 0000 0000
00000120: 0000 0000 0000 0000 0000 0000 0000 0000
00000130: 0000 0000 0000 0000 0000 0000 0000 0000
00000140: 0000 0000 0000 0000 0000 0000 0000 0000
00000150: 0000 0000 0000 0000 0000 0000 0000 0000
00000160: 0000 0000 0000 0000 0000 0000 0000 0000
00000170: 0000 0000 0000 0000 0000 0000 0000 0000
00000180: 0000 0000 0000 0000 0000 0000 0000 0000
00000190: 0000 0000 0000 0000 0000 0000 0000 0000
000001a0: 0000 0000 0000 0000 0000 0000 0000 0000
000001b0: 0000 0000 0000 0000 0000 0000 0000 0000
000001c0: 0000 0000 0000 0000 0000 0000 0000 0000
000001d0: 0000 0000 0000 0000 0000 0000 0000 0000
000001e0: 0000 0000 0000 0000 0000 0000 0000 0000
000001f0: 0000 0000 0000 0000 0000 0000 0000 0000

network_body._body_endoder.seq_layers.2.weight f4 [128, 128]
0.028276926 0.0148976315 0.02780284 -0.06813441 0.076099925 0.15310451 -0.030522719 -0.03690371
0.039411984 -0.084303714 -0.040717646 -0.09863699 0.0013062843 0.01704203 -0.0053873267 -0.008456065
0.04151111 -0.022377096 0.069818184 -0.041139502 0.07880323 0.040395107 -0.08292572 0.005067992
0.027960364 0.023947198 -0.1410385 -0.04775137 -0.009735452 0.042643707 -0.032476977 -0.08646178
0.09706167 0.040962555 0.04648323 0.17735977 0.043844827 -0.10360355 0.021775099 0.04900754
0.0618636 -0.13311607 -0.017842505 -0.07163994 -0.12911391 0.00016755055 -0.015693616 -0.14216924
-0.01609888 -0.019338503 0.02530063 -0.028998459 -0.2191742 -0.1308417 0.06629704 0.011901905
-0.036604192 0.034956153 0.0010878298 0.033675063 0.079186894 0.09280886 0.11868338 -0.029490635
0.0016658925 0.15243721 -0.07197774 0.018083764 -0.1109336 -0.044952348 0.011954889 0.035442255
-0.020676788 0.043693565 0.0008819057 0.012126275 0.09539267 -0.05503803 -0.059639666 0.094829895
-0.009294961 0.02135796 0.0090439925 0.032902062 0.08605768 -0.18065535 0.047382668 -0.06312265
0.104712866 -0.17304926 -0.13962907 -0.15582359 -0.32839167 -0.04469256 0.0018368528 -0.04206687
-0.1500586 0.057137728 0.09261559 0.0147320535 -0.036710605 -0.011721229 0.1023758 -0.066905215
-0.051781397 0.003909376 0.08507939 -0.12106853 -0.054012187 -0.045577183 0.051082592 -0.09196802
0.064941466 -0.0057417387 -0.05293557 0.0470156 -0.008546863 -0.003081882 -0.00341549 0.15332347
0.04242058 0.08587777 0.015001227 -0.011881507 0.18892246 -0.0020595633 -0.056079093 0.10147821
0.08709349 -0.0404808 0.057676338 0.020946814 -0.054173287 0.1729339 0.18333651 0.10073925
0.00093952444 0.15045242 -0.07591525 -0.04076426 0.187391 0.03972773 0.014675163 0.03404959
0.08101209 0.059312705 -0.050823547 0.14059146 0.07451864 0.02059498 0.054183185 0.08875035
0.006464903 0.021708 0.09671422 0.19688375 -0.10855837 0.15817282 -0.03202701 0.098959506
-0.013981877 0.15216434 0.17811787 0.08156114 0.024544414 0.014441116 -0.10905306 -0.20032066
-0.035056066 -0.080145136 -0.13963413 0.038081344 0.09838563 -0.004227936 0.037369683 -0.048332416
-0.1690456 -0.080570616 0.12385823 -0.16194087 0.14037414 -0.03068012 -0.04293785 0.017931217
0.016441857 0.08367232 0.17007612 0.024998901 -0.057798885 -0.07226232 0.10313685 -0.12655084
0.08577795 0.11968571 -0.0137932 0.12782325 -0.11223154 -0.07069432 0.12661129 -0.0691505
0.110407606 -0.0638255 -0.11857509 -0.051941045 -0.0012925756 -0.12197334 -0.005919921 -0.1840222
-0.018211594 -0.08463241 -0.10240299 0.09471815 0.12598339 0.0717779 0.07538371 -0.04214246
0.05196168 0.0027440286 -0.0951984 0.14657925 0.05815223 -0.027646888 -0.15801182 0.11757511
-0.016947553 0.10603513 -0.07641192 -0.046330802 0.111423306 0.12314365 -0.010993387 -0.094815716
-0.020083515 -0.084527135 -0.019151768 -0.039203253 -0.06907173 0.059257977 -0.005589455 -0.13436808
0.009922134 0.06721115 -0.07726897 -0.06302238 -0.08098272 -0.048933018 0.024053464 0.06262546
0.10520347 -0.059447393 0.11111324 0.16743377 0.0023066518 0.0076806895 -0.049581967 0.002014954
00000000: 03a5 e73c 3215 743c c8c2 e33c 0e8a 8bbd
00000010: 47da 9b3d 6ec7 1c3e c80a fabc 5828 17bd
00000020: 766e 213d 6da7 acbd 8cc7 26bd 3102 cabd
00000030: a137 ab3a ba9b 8b3c 2c88 b0bb 4f8b 0abc
00000040: 8e07 2a3d 2c50 b7bc d6fc 8e3d e581 28bd
00000050: 9663 a13d 5775 253d f6d4 a9bd 6611 a63b
00000060: 220d e53c ea2c c43c 666c 10be f196 43bd
00000070: 7281 1fbc 2bab 2e3d 9406 05bd e012 b1bd
00000080: 45c8 c63d 5ac8 273d 3365 3e3d cd9d 353e
00000090: a296 333d 192e d4bd b161 b23c 21bc 483d
000000a0: b064 7d3d 944f 08be 722a 92bc f6b7 92bd
000000b0: 7036 04be 82b0 2f39 e68f 80bc d094 11be
000000c0: cce1 83bc c86b 9ebc 4443 cf3c 2d8e edbc
000000d0: 346f 60be 5efb 05be bec6 873d 3500 433c
000000e0: 47ee 15bd 2f2e 0f3d 8395 8e3a ddee 093d
000000f0: bd2c a23d 9212 be3d 4610 f33d 5896 f1bc
00000100: 145a da3a 8018 1c3e 1169 93bd 6724 943c
00000110: 2831 e3bd f41f 38bd 70de 433c e62b 113d
00000120: 5e62 a9bc 06f8 323d b12f 673a 49ad 463c
00000130: 3b5d c33d 8f6f 61bd b948 74bd 2d36 c23d
00000140: e449 18bc e3f6 ae3c 412d 143c 50c4 063d
00000150: 023f b03d b7fd 38be 5414 423d 7346 81bd
00000160: b373 d63d d333 31be ecfa 0ebe 3890 1fbe
00000170: f422 a8be 8c0f 37bd 8dc2 f03a 4f4e 2cbd
00000180: f6a8 19be 4009 6a3d 3ead bd3d b65e 713c
00000190: dc5d 16bd 660a 40bc 67aa d13d 9a05 89bd
000001a0: bb18 54bd 391a 803b 1a3e ae3d c7f2 f7bd
000001b0: e23b 5dbd 24af 3abd fb3b 513d bb59 bcbd
000001c0: 0800 853d 3225 bcbb f8d2 58bd 6e93 403d
000001d0: 2408 0cbc 66f9 49bb 6ad6 5fbb d400 1d3e
000001e0: 34c1 2d3d afe0 af3d b5c7 753c a7aa 42bc
000001f0: e474 413e bdf9 06bb 31b3 65bd cfd3 cf3d
00000200: 125e b23d 32cf 25bd 063e 6c3d a798 ab3c
00000210: cfe4 5dbd 9615 313e 91bc 3b3e 6150 ce3d
00000220: 6b4a 763a 3310 1a3e 7479 9bbd 6df8 26bd
00000230: 6de3 3f3e 8bb9 223d 1870 703c 9577 0b3d
00000240: abe9 a53d e1f1 723d 5a2c 50bd 35f7 0f3e
00000250: 3b9d 983d ceb6 a83c 30ef 5d3d bec2 b53d
00000260: 89d7 d33b fad4 b13c 1b12 c63d e59b 493e
00000270: da53 debd 0ef8 213e c12e 03bd 48ab ca3d
00000280: 3e14 65bc f8d0 1b3e 8864 363e 8709 a73d
00000290: 5e11 c93c 6e9a 6c3c 3657 dfbd dc20 4dbe
000002a0: f396 0fbd 2223 a4bd 40fc 0ebe 2ffb 1b3d
000002b0: 687e c93d 7f8a 8abb f410 193d 36f8 45bd
000002c0: 4a1a 2dbe 3502 a5bd 62a9 fd3d d4d3 25be
000002d0: 3dbe 0f3e e054 fbbc 99df 2fbd 7de4 923c
000002e0: 13b1 863c 655c ab3d 6f28 2e3e 7fca cc3c
000002f0: 86be 6cbd 44fe 93bd 6a39 d33d 8b96 01be
00000300: 5aac af3d c81d f53d e0fc 61bc 19e4 023e
00000310: a6d9 e5bd 2fc8 90bd 64a6 013e c79e 8dbd
00000320: 621d e23d f2b6 82bd 7fd7 f2bd 22c0 54bd
00000330: a46b a9ba 29cd f9bd e6fb c1bb 5170 3cbe
00000340: 7b30 95bc c253 adbd a9b8 d1bd 97fb c13d
00000350: ca01 013e 4b00 933d c662 9a3d 929d 2cbd
00000360: c5d5 543d 29d5 333b 61f7 c2bd df18 163e
00000370: 0831 6e3d ba7b e2bc dacd 21be 38cb f03d
00000380: 98d5 8abc f228 d93d da7d 9cbd 5ec5 3dbd
00000390: e731 e43d bd32 fc3d 9b1d 34bc be2e c2bd
000003a0: 2f86 a4bc 901c adbd 2be4 9cbc 9793 20bd
000003b0: 7b75 8dbd 7eb8 723d bf27 b7bb c997 09be
000003c0: 7290 223c 00a6 893d 323f 9ebd e111 81bd
000003d0: 45da a5bd fd6d 48bd c50b c53c c741 803d
000003e0: eb74 d73d 1c7f 73bd 578f e33d c273 2b3e
000003f0: 322b 173b 4bae fb3b 7616 4bbd 520d 043b

network_body._body_endoder.seq_layers.2.bias f4 [128]
0.0 0.0 0.0 0.0 0.0 0.0 0.0 0.0
0.0 0.0 0.0 0.0 0.0 0.0 0.0 0.0
0.0 0.0 0.0 0.0 0.0 0.0 0.0 0.0
0.0 0.0 0.0 0.0 0.0 0.0 0.0 0.0
0.0 0.0 0.0 0.0 0.0 0.0 0.0 0.0
0.0 0.0 0.0 0.0 0.0 0.0 0.0 0.0
0.0 0.0 0.0 0.0 0.0 0.0 0.0 0.0
0.0 0.0 0.0 0.0 0.0 0.0 0.0 0.0
0.0 0.0 0.0 0.0 0.0 0.0 0.0 0.0
0.0 0.0 0.0 0.0 0.0 0.0 0.0 0.0
0.0 0.0 0.0 0.0 0.0 0.0 0.0 0.0
0.0 0.0 0.0 0.0 0.0 0.0 0.0 0.0
0.0 0.0 0.0 0.0 0.0 0.0 0.0 0.0
0.0 0.0 0.0 0.0 0.0 0.0 0.0 0.0
0.0 0.0 0.0 0.0 0.0 0.0 0.0 0.0
0.0 0.0 0.0 0.0 0.0 0.0 0.0 0.0
00000000: 0000 0000 0000 0000 0000 0000 0000 0000
00000010: 0000 0000 0000 0000 0000 0000 0000 0000
00000020: 0000 0000 0000 0000 0000 0000 0000 0000
00000030: 0000 0000 0000 0000 0000 0000 0000 0000
00000040: 0000 0000 0000 0000 0000 0000 0000 0000
00000050: 0000 0000 0000 0000 0000 0000 0000 0000
00000060: 0000 0000 0000 0000 0000 0000 0000 0000
00000070: 0000 0000 0000 0000 0000 0000 0000 0000
00000080: 0000 0000 0000 0000 0000 0000 0000 0000
00000090: 0000 0000 0000 0000 0000 0000 0000 0000
000000a0: 0000 0000 0000 0000 0000 0000 0000 0000
000000b0: 0000 0000 0000 0000 0000 0000 0000 0000
000000c0: 0000 0000 0000 0000 0000 0000 0000 0000
000000d0: 0000 0000 0000 0000 0000 0000 0000 0000
000000e0: 0000 0000 0000 0000 0000 0000 0000 0000
000000f0: 0000 0000 0000 0000 0000 0000 0000 0000
00000100: 0000 0000 0000 0000 0000 0000 0000 0000
00000110: 0000 0000 0000 0000 0000 0000 0000 0000
00000120: 0000 0000 0000 0000 0000 0000 0000 0000
00000130: 0000 0000 0000 0000 0000 0000 0000 0000
00000140: 0000 0000 0000 0000 0000 0000 0000 0000
00000150: 0000 0000 0000 0000 0000 0000 0000 0000
00000160: 0000 0000 0000 0000 0000 0000 0000 0000
00000170: 0000 0000 0000 0000 0000 0000 0000 0000
00000180: 0000 0000 0000 0000 0000 0000 0000 0000
00000190: 0000 0000 0000 0000 0000 0000 0000 0000
000001a0: 0000 0000 0000 0000 0000 0000 0000 0000
000001b0: 0000 0000 0000 0000 0000 0000 0000 0000
000001c0: 0000 0000 0000 0000 0000 0000 0000 0000
000001d0: 0000 0000 0000 0000 0000 0000 0000 0000
000001e0: 0000 0000 0000 0000 0000 0000 0000 0000
000001f0: 0000 0000 0000 0000 0000 0000 0000 0000

action_model._continuous_distribution.log_sigma f4 [1, 2]
0.0 0.0
00000000: 0000 0000 0000 0000

action_model._continuous_distribution.mu.weight f4 [2, 128]
-0.022947226 -0.0053330543 0.020056296 -0.01288624 0.008084509 -0.02041861 -0.014388678 9.180306e-05
-0.006006573 0.0073382147 -0.016795902 -0.006760347 0.0050546 -0.03063648 -0.020538237 0.018132396
-0.00674335 -0.003998663 0.0029459188 0.019390015 -0.020792048 0.027931515 0.0024151914 0.02801061
-0.028496018 -0.011678431 -0.025747938 0.0062620305 -0.009536216 -0.053536303 -0.007951554 0.015825689
0.025554124 0.01843254 -0.0032191973 -0.012638211 -0.019603556 0.02399996 -0.011308527 0.0030932927
-0.011436291 -0.0053990404 -0.012546167 0.010412973 0.015430971 -0.024258727 -0.033561707 0.011750439
-0.028408358 0.027455727 -0.033582233 -0.00059159606 0.022444269 -0.012417682 0.042653486 0.0138841225
-0.030995583 0.007328072 0.020216385 0.019809727 0.013669652 -0.008261734 0.03336084 -0.016835844
0.027554078 0.019950056 -0.001089067 0.011528618 0.00850811 -0.00051165395 0.04057139 0.011239412
-0.0076336907 -0.0065567056 0.016067667 0.00727989 0.00096469297 -0.025895162 0.0015037638 -0.009509889
0.019909477 0.030367726 -0.011036067 -0.0053834417 0.0007764997 -0.013331413 0.0072659375 -0.03259207
-0.016269756 -0.02361659 0.012789117 0.026040718 0.01080753 -0.00902931 0.013057589 -0.0018195541
-0.0011563016 0.0054108137 -0.018039586 -0.01864171 0.0066681798 0.012171723 0.007233292 0.011173612
0.0016025472 0.013810523 -0.020077752 -0.014456749 -0.02942541 -0.00055441534 -0.012166078 -0.0072171227
0.0180504 0.0064623947 -0.01682727 0.021503825 0.006607468 0.014898255 -0.043689024 -0.0047970926
-0.006112221 -0.03267512 -0.0014453348 -0.01455406 0.009384317 -0.007956118 -0.016182948 0.036495488
0.003435251 -0.0062661837 -0.0123834405 0.027760876 0.008745259 -0.021687431 -0.027459988 -0.011976249
0.01607529 0.00235866 0.01792367 -0.0010444409 0.023473803 0.00873836 0.012964669 0.003051652
0.0030618608 0.01018714 -0.0059471345 0.011179447 -0.028321585 0.010230589 -0.007485714 -0.017283142
-0.012216802 0.022351816 0.017096454 -0.0020093867 0.0046822554 -0.002913625 -0.015848553 -0.0048517226
-6.935715e-05 0.023353633 -0.030452624 0.0076924316 -0.0076354663 -0.01172741 0.010503335 -0.012990563
-0.01613353 -0.0024098207 0.03437057 -0.011788453 -0.010266126 -0.0003321115 0.007703618 -0.011234856
-0.015354301 -0.0027689748 -0.014453164 -0.008390482 0.0021471782 -0.017742515 -0.025010753 -0.025497524
0.010600364 0.011456973 -0.010758027 -0.015564807 -0.023385564 -0.016931092 0.0033342603 0.009052002
0.007942453 0.020562733 -0.008741408 0.021809539 -0.008009622 -0.011026467 -0.016436646 0.00078700617
0.0042638592 0.00843839 -0.021686621 -0.009164879 -0.012682517 0.0029181906 0.0065290728 0.0020842499
0.00741673 -0.03448152 -0.010811407 -0.0053962707 -0.016336692 0.009810424 -0.010000396 0.020040749
0.011850779 -0.0004690569 0.021826966 0.0053220647 0.024303177 -0.045749485 0.011698477 -0.00500677
0.002715044 0.01039157 0.0063732415 -0.00701911 0.019658176 -0.012572259 0.016164351 0.023193656
-0.0014419135 0.0042606825 -0.0003452847 0.049427345 -0.0016749969 -0.0021627767 0.0026295092 -0.015275246
-0.006963495 -0.035375275 0.02951375 -0.029605437 -0.007635551 0.00449103 -0.023625819 -0.007811993
0.005785623 -0.016995506 0.03677103 -0.02593478 0.010000245 0.009771723 -0.0094968 -0.02174127
00000000: d2fb bbbc e7c0 aebb 1a4d a43c cf20 53bc
00000010: e374 043c ee44 a7bc 7dbe 6bbc 6486 c038
00000020: c9d2 c4bb 6875 f03b 8f97 89bc e785 ddbb
00000030: 0fa1 a53b 5bf9 fabc ce3f a8bc 648a 943c
00000040: 52f7 dcbb 3707 83bb 5110 413b cfd7 9e3c
00000050: 1654 aabc a2d0 e43c 3048 1e3b 8276 e53c
00000060: 7b70 e9bc e456 3fbc 57ed d2bc b831 cd3b
00000070: ca3d 1cbc e248 5bbd 3c47 02bc e0a4 813c
00000080: e256 d13c d7ff 963c 2bf9 52bb 8010 4fbc
00000090: a397 a0bc 909b c43c 6647 39bc d7b8 4a3b
000000a0: 485f 3bbc 6fea b0bb 708e 4dbc 2d9b 2a3c
000000b0: 2fd2 7c3c 3dba c6bc 0078 09bd ea84 403c
000000c0: a5b8 e8bc d5ea e03c 868d 09bd 5715 1bba
000000d0: 0bdd b73c 8973 4bbc 6cb5 2e3d 3b7a 633c
000000e0: 73ea fdbc 5320 f03b d59c a53c 0248 a23c
000000f0: adf6 5f3c 395c 07bc 60a5 083d 53eb 89bc
00000100: 17b9 e13c 4d6e a33c 06bf 8eba 87e2 3c3c
00000110: 9a65 0b3c 8420 06ba 302e 263d 8325 383c
00000120: 0a24 fabb a2d9 d6bb 57a0 833c 258c ee3b
00000130: 73e3 7c3a 1722 d4bc f119 c53a 5ecf 1bbc
00000140: 3319 a33c bdc5 f83c 9fd0 34bc 9567 b0bb
00000150: 038e 4b3a 006c 5abc 1a17 ee3b 437f 05bd
00000160: 2748 85bc 9477 c1bc 7289 513c 5853 d53c
00000170: 1112 313c acef 13bc 7fef 553c 1b7e eeba
00000180: 0b8f 97ba 324d b13b c1c7 93bc 80b6 98bc
00000190: bf80 da3b e86b 473c 4005 ed3b 8711 373c
000001a0: 900c d23a 8845 623c 197a a4bc 00dc 6cbc
000001b0: 8f0d f1bc 2f56 11ba 3b54 47bc 9d7d ecbb
000001c0: 6fde 933c 7fc2 d33b 58d9 89bc ca28 b03c
000001d0: 7583 d83b cf17 743c 43f3 32bd ee30 9dbb
000001e0: 0749 c8bb 59d6 05bd 6371 bdba 2774 6ebc
000001f0: aec0 193c 615a 02bc 1a92 84bc 4b7c 153d
00000200: f321 613b 8f54 cdbb eae3 4abc c76a e33c
00000210: 4648 0f3c d7a9 b1bc c5f3 e0bc 0738 44bc
00000220: 54b0 833c c093 1a3b a9d4 923c 9fe5 88ba
00000230: 224c c03c 572b 0f3c c369 543c 3afe 473b
00000240: 80a9 483b f6e7 263c 2ee0 c2bb 002a 373c
00000250: ab02 e8bc 339e 273c b84a f5bb 6095 8dbc
00000260: fb28 48bc 281b b73c dd0d 8c3c eaaf 03bb
00000270: 9b6d 993b 84f2 3ebb d3d4 81bc 33fb 9ebb
00000280: d673 91b8 1e50 bf3c c877 f9bc cb10 fc3b
00000290: ef32 fabb 5324 40bc 2e16 2c3c 5fd6 54bc
000002a0: 772a 84bc 15ee 1dbb 28c8 0c3d 5b24 41bc
000002b0: 4133 28bc 401f aeb9 a26e fc3b 6712 38bc
000002c0: 9b90 7bbc b077 35bb f7cc 6cbc 3b78 09bc
000002d0: acb7 0c3b c058 91bc 5ae3 ccbc 2fe0 d0bc
000002e0: 26ad 2d3c 07b6 3b3c 7042 30bc 8803 7fbc
000002f0: 1593 bfbc 13b3 8abc 9b83 5a3b d94e 143c
00000300: 1021 023c 2d73 a83c 1f38 0fbc eba9 b23c
00000310: ca3a 03bc 5ba8 34bc 25a6 86bc 174f 4e3a
00000320: d8b7 8b3b 2c41 0a3c 24a8 b1bc 4a28 16bc
00000330: 55ca 4fbc 1d3f 3f3b d5f1 d53b e997 083b
00000340: 0a08 f33b 7f3c 0dbd 5422 31bc 33d3 b0bb
00000350: 87d4 85bc e7bb 203c b3d8 23bc 7f2c a43c
00000360: c529 423c c0eb f5b9 77ce b23c b764 ae3b
00000370: 7517 c73c d063 3bbd f8aa 3f3c d50f a4bb
00000380: e1ee 313b 6741 2a3c a0d6 d03b 9000 e6bb
00000390: 2f0a a13c e0fb 4dbc 1a6b 843c 9f00 be3c
000003a0: 97fe bcba 329d 8b3b 5407 b5b9 5474 4a3d
000003b0: 928b dbba 5fbd 0dbb d853 2c3b 0745 7abc
000003c0: 082e e4bb aae5 10bd d2c6 f13c 1a87 f2bc
000003d0: a533 fabb 7d29 933b ef8a c1bc bffb ffbb
000003e0: 5395 bd3b 293a 8bbc 389d 163d 2d75 d4bc
000003f0: 11d8 233c 9419 203c 7798 1bbc bf1a b2bc

action_model._continuous_distribution.mu.bias f4 [2]
0.0 0.0
00000000: 0000 0000 0000 0000

onnx::Div_51 f4 [8]
2.497501 0.07727637 2.0498836 0.7656476 0.042774297 0.038263936 0.7870846 0.55895555
00000000: 0ed7 1f40 1343 9e3d 4b31 0340 7b01 443f
00000010: 1a34 2f3d a5ba 1c3d 607e 493f b617 0f3f
