Basic_Path_Finding/Assets/TorchModels/results/PlayerMaze1/PlayerMaze/PlayerMaze-10639.pt (torch, 154263 bytes, 20 tensors)

network_body.observation_encoder.processors.0.normalizer.running_mean f4 [8]
4.6832123 0.43939826 -0.4468888 -19.998075 0.49995354 -1.0124106e-08 1.8125172 0.13997678
00000000: e0dc 9540 cff8 e03e 9cce e4be 0ffc 9fc1
00000010: e9f9 ff3e 4aee 2db2 9000 e83f 1356 0f3e

network_body.observation_encoder.processors.0.normalizer.running_variance f4 [8]
3519.5593 179.82915 58017.38 400.9613 1.2499677 1.0 1830.0616 6763.298
00000000: f3f8 5b45 43d4 3343 61a1 6247 0c7b c843
00000010: f1fe 9f3f 0000 803f f9c1 e444 625a d345

network_body.processors.0.normalizer.running_mean f4 [8]
4.6832123 0.43939826 -0.4468888 -19.998075 0.49995354 -1.0124106e-08 1.8125172 0.13997678
00000000: e0dc 9540 cff8 e03e 9cce e4be 0ffc 9fc1
00000010: e9f9 ff3e 4aee 2db2 9000 e83f 1356 0f3e

network_body.processors.0.normalizer.running_variance f4 [8]
3519.5593 179.82915 58017.38 400.9613 1.2499677 1.0 1830.0616 6763.298
00000000: f3f8 5b45 43d4 3343 61a1 6247 0c7b c843
00000010: f1fe 9f3f 0000 803f f9c1 e444 625a d345

network_body._body_endoder.seq_layers.0.weight f4 [128, 8]
-0.5693537 -0.08811274 0.28135338 -0.6663461 0.32598934 -0.15306966 0.01762941 -0.56924784
0.11225892 0.08293285 -0.43558258 -0.12152202 0.19643706 0.21285407 0.1478366 -0.56478834
0.0049294424 -0.14485794 -0.39984217 -0.5939512 -0.28784454 0.28596297 -0.11388758 0.2786891
0.40053642 -0.09434201 -0.5128178 0.34377056 0.1288888 -0.34698194 0.31574896 0.5009692
0.13668258 -0.099720456 -0.56829864 0.36391738 -0.6445762 0.12527043 -0.8144664 -0.059592497
-0.49320987 -0.072883464 -0.91877955 -0.22428359 0.18644689 -0.24197535 -0.0644511 0.1869028
-0.34297392 -0.016951757 0.1292449 -0.4395101 0.024659762 0.15657692 0.10598672 0.24919012
0.06414364 -0.31080374 -0.6470233 -0.14589573 0.2562136 0.060429193 0.27420342 0.2709422
0.40592286 -0.42052156 0.44048047 -0.4075536 -0.20542924 0.26542708 -0.22853522 -0.25261557
-0.14637305 0.26120907 0.49304733 -0.5498509 -0.13624944 0.45004064 0.69480443 0.19554985
-0.08501712 -0.45280573 0.33038867 -0.58702374 -0.295371 0.37220436 0.6738635 0.8856544
-0.36514553 -0.5650563 0.931931 -0.21244411 -0.48652202 0.28612524 -0.020340417 0.040003758
0.2437562 0.6248266 0.21957877 -0.28183332 -0.37360975 0.3025366 0.027475132 -0.30206752
0.96758544 0.052374523 0.27658677 -0.36244258 0.28234762 0.13137384 0.13164108 -0.051060744
-0.08182034 -0.18719807 -0.4491297 0.16486268 -0.69885486 0.16359523 0.32088912 -0.05927067
-0.04858002 0.14255059 0.12032476 -0.44966742 -0.43189096 0.22156826 0.40404835 0.13720399
0.3235648 0.012817982 0.12781964 -0.6251779 -0.460604 -0.39567274 0.15217242 -0.11397783
0.42611584 0.29578474 0.050369497 -0.1795251 0.19340023 0.30883002 0.50682986 -0.18592913
0.36304086 0.344047 0.5278429 0.72909796 -0.34687644 -0.07243365 -0.27231708 -0.47910693
-0.7787682 0.06821291 0.52779573 -0.34636247 -0.8241973 -0.33515355 -0.16561651 0.40344346
-0.066741854 0.77118075 0.22249995 -0.20483221 0.14550798 0.059269395 -0.7162445 -0.32652327
0.08117786 0.5365053 0.026734075 -0.13977501 0.7225476 0.10652345 -0.13635392 0.15696202
0.37204063 -0.33509204 0.40419084 0.036320258 0.50463486 0.06722885 -0.10531359 -0.09139516
0.044251565 -0.4665592 -0.4813421 0.4589712 -0.21745047 -0.09959169 0.5754197 0.4075494
-0.383466 -0.21741094 -0.084504604 -0.22173674 -0.03808375 -0.6235304 0.1534655 0.159628
0.14718463 0.09960116 -0.50705504 -0.20754163 -0.90445954 -0.117751 -0.047672983 0.0806975
-0.6065566 -1.1147517 -0.2635001 0.4342941 -0.58606994 -0.19844313 0.41208407 0.22030187
0.7536693 0.16370448 0.3196685 0.2949122 0.19974752 0.024998562 0.45803 -0.6634251
0.48137292 -0.5525625 -0.14610006 0.2817773 -0.39680743 -0.3722564 -0.14020404 -0.45025128
-0.26482123 0.11082016 -0.7680871 0.23702173 -0.1708671 -0.3084312 0.078524575 0.1575465
-0.07530113 -0.06267691 -0.6351518 0.1485603 0.21821764 -0.12273827 -0.59458 -0.46068013
0.06895465 -0.5582351 0.20029604 0.7162858 0.025745401 -0.33165723 -0.026635248 0.6593954
00000000: 2ac1 11bf 7474 b4bd 8d0d 903e a895 2abf
00000010: 13e8 a63e 4bbe 1cbe 8d6b 903c 3aba 11bf
00000020: 01e8 e53d b3d8 a93d ae04 dfbe 89e0 f8bd
00000030: cc26 493e 6bf6 593e 7a62 173e f895 10bf
00000040: 2987 a13b a455 14be 1db8 ccbe 300d 18bf
00000050: 5c60 93be bd69 923e e43d e9bd 56b0 8e3e
00000060: 1c13 cd3e 6236 c1bd 0748 03bf b202 b03e
00000070: 6dfb 033e 9ea7 b1be d9a9 a13e 843f 003f
00000080: 85f6 0b3e 3d3a ccbd 057c 11bf 6153 ba3e
00000090: f202 25bf e446 003e df80 50bf 4317 74bd
000000a0: 0186 fcbe ed43 95bd 2335 6bbf 99aa 65be
000000b0: efeb 3e3e 63c8 77be f0fe 83bd 7363 3f3e
000000c0: 479a afbe 69de 8abc c658 043e 7807 e1be
000000d0: 4503 ca3c b355 203e 910f d93d b22b 7f3e
000000e0: be5d 833d ab21 9fbe 52a3 25bf b165 15be
000000f0: 6e2e 833e 9a84 773d 6464 8c3e f0b8 8a3e
00000100: 1fd5 cf3e 9a4e d7be a886 e13e deaa d0be
00000110: 0b5c 52be 0fe6 873e 2305 6abe d456 81be
00000120: d1e2 15be 32bd 853e b370 fc3e 07c3 0cbf
00000130: f984 0bbe ba6b e63e b4de 313f 383e 483e
00000140: 751d aebd 27d6 e7be b428 a93e 3047 16bf
00000150: de3a 97be 9291 be3e 5182 2c3f 3fba 623f
00000160: 5bf4 babe 88a7 10bf 0893 6e3f f38a 59be
00000170: 6a19 f9be 027f 923e f2a0 a6bc fbda 233d
00000180: 3a9b 793e a3f4 1f3f 42d9 603e 754c 90be
00000190: c749 bfbe 14e6 9a3e 8713 e13c 98a8 9abe
000001a0: aeb3 773f ab86 563d c89c 8d3e 1392 b9be
000001b0: de8f 903e dd86 063e ebcc 063e 1225 51bd
000001c0: 6c91 a7bd dab0 3fbe 54f4 e5be c3d1 283e
000001d0: 27e8 32bf 8285 273e 944b a43e cdc5 72bd
000001e0: d8fb 46bd c8f8 113e d46c f63d cf3a e6be
000001f0: d020 ddbe cae2 623e 6ddf ce3e 347f 0c3e
00000200: 49aa a53e 8302 523c 27e3 023e a90b 20bf
00000210: 4ad4 ebbe 9e95 cabe 16d3 1b3e 356d e9bd
00000220: db2b da3e 1971 973e 3f50 4e3d 6ed5 37be
00000230: b60a 463e f81e 9e3e 9abf 013f 3564 3ebe
00000240: 7ee0 b93e ee26 b03e b620 073f 2aa6 3a3f
00000250: ca99 b1be 1858 94bd 256d 8bbe 814d f5be
00000260: 5a5d 47bf 36b3 8b3d 9f1d 073f 6c56 b1be
00000270: 98fe 52bf 3f99 abbe 6097 29be 2490 ce3e
00000280: f4af 88bd 1a6c 453f 07d7 633e 89bf 51be
00000290: 0b00 153e 77c4 723d cd5b 37bf 0f2e a7be
000002a0: 9440 a63d 6958 093f 6b01 db3c 2e21 0fbe
000002b0: e1f8 383f f728 da3d 5da0 0bbe a7ba 203e
000002c0: 1c7c be3e 2f91 abbe 1af2 ce3e 8dc4 143d
000002d0: c02f 013f 48af 893d a7ae d7bd 632d bbbd
000002e0: 2141 353d d9e0 eebe 7972 f6be 46fe ea3e
000002f0: 56ab 5ebe baf6 cbbd b54e 133f 51aa d03e
00000300: a855 c4be f9a0 5ebe c010 adbd f50e 63be
00000310: b5fd 1bbd b09f 1fbf 0f26 1d3e 8675 233e
00000320: 91b7 163e b1fb cb3d 5cce 01bf cb85 54be
00000330: a98a 67bf 7027 f1bd bf44 43bd bb44 a53d
00000340: 4b47 1bbf 2fb0 8ebf 7ce9 86be cc5b de3e
00000350: ae08 16bf ad34 4bbe affc d23e d096 613e
00000360: 79f0 403f 26a2 273e 97ab a33e bbfe 963e
00000370: 9d8a 4c3e c9c9 cc3c e882 ea3e 3ad6 29bf
00000380: 8376 f63e bc74 0dbf 419b 15be 1d45 903e
00000390: 582a cbbe 6498 bebe a691 0fbe 5687 e6be
000003a0: a696 87be aef5 e23d 5ba1 44bf d3b5 723e
000003b0: c9f7 2ebe b2ea 9dbe 7ed1 a03d df53 213e
000003c0: 7b37 9abd c05c 80bd 4f99 22bf 3120 183e
000003d0: 7274 5f3e 345e fbbd 6536 18bf 44de ebbe
000003e0: 1838 8d3d 7fe8 0ebf 681a 4d3e 825e 373f
000003f0: 05e8 d23c face a9be 2a32 dabc 23ce 283f

network_body._body_endoder.seq_layers.0.bias f4 [128]
0.0 0.0 0.0 0.0 0.0 0.0 0.0 0.0
0.0 0.0 0.0 0.0 0.0 0.0 0.0 0.0
0.0 0.0 0.0 0.0 0.0 0.0 0.0 0.0
0.0 0.0 0.0 0.0 0.0 0.0 0.0 0.0
0.0 0.0 0.0 0.0 0.0 0.0 0.0 0.0
0.0 0.0 0.0 0.0 0.0 0.0 0.0 0.0
0.0 0.0 0.0 0.0 0.0 0.0 0.0 0.0
0.0 0.0 0.0 0.0 0.0 0.0 0.0 0.0
0.0 0.0 0.0 0.0 0.0 0.0 0.0 0.0
0.0 0.0 0.0 0.0 0.0 0.0 0.0 0.0
0.0 0.0 0.0 0.0 0.0 0.0 0.0 0.0
0.0 0.0 0.0 0.0 0.0 0.0 0.0 0.0
0.0 0.0 0.0 0.0 0.0 0.0 0.0 0.0
0.0 0.0 0.0 0.0 0.0 0.0 0.0 0.0
0.0 0.0 0.0 0.0 0.0 0.0 0.0 0.0
0.0 0.0 0.0 0.0 0.0 0.0 0.0 0.0
00000000: 0000 0000 0000 0000 0000 0000 0000 0000
00000010: 0000 0000 0000 0000 0000 0000 0000 0000
00000020: 0000 0000 0000 0000 0000 0000 0000 0000
00000030: 0000 0000 0000 0000 0000 0000 0000 0000
00000040: 0000 0000 0000 0000 0000 0000 0000 0000
00000050: 0000 0000 0000 0000 0000 0000 0000 0000
00000060: 0000 0000 0000 0000 0000 0000 0000 0000
00000070: 0000 0000 0000 0000 0000 0000 0000 0000
00000080: 0000 0000 0000 0000 0000 0000 0000 0000
00000090: 0000 0000 0000 0000 0000 0000 0000 0000
000000a0: 0000 0000 0000 0000 0000 0000 0000 0000
000000b0: 0000 0000 0000 0000 0000 0000 0000 0000
000000c0: 0000 0000 0000 0000 0000 0000 0000 0000
000000d0: 0000 0000 0000 0000 0000 0000 0000 0000
000000e0: 0000 0000 0000 0000 0000 0000 0000 0000
000000f0: 0000 0000 0000 0000 0000 0000 0000 0000
00000100: 0000 0000 0000 0000 0000 0000 0000 0000
00000110: 0000 0000 0000 0000 0000 0000 0000 0000
00000120: 0000 0000 0000 0000 0000 0000 0000 0000
00000130: 0000 0000 0000 0000 0000 0000 0000 0000
00000140: 0000 0000 0000 0000 0000 0000 0000 0000
00000150: 0000 0000 0000 0000 0000 0000 0000 0000
00000160: 0000 0000 0000 0000 0000 0000 0000 0000
00000170: 0000 0000 0000 0000 0000 0000 0000 0000
00000180: 0000 0000 0000 0000 0000 0000 0000 0000
00000190: 0000 0000 0000 0000 0000 0000 0000 0000
000001a0: 0000 0000 0000 0000 0000 0000 0000 0000
000001b0: 0000 0000 0000 0000 0000 0000 0000 0000
000001c0: 0000 0000 0000 0000 0000 0000 0000 0000
000001d0: 0000 0000 0000 0000 0000 0000 0000 0000
000001e0: 0000 0000 0000 0000 0000 0000 0000 0000
000001f0: 0000 0000 0000 0000 0000 0000 0000 0000

network_body._body_endoder.seq_layers.2.weight f4 [128, 128]
-0.1835298 0.023601566 0.057888865 -0.021970773 -0.036150783 2.166733e-05 0.000647168 0.11353729
-0.037510365 0.12349079 -0.03177338 -0.07883856 0.05626625 0.15611523 -0.2586159 0.007931886
0.003493695 0.040865477 -0.02272624 -0.023674214 0.13387433 0.013571399 -0.070152104 -0.040403925
-0.016194334 -0.03679782 -0.023481695 0.051104005 0.030042214 -0.23690312 0.13158917 0.11531246
0.044220403 0.18076964 -0.06908509 0.15312523 0.09970975 -0.11051863 -0.0011529877 0.044036146
-0.024607511 -0.054813188 0.019478222 0.032845534 0.14347015 0.0035983797 -0.003940862 0.06919152
-0.0098832585 0.12857834 0.09616384 -0.089745305 0.017840076 -0.0069214944 0.026703728 0.02295052
-0.016880315 -0.021480354 0.13500977 -0.033038076 0.080502205 0.05803221 -0.0033304868 0.09806723
0.05547186 0.0334789 0.09165172 -0.12296819 -0.03512081 -0.13646118 0.12513523 0.084198
-0.15660496 -0.10945129 -0.04767139 0.062209126 0.024600904 0.052007493 -0.04376064 -0.12455152
0.11054906 0.16056673 0.068526 -0.040706117 0.089779824 0.10463689 -0.053037215 0.051690828
0.1507956 -0.027942073 0.092219 0.12926593 -0.031311605 0.07162157 0.04478175 0.09334411
-0.057796374 0.13206972 0.0803571 -0.021931123 -0.008798303 -0.06697363 0.045561112 0.03880011
-0.021835012 0.1285002 -0.0022137167 0.1493557 0.029176429 -0.054055076 -0.08438329 -0.006427925
-0.02179223 0.070191585 -0.013251737 0.018496513 -0.010295562 0.14384314 0.084739596 0.022486039
0.09966867 -0.070337266 0.042873666 4.049621e-05 0.1795884 0.0042367307 0.026387865 -0.05165047
-0.014024161 -0.0074590044 0.10256851 -0.11939506 0.013503212 -0.009386523 -0.069688804 -0.0347989
0.035487767 -0.020669186 0.06141994 0.0041475687 0.10016819 0.03224767 -0.047427543 0.1456257
-0.026985776 -0.120851874 -0.03688182 0.016303359 -0.17273949 -0.121412896 -0.08345371 0.013401613
0.22657488 -0.063445255 0.13248515 -0.0934405 -0.22806393 -0.071216784 -0.0471176 -0.16543218
-0.1441299 -0.075022824 -0.100294106 0.10718193 0.058504887 0.061723 0.032029275 -0.01439156
0.037147183 0.03336872 0.014742577 0.09020595 0.11649575 0.12700857 0.044295147 0.022106174
0.21404241 0.009271693 -0.013567218 0.056036912 -0.009129007 -0.16179416 -0.14571497 -0.1463625
0.07062468 0.003475589 0.13500355 0.010886922 -0.015786733 0.0913558 -0.049423106 -0.045988895
-0.03710979 0.10864819 0.12527302 0.118561484 -0.08813063 0.042839006 0.088107556 -0.03691105
0.20191039 -0.05089284 0.03780632 0.11402853 -0.08405186 -0.010489441 0.20329648 0.113855444
-0.041799128 0.09063474 0.046380147 -0.108372256 0.15482908 0.011009215 0.16675593 -0.08861275
0.0647319 0.014526817 -0.15262564 -0.01678946 -0.014971171 0.122085005 0.11605054 -0.019277684
-0.18777074 0.018021956 0.020882253 0.0913223 0.16570036 -0.03603491 -0.031285997 -0.15268414
0.10895878 0.06336962 -0.07600157 -0.09227001 -0.08121683 0.020676348 -0.057458755 -0.120697
-0.12029486 -0.01967598 0.015687969 -0.070201635 -0.061515637 -0.046806887 -0.052259494 -0.071922645
-0.055024896 0.15474258 0.07346463 0.06591735 -0.02427133 -0.07895203 -0.07021052 0.04406726
00000000: 3cef 3bbe 1258 c13c e01c 6d3d 0dfc b3bc
00000010: d812 14bd 3dc2 b537 b6a6 293a 3d86 e83d
00000020: 78a4 19bd bde8 fc3d ce24 02bd 1c76 a1bd
00000030: 7077 663d acdc 1f3e 4e69 84be bef4 013c
00000040: 7af6 643b 8f62 273d 612c babc 6df0 c1bc
00000050: 5a16 093e 935a 5e3c e8ab 8fbd 967e 25bd
00000060: fba9 84bc 50b9 16bd af5c c0bc 6f52 513d
00000070: 171b f63c bb96 72be 50bf 063e f028 ec3d
00000080: 7420 353d ad1b 393e 7c7c 8dbd dccc 1c3e
00000090: a034 cc3d 9757 e2bd d91f 97ba 3f5f 343d
000000a0: b195 c9bc cb83 60bd cb90 9f3c 0a89 063d
000000b0: d7e9 123e cbd2 6b3b 5922 81bb 49b4 8d3d
000000c0: 64ed 21bc 0aaa 033e 8cf1 c43d 63cc b7bd
000000d0: 5a25 923c b4cd e2bb c7c1 da3c bb02 bc3c
000000e0: 9648 8abc 91f7 afbc 0040 0a3e ef52 07bd
000000f0: 57de a43d 2fb3 6d3d 4c44 5abb 79d7 c83d
00000100: 7636 633d 2c21 093d e6b3 bb3d bfd6 fbbd
00000110: d7da 0fbd 7bbc 0bbe 7323 003e 0070 ac3d
00000120: 0d5d 20be ff27 e0bd 1343 43bd ffce 7e3d
00000130: d687 c93c cf05 553d 5b3e 33bd de14 ffbd
00000140: 8c67 e23d 9b6b 243e 5c57 8c3d 75bb 26bd
00000150: 7cde b73d de4b d63d 8d3d 59bd c3b9 533d
00000160: 296a 1a3e c6e6 e4bc 51dd bc3d 4a5e 043e
00000170: 9940 00bd 54ae 923d 116d 373d 322b bf3d
00000180: e4bb 6cbd 493d 073e 4392 a43d e6a8 b3bc
00000190: c226 10bc 7829 89bd 4a9e 3a3d ddec 1e3d
000001a0: 57df b2bc 8e95 033e 0114 11bb b3f0 183e
000001b0: 6803 ef3c db68 5dbd 25d1 acbd 58a1 d2bb
000001c0: 9e85 b2bc 9bc0 8f3d d01d 59bc 0086 973c
000001d0: b8ae 28bc 9e4b 133e f48b ad3d a434 b83c
000001e0: 161f cc3d fc0c 90bd 4c9c 2f3d 79da 2938
000001f0: 06e6 373e 46d4 8a3b 5d2b d83c 718f 53bd
00000200: 98c5 65bc aa6a f4bb 700f d23d 6685 f4bd
00000210: 933c 5d3c eec9 19bc 01b9 8ebd 4b89 0ebd
00000220: 9f5b 113d 6d52 a9bc 7a93 7b3d 54e8 873b
00000230: fb24 cd3d 2216 043d 6243 42bd e71e 153e
00000240: 4611 ddbc 3081 f7bd 6411 17bd 9f8e 853c
00000250: 9fe2 30be 53a7 f8bd c7e9 aabd 7092 5b3c
00000260: 3f03 683e 96ef 81bd 30aa 073e bc5d bfbd
00000270: 9789 69be 1bda 91bd 62fe 40bd 0e67 29be
00000280: ca96 13be 91a5 99bd ff66 cdbd 3382 db3d
00000290: d2a2 6f3d 42d1 7c3d 2131 033d 94ca 6bbc
000002a0: a527 183d a4ad 083d da8a 713c e6bd b83d
000002b0: 5395 ee3d 890e 023e d46e 353d 0218 b53c
000002c0: ef2d 5b3e 4de8 173c 0949 5ebc f686 653d
000002d0: d591 15bc 5ead 25be 4e36 15be 0de0 15be
000002e0: aca3 903d b5c6 633b 5f3e 0a3e 0f5f 323c
000002f0: 2e53 81bc c018 bb3d e26f 4abd da5e 3cbd
00000300: 6f00 18bd f182 de3d 9247 003e 5dd0 f23d
00000310: d57d b4bd f477 2f3d bc71 b43d 0b30 17bd
00000320: 99c1 4e3e 0375 50bd cdda 1a3d ca87 e93d
00000330: 6223 acbd e8db 2bbc f42c 503e 0b2d e93d
00000340: 9035 2bbd b59e b93d 1cf9 3d3d 46f2 ddbd
00000350: 848b 1e3e ff5f 343c 11c2 2a3e 9a7a b5bd
00000360: 2992 843d e301 6e3c e549 1cbe 0d8a 89bc
00000370: a449 75bc b407 fa3d e8ab ed3d 3cec 9dbc
00000380: f946 40be c8a2 933c 4211 ab3c 3007 bb3d
00000390: 5bad 293e 5799 13bd bf25 00bd 3b59 1cbe
000003a0: c825 df3d eec7 813d b6a6 9bbd 0ff8 bcbd
000003b0: 0255 a6bd 7261 a93c df59 6bbd fd2f f7bd
000003c0: 275d f6bd 852f a1bc 0e84 803c e0c5 8fbd
000003d0: d2f7 7bbd 94b8 3fbd 0d0e 56bd 2e4c 93bd
000003e0: c961 61bd d774 1e3e a074 963d adff 863d
000003f0: abd4 c6bc 9ab1 a1bd 88ca 8fbd df7f 343d

network_body._body_endoder.seq_layers.2.bias f4 [128]
0.0 0.0 0.0 0.0 0.0 0.0 0.0 0.0
0.0 0.0 0.0 0.0 0.0 0.0 0.0 0.0
0.0 0.0 0.0 0.0 0.0 0.0 0.0 0.0
0.0 0.0 0.0 0.0 0.0 0.0 0.0 0.0
0.0 0.0 0.0 0.0 0.0 0.0 0.0 0.0
0.0 0.0 0.0 0.0 0.0 0.0 0.0 0.0
0.0 0.0 0.0 0.0 0.0 0.0 0.0 0.0
0.0 0.0 0.0 0.0 0.0 0.0 0.0 0.0
0.0 0.0 0.0 0.0 0.0 0.0 0.0 0.0
0.0 0.0 0.0 0.0 0.0 0.0 0.0 0.0
0.0 0.0 0.0 0.0 0.0 0.0 0.0 0.0
0.0 0.0 0.0 0.0 0.0 0.0 0.0 0.0
0.0 0.0 0.0 0.0 0.0 0.0 0.0 0.0
0.0 0.0 0.0 0.0 0.0 0.0 0.0 0.0
0.0 0.0 0.0 0.0 0.0 0.0 0.0 0.0
0.0 0.0 0.0 0.0 0.0 0.0 0.0 0.0
00000000: 0000 0000 0000 0000 0000 0000 0000 0000
00000010: 0000 0000 0000 0000 0000 0000 0000 0000
00000020: 0000 0000 0000 0000 0000 0000 0000 0000
00000030: 0000 0000 0000 0000 0000 0000 0000 0000
00000040: 0000 0000 0000 0000 0000 0000 0000 0000
00000050: 0000 0000 0000 0000 0000 0000 0000 0000
00000060: 0000 0000 0000 0000 0000 0000 0000 0000
00000070: 0000 0000 0000 0000 0000 0000 0000 0000
00000080: 0000 0000 0000 0000 0000 0000 0000 0000
00000090: 0000 0000 0000 0000 0000 0000 0000 0000
000000a0: 0000 0000 0000 0000 0000 0000 0000 0000
000000b0: 0000 0000 0000 0000 0000 0000 0000 0000
000000c0: 0000 0000 0000 0000 0000 0000 0000 0000
000000d0: 0000 0000 0000 0000 0000 0000 0000 0000
000000e0: 0000 0000 0000 0000 0000 0000 0000 0000
000000f0: 0000 0000 0000 0000 0000 0000 0000 0000
00000100: 0000 0000 0000 0000 0000 0000 0000 0000
00000110: 0000 0000 0000 0000 0000 0000 0000 0000
00000120: 0000 0000 0000 0000 0000 0000 0000 0000
00000130: 0000 0000 0000 0000 0000 0000 0000 0000
00000140: 0000 0000 0000 0000 0000 0000 0000 0000
00000150: 0000 0000 0000 0000 0000 0000 0000 0000
00000160: 0000 0000 0000 0000 0000 0000 0000 0000
00000170: 0000 0000 0000 0000 0000 0000 0000 0000
00000180: 0000 0000 0000 0000 0000 0000 0000 0000
00000190: 0000 0000 0000 0000 0000 0000 0000 0000
000001a0: 0000 0000 0000 0000 0000 0000 0000 0000
000001b0: 0000 0000 0000 0000 0000 0000 0000 0000
000001c0: 0000 0000 0000 0000 0000 0000 0000 0000
000001d0: 0000 0000 0000 0000 0000 0000 0000 0000
000001e0: 0000 0000 0000 0000 0000 0000 0000 0000
000001f0: 0000 0000 0000 0000 0000 0000 0000 0000

action_model._continuous_distribution.log_sigma f4 [1, 2]
0.0 0.0
00000000: 0000 0000 0000 0000

action_model._continuous_distribution.mu.weight f4 [2, 128]
-0.0023378234 -0.0036789645 -0.012334074 0.009131595 0.004375573 0.0031429317 -0.016150536 0.008109673
-0.012893163 0.060494293 -0.014651306 0.009015918 0.0019589253 -0.0018893125 -0.009849224 0.0004716344
-0.0029863704 -0.020880284 0.021062864 0.025953967 0.0063372576 -0.007914296 0.033036828 0.00438721
-0.014325931 0.0082763685 -0.013509295 -0.036358215 -0.009864009 0.0032412887 -0.016546426 0.044404346
-0.022229781 0.008560901 -0.0032697096 -0.01383546 0.009138635 0.012156913 0.0057018865 0.0111424755
0.016112097 -0.024674585 0.014740857 -0.011628955 0.018129108 -0.011404937 -0.0033980568 0.012574039
-0.015891543 -0.029637301 0.00442582 0.018791908 -0.01660022 -0.043537114 -0.0053692027 -0.0053248587
0.038219776 0.011429446 0.010760537 -0.00732229 0.03416101 -0.021832107 -0.007797718 0.029833615
0.0032089965 -0.0007019221 0.022536404 0.030541182 0.009165411 0.0009825515 0.023610603 -0.032296397
-0.010463002 0.032476604 -0.030740468 0.0007575359 -0.015908757 0.0032974866 -0.023672307 0.004005255
0.0047183465 -0.0030167527 0.038367968 0.00043567922 -0.0048990394 -0.017013945 0.017275102 -0.031631634
-0.01119935 0.0048890174 -0.008972342 0.0048987386 -0.0013232222 0.00808924 0.0074322307 0.009670681
-0.0044867485 -0.042646814 -0.00084294024 0.01212465 -0.01978678 -0.010712691 -0.029580032 -0.008058618
0.007244058 -0.010188785 -0.0122577725 -0.007178896 -0.0011534895 -0.0015236896 -0.017846689 -0.011820491
0.033568718 0.025779996 -0.0002737611 0.033130147 0.00910493 0.01285326 -0.014938486 0.031201897
0.021451425 -0.016230097 0.033903476 0.007522871 -0.00086826424 0.029645598 -0.011832405 -0.01683366
0.0061771097 0.018762268 -0.0072758608 -0.0042138365 0.0040635006 0.033083286 0.021153845 -0.005857242
0.03144612 -0.0065551433 -0.008326138 -0.03290514 0.011025968 0.020660942 0.028038813 0.011637556
0.0074573755 0.003336789 0.008773808 0.0010690581 0.02464153 -0.0212981 -0.027928594 -0.009719377
-0.020146152 -0.011582731 -0.02722486 0.032001797 0.022676079 0.016678734 0.0142942015 -0.0016233067
-0.023425486 0.0070843934 -0.0034066082 0.0028815109 0.015140526 -0.014668578 0.037429553 -0.015747089
-0.013587775 -0.0025732631 -0.009810949 -0.01855503 -0.0052416455 -0.01765495 0.033783417 -0.019459283
-0.0019165579 -0.0028994519 -0.0066131176 -0.01802945 0.042975068 -0.0024249654 0.0013246106 -0.00047376123
0.022372147 -0.00029562676 0.011092668 -0.0035051487 0.007677299 0.012644309 0.011068608 0.027884305
-0.028808773 -0.0031003642 -0.002213297 0.010124627 0.004161917 -0.008636802 0.009025397 -0.0043954668
-0.037700262 0.00063175836 0.018168312 0.007024217 -0.016015014 -0.026945068 -0.01764278 0.011236103
0.0044674887 -0.004640951 0.016389944 -0.0080779875 0.0021561005 -0.0215154 -0.011441271 -0.016821422
0.019920329 0.01364472 -0.006340495 0.017845977 0.006178996 -0.011016037 0.019371057 0.0011485384
0.016076209 -0.009263787 -0.013916768 -0.011831671 -0.020886185 0.013686587 -0.0044384236 0.01946698
0.018301995 -0.026757298 -0.014913891 -0.016706413 -0.029848276 0.018068736 0.013577031 0.030712187
0.009039164 0.030372908 0.0077544237 0.0065832096 -0.0020910797 0.040275626 -0.0013477574 -0.020921124
-0.02212328 0.001952795 -0.033225086 -0.0085653765 0.009031712 0.020067628 0.009230596 -0.010322264
00000000: 2b36 19bb c81a 71bb db14 4abc af9c 153c
00000010: f760 8f3b a5f9 4d3b 214e 84bc 6fde 043c
00000020: d83d 53bc ddc8 773d 080c 70bc 80b7 133c
00000030: 5061 003b cfa2 f7ba a45e 21bc b345 f739
00000040: fbb6 43bb 210d abbc 078c ac3c 6a9d d43c
00000050: c5a8 cf3b f7aa 01bc a051 073d 96c2 8f3b
00000060: 4fb7 6abc 9b99 073c 1756 5dbc 5aec 14bd
00000070: a79c 21bc cd6b 543b 5f8c 87bc 55e1 353d
00000080: 3b1b b6bc 0543 0c3c a048 56bb 20ae 62bc
00000090: 37ba 153c ca2d 473c e4d6 ba3b ee8e 363c
000000a0: 84fd 833c 5b22 cabc a383 713c 5f87 3ebc
000000b0: 7f83 943c c6db 3abc efb1 5ebb 5803 4e3c
000000c0: fb2e 82bc edc9 f2bc 7806 913b 7df1 993c
000000d0: 2ffd 87bc f953 32bd 23f0 afbb 277c aebb
000000e0: 578c 1c3d 9242 3b3c f74c 303c d2ef efbb
000000f0: 6aec 0b3d 3fd9 b2bc 0084 ffbb a065 f43c
00000100: 074e 523b 3201 38ba 449e b83c 8031 fa3c
00000110: 852a 163c f5c8 803a 066b c13c 3a49 04bd
00000120: 036d 2bbc 3006 053d 6fd3 fbbc 6095 463a
00000130: 1553 82bc a51a 583b 6dec c1bc 843e 833b
00000140: 5c9c 9a3b b6b4 45bb bb27 1d3d e06b e439
00000150: 1f88 a0bb d460 8bbc 8484 8d3c 2c90 01bd
00000160: 7a7d 37bc 0d34 a03b bb00 13bc 9985 a03b
00000170: f86f adba bb88 043c 128a f33b c771 1e3c
00000180: 9305 93bb 6dae 2ebd c3f8 5cba 78a6 463c
00000190: e317 a2bc 4884 2fbc d351 f2bc 4b08 04bc
000001a0: 905f ed3b ddee 26bc d3d4 48bc f23c ebbb
000001b0: af30 97ba 8ab6 c7ba 3833 92bc bcaa 41bc
000001c0: 5a7f 093d 9230 d33c 9887 8fb9 7ab3 073d
000001d0: d82c 153c 7b96 523c 8dc0 74bc 1f9b ff3c
000001e0: e6ba af3c fbf4 84bc 5fde 0a3d 6a82 f63b
000001f0: 3a9c 63ba 53db f23c b4dc 41bc bee6 89bc
00000200: 5a69 ca3b 54b3 993c 586a eebb 3914 8abb
00000210: 1d27 853b 5782 073d d44a ad3c 1bee bfbb
00000220: a6cd 003d 87cc d6bb 5b6a 08bc 8ac7 06bd
00000230: 43a6 343c 2341 a93c a7b1 e53c 73ab 3e3c
00000240: 005d f43b 08ae 5a3b 05c0 0f3c a31f 8c3a
00000250: 09dd c93c 5a79 aebc 82ca e4bc 063e 1fbc
00000260: 8b09 a5bc 7fc5 3dbc ab06 dfbc 5114 033d
00000270: 2fc3 b93c d7a1 883c 3a32 6a3c 22c5 d4ba
00000280: cee6 bfbc 3324 e83b 6741 5fbb bbd7 3c3b
00000290: f80f 783c 7a54 70bc bb4f 193d 0a00 81bc
000002a0: 429f 5ebc 31a4 28bb 1abe 20bc b800 98bc
000002b0: 1cc2 abbb 1da1 90bc 7b60 0a3d 1369 9fbc
000002c0: 0335 fbba bb04 3ebb dab2 d8bb 7fb2 93bc
000002d0: a006 303d 2bec 1ebb 8e9e ad3a 2863 f8b9
000002e0: cb45 b73c 5afe 9ab9 06be 353c a3b6 65bb
000002f0: da91 fb3b 132a 4f3c 1b59 353c a06d e43c
00000300: 6000 ecbc 7b2f 4bbb f60c 11bb c3e1 253c
00000310: b160 883b 6081 0dbc 42df 133c d907 90bb
00000320: 976b 1abd 969c 253a b6d5 943c 672b e63b
00000330: eb31 83bc e7bb dcbc 9787 90bc a217 383c
00000340: 0364 923b 1e13 98bb 3444 863c 8959 04bc
00000350: 5d4d 0d3b 1041 b0bc 2b74 3bbc 14cd 89bc
00000360: f52f a33c 1b8e 5f3c edc3 cfbb ba31 923c
00000370: 2d79 ca3b 9c7c 34bc 0db0 9e3c 8e8a 963a
00000380: 41b2 833c 24c7 17bc 2803 64bc a0d9 41bc
00000390: 8119 abbc b53d 603c 3270 91bb 3779 9f3c
000003a0: 11ee 953c 1f32 dbbc 6559 74bc e3db 88bc
000003b0: 5f84 f4bc e304 943c 3272 5e3c 2098 fb3c
000003c0: 0019 143c 9bd0 f83c d218 fe3b f7b7 d73b
000003d0: 7f0a 09bb 0ef8 243d 3ca7 b0ba c762 abbc
000003e0: e23b b5bc edf4 ff3a 0717 08bd cb55 0cbc
000003f0: bff9 133c de64 a43c ed3b 173c b71e 29bc

action_model._continuous_distribution.mu.bias f4 [2]
0.0 0.0
00000000: 0000 0000 0000 0000

network_body.observation_encoder.processors.0.normalizer.running_mean f4 [8]
4.6832123 0.43939826 -0.4468888 -19.998075 0.49995354 -1.0124106e-08 1.8125172 0.13997678
00000000: e0dc 9540 cff8 e03e 9cce e4be 0ffc 9fc1
00000010: e9f9 ff3e 4aee 2db2 9000 e83f 1356 0f3e

network_body.observation_encoder.processors.0.normalizer.running_variance f4 [8]
3519.5593 179.82915 58017.38 400.9613 1.2499677 1.0 1830.0616 6763.298
00000000: f3f8 5b45 43d4 3343 61a1 6247 0c7b c843
00000010: f1fe 9f3f 0000 803f f9c1 e444 625a d345

network_body.processors.0.normalizer.running_mean f4 [8]
4.6832123 0.43939826 -0.4468888 -19.998075 0.49995354 -1.0124106e-08 1.8125172 0.13997678
00000000: e0dc 9540 cff8 e03e 9cce e4be 0ffc 9fc1
00000010: e9f9 ff3e 4aee 2db2 9000 e83f 1356 0f3e

network_body.processors.0.normalizer.running_variance f4 [8]
3519.5593 179.82915 58017.38 400.9613 1.2499677 1.0 1830.0616 6763.298
00000000: f3f8 5b45 43d4 3343 61a1 6247 0c7b c843
00000010: f1fe 9f3f 0000 803f f9c1 e444 625a d345

network_body._body_endoder.seq_layers.0.weight f4 [128, 8]
-0.5185015 0.15201072 -0.21997538 -0.16931674 -0.14516808 0.61134976 -0.57252383 -0.02272759
-0.24341065 0.5416469 -0.35129112 -0.28470504 0.2649178 0.04922095 0.08088858 -0.033154476
-0.062961906 -0.4799922 0.030195007 -0.045941092 0.45518297 -0.04509428 0.55615133 0.21728599
0.041565966 0.5636352 -0.31486917 -0.4094185 -0.19830452 -0.3539089 -0.26755142 -0.08903034
0.32216302 0.094563 -0.56718224 -0.35969257 0.14609563 -0.019476647 -0.2942212 -0.41420147
-0.3937278 -0.09212128 -0.03831146 0.49064663 0.0976144 -0.22140317 0.39178377 0.22883774
-0.09371301 0.3832856 0.12160462 0.033602122 -0.110888116 0.11987787 -0.20174785 0.20066969
0.5782027 0.3676488 0.22291484 -0.27457303 0.030980585 0.20083222 -0.458001 -0.32542655
-0.44484198 0.042317204 -0.12890083 -0.87102646 -0.0555082 -0.2187365 0.3745936 -0.17243391
-0.24108535 -0.06915206 0.20544979 0.024594933 -0.2181104 0.1765517 -0.34924036 0.42825282
0.5417901 0.05119899 -0.2877508 -0.13932195 0.63092935 -0.028662456 0.23132424 0.028982883
0.565078 -0.028649382 -0.30392742 0.311304 -0.13264267 -0.30445632 -0.15169112 -0.28768384
0.032683626 0.060075875 -0.09447453 0.8343092 0.07960147 0.37320647 0.13700433 0.02665507
-0.16216484 0.26506767 0.58827734 -0.34267074 0.19450942 -0.18500611 0.41763118 0.30617842
0.48189303 -0.13426173 0.32281727 -0.038881678 0.5998435 -0.3260571 0.030756546 0.1445426
-0.024299612 0.606989 0.053003564 -0.11337381 -0.2885277 -0.1917622 0.06546789 0.32926214
-0.02347439 0.2752032 0.20460169 1.0830653 -0.35022116 -0.6760175 -0.4187072 0.17307504
-0.039379574 -0.066432685 -0.9902401 -0.5036218 0.157059 0.37060907 0.916585 0.14533618
0.39756313 0.13513814 -0.15550272 0.17347774 0.42191717 0.13711101 0.20613734 -0.31296685
0.25570664 0.71855175 -0.062197626 -0.095615685 -0.08623046 -0.25113365 -0.17869113 0.48015553
-0.016421169 -0.16343255 -0.023074117 -0.08681853 0.26605883 0.15418787 0.22005989 -0.15233856
0.5847419 -0.53714037 -0.12131272 -0.19412069 0.5352341 -0.1557512 0.11132985 -0.29856816
0.24646232 -0.47578898 0.20357876 0.008451845 -0.16580455 0.53271115 -0.52227575 -0.2202919
-0.5689915 -0.08100176 0.13988096 0.19818744 0.67929465 0.03704686 -0.20780644 -0.574195
0.14830218 0.14501616 0.3226358 0.043018278 0.3281554 -0.019412687 -0.23944274 0.3826768
-0.29394156 -0.30958852 0.47968355 -0.034664944 0.250712 0.21899644 0.21308248 0.38362724
0.09290431 -0.19261901 0.038595498 0.7102879 -0.09781394 0.47737113 0.034903362 0.037325945
-0.4954622 0.21200453 -0.69336414 -0.44655415 0.2489001 0.6162682 -0.33551997 0.2195412
-0.0004871225 0.6001531 -0.43549323 0.35084012 0.13834009 -0.03983077 0.23844643 0.068807796
-0.8910948 0.16440049 0.0527218 -0.004382146 0.17480528 0.103637114 -0.21266718 0.23326811
0.45620814 0.51319593 0.25909972 -0.52481645 -0.174644 0.3036049 0.4928178 -0.66280264
-0.39892867 0.24773215 -0.18242328 -0.71431756 -0.0047001448 0.034017783 0.04581897 -0.24396914
00000000: 84bc 04bf b3a8 1b3e 3a41 61be 5e61 2dbe
00000010: f1a6 14be 6b81 1c3f ec90 12bf 362f babc
00000020: a440 79be 5fa9 0a3f 6edc b3be dcc4 91be
00000030: 4ea3 873e e89b 493d e9a8 a53d fdcc 07bd
00000040: 2cf2 80bd 8ac1 f5be 855b f73c ba2c 3cbd
00000050: be0d e93e c8b4 38bd ef5f 0e3f 3880 5e3e
00000060: 1341 2a3d 654a 103f 8836 a1be 4d9f d1be
00000070: 5710 4bbe 8c33 b5be 80fc 88be 8a55 b6bd
00000080: 8df2 a43e 3faa c13d db32 11bf a029 b8be
00000090: 189a 153e 7d8d 9fbc 29a4 96be 3712 d4be
000000a0: b196 c9be 15aa bcbd 7aec 1cbd 0936 fb3e
000000b0: 0fea c73d 83b7 62be e297 c83e 7154 6a3e
000000c0: 9bec bfbd 033e c43e d80b f93d 61a2 093d
000000d0: 4f19 e3bd 8782 f53d fd96 4ebe 5b7c 4d3e
000000e0: 1805 143f 773c bc3e ca43 643e d694 8cbe
000000f0: ffca fd3c f6a6 4d3e 1b7f eabe 4f9e a6be
00000100: 54c2 e3be ce54 2d3d 94fe 03be 97fb 5ebf
00000110: 915c 63bd 76fc 5fbe bbca bf3e 8492 30be
00000120: 14df 76be 989f 8dbd 6e61 523e 507b c93c
00000130: 5558 5fbe f8c9 343e a2cf b2be f443 db3e
00000140: c2b2 0a3f 08b6 513d 1354 93be 6aaa 0ebe
00000150: 9684 213f 87cd eabc 43e0 6c3e 836d ed3c
00000160: f4a8 103f 1cb2 eabc 609c 9bbe 3d63 9f3e
00000170: 7bd3 07be b3e1 9bbe eb54 1bbe 4c4b 93be
00000180: 44df 053d 1f12 763d dd7b c1bd 4a95 553f
00000190: 1806 a33d eb14 bf3e dd4a 0c3e bc5b da3c
000001a0: 8a0e 26be f3b6 873e 5899 163f 8a72 afbe
000001b0: 7a2d 473e 3e72 3dbe c1d3 d53e 6bc3 9c3e
000001c0: afba f63e e87b 09be 4e48 a53e 6542 1fbd
000001d0: 588f 193f f5f0 a6be 27f5 fb3c fa02 143e
000001e0: fb0f c7bc a263 1b3f 441a 593d 8730 e8bd
000001f0: e7b9 93be 4f5d 44be 0714 863d 0c95 a83e
00000200: 5d4d c0bc 6fe7 8c3e 1b83 513e e2a1 8a3f
00000210: 3050 b3be 7c0f 2dbf ca60 d6be 953a 313e
00000220: 7a4c 21bd dc0d 88bd 6080 7dbf 5ced 00bf
00000230: 13d4 203e 79c0 bd3e 51a5 6a3f 02d3 143e
00000240: 658d cb3e a761 0a3e 1b3c 1fbe 26a4 313e
00000250: 8705 d83e d466 0c3e ab15 533e 313d a0be
00000260: fbeb 823e 02f3 373f f0c2 7ebd 28d2 c3bd
00000270: 9899 b0bd 9794 80be cffa 36be f2d6 f53e
00000280: b085 86bc dd5a 27be ee05 bdbc eacd b1bd
00000290: dd38 883e 6de3 1d3e 6157 613e a4fe 1bbe
000002a0: a5b1 153f 0882 09bf ce72 f8bd 93c7 46be
000002b0: 1a05 093f 3e7d 1fbe e800 e43d eddd 98be
000002c0: 9e60 7c3e 9d9a f3be f376 503e 9b79 0a3c
000002d0: abc8 29be c25f 083f ddb3 05bf 3394 61be
000002e0: 6da9 11bf 40e4 a5bd f43c 0f3e a6f1 4a3e
000002f0: 41e6 2d3f 73be 173d 36cb 54be 72fe 12bf
00000300: 87dc 173e 1e7f 143e 8530 a53e ef33 303d
00000310: fc03 a83e 5b07 9fbc 7a30 75be 37ee c33e
00000320: 827f 96be 6382 9ebe 1599 f53e d4fc 0dbd
00000330: 535d 803e 9a40 603e 4b32 5a3e ca6a c43e
00000340: 9d44 be3d eb3d 45be 5016 1e3d 6ed5 353f
00000350: ad52 c8bd fd69 f43e d4f6 0e3d 17e3 183d
00000360: 39ad fdbe b717 593e 5080 31bf bfa2 e4be
00000370: abdf 7e3e c1c3 1d3f 46c9 abbe 69cf 603e
00000380: 7a64 ffb9 a2a3 193f f8f8 debe 51a1 b33e
00000390: 06a9 0d3e 9725 23bd 4d2b 743e 1aeb 8c3d
000003a0: ca1e 64bf 9a58 283e d0f2 573d 1b98 8fbb
000003b0: 2800 333e b23f d43d 6dc5 59be d6dd 6e3e
000003c0: 1d94 e93e cf60 033f b8a8 843e 5f5a 06bf
000003d0: e0d5 32be 1a72 9b3e 9d52 fc3e 6fad 29bf
000003e0: 6140 ccbe 7fad 7d3e 2bcd 3abe 84dd 36bf
000003f0: ac03 9abb 3b56 0b3d acac 3b3d 0cd3 79be

network_body._body_endoder.seq_layers.0.bias f4 [128]
0.0 0.0 0.0 0.0 0.0 0.0 0.0 0.0
0.0 0.0 0.0 0.0 0.0 0.0 0.0 0.0
0.0 0.0 0.0 0.0 0.0 0.0 0.0 0.0
0.0 0.0 0.0 0.0 0.0 0.0 0.0 0.0
0.0 0.0 0.0 0.0 0.0 0.0 0.0 0.0
0.0 0.0 0.0 0.0 0.0 0.0 0.0 0.0
0.0 0.0 0.0 0.0 0.0 0.0 0.0 0.0
0.0 0.0 0.0 0.0 0.0 0.0 0.0 0.0
0.0 0.0 0.0 0.0 0.0 0.0 0.0 0.0
0.0 0.0 0.0 0.0 0.0 0.0 0.0 0.0
0.0 0.0 0.0 0.0 0.0 0.0 0.0 0.0
0.0 0.0 0.0 0.0 0.0 0.0 0.0 0.0
0.0 0.0 0.0 0.0 0.0 0.0 0.0 0.0
0.0 0.0 0.0 0.0 0.0 0.0 0.0 0.0
0.0 0.0 0.0 0.0 0.0 0.0 0.0 0.0
0.0 0.0 0.0 0.0 0.0 0.0 0.0 0.0
00000000: 0000 0000 0000 0000 0000 0000 0000 0000
00000010: 0000 0000 0000 0000 0000 0000 0000 0000
00000020: 0000 0000 0000 0000 0000 0000 0000 0000
00000030: 0000 0000 0000 0000 0000 0000 0000 0000
00000040: 0000 0000 0000 0000 0000 0000 0000 0000
00000050: 0000 0000 0000 0000 0000 0000 0000 0000
00000060: 0000 0000 0000 0000 0000 0000 0000 0000
00000070: 0000 0000 0000 0000 0000 0000 0000 0000
00000080: 0000 0000 0000 0000 0000 0000 0000 0000
00000090: 0000 0000 0000 0000 0000 0000 0000 0000
000000a0: 0000 0000 0000 0000 0000 0000 0000 0000
000000b0: 0000 0000 0000 0000 0000 0000 0000 0000
000000c0: 0000 0000 0000 0000 0000 0000 0000 0000
000000d0: 0000 0000 0000 0000 0000 0000 0000 0000
000000e0: 0000 0000 0000 0000 0000 0000 0000 0000
000000f0: 0000 0000 0000 0000 0000 0000 0000 0000
00000100: 0000 0000 0000 0000 0000 0000 0000 0000
00000110: 0000 0000 0000 0000 0000 0000 0000 0000
00000120: 0000 0000 0000 0000 0000 0000 0000 0000
00000130: 0000 0000 0000 0000 0000 0000 0000 0000
00000140: 0000 0000 0000 0000 0000 0000 0000 0000
00000150: 0000 0000 0000 0000 0000 0000 0000 0000
00000160: 0000 0000 0000 0000 0000 0000 0000 0000
00000170: 0000 0000 0000 0000 0000 0000 0000 0000
00000180: 0000 0000 0000 0000 0000 0000 0000 0000
00000190: 0000 0000 0000 0000 0000 0000 0000 0000
000001a0: 0000 0000 0000 0000 0000 0000 0000 0000
000001b0: 0000 0000 0000 0000 0000 0000 0000 0000
000001c0: 0000 0000 0000 0000 0000 0000 0000 0000
000001d0: 0000 0000 0000 0000 0000 0000 0000 0000
000001e0: 0000 0000 0000 0000 0000 0000 0000 0000
000001f0: 0000 0000 0000 0000 0000 0000 0000 0000

network_body._body_endoder.seq_layers.2.weight f4 [128, 128]
0.021858627 0.116218686 0.07295818 0.02503155 -0.21245311 0.15338293 -0.08697309 -0.0574222
-0.060275022 0.043713693 -0.022778435 0.05693929 0.02593067 0.06459449 0.04478026 0.0051831882
0.13567175 -0.06983355 -0.063761964 0.038042866 0.09414657 0.07701393 0.07725904 0.067700565
0.10493256 0.07132052 0.05296843 -0.024230842 -0.103207834 0.23592103 0.029557876 -0.07636441
0.055080455 -0.094946 -0.08879301 0.045387223 0.014247908 0.059871417 0.04887862 -0.015561667
0.0069270977 -0.08601572 0.13871074 0.13669825 -0.06923072 -0.16172263 0.12047353 -0.084583
-0.17786084 0.1451212 0.06633126 -0.07074081 -0.08473903 0.06917282 0.03810648 -0.12042583
0.01115969 0.011601993 0.033010807 -0.027297636 -0.09738533 -0.07273495 0.06446762 0.03831312
0.14382383 0.12610318 0.039485104 0.18265636 0.03007078 -0.0009894067 -0.013668936 -0.024716863
-0.06334536 -0.2292959 0.10941566 0.10019293 -0.12374214 0.0033966915 0.12577057 0.072727956
0.021397734 0.06635913 -0.0063640126 0.11239755 -0.009279646 0.1545174 -0.09184952 0.15686546
-0.07124567 0.07677356 0.11577026 -0.13525257 0.14520012 0.024664862 0.015420067 0.024553541
-0.17538431 -0.06561251 0.029751496 0.12832433 -0.03166368 0.071471944 -0.015680552 -0.002485668
-0.005900589 -0.08425831 -0.027041953 0.05392233 0.01655248 -0.16158356 -0.08959504 0.070928596
0.03522326 0.17428485 0.055361364 -0.12771364 -0.084659226 0.03274878 0.04580672 0.037496347
0.017419515 -0.007521134 -0.028062198 0.051635843 0.06627941 -0.12907168 0.016997624 0.019666268
0.1229209 -0.13903186 0.02034116 0.080337696 -0.003494636 0.05015378 -0.011717614 -0.06558058
-0.019934602 -0.024253722 0.022407867 -0.017574793 0.09275194 -0.075777456 0.02230437 -0.07774166
-0.046258505 -0.07366574 -0.023345768 -0.026889926 -0.012722038 -0.04159685 -0.04016425 0.1052705
0.102743804 0.067542054 0.07143541 0.027978692 -0.07695286 0.012530281 0.08010913 -0.06681945
-0.011915918 -0.001275771 0.011805207 0.08415648 0.04284705 -0.109393805 -0.086495355 0.022927975
0.03990276 0.0488983 -0.013379501 0.1342745 -0.13855883 0.08351356 0.121059075 0.19490297
-0.008804776 -0.14666009 -0.10067331 -0.09485689 -0.17936504 -0.027446425 0.097186014 -0.09356247
-0.028931508 -0.053340446 0.07480374 -0.074017435 0.03910612 0.13467771 4.2778687e-05 -0.03547878
-0.08318593 -0.033094313 -0.09565091 -0.054002415 0.056113303 -0.054488257 0.089051284 0.029810179
0.033424214 0.049959056 -0.2146237 -0.16071744 -0.20711273 -0.07315044 -0.0658297 -0.040967733
-0.02811928 0.036832806 -0.07631442 -0.12570445 0.02545891 0.005136324 0.087680444 -0.21105872
-0.06593436 0.046876695 0.119212076 -0.041113466 -0.003419371 -0.05069388 0.078342386 0.085000716
-0.03565449 0.02647561 -0.036244508 -0.050533354 -0.035662767 -0.07335071 -0.045769237 -0.060414713
0.058134373 -0.08961501 0.10321076 0.06564553 0.09385075 0.045640264 -0.015560177 -0.0047698542
-0.08352322 0.16061434 0.025081413 0.03393899 0.13904311 -0.08831873 0.121732585 0.15458913
0.020917412 -0.04937783 -0.09867327 0.07882559 0.13647766 -0.058122884 -0.009935079 -0.09991738
00000000: dd10 b33c 1004 ee3d 196b 953d f70e cd3c
00000010: 4f8d 59be 6a10 1d3e f31e b2bd 8a33 6bbd
00000020: f1e2 76bd 210d 333d d799 babc 2c39 693d
00000030: 8e6c d43c 1e4a 843d 826b 373d bcd7 a93b
00000040: 89ed 0a3e e404 8fbd a295 82bd d6d2 1b3d
00000050: ebcf c03d 7bb9 9d3d fd39 9e3d 98a6 8a3d
00000060: e2e6 d63d 7e10 923d 6df5 583d c27f c6bc
00000070: a15e d3bd 4895 713e 5c23 f23c f264 9cbd
00000080: 0b9c 613d 0c73 c2bd 1cd9 b5bd f4e7 393d
00000090: 0f70 693c bb3b 753d f334 483d 5df6 7ebc
000000a0: b5fc e23b 0329 b0bd 300a 0e3e a0fa 0b3e
000000b0: d6c8 8dbd 9e9a 25be d3ba f63d da39 adbd
000000c0: 2721 36be a79a 143e afd8 873d 8fe0 90bd
000000d0: a88b adbd 7baa 8d3d 8a15 1c3d d1a1 f6bd
000000e0: 22d7 363c 4916 3e3c 5736 073d 4b9f dfbc
000000f0: f671 c7bd 10f6 94bd 9907 843d 38ee 1c3d
00000100: 8e46 133e 3121 013e 22bb 213d 450a 3b3e
00000110: ff56 f63c fbae 81ba acf3 5fbc 057b cabc
00000120: 36bb 81bd 8bcc 6abe 5115 e03d f331 cd3d
00000130: 856c fdbd 079b 5e3b 00ca 003e 65f2 943d
00000140: 4d4a af3c 4ce7 873d 3589 d0bb b030 e63d
00000150: a809 18bc cf39 1e3e 9a1b bcbd 57a1 203e
00000160: 40e9 91bd 753b 9d3d f518 ed3d a67f 0abe
00000170: 57af 143e f70d ca3c 73a4 7c3c 8224 c93c
00000180: f297 33be da5f 86bd 69b9 f33c 7467 033e
00000190: c6b1 01bd e25f 923d 8074 80bc 97e6 22bb
000001a0: ba59 c1bb 9f8f acbd 1687 ddbc a9dd 5c3d
000001b0: 1199 873c 2976 25be 9b7d b7bd 0343 913d
000001c0: 4446 103d ba77 323e 99c2 623d 5dc7 02be
000001d0: d161 adbd 9623 063d d49f 3b3d c595 193d
000001e0: 5fb3 8e3c d873 f6bb b2e2 e5bc 1b80 533d
000001f0: 80bd 873d 5e2b 04be 9a3e 8b3c 271b a13c
00000200: f4bd fb3d 5e5e 0ebe 81a2 a63c 1788 a43d
00000210: 4306 65bb 0d6e 4d3d 3cfb 3fbc 1c4f 86bd
00000220: e44d a3bc beaf c6bc b490 b73c 03f9 8fbc
00000230: bbf4 bd3d 3631 9bbd a7b7 b63c 0537 9fbd
00000240: 8f79 3dbd 10de 96bd a03f bfbc 4348 dcbc
00000250: 1870 50bc 7561 2abd 4583 24bd 0f98 d73d
00000260: 586b d23d 7d53 8a3d ba4c 923d 9233 e53c
00000270: 7699 9dbd cf4b 4d3c 4110 a43d a3d8 88bd
00000280: fc3a 43bc c537 a7ba a06a 413c 3c5a ac3d
00000290: 6380 2f3d dc09 e0bd 7a24 b1bd 73d3 bb3c
000002a0: 1471 233d 9549 483d b235 5bbc 417f 093e
000002b0: 5ee2 0dbe 2809 ab3d d2ed f73d a594 473e
000002c0: e841 10bc 102e 16be cf2d cebd 5444 c2bd
000002d0: 78ab 37be 53d7 e0bc 7609 c73d ae9d bfbd
000002e0: c501 edbc 837b 5abd b432 993d 7496 97bd
000002f0: bd2d 203d f4e8 093e 446d 3338 3252 11bd
00000300: 635d aabd e78d 07bd a0e4 c3bd a331 5dbd
00000310: 10d7 653d 142f 5fbd 8560 b63d 7a34 f43c
00000320: d4e7 083d dea1 4c3d 51c6 5bbe 1d93 24be
00000330: 5c15 54be e6cf 95bd b9d1 86bd c8cd 27bd
00000340: 675a e6bc ffdd 163d bc4a 9cbd abb8 00be
00000350: 348f d03c 9c4e a83b ce91 b33d c71f 58be
00000360: 9808 87bd c701 403d 7625 f43d 9866 28bd
00000370: 8717 60bb 63a4 4fbd f971 a03d db14 ae3d
00000380: 710a 12bd 61e3 d83c 1f75 14bd 10fc 4ebd
00000390: 1f13 12bd e638 96bd 8678 3bbd 6b75 77bd
000003a0: 4f1e 6e3d 1388 b7bd 2a60 d33d 2a71 863d
000003b0: d234 c03d 49f1 3a3d 1df0 7ebc 704c 9cbb
000003c0: 390e abbd 1678 243e 8977 cd3c 9c03 0b3d
000003d0: 5161 0e3e 73e0 b4bd ef4e f93d 9d4c 1e3e
000003e0: fe5a ab3c 6840 4abd 3615 cabd 506f a13d
000003f0: cdc0 0b3e 4312 6ebd bec6 22bc 7ca1 ccbd

network_body._body_endoder.seq_layers.2.bias f4 [128]
0.0 0.0 0.0 0.0 0.0 0.0 0.0 0.0
0.0 0.0 0.0 0.0 0.0 0.0 0.0 0.0
0.0 0.0 0.0 0.0 0.0 0.0 0.0 0.0
0.0 0.0 0.0 0.0 0.0 0.0 0.0 0.0
0.0 0.0 0.0 0.0 0.0 0.0 0.0 0.0
0.0 0.0 0.0 0.0 0.0 0.0 0.0 0.0
0.0 0.0 0.0 0.0 0.0 0.0 0.0 0.0
0.0 0.0 0.0 0.0 0.0 0.0 0.0 0.0
0.0 0.0 0.0 0.0 0.0 0.0 0.0 0.0
0.0 0.0 0.0 0.0 0.0 0.0 0.0 0.0
0.0 0.0 0.0 0.0 0.0 0.0 0.0 0.0
0.0 0.0 0.0 0.0 0.0 0.0 0.0 0.0
0.0 0.0 0.0 0.0 0.0 0.0 0.0 0.0
0.0 0.0 0.0 0.0 0.0 0.0 0.0 0.0
0.0 0.0 0.0 0.0 0.0 0.0 0.0 0.0
0.0 0.0 0.0 0.0 0.0 0.0 0.0 0.0
00000000: 0000 0000 0000 0000 0000 0000 0000 0000
00000010: 0000 0000 0000 0000 0000 0000 0000 0000
00000020: 0000 0000 0000 0000 0000 0000 0000 0000
00000030: 0000 0000 0000 0000 0000 0000 0000 0000
00000040: 0000 0000 0000 0000 0000 0000 0000 0000
00000050: 0000 0000 0000 0000 0000 0000 0000 0000
00000060: 0000 0000 0000 0000 0000 0000 0000 0000
00000070: 0000 0000 0000 0000 0000 0000 0000 0000
00000080: 0000 0000 0000 0000 0000 0000 0000 0000
00000090: 0000 0000 0000 0000 0000 0000 0000 0000
000000a0: 0000 0000 0000 0000 0000 0000 0000 0000
000000b0: 0000 0000 0000 0000 0000 0000 0000 0000
000000c0: 0000 0000 0000 0000 0000 0000 0000 0000
000000d0: 0000 0000 0000 0000 0000 0000 0000 0000
000000e0: 0000 0000 0000 0000 0000 0000 0000 0000
000000f0: 0000 0000 0000 0000 0000 0000 0000 0000
00000100: 0000 0000 0000 0000 0000 0000 0000 0000
00000110: 0000 0000 0000 0000 0000 0000 0000 0000
00000120: 0000 0000 0000 0000 0000 0000 0000 0000
00000130: 0000 0000 0000 0000 0000 0000 0000 0000
00000140: 0000 0000 0000 0000 0000 0000 0000 0000
00000150: 0000 0000 0000 0000 0000 0000 0000 0000
00000160: 0000 0000 0000 0000 0000 0000 0000 0000
00000170: 0000 0000 0000 0000 0000 0000 0000 0000
00000180: 0000 0000 0000 0000 0000 0000 0000 0000
00000190: 0000 0000 0000 0000 0000 0000 0000 0000
000001a0: 0000 0000 0000 0000 0000 0000 0000 0000
000001b0: 0000 0000 0000 0000 0000 0000 0000 0000
000001c0: 0000 0000 0000 0000 0000 0000 0000 0000
000001d0: 0000 0000 0000 0000 0000 0000 0000 0000
000001e0: 0000 0000 0000 0000 0000 0000 0000 0000
000001f0: 0000 0000 0000 0000 0000 0000 0000 0000

value_heads.value_heads.extrinsic.weight f4 [1, 128]
-0.07433401 0.015707249 -0.15825538 -0.09106364 -0.21214366 -0.012943314 -0.029543074 0.0662343
-0.13236533 -0.19638713 0.101582035 0.03309303 0.15106802 -0.10193184 0.10754517 -0.053568065
-0.16986154 -0.1579358 -0.029203853 -0.045448374 -0.10247963 -0.031292092 -0.09193551 0.05987404
-0.0110425325 0.03386997 -0.080302306 -0.119125135 -0.06762948 -0.21004863 0.038090464 0.041324366
-0.108550884 0.05602656 -0.04456445 -0.111756414 0.20554163 -0.18656383 0.07142817 0.20718445
0.15999314 0.11414691 -0.06714119 -0.10427837 0.07198992 0.043823544 -0.103888795 0.07828244
0.011666923 0.08157189 0.05843871 0.0054833647 -0.030450048 0.14022669 -0.04326853 0.18847923
-0.019144624 -0.008168499 0.21110274 0.10007326 -0.19220178 -0.18196642 -0.070633315 -0.20605426
0.046985306 -0.09565375 0.15682495 0.059855577 0.035237756 -0.04266201 0.0008479196 0.15073965
0.009586421 -0.147394 -0.07960678 0.020613411 0.0059722275 0.14655158 -0.14310291 0.10644933
0.008054529 -0.0762401 0.17472702 0.06471706 0.19511053 0.1856357 -0.08710398 0.18687376
0.08362114 -0.14450948 0.13796766 -0.09325684 0.21042138 0.113541305 -0.029597899 -0.1690061
0.08968934 0.09672943 0.05223078 0.16129531 -0.079717726 0.027323524 0.022982476 0.1601813
-0.061576277 0.03235016 0.11354719 0.076873645 0.08061196 0.08133275 0.12521423 0.17338087
0.10882719 0.15578038 -0.16698778 0.12423556 0.10190526 0.125992 -0.016360369 -0.18561246
-0.076852486 0.16881211 0.21283011 0.021387907 0.14337231 -0.1422074 0.1057496 0.16931242
00000000: 6e3c 98bd 7dac 803c b30d 22be 937f babd
00000010: 303c 59be 3210 54bc 5104 f2bc d9a5 873d
00000020: c78a 07be b519 49be 3e0a d03d 8f8c 073d
00000030: 93b1 1a3e a4c1 d0bd a440 dc3d 306a 5bbd
00000040: 2ff0 2dbe ecb9 21be eb3c efbc 1328 3abd
00000050: d7e0 d1bd 232c 00bd af48 bcbd 7b3e 753d
00000060: bdeb 34bc 3dbb 0a3d 8975 a4bd e1f7 f3bd
00000070: 5381 8abd fd16 57be bf04 1c3d bd43 293d
00000080: ed4f debd 1b7c 653d 3689 36bd 8ce0 e4bd
00000090: 8179 523e 970a 3fbe ef48 923d 2928 543e
000000a0: 3ed5 233e dbc5 e93d 5281 89bd e68f d5bd
000000b0: 746f 933d 5180 333d a6c3 d4bd 8b52 a03d
000000c0: 9f26 3f3c 2a0f a73d 6e5d 6f3d ccad b33b
000000d0: 6172 f9bc 9697 0f3e 583a 31bd b300 413e
000000e0: 30d5 9cbc 2bd5 05bc 512b 583e 36f3 cc3d
000000f0: 8bd0 44be 6855 3abe 33a8 90bd e3ff 52be
00000100: aa73 403d 1de6 c3bd b896 203e 1f2b 753d
00000110: 7755 103d 5cbe 2ebd ec46 5e3a 7f5b 1a3e
00000120: 5d10 1d3c 74ee 16be e108 a3bd 75dd a83c
00000130: adb2 c33b 9e11 163e 9289 12be 1b02 da3d
00000140: 25f7 033c c523 9cbd a4eb 323e 618a 843d
00000150: 0ecb 473e 4917 3e3e 9263 b2bd d65b 3f3e
00000160: 8f41 ab3d 4bfa 13be 6547 0d3e 71fd bebd
00000170: b478 573e 5888 e83d 4b77 f2bc ef0f 2dbe
00000180: 0baf b73d 141a c63d f1ef 553d 992a 253e
00000190: 0c43 a3bd 95d5 df3c bf45 bc3c 9106 243e
000001a0: 6837 7cbd 9a81 043d 6e8b e83d ee6f 9d3d
000001b0: e217 a53d c991 a63d 2938 003e c18a 313e
000001c0: cae0 de3d e484 1f3e d8fe 2abe 376f fe3d
000001d0: b4b3 d03d 0c04 013e 2e06 86bc 3111 3ebe
000001e0: d664 9dbd 15dd 2c3e 23f0 593e b135 af3c
000001f0: 31d0 123e d19e 11be 3f93 d83d 3c60 2d3e
