Basic_Path_Finding/Assets/TorchModels/results/PlayerMaze1/PlayerMaze/PlayerMaze-0.onnx (onnx, 74869 bytes, 9 tensors)

network_body.observation_encoder.processors.0.normalizer.running_mean f4 [8]
0	0x00000000	0.0
1	0x00000000	0.0
2	0x00000000	0.0
3	0x00000000	0.0
4	0x00000000	0.0
5	0x00000000	0.0
6	0x00000000	0.0
7	0x00000000	0.0

network_body._body_endoder.seq_layers.0.weight f4 [128, 8]
0	0xbf6099e2	-0.87734807
1	0xbf7847b5	-0.96984416
2	0xbf0e5144	-0.5559275
3	0xbd055781	-0.032554153
4	0xbdcd6163	-0.10028341
5	0xbed4fcad	-0.41599026
6	0x3db76215	0.089542545
7	0x3e5462aa	0.20740762
8	0x3edd3015	0.43200746
9	0x3e43254c	0.19057196
10	0x3e8fae47	0.2806265
11	0x3c70dfa8	0.014701761
12	0x3f359df9	0.7094417
13	0xbf74a598	-0.95565176
14	0x3dbadbd5	0.09123961
15	0xbea0896e	-0.3135485
16	0xbf36271f	-0.71153444
17	0x3e70a9b3	0.23502235
18	0x3e51c940	0.20486927
19	0x3e937172	0.2879749
20	0x3df9f408	0.122047484
21	0xbe9a9ca2	-0.30197626
22	0xbd89a361	-0.06720615
23	0x3e63fbd6	0.22264037
24	0xbf3d2724	-0.7388785
25	0xbe3c9a0a	-0.18418136
26	0xbe894793	-0.2681242
27	0x3f31a151	0.69386774
28	0xbeb87a01	-0.36030582
29	0xbe89d6f8	-0.2692182
30	0xbe3f2973	-0.18668155
31	0xbd48c933	-0.049020004
32	0x3d9bef0d	0.07613955
33	0x3e5d83ed	0.21632357
34	0xbbfabffe	-0.007652282
35	0xbe7a4915	-0.24441941
36	0xbe8d4ecb	-0.27599177
37	0x3e84df37	0.2595155
38	0x3e568f9d	0.20953222
39	0xbd24777b	-0.040153008
40	0xbeb509b6	-0.3535897
41	0xbe972c7b	-0.29526123
42	0xbe8965a6	-0.26835364
43	0xbf44871a	-0.7676865
44	0x3f39f78e	0.72643363
45	0x3f005ac4	0.501385
46	0x3dd335be	0.10312985
47	0xbf0e38ce	-0.5555543
48	0xbd98acb7	-0.07454818
49	0xbdf8afa0	-0.12142873
50	0xbd2d09e1	-0.04224575
51	0xbe8afe15	-0.27146974
52	0x3e3da01e	0.18518111
53	0xbcec95bc	-0.028879993
54	0x3eb1f91a	0.34760362
55	0xbd5e8eb0	-0.054335296
56	0xbdc34707	-0.09535032
57	0xbe7af827	-0.24508725
58	0x3efef17c	0.49793613
59	0xbe3f9fea	-0.18713346
60	0x3ee75d16	0.45188206
61	0xbe9f317e	-0.31092447
62	0x3e04b7af	0.12960695
63	0xbe0c40bc	-0.13696569
64	0xbecefd77	-0.40427753
65	0x3ed2b023	0.41150007
66	0x3f40566b	0.75131863
67	0x3e893bdf	0.2680349
68	0x3dee987e	0.11650179
69	0xbe9c8f69	-0.30578163
70	0x3ebf4fd7	0.373656
71	0x3e3cb03e	0.18426606
72	0x3e38b0db	0.18036215
73	0x3ec92c41	0.39291576
74	0x3eca7c6b	0.39548048
75	0x3e5ae1e7	0.21375237
76	0x3ebf96b0	0.37419653
77	0x3e1c778f	0.15279983
78	0x3cb22768	0.021747306
79	0x3df9699a	0.12178345
80	0x3e7ca209	0.24671187
81	0xbea9a6a1	-0.3313494
82	0xbd5fcc17	-0.054637995
83	0xbe64d693	-0.22347479
84	0xbefc9bc8	-0.49337602
85	0xbf0a5af4	-0.54045033
86	0x3f09f9f5	0.5389703
87	0x3ee22147	0.44166014
88	0xbda49298	-0.08035773
89	0xbe9b82c6	-0.3037321
90	0xbead2360	-0.3381605
91	0x3ef5aa91	0.47981694
92	0xbecaedb4	-0.39634478
93	0x3e83696f	0.25666377
94	0x3d861790	0.06547463
95	0xbe9f17a0	-0.31072712
96	0xbdecff26	-0.11572103
97	0xbe6b2c34	-0.22966081
98	0xbe004228	-0.12525237
99	0xbf091ffd	-0.53564435
100	0x3ea28d80	0.3174858
101	0xbe81f514	-0.25382292
102	0x3e8b1653	0.2716547
103	0xbf0086dc	-0.5020578
104	0xbd7fee40	-0.062483072
105	0xbeed5e7c	-0.46361148
106	0xbd12e598	-0.03586349
107	0xbd83e8ad	-0.06440864
108	0xbef93e7d	-0.48680487
109	0xbdd71aa3	-0.105031274
110	0xbe031a2a	-0.1280295
111	0xbe8b2325	-0.2717525
112	0xbcde3a60	-0.027127445
113	0x3f21a5b7	0.63143486
114	0xbe12c027	-0.14331113
115	0xbcc2c6e9	-0.023776488
116	0xbe5a80f4	-0.21338254
117	0xbeb86974	-0.36017954
118	0xbeb8e609	-0.36113003
119	0x3e114183	0.14185147
120	0x3e2eb053	0.1705945
121	0xbc7cf90f	-0.01544024
122	0x3d2f9faa	0.042876877
123	0xbd9fe796	-0.078078434
124	0x3ead4923	0.3384486
125	0x3d49c90d	0.049264003
126	0xbe33f773	-0.17574863
127	0xbccc058b	-0.024904987
128	0xbeb0e52d	-0.34549847
129	0x3ce42465	0.027849386
130	0x3e704f0d	0.23467655
131	0x3ee30e78	0.44346976
132	0xbb6669ed	-0.0035158352
133	0xbecce520	-0.40018559
134	0xbb5c0c76	-0.0033576763
135	0x3f23f9de	0.6405314
136	0xbf4b4b5d	-0.7941187
137	0x3db3fb2f	0.08788144
138	0x3e85f3d5	0.26162592
139	0xbe100412	-0.14064053
140	0x3dc243ee	0.09485613
141	0x3f5451a7	0.8293709
142	0xbf06d255	-0.5266469
143	0xbcb199e8	-0.021679834
144	0xbea8bcee	-0.32956642
145	0x3f18de5f	0.5971431
146	0xbea4b679	-0.32170466
147	0xbdf8eabe	-0.121541485
148	0xbec92918	-0.39289165
149	0xbe3aa46d	-0.18226786
150	0x3ebf1938	0.37323928
151	0xbf213c1a	-0.6298233
152	0x3e81332a	0.25234348
153	0xbf079a41	-0.5296975
154	0xbea87db2	-0.32908398
155	0xbe700e53	-0.23442964
156	0xbedaa3be	-0.4270305
157	0x3d24f15c	0.04026924
158	0x3ee0de33	0.43919525
159	0xbd443f87	-0.047912147
160	0x3d5f40a2	0.054504998
161	0xbe763436	-0.24043354
162	0xbd521985	-0.05129387
163	0x3e90f572	0.2831226
164	0x3e038cdc	0.12846702
165	0x3e0bd1ab	0.136542
166	0x3e8ccab1	0.2749839
167	0x3e49b598	0.19698179
168	0x3eecd854	0.46258795
169	0x3ef85b24	0.48507035
170	0xbf6cb91c	-0.92469954
171	0xbdc9b8cc	-0.098497
172	0xbecc7482	-0.39932638
173	0x3cd15196	0.025551599
174	0xbeb11d00	-0.34592438
175	0x3cf026e4	0.02931542
176	0x3e04dd4d	0.12975045
177	0x3ddee395	0.108832516
178	0xbf31fd91	-0.69527537
179	0x3cd6ef74	0.026237227
180	0x3d57f00a	0.052719153
181	0x3d2b6e38	0.04185316
182	0x39b1048c	0.00033763458
183	0xbe7d0284	-0.24707991
184	0xbe4315c3	-0.1905127
185	0xbe19cdf8	-0.15019977
186	0xbf233313	-0.6374981
187	0xbf09f3be	-0.53887546
188	0xbb7ad9b0	-0.0038276725
189	0x3e8f920b	0.2804111
190	0xbeb1dd7c	-0.34739292
191	0x3dd85807	0.10563665
192	0xbf18f236	-0.59744585
193	0xbcfd6b55	-0.030934969
194	0x3d85fe82	0.06542684
195	0x3e610c3b	0.21977322
196	0x3f2b949f	0.6702365
197	0xbe35886a	-0.17727819
198	0xbdd9f6b3	-0.10642757
199	0xbe6ff871	-0.23434617
200	0xbdf3acd1	-0.118981965
201	0xbec5fd0f	-0.3866963
202	0xbe633b62	-0.22190621
203	0x3f642a7d	0.8912733
204	0xbed4f2f4	-0.4159161
205	0xbdc5f410	-0.09665692
206	0x3e60cbcc	0.21952742
207	0x3ee30d7c	0.44346225
208	0x3c61ad86	0.013774281
209	0x3e4ce792	0.20010212
210	0xbe104958	-0.14090478
211	0xbe4160fd	-0.18884654
212	0x3eb3cb34	0.3511597
213	0xbf00c2e4	-0.5029738
214	0xbe1fe077	-0.1561297
215	0x3ea06e62	0.31334215
216	0xbe8ae25e	-0.2712583
217	0xbeb54f44	-0.35412037
218	0x3ea8ba00	0.32954407
219	0x3f308b59	0.6896263
220	0xbe34dd09	-0.17662443
221	0x3d68dfb1	0.056853954
222	0xbe5babbe	-0.21452233
223	0xbee0c939	-0.4390352
224	0xbdcf03c9	-0.10108144
225	0x3dca7418	0.098854244
226	0x3ee161a6	0.44019812
227	0xbd113aeb	-0.03545658
228	0x3e845468	0.25845647
229	0x3ce53142	0.02797759
230	0xbf306e0b	-0.6891791
231	0x3e0c1e3f	0.13683413
232	0xbdb60a05	-0.0888863
233	0xbf14a83b	-0.580692
234	0x3e014c0c	0.12626666
235	0xbcf7c4c8	-0.0302452
236	0x3f15d83c	0.5853307
237	0x3dec083b	0.11525007
238	0x3e2e1b16	0.1700252
239	0x3ed89e34	0.423082
240	0x3e08b1fa	0.13349143
241	0x3f0c5dcf	0.5483064
242	0x3f49c552	0.7881671
243	0xbb96dc11	-0.0046038707
244	0xbe8d84de	-0.27640432
245	0xbdd0be3f	-0.101925366
246	0xbe69d170	-0.228338
247	0xbeb28095	-0.34863725
248	0x3e50fdf8	0.20409381
249	0x3eb952b2	0.36195904
250	0xbe939c28	-0.28830075
251	0xbe875e27	-0.2643902
252	0x3ee33b1c	0.44381034
253	0xbf5ea3ea	-0.86968863
254	0xbe341232	-0.17585066
255	0xbe644cb0	-0.22294879

network_body._body_endoder.seq_layers.0.bias f4 [128]
0	0x00000000	0.0
1	0x00000000	0.0
2	0x00000000	0.0
3	0x00000000	0.0
4	0x00000000	0.0
5	0x00000000	0.0
6	0x00000000	0.0
7	0x00000000	0.0
8	0x00000000	0.0
9	0x00000000	0.0
10	0x00000000	0.0
11	0x00000000	0.0
12	0x00000000	0.0
13	0x00000000	0.0
14	0x00000000	0.0
15	0x00000000	0.0
16	0x00000000	0.0
17	0x00000000	0.0
18	0x00000000	0.0
19	0x00000000	0.0
20	0x00000000	0.0
21	0x00000000	0.0
22	0x00000000	0.0
23	0x00000000	0.0
24	0x00000000	0.0
25	0x00000000	0.0
26	0x00000000	0.0
27	0x00000000	0.0
28	0x00000000	0.0
29	0x00000000	0.0
30	0x00000000	0.0
31	0x00000000	0.0
32	0x00000000	0.0
33	0x00000000	0.0
34	0x00000000	0.0
35	0x00000000	0.0
36	0x00000000	0.0
37	0x00000000	0.0
38	0x00000000	0.0
39	0x00000000	0.0
40	0x00000000	0.0
41	0x00000000	0.0
42	0x00000000	0.0
43	0x00000000	0.0
44	0x00000000	0.0
45	0x00000000	0.0
46	0x00000000	0.0
47	0x00000000	0.0
48	0x00000000	0.0
49	0x00000000	0.0
50	0x00000000	0.0
51	0x00000000	0.0
52	0x00000000	0.0
53	0x00000000	0.0
54	0x00000000	0.0
55	0x00000000	0.0
56	0x00000000	0.0
57	0x00000000	0.0
58	0x00000000	0.0
59	0x00000000	0.0
60	0x00000000	0.0
61	0x00000000	0.0
62	0x00000000	0.0
63	0x00000000	0.0
64	0x00000000	0.0
65	0x00000000	0.0
66	0x00000000	0.0
67	0x00000000	0.0
68	0x00000000	0.0
69	0x00000000	0.0
70	0x00000000	0.0
71	0x00000000	0.0
72	0x00000000	0.0
73	0x00000000	0.0
74	0x00000000	0.0
75	0x00000000	0.0
76	0x00000000	0.0
77	0x00000000	0.0
78	0x00000000	0.0
79	0x00000000	0.0
80	0x00000000	0.0
81	0x00000000	0.0
82	0x00000000	0.0
83	0x00000000	0.0
84	0x00000000	0.0
85	0x00000000	0.0
86	0x00000000	0.0
87	0x00000000	0.0
88	0x00000000	0.0
89	0x00000000	0.0
90	0x00000000	0.0
91	0x00000000	0.0
92	0x00000000	0.0
93	0x00000000	0.0
94	0x00000000	0.0
95	0x00000000	0.0
96	0x00000000	0.0
97	0x00000000	0.0
98	0x00000000	0.0
99	0x00000000	0.0
100	0x00000000	0.0
101	0x00000000	0.0
102	0x00000000	0.0
103	0x00000000	0.0
104	0x00000000	0.0
105	0x00000000	0.0
106	0x00000000	0.0
107	0x00000000	0.0
108	0x00000000	0.0
109	0x00000000	0.0
110	0x00000000	0.0
111	0x00000000	0.0
112	0x00000000	0.0
113	0x00000000	0.0
114	0x00000000	0.0
115	0x00000000	0.0
116	0x00000000	0.0
117	0x00000000	0.0
118	0x00000000	0.0
119	0x00000000	0.0
120	0x00000000	0.0
121	0x00000000	0.0
122	0x00000000	0.0
123	0x00000000	0.0
124	0x00000000	0.0
125	0x00000000	0.0
126	0x00000000	0.0
127	0x00000000	0.0

network_body._body_endoder.seq_layers.2.weight f4 [128, 128]
0	0x3e2b4740	0.16726398
1	0xbdbd5d9c	-0.0924637
2	0xbcb79dfd	-0.022414202
3	0xbeaf593f	-0.34247777
4	0x3be0ff45	0.006866368
5	0x3db6f5c9	0.089335985
6	0x3db0c142	0.08630611
7	0x3e0e727e	0.13910863
8	0xbe3b1386	-0.18269166
9	0xbdf04bf2	-0.117332354
10	0xbe0514ec	-0.12996262
11	0x3d372854	0.044716194
12	0x3df93042	0.121674076
13	0xbd8c966c	-0.06864628
14	0x3d1abc32	0.037777133
15	0x3d4f5293	0.05061586
16	0x3cd48bd9	0.02594559
17	0xbce9c4de	-0.028536256
18	0xbc8e7800	-0.017391205
19	0xbcef41a8	-0.029206112
20	0x3cbbf92f	0.022945968
21	0xbddb8109	-0.10717971
22	0x3cbc8d5f	0.02301663
23	0xbb93631c	-0.0044978987
24	0x3db18c52	0.08669342
25	0xbcea1652	-0.028575096
26	0x3d1a1259	0.037615154
27	0xbb90fa3b	-0.004424361
28	0x3d507ae2	0.05089844
29	0xbc0c2b04	-0.008555178
30	0xbca63e49	-0.020293372
31	0xbe09e7eb	-0.13467376
32	0xbdb51267	-0.088414006
33	0xbc822930	-0.01588878
34	0xbd07cafe	-0.033152573
35	0xbceaca95	-0.028661052
36	0x3e004ab1	0.12528493
37	0x3d0dc28e	0.03460937
38	0xbd97bd1e	-0.07409118
39	0x3cf6ba95	0.030118266
40	0x3d2fecad	0.04295032
41	0x3cad6a29	0.021168785
42	0x3bbf1ab5	0.005832041
43	0x3e1cae56	0.15300879
44	0x3baf4b9a	0.0053495886
45	0xbdbe7596	-0.092997715
46	0xbc92cc6d	-0.017919743
47	0x3b4111f1	0.0029460157
48	0x3b472d23	0.0030391894
49	0x3cdbf0e2	0.02684826
50	0xbe4c16ed	-0.1993062
51	0xbd92074f	-0.071303
52	0x3bf806ee	0.0075691855
53	0xbde5b21c	-0.11215612
54	0xbddb9bc0	-0.10723066
55	0x3d5d1473	0.05397458
56	0xbde3929d	-0.11111949
57	0xbc90dcc7	-0.0176834
58	0x3d645a6c	0.055750296
59	0xbd1ff423	-0.039051186
60	0x3e004ce7	0.12529336
61	0xbda6b4c6	-0.081399485
62	0x3c1e28ff	0.009653329
63	0xbb47b02a	-0.0030469992
64	0xbd75b99c	-0.059991464
65	0xbda796bb	-0.081830464
66	0x3d146064	0.036224738
67	0xbe040d33	-0.1289566
68	0xbd80c18e	-0.062869176
69	0xbba38ed2	-0.0049913907
70	0xbc1d5c58	-0.009604536
71	0x3d343ed5	0.044005234
72	0xbd317d66	-0.04333248
73	0x3cf45fa4	0.029830761
74	0x3d599af4	0.05312629
75	0x3de809bf	0.11329984
76	0x3dbdcd06	0.09267621
77	0x3df57885	0.11985878
78	0xbe38f998	-0.18063962
79	0xbc9b72dc	-0.018975668
80	0x3e0998a4	0.13437134
81	0x3e0b0265	0.13575132
82	0xbd572987	-0.052529838
83	0xbdcf836f	-0.10132491
84	0x3c9b9c8a	0.018995542
85	0x3ce9fa21	0.028561654
86	0xbdcc2305	-0.09967617
87	0x3e49af6c	0.19695824
88	0x3e31f411	0.1737826
89	0x3d556c84	0.05210544
90	0x3d97cb36	0.07411806
91	0x3da1f97d	0.07908914
92	0x3ac14485	0.0014745152
93	0xbe0c087d	-0.13675113
94	0x3d20485e	0.039131515
95	0xbbe64262	-0.0070269564
96	0xbd8ac961	-0.06776691
97	0xbd105896	-0.035240732
98	0xbbb746d2	-0.0055931592
99	0x3dcae439	0.09906811
100	0x3e131f6a	0.14367452
101	0x3d8db301	0.06918908
102	0xbd4a8e2e	-0.049452
103	0xbc4e7fc6	-0.012603706
104	0xbb1206b0	-0.0022281818
105	0xba8d4673	-0.0010778442
106	0x3de1cf2f	0.11025845
107	0x3e0f337d	0.13984485
108	0x3e4199a9	0.18906273
109	0x3d76b84a	0.060234345
110	0x3d133baf	0.03594559
111	0xbd256c1c	-0.040386304
112	0xbd61dc00	-0.05514145
113	0xbdf5d31b	-0.12003156
114	0x3c48348c	0.012219559
115	0xbd0f304d	-0.034958173
116	0x3cbd9bb5	0.023145536
117	0x3d304193	0.043031286
118	0x3c3a40e8	0.011368014
119	0xbdca57cb	-0.098800264
120	0xbd0c169f	-0.03420126
121	0x3c355f1b	0.011070038
122	0xbddf8d82	-0.10915662
123	0x3cad1a58	0.021130726
124	0xbd2b701d	-0.041854966
125	0x3cc83dfb	0.024443617
126	0x3d4c2cb2	0.049847312
127	0x3d2b3a3e	0.04180359
128	0xbd735c81	-0.05941439
129	0x3c7cb764	0.015424583
130	0xbe02992f	-0.12753747
131	0x3e10d770	0.14144683
132	0xbe0b0f79	-0.13580121
133	0xbe0088c4	-0.12552172
134	0xbc3315fa	-0.010930533
135	0xbe01137a	-0.12605086
136	0xbc3c084f	-0.01147659
137	0x3c19fb08	0.009398229
138	0x3d35afdd	0.04435717
139	0x3e447d32	0.19188383
140	0xbd00870a	-0.031378783
141	0x3d38ac9e	0.045086496
142	0xbd31af91	-0.043380324
143	0xbd9db420	-0.07700372
144	0x3e1c6168	0.15271533
145	0xbdb7254b	-0.0894266
146	0xbdc65282	-0.09683706
147	0xbc81e067	-0.015854074
148	0x3cccd6ed	0.025004828
149	0x3d4811ea	0.04884521
150	0xbcdd74c3	-0.027033215
151	0x3d5887f6	0.052864037
152	0x3d881ff8	0.066467226
153	0xbe36b30b	-0.17841737
154	0xbd9f202e	-0.0776981
155	0x3e27d386	0.16389284
156	0x3cbf2e75	0.023337582
157	0xbd9e0b71	-0.07717026
158	0xbd653ed4	-0.05596812
159	0xbdeb77fe	-0.11497496
160	0x3d0c4a63	0.03425063
161	0x3d9ed014	0.077545315
162	0xbcced014	-0.025245704
163	0xbc16420b	-0.009171019
164	0xbdb3ae5d	-0.087734915
165	0xbdae2902	-0.08503915
166	0x3b23928c	0.0024959175
167	0xbc9c803d	-0.019104118
168	0x3dc3ec99	0.09566612
169	0x3de8c505	0.113657035
170	0xbd43a0d5	-0.047760803
171	0xbdb9c6ea	-0.09071143
172	0xbd444199	-0.04791412
173	0x3d855b1a	0.06511517
174	0x3dee5dbc	0.11638972
175	0x3dd12592	0.10212244
176	0x3d50ca7d	0.050974358
177	0xbc034559	-0.008012139
178	0xbd6f1c65	-0.05837669
179	0x3da20dd8	0.07912797
180	0xbcdd9682	-0.027049307
181	0xbde6e3c2	-0.1127391
182	0x3df95513	0.1217443
183	0x3d6bf134	0.057603076
184	0xbca04475	-0.019563893
185	0xbd9106ab	-0.0708135
186	0xbd4211b7	-0.047380175
187	0x3da9c19b	0.082888804
188	0xbe5aa03e	-0.2135019
189	0x3b6ae230	0.0035840385
190	0xbd6aeb4f	-0.057353314
191	0xbc43de74	-0.011954892
192	0x3bc19c36	0.0059085144
193	0x3dae8d2a	0.08523019
194	0x3dc90716	0.09815805
195	0xbdeea9b1	-0.1165346
196	0x3da45133	0.080233
197	0xbcfee1ca	-0.031113524
198	0xbd07b2db	-0.033129554
199	0xbc5d8bf5	-0.013522138
200	0xbd94899e	-0.07252811
201	0xbdb4efa1	-0.08834768
202	0xbc819a4e	-0.015820649
203	0x3d89b245	0.06723455
204	0x3b337f96	0.002738928
205	0x3d9803b8	0.07422584
206	0xbc144bd2	-0.00905128
207	0xbd9403b8	-0.07227272
208	0x3d46b878	0.048515767
209	0xbdba0ced	-0.09084497
210	0xbd9366a2	-0.0719731
211	0x3dd8f86e	0.10594259
212	0xbdaa3df6	-0.08312599
213	0xbdc51e3d	-0.09624908
214	0x3c6d5a97	0.01448693
215	0x3e06f2e4	0.13178593
216	0xbe52e16b	-0.20593803
217	0x3d127d8f	0.035764273
218	0xbdbd17e6	-0.09233074
219	0xbd14d3b7	-0.03633472
220	0x3d209a3f	0.0392096
221	0x3e0422c4	0.12903887
222	0x3df1a509	0.11799056
223	0x3bb8cdf2	0.005639785
224	0x3deffe2d	0.11718402
225	0xbd76a312	-0.06021411
226	0x3c895e78	0.016768679
227	0x3bcf97a0	0.006335214
228	0xbd0196d4	-0.03163798
229	0x3d49c1f1	0.049257223
230	0x3ce2bf7d	0.0276792
231	0xbd5a6ee9	-0.05332843
232	0xbdb77263	-0.089573644
233	0xbd96f50b	-0.07370957
234	0xbe0f0284	-0.13965803
235	0x3ddd58a9	0.10807926
236	0x3d6a31a5	0.05717625
237	0xbe0c119c	-0.13678592
238	0x3ca849ba	0.020542968
239	0x3e88a781	0.26690295
240	0xbddcfd4c	-0.107905
241	0xbdbd01c6	-0.09228854
242	0xbdda1ae0	-0.10649657
243	0x3e1d7ff2	0.15380839
244	0xbcb6efb0	-0.022331089
245	0xbdc9b922	-0.098497644
246	0x3dc4e7a0	0.096144915
247	0xbcb44582	-0.0220058
248	0x3da825fb	0.08210369
249	0xbe068334	-0.13135988
250	0x3dad6d95	0.08468167
251	0x3c9e78a0	0.019344628
252	0x3dcf184d	0.10112057
253	0x3d1dc22f	0.038515266
254	0xbc91765a	-0.01775663
255	0xbc7c1bcb	-0.015387486

network_body._body_endoder.seq_layers.2.bias f4 [128]
0	0x00000000	0.0
1	0x00000000	0.0
2	0x00000000	0.0
3	0x00000000	0.0
4	0x00000000	0.0
5	0x00000000	0.0
6	0x00000000	0.0
7	0x00000000	0.0
8	0x00000000	0.0
9	0x00000000	0.0
10	0x00000000	0.0
11	0x00000000	0.0
12	0x00000000	0.0
13	0x00000000	0.0
14	0x00000000	0.0
15	0x00000000	0.0
16	0x00000000	0.0
17	0x00000000	0.0
18	0x00000000	0.0
19	0x00000000	0.0
20	0x00000000	0.0
21	0x00000000	0.0
22	0x00000000	0.0
23	0x00000000	0.0
24	0x00000000	0.0
25	0x00000000	0.0
26	0x00000000	0.0
27	0x00000000	0.0
28	0x00000000	0.0
29	0x00000000	0.0
30	0x00000000	0.0
31	0x00000000	0.0
32	0x00000000	0.0
33	0x00000000	0.0
34	0x00000000	0.0
35	0x00000000	0.0
36	0x00000000	0.0
37	0x00000000	0.0
38	0x00000000	0.0
39	0x00000000	0.0
40	0x00000000	0.0
41	0x00000000	0.0
42	0x00000000	0.0
43	0x00000000	0.0
44	0x00000000	0.0
45	0x00000000	0.0
46	0x00000000	0.0
47	0x00000000	0.0
48	0x00000000	0.0
49	0x00000000	0.0
50	0x00000000	0.0
51	0x00000000	0.0
52	0x00000000	0.0
53	0x00000000	0.0
54	0x00000000	0.0
55	0x00000000	0.0
56	0x00000000	0.0
57	0x00000000	0.0
58	0x00000000	0.0
59	0x00000000	0.0
60	0x00000000	0.0
61	0x00000000	0.0
62	0x00000000	0.0
63	0x00000000	0.0
64	0x00000000	0.0
65	0x00000000	0.0
66	0x00000000	0.0
67	0x00000000	0.0
68	0x00000000	0.0
69	0x00000000	0.0
70	0x00000000	0.0
71	0x00000000	0.0
72	0x00000000	0.0
73	0x00000000	0.0
74	0x00000000	0.0
75	0x00000000	0.0
76	0x00000000	0.0
77	0x00000000	0.0
78	0x00000000	0.0
79	0x00000000	0.0
80	0x00000000	0.0
81	0x00000000	0.0
82	0x00000000	0.0
83	0x00000000	0.0
84	0x00000000	0.0
85	0x00000000	0.0
86	0x00000000	0.0
87	0x00000000	0.0
88	0x00000000	0.0
89	0x00000000	0.0
90	0x00000000	0.0
91	0x00000000	0.0
92	0x00000000	0.0
93	0x00000000	0.0
94	0x00000000	0.0
95	0x00000000	0.0
96	0x00000000	0.0
97	0x00000000	0.0
98	0x00000000	0.0
99	0x00000000	0.0
100	0x00000000	0.0
101	0x00000000	0.0
102	0x00000000	0.0
103	0x00000000	0.0
104	0x00000000	0.0
105	0x00000000	0.0
106	0x00000000	0.0
107	0x00000000	0.0
108	0x00000000	0.0
109	0x00000000	0.0
110	0x00000000	0.0
111	0x00000000	0.0
112	0x00000000	0.0
113	0x00000000	0.0
114	0x00000000	0.0
115	0x00000000	0.0
116	0x00000000	0.0
117	0x00000000	0.0
118	0x00000000	0.0
119	0x00000000	0.0
120	0x00000000	0.0
121	0x00000000	0.0
122	0x00000000	0.0
123	0x00000000	0.0
124	0x00000000	0.0
125	0x00000000	0.0
126	0x00000000	0.0
127	0x00000000	0.0

action_model._continuous_distribution.log_sigma f4 [1, 2]
0	0x00000000	0.0
1	0x00000000	0.0

action_model._continuous_distribution.mu.weight f4 [2, 128]
0	0x3c242942	0.010019602
1	0x3c04311f	0.008068352
2	0xbc77b3a0	-0.0151185095
3	0xbc033fba	-0.008010799
4	0x3bba6473	0.005688244
5	0x3bd73ccf	0.0065685282
6	0xbb856e27	-0.004071969
7	0x3a955781	0.0011393876
8	0x3c8d1720	0.01722294
9	0x3b49fc39	0.0030820502
10	0x3c63c7ef	0.013902648
11	0x3ccab5db	0.024744919
12	0x3a5f1b4a	0.0008510841
13	0x3cbc4883	0.022983795
14	0x3c954d45	0.018225322
15	0x3be3a388	0.0069469847
16	0x3c16d91f	0.009207039
17	0x3cf59418	0.029977843
18	0x3b356bb3	0.0027682602
19	0x3c84956e	0.016184535
20	0xbc463fbf	-0.012100159
21	0xbbf2c70a	-0.007408981
22	0xbb20387f	-0.0024447737
23	0xbb5c365d	-0.003360174
24	0xba89f47f	-0.0010525136
25	0xbc8fe886	-0.01756693
26	0xbc25f204	-0.010128502
27	0xbc8fb718	-0.01754336
28	0xbcb7049f	-0.02234107
29	0x3ce41f35	0.027846912
30	0xbc0422e6	-0.008064961
31	0x3c70ec3d	0.014704761
32	0x3c708945	0.014681165
33	0x3c8780ab	0.016540846
34	0xbb9515cd	-0.004549718
35	0xbbb54667	-0.0055320743
36	0xbbb4de51	-0.0055196662
37	0x3c11243f	0.008858739
38	0xbcc5d079	-0.02414726
39	0x3b667978	0.0035167616
40	0xbbdf4c98	-0.0068145506
41	0x3bfe388d	0.007758206
42	0xbc82878d	-0.015933776
43	0x3bdbc322	0.0067066113
44	0x3b6eaa5b	0.0036417458
45	0x3cc7ed48	0.024405137
46	0xbc9dd9a1	-0.019268813
47	0xbc276260	-0.0102163255
48	0xbcfd651a	-0.030931998
49	0x3c1c6337	0.009545139
50	0x3c97386e	0.018459525
51	0x3d7dd4e3	0.061970603
52	0xbca9d68c	-0.020732187
53	0x3bc6c3cc	0.0060658213
54	0x3cc9fc60	0.024656475
55	0xbc4584d7	-0.012055597
56	0x3d4949bf	0.049142595
57	0xbca4eb30	-0.020131677
58	0x3a49b8ad	0.00076950603
59	0xbc5d5917	-0.01351001
60	0x3bdb72b7	0.0066970247
61	0x3c1e7049	0.009670326
62	0x3c87aa92	0.016560826
63	0x3c5a7518	0.013333581
64	0xbbeb8e05	-0.007188561
65	0xbcc6a00b	-0.024246236
66	0xbcbfd4ef	-0.023416964
67	0x3c10df7f	0.008842348
68	0x3b8c07ff	0.004273414
69	0xbbc1b939	-0.005911973
70	0x3cb40ef7	0.021979792
71	0x3c060eca	0.008182237
72	0x3d12b3e8	0.035816103
73	0x3c8102ee	0.015748467
74	0xbc43249e	-0.011910586
75	0x3c09e48f	0.008416309
76	0x3a1de7f5	0.0006023639
77	0x3ae92273	0.0017786756
78	0x3bf28ecf	0.007402278
79	0x3c17b863	0.00926027
80	0xbc981a83	-0.01856733
81	0xbbf6c0fd	-0.00753033
82	0xbcaa74bf	-0.020807622
83	0xbcd6633f	-0.026170371
84	0x3c21c47f	0.0098735085
85	0xbc2ea06f	-0.010658368
86	0xbc26a5ef	-0.010171398
87	0xba2d3237	-0.0006606909
88	0xbc9cbf00	-0.019134045
89	0x3c75abed	0.014994604
90	0xbc1168e3	-0.008875105
91	0xbc47c682	-0.012193324
92	0x3c52eedf	0.012874334
93	0x3cb54abb	0.02213036
94	0x3cc832a3	0.024438208
95	0x3d178b96	0.036998354
96	0xbcab3bdb	-0.020902565
97	0xbc0e98ec	-0.008703452
98	0xbc490fcb	-0.012271832
99	0xbbd20662	-0.0064094523
100	0xbc2f4c02	-0.010699274
101	0xbc803ebc	-0.015654914
102	0x3c9539cb	0.018216034
103	0x3b92004b	0.0044556013
104	0x3b8eb239	0.004354742
105	0xbc3eaf5f	-0.011638491
106	0xbc10761a	-0.00881722
107	0x3bebddb5	0.0071980604
108	0x3c7a6fc5	0.015285437
109	0x3b03b5e4	0.002009743
110	0xbc158413	-0.009125727
111	0x3bcfcb73	0.0063413917
112	0x3aea31f7	0.0017867674
113	0xbd1955d3	-0.037435364
114	0x3ca183ab	0.019716104
115	0x3b8c6d02	0.0042854557
116	0x3bf66ae8	0.0075200684
117	0xbcc4e308	-0.024034038
118	0xbb702490	-0.0036642887
119	0xbb6c2e68	-0.0036038402
120	0xbc35a1f4	-0.011085976
121	0x3bf5f40a	0.0075058984
122	0x3c6c6093	0.014427322
123	0x3c4ac4f3	0.012376058
124	0x3cd847a0	0.026401341
125	0xbc809d69	-0.015700059
126	0xbca44c93	-0.020056045
127	0x3a39d91b	0.0007089541
128	0x3bb8a2d8	0.005634647
129	0xbd0b2a43	-0.03397585
130	0xbc115edb	-0.008872713
131	0xbc58a1db	-0.013222183
132	0xba13aeb1	-0.0005633636
133	0xbce38db7	-0.027777536
134	0xbacc408b	-0.00155832
135	0xbbb3edf3	-0.0054910122
136	0xbc3a5073	-0.01137172
137	0x3ba8eb61	0.0051550125
138	0xbc3ca6a6	-0.011514341
139	0x3d0c5f6e	0.034270696
140	0xbd0a0937	-0.033700194
141	0x3cc848c7	0.024448765
142	0x3bf7355f	0.007544204
143	0xbc9668eb	-0.018360576
144	0xbc997364	-0.01873178
145	0xbc0d5ed3	-0.008628565
146	0xbd814daa	-0.06313641
147	0x3cbf23e7	0.02333255
148	0xbd27a68e	-0.040930323
149	0xbcaf4903	-0.02139712
150	0x3c4b0433	0.012391138
151	0x3c434c1c	0.011920001
152	0xbc373e1e	-0.0111842435
153	0x3d363a11	0.04448897
154	0xbc12bb95	-0.008955856
155	0xbc614bf5	-0.01375102
156	0x3a8d531b	0.0010782214
157	0x3c21d8b3	0.009878325
158	0x3c9d80cf	0.01922646
159	0x3c0fca81	0.008776308
160	0x3c443e05	0.011977677
161	0x3cb289bc	0.021794192
162	0xbc9c8bfb	-0.019109717
163	0xbbddf9ea	-0.006774177
164	0x3c8e346f	0.017358987
165	0x3c7d4080	0.0154572725
166	0x3bacdc0b	0.0052752546
167	0xbc8cc0e1	-0.017181816
168	0x3cea8fe8	0.028633073
169	0xbb182598	-0.0023215767
170	0x3bd24dd3	0.006417969
171	0xbc8ff413	-0.017572438
172	0xbb5ff52a	-0.0034173229
173	0x3d1aa834	0.037758067
174	0x3c45c612	0.012071149
175	0xbc35969f	-0.011083274
176	0x3c91b798	0.01778774
177	0x3cabc306	0.020967018
178	0xbb139db7	-0.0022524425
179	0x3cf37a4f	0.029721407
180	0xbc5a4b60	-0.013323635
181	0x3af40873	0.0018618241
182	0x3a58decd	0.0008272946
183	0x3cc69e9b	0.02424555
184	0xbb50f9f5	-0.0031887267
185	0x3c8029a3	0.015644854
186	0xbcf64dc5	-0.03006638
187	0xbc37d566	-0.011220312
188	0xbcbd4e70	-0.023108691
189	0x3d1d25be	0.038366072
190	0x3c4f0beb	0.012637119
191	0x3c7d5cf0	0.015464053
192	0x3cc050c7	0.023476018
193	0xbc70e29d	-0.014702466
194	0xbcca2f1b	-0.024680665
195	0x3c56ce13	0.013110655
196	0xbc27176b	-0.010198454
197	0xbc564c1f	-0.013079672
198	0x3b9e4b6f	0.0048307697
199	0x3c72790d	0.014799369
200	0xbbcbf526	-0.0062242923
201	0x3ccca33c	0.02498018
202	0x3c86ae28	0.016440466
203	0x3b81ac1a	0.0039572837
204	0xbc5baa60	-0.01340732
205	0xbb7dd358	-0.0038730707
206	0x3c6eb2f7	0.014569036
207	0xbba513f1	-0.0050377776
208	0x3b53e7e5	0.0032334265
209	0xbc31afc0	-0.010845125
210	0xbd29f32b	-0.04149167
211	0xbb38fa4d	-0.0028225363
212	0xbcc4fe18	-0.024046943
213	0x3c35aa6a	0.011087993
214	0x3bf6a013	0.0075264066
215	0xbc10eadc	-0.008845057
216	0xbbf8c15b	-0.007591409
217	0xbd59d0c7	-0.05317762
218	0x3cab26fb	0.02089261
219	0xbc42fb8f	-0.011900797
220	0x3d17e5b2	0.03708429
221	0x3c3cbdad	0.011519832
222	0xbb392db8	-0.002825601
223	0x3aadb667	0.0013253213
224	0xbcadecf1	-0.021231147
225	0x3afbaac0	0.0019200668
226	0xbc9c2992	-0.019062791
227	0x3af201cb	0.0018463669
228	0x3a492e6f	0.00076744606
229	0x39d717c8	0.00041025714
230	0x3c2b7cbe	0.010466753
231	0xbcbcd7a7	-0.02305205
232	0x3bc27e63	0.0059354766
233	0x3a9a7455	0.0011783937
234	0xbbebbaeb	-0.007193913
235	0xbbcc8a17	-0.0062420475
236	0x3d0c62dc	0.034273967
237	0x3cb0e922	0.021595541
238	0x3bde53f7	0.0067849117
239	0x3bcd75bd	0.006270139
240	0x3cab9d0a	0.020948905
241	0xbd03f5de	-0.0322169
242	0xbc68ff1b	-0.014220978
243	0xbb6bd1c0	-0.0035983175
244	0xbc1adf38	-0.009452634
245	0xbbd01658	-0.00635032
246	0x3ce7c75a	0.0282933
247	0xbc8b19d1	-0.016980084
248	0x3b0884c3	0.0020831085
249	0xbcd006b8	-0.025393829
250	0xbcc8a774	-0.02449391
251	0x3c531945	0.012884443
252	0xbc86faca	-0.016477007
253	0xbc809e2c	-0.015700422
254	0xbc976b57	-0.0184838
255	0x3c9687e2	0.01837534

action_model._continuous_distribution.mu.bias f4 [2]
0	0x00000000	0.0
1	0x00000000	0.0

onnx::Div_51 f4 [8]
0	0x3f800000	1.0
1	0x3f800000	1.0
2	0x3f800000	1.0
3	0x3f800000	1.0
4	0x3f800000	1.0
5	0x3f800000	1.0
6	0x3f800000	1.0
7	0x3f800000	1.0
