Basic_Path_Finding/Assets/results/PlayerMaze1/PlayerMaze/PlayerMaze-23726.pt (torch, 447305 bytes, 44 tensors)

network_body.observation_encoder.processors.0.normalizer.running_mean f4 [8]
000000 e6 90 8f 40 e9 ae e2 3e 4c f0 ca be 80 fd 9f c1
       4.486438 0.4427407 -0.39636457 -19.99878
000010 ca fc ff 3e 9e f0 9b b1 1b 63 d0 3f 86 44 33 3e
       0.4999755 -4.5384487e-09 1.6280245 0.17506608

network_body.observation_encoder.processors.0.normalizer.running_variance f4 [8]
000000 94 02 d3 46 32 5a bf 43 25 ef 02 48 07 7f c8 43
       27009.29 382.70465 134076.58 400.9924
000010 ed fe 9f 3f 00 00 80 3f 74 a6 4a 46 49 95 67 46
       1.2499672 1.0 12969.613 14821.321

network_body.processors.0.normalizer.running_mean f4 [8]
000000 e6 90 8f 40 e9 ae e2 3e 4c f0 ca be 80 fd 9f c1
       4.486438 0.4427407 -0.39636457 -19.99878
000010 ca fc ff 3e 9e f0 9b b1 1b 63 d0 3f 86 44 33 3e
       0.4999755 -4.5384487e-09 1.6280245 0.17506608

network_body.processors.0.normalizer.running_variance f4 [8]
000000 94 02 d3 46 32 5a bf 43 25 ef 02 48 07 7f c8 43
       27009.29 382.70465 134076.58 400.9924
000010 ed fe 9f 3f 00 00 80 3f 74 a6 4a 46 49 95 67 46
       1.2499672 1.0 12969.613 14821.321

network_body._body_endoder.seq_layers.0.weight f4 [128, 8]
000000 ca 59 19 3e c4 1c be 3d 50 28 b7 3d a3 8e f2 bc
       0.14975658 0.0928283 0.08943236 -0.02960903
000010 14 ea ee bd bc 2d d6 3d 40 92 b7 3e 85 80 a7 bd
       -0.116657406 0.10457942 0.35853767 -0.0817881
000020 a1 50 42 bf f6 b8 44 3d 11 ef f0 bd f8 a1 51 bd
       -0.7590428 0.048027955 -0.11764348 -0.051179856
000030 f7 3d 6b be 75 06 ae be 90 68 0f 3f 54 b7 2b bd
       -0.22972856 -0.339893 0.56018925 -0.041922882
000040 70 1f 93 be eb 46 f1 be 80 22 58 3f 86 9c 07 3e
       -0.28734922 -0.4712442 0.8442764 0.13243303
000050 6c 20 9e 3e aa a7 30 be 00 17 16 bf 4f 37 9e 3c
       0.3088411 -0.17251459 -0.58628845 0.019313483
000060 d5 1f 5e 3d cf 3f a8 3d 29 94 34 3e 67 5d af 3d
       0.054229576 0.082152955 0.17634644 0.08562737
000070 f4 3a c4 be 04 9a e8 3c a9 cd 39 3e 16 bb af 3e
       -0.38326228 0.028393753 0.1814486 0.34322423
000080 c3 88 c4 bd 4d 01 de be b6 1b 8a be fc a9 a0 be
       -0.09596398 -0.43360367 -0.26974267 -0.31379688
000090 1d 40 3c 3f e2 51 73 3d 5a 31 7f be 2c 6f 3a 3f
       0.7353533 0.05940426 -0.2492117 0.72825885
0000a0 b4 2c 2b 3e 34 6d 7b be 0d 90 e4 3e 3b c3 2c 3d
       0.16716272 -0.24553376 0.44641152 0.042178374
0000b0 e0 51 cd 3e d6 94 fb bc 40 00 1d 3f 4c 03 61 3d
       0.40101528 -0.030710619 0.61328506 0.054934785
0000c0 54 07 2c bf 3c 59 0e be 1c 76 16 3e 48 af ae 3e
       -0.6719868 -0.13901228 0.14693493 0.34118104
0000d0 6a 76 39 3c 3c 8c 48 3e fb 14 45 3d d0 47 5c bd
       0.011319736 0.19584745 0.04811571 -0.053779423
0000e0 95 5c 46 be ad af 88 3e 0d 95 37 3d 31 52 ac 3e
       -0.19371255 0.2669653 0.04481988 0.33656457
0000f0 ea a6 aa 3b 3a 11 9d 3e d1 70 88 be 64 7c 1a be
       0.005207886 0.30677205 -0.26648572 -0.15086514
000100 de 07 da 3e 16 63 13 3d ed 9f b1 bb 28 9d 4d bf
       0.42584127 0.035983168 -0.005420676 -0.80317926
000110 fb a8 d8 bd ba 49 be be 1d f5 6a 3e e8 85 54 bd
       -0.105791055 -0.37165624 0.22945066 -0.051885515
000120 8d d2 84 3d 63 93 8b 3e 03 70 15 be 73 22 5a 3e
       0.06485472 0.27260885 -0.1459351 0.21302204
000130 09 f8 7c be 22 8b 03 38 48 92 3d bf c8 1c e9 3d
       -0.24703993 3.136241e-05 -0.7405133 0.11382443
000140 d5 a4 93 3e 2d 2c cc 3e 50 da 07 bf 01 9d b2 3e
       0.28836694 0.39877453 -0.53067493 0.3488541
000150 3f f2 18 be 7c f9 d6 bd 45 62 51 bf 83 ab b2 3d
       -0.1493616 -0.10496804 -0.8179057 0.087241195
000160 87 a8 0b be c2 42 98 bd 2a 0b b1 3e 6d 48 df 3e
       -0.13638507 -0.07434608 0.3457883 0.43609944
000170 8a ce d5 3d 54 dc d2 bd 61 8a 6d bd b9 7c 53 be
       0.10439785 -0.102959305 -0.057993297 -0.20653047
000180 e6 18 b1 be 18 35 96 be 55 28 05 be 7a cb 9e 3d
       -0.34589309 -0.29337382 -0.13003667 0.07753654
000190 1f 78 1c 3e af f6 12 be 8a 1f 78 be f1 be 41 be
       0.15280198 -0.14351915 -0.24230781 -0.18920495
0001a0 5e 45 91 3c cd c5 97 3e 08 83 0a be 6b 8b e8 3e
       0.017733272 0.29643098 -0.13526547 0.45418867
0001b0 2a a5 18 3d 15 67 c6 bd fd d2 f1 be 69 f5 f2 bc
       0.037266888 -0.0968763 -0.47231284 -0.029658036
0001c0 32 99 62 3f be d0 11 3e fc a9 27 bd bf bf 8a 3d
       0.8851501 0.14239785 -0.040933594 0.06774854
0001d0 3f ab 75 be 20 f4 2b 3e 53 16 8f 3e 8a 95 ac bd
       -0.23991106 0.16792345 0.2794672 -0.0842696
0001e0 f2 b6 06 be fb 26 ef bd 17 07 95 3e 69 e5 f2 3c
       -0.13155726 -0.11677357 0.29106972 0.029650407
0001f0 fd f7 97 be 8e b3 14 bd 38 e1 bb be fb 31 0f bf
       -0.29681388 -0.03630405 -0.36695266 -0.5593564
000200 52 a4 2e 3e 90 c7 88 be e5 30 33 bf 2c db 25 3f
       0.1705487 -0.26714754 -0.6999648 0.64787555
000210 b9 72 98 be 94 40 27 be 32 2d 03 bd 2e 51 40 3e
       -0.29775026 -0.16333228 -0.032025523 0.18780968
000220 01 4e b4 be df 11 bd bc e4 52 c5 3e ee 17 18 3f
       -0.35215762 -0.02307981 0.38539803 0.59411514
000230 a8 9a 99 3e 3d fa 08 3e 4e 78 61 3d 00 73 8a be
       0.30000806 0.13376708 0.055046372 -0.27040863
000240 a9 7b 38 3f db f5 69 bc a4 e5 d7 3e 65 a2 4d 3e
       0.7206369 -0.014279808 0.4216739 0.2008148
000250 e1 47 24 3d 6c e1 36 be a6 08 e9 3e 42 8d c9 3e
       0.04010761 -0.17859429 0.4551441 0.39365584
000260 b0 20 ea be b1 87 3e 3e 03 d4 5b bd 2c 76 a6 bb
       -0.45728064 0.1860645 -0.053668987 -0.005080005
000270 c0 63 9f bd 02 dc 25 3d 93 15 92 be fe 65 8f be
       -0.07782698 0.04049302 -0.28532085 -0.280075
000280 03 16 86 3d 83 9f 8f 3e ca be 20 3e b4 81 d3 3e
       0.06547167 0.28051385 0.1569778 0.41309893
000290 f4 84 46 bf 94 06 02 bd 6b 4c fe 3e 85 68 a0 be
       -0.7754662 -0.031744555 0.49667677 -0.31329742
0002a0 07 16 1a 3e 30 0f 2b 3f 53 77 eb 3e f3 fe 94 be
       0.15047465 0.6682005 0.45989475 -0.2910076
0002b0 af 5c 0d 3e 71 ef a0 be 5f 64 3a bd 2a f5 93 3e
       0.13804887 -0.3143268 -0.045505878 0.28897983
0002c0 4c f2 0c 3e ae 0b ce be df e1 2c be a6 0f 1f bf
       0.13764304 -0.40243286 -0.16883038 -0.6213325
0002d0 4d 9f e9 be 2b 7b de 3e 1f 5a b9 3e aa 72 37 be
       -0.4562935 0.43453345 0.3620157 -0.17914835
0002e0 8d 40 4b 3f 6c 8b 1c 3e 34 7f d0 3e 9f 56 ec be
       0.7939537 0.1528756 0.40722048 -0.46159837
0002f0 51 53 eb be e9 44 02 be 68 73 cd 3e 8e 46 0d be
       -0.45962003 -0.127216 0.4012711 -0.13796446
000300 cb 52 8e 3e 47 21 d4 be 84 fd bb 3e d6 53 ce 3d
       0.2779754 -0.4143164 0.36716855 0.10074584
000310 70 46 00 3f 51 0d 1a 3f af ad 20 3e 6e f0 e0 3d
       0.5010748 0.6017657 0.15691255 0.10983358
000320 7b c9 38 bf 70 7f c9 bd 04 2f ee bd 34 6e 6c 3e
       -0.72182435 -0.0983876 -0.11630061 0.23088914
000330 19 45 b3 3e 3c 2e 0d 3f 0d c5 00 3f 38 64 79 3e
       0.35013655 0.55148673 0.50300676 0.24354637
000340 ab 59 9e be 5f c0 a5 3d 26 02 e2 be dc 9b e0 3e
       -0.30927786 0.080933325 -0.44142264 0.4386891
000350 cd e1 81 3d b9 da 82 3f c7 17 20 bf a1 3d 8c 3e
       0.06341896 1.0222999 -0.6253628 0.2739077
000360 91 fe d9 3e 5f 7c 96 be 9d 1e 5d be 3d 8d fd bd
       0.4257703 -0.29391763 -0.2159371 -0.12380455
000370 d3 c2 a5 3d e5 f2 1e bf 23 d7 0f 3f e3 0b 26 3f
       0.080938004 -0.6208938 0.5618765 0.6486189
000380 21 86 25 be 55 75 08 3f 09 6f 03 be 73 94 1e 3e
       -0.16164447 0.53304034 -0.12835325 0.15486316
000390 d7 ce 72 be bb ad 17 bf f8 59 0d 3e 7c ab e5 3e
       -0.23711716 -0.59249467 0.13803852 0.44857395
0003a0 c1 ec 20 3e ac 20 ff 3d 07 f8 28 bf 15 99 73 3e
       0.15715314 0.124574035 -0.6600346 0.23788865
0003b0 b0 ec 23 bf c2 53 30 3f 69 6f c7 3e c4 8a 03 3e
       -0.6403303 0.68877804 0.38952187 0.12845904
0003c0 05 3f d8 3d 4e ed 5c 3d 0a a8 12 bd 82 66 63 be
       0.10558895 0.05393725 -0.035804786 -0.22207072
0003d0 39 3a 29 3e 44 42 86 be 65 9d 87 be d2 3a c4 3e
       0.16526116 -0.26222432 -0.2648727 0.38326126
0003e0 6e 44 2f be 9e 00 12 3d e0 b3 ac 3d 27 d8 05 3f
       -0.17115948 0.03564512 0.08432746 0.5228295
0003f0 8d 9e 08 bd cd 0e 8b 3e e2 cf f7 3c 73 52 9a be
       -0.03335433 0.2715973 0.030250493 -0.3014103

network_body._body_endoder.seq_layers.0.bias f4 [128]
000000 64 72 f5 3a 7d dd 98 ba 0d 1e a5 3a f3 8e bb 3b
       0.0018726108 -0.0011662688 0.0012597457 0.005723828
000010 f3 68 ea ba af 9d 98 bc df f6 02 3c d5 29 a9 ba
       -0.001788406 -0.018629877 0.007993429 -0.0012906144
000020 35 57 32 bb ef 01 eb 3b 1f ca 36 bb 68 62 0f bb
       -0.0027212624 0.0071718614 -0.002789147 -0.0021878723
000030 dd c5 58 bb 0a b0 dd ba 44 f9 95 b9 07 57 e4 bb
       -0.003307692 -0.0016913426 -0.00028605212 -0.0069683823
000040 2c 5c 4e b9 18 e6 35 3b 83 fa 04 bc 05 21 3c 3b
       -0.00019680028 0.0027755555 -0.008116367 0.0028706205
000050 62 a0 44 39 0c e4 bc 38 de 43 88 bc e5 24 41 3b
       0.00018751764 9.0070156e-05 -0.016633924 0.0029471454
000060 3d bc 51 bb 13 98 b9 bb 9b 86 0a bb d9 8a 57 bb
       -0.0032003068 -0.0056638806 -0.002113736 -0.0032889156
000070 b2 60 c9 bb f1 1c b2 b9 58 71 85 39 ef 2b 4d bb
       -0.00614556 -0.0003397237 0.00025452184 -0.0031306704
000080 20 8b e9 ba 4a 03 88 bb 16 f2 92 3b 8b a9 8d ba
       -0.0017817952 -0.0041507827 0.0044844253 -0.0010807974
000090 63 d2 99 39 02 7d 12 bc d1 fa a8 39 cd 10 41 ba
       0.00029339184 -0.008940937 0.0003223033 -0.0007364869
0000a0 63 a9 ab ba d0 cc bf bb 9d 7c a8 ba df 05 b2 ba
       -0.0013096746 -0.005853273 -0.001285452 -0.0013582072
0000b0 2a 10 15 bc 7c 8d 95 bb 4f b8 79 bb 92 10 22 bb
       -0.009098092 -0.0045639854 -0.0038104241 -0.0024729115
0000c0 b4 c5 b9 bb 4d 8e 32 bb d4 39 bd bb 5b 42 1b bc
       -0.00566932 -0.0027245462 -0.005774716 -0.00947627
0000d0 45 b7 d8 bb 7e 55 31 bb dd 29 11 3b 22 e1 7e bb
       -0.0066136443 -0.0027059014 0.0022150197 -0.0038891514
0000e0 bd e9 f3 ba 5e 7c 71 bb 4f 61 b0 bb 87 c5 ac 3b
       -0.0018609088 -0.003684781 -0.005382694 0.0052725705
0000f0 1f da 76 ba 55 2a 22 3c 1d 04 f5 ba 41 78 6d bb
       -0.0009416658 0.009897788 -0.0018693242 -0.0036235007
000100 27 46 4e 3a 9c 11 33 bb d8 09 7a bb 89 1c 5f bc
       0.000786873 -0.0027323728 -0.003815284 -0.013617643
000110 44 e6 43 bb 8a 9d 3f 39 f6 f6 32 bc 9d 8a 28 bb
       -0.0029891888 0.00018273867 -0.010923138 -0.0025717386
000120 f7 9e 09 3c 90 a9 1e ba 13 d6 d5 ba 64 df b6 39
       0.008399717 -0.00060524885 -0.001631441 0.00034880184
000130 5a 2c 02 bb 2e 43 1d 3b ee a0 a4 bb df bf a4 bb
       -0.0019862861 0.002399634 -0.005024067 -0.0050277556
000140 58 62 7f bb 99 d4 92 3a 60 10 40 bb 4f 86 2c bb
       -0.003896853 0.0011202275 -0.0029306635 -0.0026325171
000150 c9 18 36 bc 12 fe a7 ba aa cd 3f 3b fc 6d 88 bb
       -0.011114308 -0.0012816808 0.0029266872 -0.004163502
000160 3d d5 7f bb 13 15 c0 3a 43 d7 94 bb 33 4c 0c 3c
       -0.0039037012 0.0014654718 -0.0045422628 0.008563089
000170 00 b7 26 3b 9b 82 fd bb 40 6b f3 ba bc 9e 85 ba
       0.0025438666 -0.0077365167 -0.0018571392 -0.0010194401
000180 ec 73 ef bb 84 b4 16 3a f8 21 30 3a 8c fe f4 ba
       -0.00730752 0.0005748945 0.0006718929 -0.0018691584
000190 91 e0 af 3a 2d d8 5d bb 72 5f d4 ba 6e 7f f9 ba
       0.0013418366 -0.0033850775 -0.0016202761 -0.0019035169
0001a0 e4 3c 10 bc e1 f8 ee ba 70 ea 09 3b 1c 20 10 bc
       -0.00880358 -0.0018232131 0.0021044277 -0.008796718
0001b0 07 fa 9e ba 1c 68 3c bb bc 1d 8e bb 8c b2 7d bc
       -0.0012128957 -0.0028748577 -0.0043370407 -0.015484463
0001c0 20 77 77 bb a8 c7 4c bb b7 7b 91 bb 92 50 2a bb
       -0.0037760213 -0.0031246934 -0.004439797 -0.0025987965
0001d0 69 54 30 3b 5c 68 8d bb bc ca 37 3a 50 4c 74 3a
       0.002690578 -0.004315419 0.0007011106 0.0009319233
0001e0 4f 74 91 b9 2f 57 cf ba 6b d7 65 39 4e 23 c9 3b
       -0.00027743212 -0.0015818829 0.00021919391 0.006138242
0001f0 92 6e 98 bb 2c 44 0b 39 d4 13 81 bb 8e 77 34 bb
       -0.004651853 0.00013281469 -0.0039391313 -0.002753708

network_body._body_endoder.seq_layers.2.weight f4 [128, 128]
000000 0c 2b e8 bb 81 f9 a2 3d 3f 9c 2e be 5a 14 e7 3d
       -0.0070852097 0.07957745 -0.1705179 0.11283179
000010 39 fc 3e 3c 1e cd 01 3e 88 2e 81 bc 0c 9d 0a 3d
       0.011656814 0.12675902 -0.015769258 0.033841178
000020 af 42 5e be e8 52 8b bd 74 55 ba 3d 8a f5 49 bd
       -0.21705125 -0.068029225 0.0909833 -0.04930643
000030 ee 07 81 bc ea c4 2b 3d d0 f3 78 bc a9 8c f9 3d
       -0.015750851 0.04193584 -0.015194848 0.12185032
000040 d2 74 2b bd f0 85 03 be 75 2f 0c be 53 13 92 bc
       -0.041859455 -0.12844062 -0.13689978 -0.01783148
000050 04 77 b3 3d 46 45 68 bd f9 d8 84 bd 19 eb 7c 3c
       0.08762935 -0.05670669 -0.06486697 0.015436911
000060 5d bf c0 3d 77 1f 64 3c 54 b2 42 bd a9 7f d6 3d
       0.094115 0.013923517 -0.04753335 0.10473568
000070 3e 4e 25 bd 52 1e 2e 3e e3 07 97 bd 30 b7 a2 3d
       -0.04035782 0.17003754 -0.07374551 0.079450965
000080 00 a4 81 3d 78 dd 3f 3e 29 b8 0c be bd df 68 be
       0.06330109 0.18736827 -0.13742127 -0.227416
000090 ed 80 ce bc d1 c9 29 bd 08 7d 8b 3e 4e 18 43 3d
       -0.025207961 -0.041452233 0.2724383 0.0476306
0000a0 97 c8 38 3d 0b 7d 0d be e0 58 f6 3c 58 1f aa 3d
       0.045113172 -0.13817231 0.030071676 0.083067596
0000b0 b7 2e c4 bb 8a 29 b0 bc 15 8d 71 3d dd b1 43 bd
       -0.005987014 -0.021504182 0.058972437 -0.047777046
0000c0 93 49 19 bb 15 0d 9c bc 0b 7e 86 bd e2 b7 1a be
       -0.00233898 -0.019049207 -0.065670095 -0.15109208
0000d0 9e cd eb 3c 27 ed 1e 3e d7 f3 d5 bd 21 88 9d bc
       0.02878457 0.15520154 -0.104468994 -0.01922995
0000e0 75 4b 66 3d b9 c6 42 bd e7 e4 eb bd 79 b6 b5 3d
       0.056224305 -0.047552798 -0.11518269 0.088726945
0000f0 98 a8 01 3e a3 ad a4 bd d7 c2 d9 3d 8e fe 3d be
       0.1266197 -0.08040931 0.10632866 -0.18554136
000100 5b a4 63 bd 36 11 19 be 23 c5 94 bd 34 02 e9 3c
       -0.055576663 -0.14947972 -0.07264163 0.028443433
000110 77 23 b1 bd 91 9f 80 3d d6 de d2 bd 0e f8 6a bd
       -0.086493425 0.06280435 -0.10296409 -0.05736547
000120 63 bc bb 3c 56 80 51 3d fd d4 fa bd b7 78 fa 3d
       0.022916978 0.05114778 -0.122476555 0.12230056
000130 81 fc a5 bb 7b 3f 12 3d e6 f8 cc 3d 25 29 a4 3d
       -0.005065501 0.03570507 0.10008411 0.0801566
000140 a4 44 ec bc a3 f5 78 3e d6 24 57 b8 47 93 48 bd
       -0.028841324 0.24312453 -5.12943e-05 -0.04896858
000150 84 5e d2 3a 5c ce 0e 3e af 4b 03 be 0d 3f b0 bd
       0.0016049896 0.13945907 -0.1282184 -0.08605776
000160 d3 44 9f bd 29 d6 a6 bd b5 6f 8f 3c 3e d7 d1 3d
       -0.07776799 -0.081463166 0.01750932 0.10246132
000170 b8 26 de 3c af 54 c6 bd 38 05 af bd 83 98 e2 3c
       0.027118072 -0.09684121 -0.08545917 0.027660614
000180 ec b4 38 3d 65 de b7 3c e6 69 8f 3d 29 63 ce bc
       0.045094416 0.022444913 0.070026204 -0.025193768
000190 5d 01 c6 bc 09 1a 86 3d 5a f5 fa 3d bb e6 f2 3d
       -0.024170572 0.065479346 0.12253828 0.118604146
0001a0 d9 4e 38 3d a0 8f c6 bd 1d 3a c7 bc d2 7e 6b 3b
       0.04499707 -0.09695363 -0.024319703 0.0035933745
0001b0 5b c9 3c bd 8f 29 30 3e a6 d4 9c bd 05 4e d5 3d
       -0.046090465 0.17203353 -0.07657747 0.10415272
0001c0 18 e2 b6 bd 48 08 79 bc de b6 6b 3d 4b 59 89 bd
       -0.08929843 -0.015199728 0.057547443 -0.067064844
0001d0 32 8a cf bc e2 11 a7 3d 59 31 96 3d 84 f3 fb 3d
       -0.025334451 0.08157708 0.07333631 0.12302306
0001e0 7f 55 2f be 07 b4 58 be 39 dc 2f be 30 80 3a 3c
       -0.17122458 -0.21162425 -0.17173852 0.011383101
0001f0 e8 ea ed 3d e2 c8 df 3d c5 3d 0f 3e 19 46 71 bc
       0.116170704 0.10926987 0.13988407 -0.014726185
000200 8d 5a df 3d 4b a5 b1 3d c0 71 e9 3d c3 88 00 bd
       0.10905943 0.08674105 0.11398649 -0.031380426
000210 de b6 05 3d ea 08 f8 3d 94 08 f6 3d de b5 94 3d
       0.0326451 0.12111075 0.12013355 0.07261251
000220 7f df 21 3e e2 59 34 3e b0 77 b4 bd b9 3a 86 3e
       0.15807913 0.17612413 -0.08811891 0.26216677
000230 68 c4 d8 3c 75 05 41 3c 56 9d 66 3c c1 7c 3c bc
       0.026460841 0.011781086 0.014075598 -0.011504353
000240 10 66 df 3c 5a 3f 77 bd e5 fd d0 3c de f7 31 be
       0.027270347 -0.06036315 0.025511691 -0.1737971
000250 8d e3 01 3d 53 eb 3a 3d f4 05 70 bc 46 0f 0e 3d
       0.03171115 0.04563458 -0.014649857 0.034682535
000260 3b 80 21 bc ab 67 82 3c 04 68 cb bd 15 e6 a5 3d
       -0.009857233 0.015918573 -0.09931949 0.08100525
000270 47 bc 61 3d 2e 1b 17 3c cb f9 e9 3d 38 b3 14 3e
       0.055111196 0.009222789 0.11424597 0.14521492
000280 9c c0 e6 bd 2f 48 72 3d bf 10 a3 3d d3 b9 19 be
       -0.11267206 0.05915087 0.079621784 -0.15012293
000290 a0 68 a6 3d 84 82 11 bd a5 46 0d 3e b3 4d 1c 3e
       0.081254244 -0.03552486 0.1379648 0.15264015
0002a0 39 96 29 bd 12 5d 6f bd 38 36 28 be 1c c6 84 3c
       -0.04140303 -0.05843837 -0.16426933 0.016207747
0002b0 dc 40 24 bc 23 0a fa bd 07 1f d0 bd c7 61 7d 3b
       -0.010025229 -0.12208965 -0.10162168 0.0038663016
0002c0 bb e1 f9 3c 55 d5 54 3c 38 ee 0b 3c 1a 9c 7d 3d
       0.030503144 0.012990315 0.0085406825 0.06191645
0002d0 91 0b cf 3b db f1 e1 bd 99 28 e1 bd 4b d3 56 3c
       0.0063185175 -0.110324584 -0.109940715 0.0131119
0002e0 b2 78 e3 3d 55 70 68 3d f2 49 8f bd 00 01 ad ba
       0.11107005 0.056747753 -0.06996526 -0.001319915
0002f0 a2 8a c2 3d f7 e9 ca bd 4d 21 41 be b8 f2 f3 3d
       0.09499098 -0.099079065 -0.1886036 0.11911529
000300 c8 16 f6 bc a8 be 82 bd 46 14 0c 3c b0 22 fb bd
       -0.03004016 -0.06384021 0.008549755 -0.122624755
000310 5a 6c 4e be 3b 89 c9 bd 17 f3 3e bd ee 4c 9c bd
       -0.2015852 -0.09840628 -0.046618547 -0.07631861
000320 fb 5e 0d bd 55 d2 1d be 3d c7 ad 3c f7 ec 28 bd
       -0.03451441 -0.15412267 0.021213168 -0.041241612
000330 90 bb 96 bd 66 0d 31 bd 64 67 a7 3d 0f 33 c1 3d
       -0.073599935 -0.04322567 0.08174017 0.09433567
000340 5e 57 bc bb 53 53 35 3d fe e4 24 3e 17 54 56 bd
       -0.0057477197 0.044268917 0.16102979 -0.052326288
000350 31 08 27 bd 0c a3 46 bd eb a9 bf bd 12 ee a5 bc
       -0.040779296 -0.048495337 -0.09358581 -0.020255122
000360 69 fc 9d 3d 0c 17 2b 3c e4 1c 69 3d bc 89 a4 bd
       0.07714159 0.0104425065 0.056912318 -0.08034083
000370 36 3e 0c 3b 75 f6 78 bc 60 9e 0d 3d 4f fd d4 bd
       0.0021399385 -0.015195479 0.034574866 -0.10399877
000380 b5 9b 94 bc c6 6a 3b 3e 0c e8 cc 3d 9e 82 cf bd
       -0.018140653 0.1830245 0.10005197 -0.10132335
000390 f3 f0 14 be 35 93 12 3d e4 dc 68 3d 0c 1f 06 be
       -0.1454504 0.03578492 0.056851283 -0.13097781
0003a0 3b c1 b3 bd 16 13 85 3c 60 7d 81 3d 6e 5a 12 3d
       -0.0877709 0.016244452 0.063227415 0.03573077
0003b0 e4 01 a4 3d 38 d1 c1 bd 0d 3c 09 3c c0 69 58 bd
       0.08008173 -0.094637334 0.008376134 -0.052835226
0003c0 21 a3 19 bd 80 49 11 be b1 67 53 bd ab 01 f9 3b
       -0.037509087 -0.14188194 -0.05161256 0.007599076
0003d0 c5 7a ba 3b 32 5f e2 3d f3 6d 98 3d 2e 9b 02 3c
       0.005690905 0.11053313 0.07442846 0.007971568
0003e0 41 f0 63 bc d3 db 43 bc f8 7d 55 bc 1d 25 06 3e
       -0.013912261 -0.011954266 -0.013030522 0.13100095
0003f0 d3 7a b0 3d ef 04 f8 3b bc 17 90 bd 1e 64 5d 3d
       0.08617177 0.0075689475 -0.07035777 0.054050557

network_body._body_endoder.seq_layers.2.bias f4 [128]
000000 3a aa e8 ba 18 75 16 bb 60 31 65 ba b0 9d 93 ba
       -0.0017750927 -0.0022957977 -0.0008743014 -0.0011262204
000010 0a b3 54 bb 5a d0 62 bb ac 02 bb bb 26 44 05 bb
       -0.0032455348 -0.003460905 -0.0057071056 -0.002033481
000020 17 36 84 bb 21 dd d6 bb 78 5c 4c 3a 47 ee e6 bb
       -0.0040347683 -0.0065571223 0.00077957613 -0.007047448
000030 5d 1f a6 bb 73 11 c0 38 c2 0f 28 bb ae f1 1b 3b
       -0.0050696568 9.1585236e-05 -0.0025644158 0.0023795175
000040 b6 6f 58 bb b6 a8 41 bb 0f 1d 14 bc 35 0f 5d ba
       -0.003302557 -0.0029550022 -0.009040131 -0.0008432747
000050 57 87 98 ba 78 7d bc ba 4f 17 60 bb 62 26 d0 ba
       -0.0011637014 -0.0014380654 -0.003419358 -0.001588058
000060 fe 86 a9 3a 22 2f ac 3a 2c 57 8d b8 8b 0d 87 bb
       0.0012933908 0.0013136605 -6.739641e-05 -0.0041214875
000070 10 e6 21 ba 5c 89 29 bb ff 38 e5 ba 8d 9a 08 bb
       -0.00061759446 -0.0025869226 -0.00174883 -0.0020844073
000080 15 bd 1f 3b e4 c6 f0 3a 84 70 21 bb 54 8f 2a bb
       0.0024374176 0.0018369821 -0.0024633715 -0.0026025372
000090 38 bd 6e ba ef 0a e7 b9 b9 3a 0e bb 44 92 4d bb
       -0.0009107175 -0.000440679 -0.0021702482 -0.0031367699
0000a0 16 e8 72 bb b5 1b 93 39 54 27 89 3b 7f 0b 01 bb
       -0.0037064604 0.00028058668 0.0041855965 -0.001969069
0000b0 d6 99 28 bb 31 a2 d4 ba 2c 41 af ba 16 16 9b bb
       -0.002572646 -0.0016222653 -0.0013370863 -0.0047328575
0000c0 cb 99 7c ba fb 81 78 b9 44 e8 af bb ae 64 d7 bb
       -0.0009635954 -0.00023699545 -0.0053682644 -0.0065732813
0000d0 05 b7 84 bb f4 ad 07 3a 51 b0 80 bb 6d 01 39 bb
       -0.004050138 0.00051757623 -0.0039272686 -0.002822961
0000e0 96 ae 05 bb 02 f6 33 ba eb 0c e3 ba 84 f3 54 bb
       -0.002039825 -0.0006864966 -0.0017322575 -0.003249378
0000f0 b0 26 06 bb c2 54 1c bb 4f 9a 5b ba b3 18 90 b9
       -0.0020469837 -0.002385423 -0.0008377181 -0.00027484223
000100 73 42 59 bb 2f 84 3c bb d3 9c 8f b9 28 a0 9d b9
       -0.003315118 -0.002876531 -0.0002739193 -0.000300647
000110 ae 1d 3b bb 2f 7e 01 bb 69 36 58 b8 6a 2a c6 bb
       -0.0028551626 -0.001975905 -5.1549086e-05 -0.0060475366
000120 36 b3 04 b7 48 45 15 bb d3 4a 32 ba fd 73 90 bb
       -7.909539e-06 -0.002277689 -0.0006801311 -0.004408358
000130 e3 d2 9e b9 52 bc 01 bb fd 15 de 3b 77 01 ec ba
       -0.0003029323 -0.0019796086 0.0067775236 -0.0018005808
000140 07 0c 24 ba 2e b8 18 bc 4f 99 81 ba 39 ee 4a bb
       -0.0006257896 -0.009321256 -0.0009887608 -0.0030964746
000150 6b 2b 42 bb 40 d4 9b ba 58 c6 f5 bb 7e e5 06 bb
       -0.002962793 -0.0011888817 -0.007500451 -0.0020583565
000160 f1 d7 ac bb ce 0b 63 bb 6a ea 14 bb f6 4b 20 bb
       -0.0052747657 -0.0034644487 -0.002272273 -0.0024459339
000170 99 31 ba 3a 20 b3 2a bc 4e 68 93 ba 8a 66 37 bb
       0.0014205455 -0.010418683 -0.0011246295 -0.0027984702
000180 5f cf 6d bb a4 c7 2e 3a 5c ac 1c bb 03 9f 84 bb
       -0.0036286933 0.0006667322 -0.0023906445 -0.004047276
000190 42 21 e0 3b 8d 3e f6 ba 72 80 f6 ba 5f 22 a6 39
       0.006839902 -0.0018786952 -0.001880659 0.00031687596
0001a0 2c 17 96 bb e9 6a e9 ba 22 ef f8 3a 96 d1 51 3b
       -0.004580399 -0.0017808351 0.0018992166 0.0032015792
0001b0 3c f6 50 bb 06 68 6e ba 2a 9c 27 bb 32 8c 76 bb
       -0.0031885048 -0.000909448 -0.0025575259 -0.0037620184
0001c0 9f 72 ed ba a0 10 73 bb e8 b8 f0 ba a7 31 3f ba
       -0.0018115825 -0.0037088767 -0.0018365653 -0.00072934706
0001d0 c7 5e d6 ba 8d 78 81 3a 19 6c 54 bb 24 f1 89 bb
       -0.001635515 0.0009877846 -0.0032413064 -0.0042096544
0001e0 10 ad 88 bb 92 9b 34 bb 11 67 36 ba 02 f3 98 b9
       -0.0041710213 -0.0027558547 -0.0006958107 -0.00029172754
0001f0 82 e0 14 bb fe 8d 4b bb fa 44 2e 3a 98 92 b6 ba
       -0.0022716825 -0.0031059976 0.00066478516 -0.0013929186

action_model._continuous_distribution.log_sigma f4 [1, 2]
000000 a3 6a 82 3c fa 8d 2b bc
       0.015919989 -0.010470862

action_model._continuous_distribution.mu.weight f4 [2, 128]
000000 75 2b 27 bc 00 33 16 b8 09 9b 36 bb a9 d1 85 bb
       -0.010203232 -3.5810284e-05 -0.0027863404 -0.0040838313
000010 03 f5 f4 bb ca 7c ca bb db 72 ff bc 75 2e 8c bc
       -0.0074754967 -0.006179427 -0.031182697 -0.017111996
000020 ca 8a f7 ba 09 65 96 3b d5 5d bf 3c 7f f2 cb bb
       -0.0018885967 0.004589681 0.023360172 -0.006223976
000030 a4 81 15 bc 6b 28 b3 39 eb a8 4b bc 13 b4 b5 bc
       -0.009125147 0.00034171654 -0.01243041 -0.022180593
000040 6d ed 6e bc c8 23 b5 3b 5b cd bc 3a a2 78 ea 3b
       -0.014582974 0.005527947 0.0014404462 0.007155494
000050 cb 12 bc bc 69 cc b2 3b 59 c8 81 bc 55 40 08 3c
       -0.02295818 0.0054564965 -0.015842604 0.008316119
000060 a0 b3 16 bc 7b 27 0e bc 1b b7 97 3c ed 86 9b ba
       -0.009198099 -0.008676405 0.018519929 -0.0011865773
000070 9d f5 3c bc 1d 51 54 bc f5 ce e4 3c 0f 5a bc bc
       -0.011533168 -0.012958792 0.027930716 -0.022992162
000080 ab 66 a8 3c 29 b2 d7 3c 45 4a 4f bc 00 55 33 bb
       0.020556768 0.02633007 -0.012651985 -0.0027363896
000090 f1 0e 95 ba 86 b7 1b bd f1 61 4b bc 17 61 b1 bb
       -0.0011372251 -0.03801682 -0.012413488 -0.0054131853
0000a0 6d 59 d6 bb 25 0e bb bc 1d 97 1c 3b 9b 94 82 bc
       -0.006541422 -0.022833893 0.0023893781 -0.015940001
0000b0 e7 e9 65 bb 87 e6 5d 3c c5 ee 91 bc e0 79 60 3a
       -0.0035082044 0.0135437315 -0.01781405 0.00085630827
0000c0 87 c1 13 3d bb 9b e5 3c 95 e3 8a bb 1c e9 2f bc
       0.036073234 0.02802836 -0.0042385557 -0.01073673
0000d0 74 2a 89 3b 6f cf 17 3d 42 01 96 bc b0 76 8b 3a
       0.004185969 0.03706306 -0.018311147 0.001064023
0000e0 44 22 17 bd c2 70 7d 3a b6 fc 8a bb 96 60 8d 3b
       -0.036897913 0.00096679863 -0.0042415513 0.0043144925
0000f0 63 e7 95 bc dd 02 46 bc 12 3e 2f 3c 8e 7c 11 3a
       -0.01829881 -0.012085644 0.010695951 0.0005549871
000100 84 f9 e3 ba 0f 47 b0 bc 82 80 2a 3c ea a1 10 bc
       -0.0017393087 -0.021518258 0.010406615 -0.008827666
000110 22 b2 3a bc 0a cd b4 3c 29 4b 5b 3c 3d a7 6a bc
       -0.011395009 0.022070426 0.013384619 -0.014322099
000120 bb 85 0d 3d f4 0c 36 3a e6 10 e9 3c 20 86 13 ba
       0.034551363 0.0006944679 0.02845044 -0.0005627591
000130 6b 57 01 bd 0d 6d 87 3c f4 4e 95 3c d0 77 74 3c
       -0.03157751 0.016531492 0.018226124 0.014921144
000140 ac 0d b0 3c fd 27 a0 ba 70 9d ec 3c 09 af 4d 3c
       0.021490894 -0.0012218949 0.028883666 0.012553939
000150 55 18 3f bc 48 9d de 3c b3 0b 28 bb 4f 22 f2 bb
       -0.011663516 0.027174607 -0.002564174 -0.007389344
000160 9b 94 87 ba bc 2a ae bc d7 40 df bc 08 1c d0 3c
       -0.001034397 -0.021260612 -0.027252598 0.025403991
000170 85 72 f0 3c f0 3f be ba c2 08 b9 bc 6b 14 a8 3b
       0.029351482 -0.0014514904 -0.022587184 0.005129387
000180 f9 51 01 bc 50 79 3c bc 1c c0 0f 3c d8 8c c8 37
       -0.007893079 -0.0115035325 0.00877383 2.3907443e-05
000190 72 5a 6c 3c de 3f 99 bb 9d 0d 26 3c dc ef 99 bc
       0.014425861 -0.004676803 0.010135082 -0.018791132
0001a0 60 2c ad 3b e6 2c 38 bc 04 d0 b3 3c 68 d8 9d 3c
       0.005284831 -0.011241173 0.021949776 0.01926823
0001b0 64 b3 95 bc 2d fb 6a bc 5f 52 ce bb 90 12 1f bb
       -0.018274017 -0.014342112 -0.0062964405 -0.0024272539
0001c0 45 b1 83 bc e1 cb 07 3c da dc 00 bd 9e 37 a4 3b
       -0.01607574 0.008288355 -0.03146062 0.005011513
0001d0 80 eb 95 bb 17 40 27 3c c3 23 bd bc f4 8f 34 bc
       -0.004575193 0.010208151 -0.023088342 -0.011020649
0001e0 13 4b 02 bc 51 7d ff ba 12 01 ca bb b7 15 e0 3b
       -0.007952469 -0.0019492303 -0.0061646784 0.006838526
0001f0 5c 42 ff bc 69 4d 87 bc 15 93 6c 3c 75 66 43 bb
       -0.031159572 -0.016516404 0.014439364 -0.0029815708
000200 a3 12 f9 b9 a7 d1 c1 3c 6c 47 fb 3c f8 71 e0 3c
       -0.00047506866 0.02365954 0.030673705 0.027398095
000210 80 de 48 bc bf ae 01 bc b0 1d 3d 3c 61 5c 1b bc
       -0.012260079 -0.007915198 0.011542723 -0.009482474
000220 33 17 21 bc 79 cd b3 38 b8 44 e9 bc 5e 73 18 bb
       -0.009832191 8.5736574e-05 -0.02847515 -0.0023262124
000230 a1 c1 57 3c 33 53 bc b9 c4 b4 79 3c 7e 5c 83 3b
       0.013168723 -0.00035920143 0.015240852 0.0040088287
000240 88 df 1b bc 32 c5 23 bd ea 58 56 3a 61 ef d0 bb
       -0.009513743 -0.039982982 0.00081767014 -0.0063761924
000250 2a f9 16 3b 38 38 5d 3c 23 d7 38 3b e3 81 c7 3b
       0.0023036697 0.013502173 0.0028204403 0.0060884818
000260 13 68 ef bc 6e 22 c6 3c ad 44 1b bc 8f cf 0f bc
       -0.029224431 0.02418634 -0.009476823 -0.008777513
000270 31 09 00 3d 35 68 22 bc 30 23 cd 3c 97 84 54 3c
       0.031258766 -0.00991254 0.025041193 0.012971065
000280 6a 43 9c 3b db 78 87 bb f8 37 42 bc 4f ca f3 bb
       0.0047687786 -0.00413428 -0.011854164 -0.0074398885
000290 59 62 65 3c 8c 9d 96 bc 67 18 a9 bb 95 c8 63 bc
       0.014000499 -0.018385671 -0.0051603797 -0.013902803
0002a0 a2 b4 25 3c 79 df 5e bc 0a 69 b4 bc 87 83 c5 3c
       0.010113867 -0.013603085 -0.022022743 0.024110569
0002b0 df a8 f6 bb ae f1 b8 3c 66 f9 94 3c f4 a1 21 ba
       -0.007527455 0.02257618 0.018185329 -0.00061657955
0002c0 ae e3 08 3d 5d f4 2f 3c 48 c1 8e 39 4c 9c 79 3c
       0.033420257 0.010739413 0.00027228356 0.015235018
0002d0 18 6a 2c 3c 08 bd a5 bb 32 80 04 3d 4d cd 08 3c
       0.010523342 -0.0050579347 0.03234882 0.008349729
0002e0 2e 5e 8e bc a1 b4 5c bb 4b 89 d5 3c 48 8a 5f bc
       -0.017378893 -0.0033677 0.026066443 -0.013643809
0002f0 27 a3 73 3b 91 ca 40 bb b1 e9 5e 3d d0 38 e1 ba
       0.0037176104 -0.0029417614 0.054422084 -0.0017183069
000300 53 b0 1d 3c 8a 72 f6 bb 3b bb 46 bb ce e1 9a bb
       0.0096245585 -0.0075209783 -0.0030324 -0.004726625
000310 ea db 06 3d 00 ea fd 3c 68 45 2e bc 0f 32 83 3c
       0.03292457 0.030995369 -0.010636665 0.01601508
000320 db 0e 41 bc 4f 84 2a bc ea 89 13 3c fa 3c aa 3b
       -0.011783327 -0.010407521 0.009005049 0.0051952573
000330 d4 12 0d bb a4 64 2a bc 38 02 11 bc c0 ed b1 3c
       -0.0021526115 -0.010399971 -0.008850627 0.021719813
000340 d9 e9 e1 3b 23 3c b8 ba a0 05 d0 3c 0f e4 2d 3b
       0.006894332 -0.0014056008 0.025393307 0.0026533639
000350 39 fb 04 bc c2 d6 2f bb 3f eb 81 3b 7a 4d 50 3c
       -0.008116537 -0.0026830886 0.003964811 0.012713784
000360 b4 ca f6 3b cd bc e4 bb 40 95 16 3d 86 c5 4c 3c
       0.0075314883 -0.0069805146 0.03676343 0.012498265
000370 3a 88 8b bc 5f 65 a7 3a fe 10 89 bc c7 7b 4c 3c
       -0.017032731 0.00127713 -0.016731735 0.012480683
000380 9d 92 3c bb 04 ee a9 3b 3d 58 d5 3c e4 d5 c3 ba
       -0.0028773912 0.0051858444 0.026043052 -0.0014941064
000390 55 a0 a7 ba 04 f6 81 3c 88 6f 15 3c 2b 01 48 3c
       -0.0012788872 0.01586438 0.009120829 0.01220731
0003a0 71 e2 2c 3c e2 18 24 bb ee e0 9b b7 86 26 0a 3b
       0.010552035 -0.0025039245 -1.8582181e-05 0.002108009
0003b0 91 89 78 bc c0 9a 0d 3c 20 5a 5c 39 dd e5 8c bc
       -0.015169517 0.008642852 0.00021014409 -0.017199451
0003c0 df 10 0d 3c a7 0f 54 3c 1e dc 0a bd 8d 21 8b bb
       0.008609979 0.012943185 -0.033901326 -0.004245943
0003d0 86 32 bb 3c c5 1b e9 bc 8e 95 14 bc bc d8 45 bb
       0.02285124 -0.028455624 -0.00906886 -0.0030188998
0003e0 d3 d0 f4 38 58 ad 29 3c 41 7d 8f 3c 7a 79 0b 3c
       0.00011673723 0.01035627 0.01751578 0.008512849
0003f0 83 64 41 3c b4 c5 0d ba b8 81 a3 bb a6 c5 a0 bc
       0.011803749 -0.0005408183 -0.004989829 -0.019625496

action_model._continuous_distribution.mu.bias f4 [2]
000000 77 d9 01 39 ec 7f af b9
       0.0001238341 -0.0003347391

exp_avg f4 [128, 8]
000000 c2 ec 40 b9 5e f5 a3 39 3c 24 15 38 fc 68 a5 35
       -0.00018398746 0.00031272596 3.5558114e-05 1.2324012e-06
000010 af 9d 15 b5 9a 30 e0 b0 e4 66 8d b8 28 64 d7 b7
       -5.5736285e-07 -1.6311958e-09 -6.742569e-05 -2.5676636e-05
000020 8a 0a 0c b9 0d 06 0f 38 80 ad 0b b8 ec 72 24 b5
       -0.00013355367 3.4099492e-05 -3.3301767e-05 -6.1261994e-07
000030 c4 bd 94 34 d2 94 27 30 99 7d 99 b8 07 d8 66 b7
       2.770522e-07 6.096573e-10 -7.319003e-05 -1.3759366e-05
000040 34 67 8a 38 22 05 c1 39 3c 8f b2 38 da 3e 0f 36
       6.599576e-05 0.00036815653 8.514381e-05 2.1345245e-06
000050 2a 93 81 b5 8b b3 c7 b0 bc 43 35 39 8f 35 8d b8
       -9.654079e-07 -1.4530185e-09 0.00017286738 -6.73338e-05
000060 b1 be 6a b8 a6 c7 09 b8 30 61 95 b7 77 e8 36 35
       -5.5967543e-05 -3.2849282e-05 -1.780744e-05 6.8138564e-07
000070 71 72 a5 b4 77 ea 98 2f bc d3 14 b8 9a cc 61 b8
       -3.0816912e-07 2.7815236e-10 -3.5483143e-05 -5.383473e-05
000080 68 e1 f2 39 92 1f 5f ba 52 ae 9f b7 f6 46 1f b6
       0.00046325778 -0.0008511479 -1.9035451e-05 -2.373415e-06
000090 2d 17 90 35 68 15 0a 30 af b4 09 39 05 ae 30 39
       1.0735581e-06 5.023453e-10 0.00013132648 0.00016849495
0000a0 02 3c d1 38 30 76 70 b9 7d a5 1c b8 f4 6e 77 b5
       9.977074e-05 -0.00022932212 -3.734742e-05 -9.217613e-07
0000b0 89 d1 df 34 ef 21 f6 af bb 1e f3 37 2d fe 9a 37
       4.1689444e-07 -4.477125e-10 2.8982167e-05 1.847659e-05
0000c0 a3 e2 45 b7 be e8 8b 37 80 07 08 36 d1 75 7a b4
       -1.1794883e-05 1.667847e-05 2.0269945e-06 -2.3325926e-07
0000d0 e7 de e2 33 2b 1d 99 30 aa ff 93 b6 14 5c 18 b8
       1.0564491e-07 1.1140505e-09 -4.4107046e-06 -3.632538e-05
0000e0 10 66 e9 39 1a 57 61 b9 f1 b5 12 39 1c 8f 65 35
       0.00044517266 -0.0002149012 0.00013991423 8.55174e-07
0000f0 50 d0 cf b4 01 a8 09 b0 3e 68 c8 39 03 71 6a 39
       -3.8708322e-07 -5.007906e-10 0.0003822464 0.00022358079
000100 86 e8 c2 38 c1 a7 4d b9 87 78 5f b8 22 fb a3 b4
       9.293952e-05 -0.00019612817 -5.3279593e-05 -3.054384e-07
000110 5b 4e 14 34 86 76 7f 2f c3 24 07 38 3a f3 ac 32
       1.381208e-07 2.3234223e-10 3.2220745e-05 2.0134042e-08
000120 f6 1d 35 39 51 79 ae b7 7a a2 2d 38 ad e1 11 35
       0.00017272666 -2.0798909e-05 4.1397732e-05 5.434511e-07
000130 55 24 84 b4 df 52 88 af e6 6e 20 39 90 76 01 39
       -2.461335e-07 -2.479714e-10 0.00015300102 0.00012346567
000140 76 88 37 ba 66 2d 40 39 d7 e7 8d b9 20 17 a9 b5
       -0.000700123 0.00018327459 -0.0002706635 -1.2598211e-06
000150 a7 fc 18 35 af 06 15 b0 ce 83 06 ba eb 01 9c b9
       5.699207e-07 -5.421538e-10 -0.0005131335 -0.00029756068
000160 ae 75 b4 b8 47 e6 2e 38 0a b4 9c b8 ca 90 ec 34
       -8.6049884e-05 4.1699295e-05 -7.4721946e-05 4.4063773e-07
000170 7f 15 56 b4 51 c5 c5 ae c1 80 e0 b4 f9 be 89 37
       -1.9938123e-07 -8.993573e-11 -4.1816932e-07 1.6420601e-05
000180 ea 40 a0 b9 9d 49 18 ba 1f 25 9c b9 02 5f 7a b6
       -0.00030565943 -0.0005809309 -0.00029782296 -3.7308205e-06
000190 76 8b e2 35 61 8f c5 30 95 65 f1 b9 3f 71 97 b9
       1.6878901e-06 1.4374387e-09 -0.00046042787 -0.0002888534
0001a0 4f ce 8d 38 12 c6 f0 b7 f0 89 1a 36 3d 3b 2b 35
       6.761832e-05 -2.8702463e-05 2.3028078e-06 6.3788667e-07
0001b0 10 29 9b b4 92 61 ed b0 e8 1c 03 39 9c 53 ef 38
       -2.8900877e-07 -1.7271751e-09 0.00012503902 0.000114119815
0001c0 18 bd e9 b9 64 d0 5e 3a a3 84 ac 37 f2 49 5f 36
       -0.0004458211 0.00084996806 2.0565762e-05 3.3272631e-06
0001d0 33 f8 c9 b5 42 fc 74 b1 c1 19 30 b9 77 10 ac 37
       -1.5047902e-06 -3.5650065e-09 -0.00016794262 2.0511665e-05
0001e0 ea 4e 4e b9 d8 ef ed 38 8e 58 07 b9 0a 5d 5b 35
       -0.00019675089 0.00011345715 -0.00012907592 8.171925e-07
0001f0 58 82 c6 b4 78 e9 00 b0 ae ff 02 b9 43 6f 88 38
       -3.6975212e-07 -4.689791e-10 -0.00012493014 6.5057095e-05
000200 7d fc 8e 39 8f a9 6e ba 5c bd ea b8 1b ca 47 b6
       0.0002727247 -0.00091042457 -0.000111932604 -2.9770952e-06
000210 8b c0 b4 35 b5 cd 57 30 08 a0 4c b8 6a d3 09 37
       1.3467082e-06 7.850887e-10 -4.878643e-05 8.21506e-06
000220 d2 c2 e2 b7 be ec a6 b8 be d3 b0 38 24 91 e8 b5
       -2.703202e-05 -7.9595935e-05 8.431774e-05 -1.7327588e-06
000230 ee 71 52 35 19 36 47 31 b4 71 c6 b8 0a e1 13 b9
       7.8396886e-07 2.8989062e-09 -9.4625546e-05 -0.00014102846
000240 b1 bb c4 b8 c9 34 16 39 83 fa 35 36 59 0e 28 35
       -9.3809685e-05 0.00014324779 2.7116919e-06 6.2605756e-07
000250 d8 e9 97 b4 39 c3 90 af b4 5e fe b7 21 85 2a b8
       -2.8296085e-07 -2.6332161e-10 -3.032326e-05 -4.0655144e-05
000260 34 26 1a 39 15 e8 63 b8 3a 97 98 b6 67 b8 2a 35
       0.00014700816 -5.433716e-05 -4.547558e-06 6.3598276e-07
000270 21 98 9a b4 4a e2 f4 af e6 f7 2c 39 87 35 a2 38
       -2.8795424e-07 -4.454413e-10 0.00016495548 7.734732e-05
000280 d5 b1 20 b8 12 5e 26 b9 8e cb 90 b8 39 38 b0 34
       -3.831259e-05 -0.00015866038 -6.90437e-05 3.2823462e-07
000290 b6 33 1f b4 dc 70 8a 30 f2 12 ae b8 17 ab 19 b8
       -1.4826841e-07 1.0072898e-09 -8.3004954e-05 -3.6637382e-05
0002a0 76 12 20 b8 90 7c 0f b8 fa 24 b2 b8 d8 56 1c 35
       -3.8164166e-05 -3.4209865e-05 -8.494589e-05 5.8240903e-07
0002b0 1b 66 8d b4 88 c1 11 b1 51 14 7b b8 ac 4b 86 38
       -2.6337588e-07 -2.1210287e-09 -5.9861984e-05 6.403713e-05
0002c0 e4 2f 34 39 12 5d 22 ba a0 77 a0 b8 28 76 cf b5
       0.00017183978 -0.0006193678 -7.6516764e-05 -1.545709e-06
0002d0 e2 9e 3b 35 d3 74 f0 2f 75 6d d1 37 cf 48 25 37
       6.9894134e-07 4.3738754e-10 2.4965711e-05 9.8517185e-06
0002e0 70 97 6e b9 4a 84 98 39 30 a3 e5 b8 72 66 29 36
       -0.00022753864 0.00029090262 -0.00010949967 2.5242593e-06
0002f0 a3 37 99 b5 92 ad 32 b1 32 80 d1 b8 50 6c f1 36
       -1.1415581e-06 -2.6001072e-09 -9.989775e-05 7.194969e-06
000300 dd 3b ff b9 49 2b 98 3a b6 dd 29 39 7e ea 12 36
       -0.00048681992 0.001160958 0.0001619969 2.1892188e-06
000310 2e e0 84 b5 15 8d 53 b1 a9 77 21 b9 70 9a 0a b9
       -9.900011e-07 -3.0784737e-09 -0.00015398733 -0.00013218238
000320 b6 8b 34 38 c6 b9 18 38 1e 98 5e 38 ee cf e9 b4
       4.304546e-05 3.641264e-05 5.3070595e-05 -4.355092e-07
000330 01 81 53 34 c8 47 7f 30 48 ec 4f 38 c7 b4 a6 37
       1.9697838e-07 9.2870467e-10 4.95727e-05 1.9872923e-05
000340 3f 34 21 3a d5 2a b5 b8 ed 6f 81 39 38 60 15 36
       0.0006149448 -8.638731e-05 0.0002468819 2.2258737e-06
000350 ae 30 87 b5 d2 31 85 ae c9 21 0f 3a 00 8e 90 39
       -1.0072451e-06 -6.0569896e-11 0.00054600515 0.0002757162
000360 cb b4 63 b9 89 67 f8 39 47 8e 2b 38 28 46 d1 35
       -0.00021715758 0.00047379386 4.0902083e-05 1.5592132e-06
000370 5d 42 3d b5 4f 0c d4 af 97 3d 86 b8 22 c4 23 b8
       -7.050456e-07 -3.857132e-10 -6.40109e-05 -3.904489e-05
000380 23 86 35 39 a7 c0 a8 36 f3 63 1e 38 de f0 a8 34
       0.00017311475 5.029218e-06 3.776322e-05 3.1467692e-07
000390 67 e4 18 b4 fb 5d 70 b0 89 63 f2 38 d0 f5 00 39
       -1.4239195e-07 -8.7445046e-10 0.00011557999 0.00012298604
0003a0 11 b5 a6 39 55 f7 31 ba d5 5f 1c b7 6c 9a fb b5
       0.00031796892 -0.00067888695 -9.320637e-06 -1.87459e-06
0003b0 78 a0 63 35 42 69 1c 31 98 cb 12 38 22 13 2a 38
       8.47976e-07 2.276082e-09 3.4998724e-05 4.0548977e-05
0003c0 eb 8b 28 b8 8a 55 91 38 dc 50 67 b8 cc 18 9e 35
       -4.018463e-05 6.930072e-05 -5.5149998e-05 1.1779134e-06
0003d0 49 0f 0f b5 f6 23 97 b0 a8 b1 d2 37 f7 5b 6a 35
       -5.3293894e-07 -1.0996917e-09 2.5116678e-05 8.730562e-07
0003e0 7f a0 0c b8 bc 16 e1 36 43 fe 4d 38 f4 b4 5b b5
       -3.3528075e-05 6.708169e-06 4.911261e-05 -8.184718e-07
0003f0 bb b0 c6 34 e6 45 e1 2e 3c 11 64 b3 11 ce b1 b8
       3.7008962e-07 1.0244232e-10 -5.310106e-08 -8.4784006e-05

exp_avg_sq f4 [128, 8]
000000 52 56 08 34 39 96 1a 35 33 c8 ae 33 73 19 c7 2c
       1.269739e-07 5.7588073e-07 8.1389224e-08 5.6587456e-12
000010 6c ed a2 2b bd c0 0d 24 9c 1e bd 32 4d 28 42 33
       1.157669e-12 3.0737757e-17 2.2016415e-08 4.5205798e-08
000020 f6 ee 12 33 97 49 c5 32 e5 e1 c5 32 15 24 a7 2b
       3.4210608e-08 2.2967283e-08 2.3036543e-08 1.1876078e-12
000030 3e c3 88 2a 08 06 26 22 1b fd 8f 32 e1 eb da 32
       2.429393e-13 2.2500388e-18 1.676249e-08 2.5485805e-08
000040 a7 56 bc 34 14 95 69 35 ff 49 6a 34 a5 3d 28 2d
       3.5080777e-07 8.70162e-07 2.1819868e-07 9.563382e-12
000050 e1 b7 09 2c cf 32 bc 24 51 d6 13 34 c8 8c 4b 34
       1.9570944e-12 8.1618076e-17 1.376841e-07 1.8957064e-07
000060 5e ce f8 33 d3 f1 e1 34 46 38 d6 33 a7 f9 f1 2c
       1.1585938e-07 4.2085466e-07 9.9753876e-08 6.877349e-12
000070 7f 01 c6 2b fe 48 68 24 6e d7 03 33 e1 c1 1c 34
       1.4069161e-12 5.0368808e-17 3.0696746e-08 1.4599165e-07
000080 73 e5 4a 35 e3 bd 38 36 2d bf e3 34 d9 14 d5 2d
       7.5584757e-07 2.7528665e-06 4.2421144e-07 2.4224555e-11
000090 6b 61 ae 2c 66 4e 12 25 19 24 7b 34 ef c6 a4 34
       4.956193e-12 1.2690044e-16 2.3389329e-07 3.0692124e-07
0000a0 73 d9 04 33 19 21 0b 34 1d 17 e3 32 aa 48 f7 2b
       3.0931414e-08 1.2957425e-07 2.6436789e-08 1.7570574e-12
0000b0 cf 62 ca 2a 46 53 50 23 11 54 f9 31 1d da b7 32
       3.595097e-13 1.12933364e-17 7.256411e-09 2.140319e-08
0000c0 97 d6 2a 33 df 7b ff 32 a5 f6 dc 32 e0 96 8e 2b
       3.9776378e-08 2.9742237e-08 2.5723532e-08 1.0131583e-12
0000d0 38 75 69 2a a6 64 75 22 f5 b8 ef 32 3c f1 b9 32
       2.0735226e-13 3.3256974e-18 2.790737e-08 2.1646535e-08
0000e0 4a fb cf 34 4e 56 ca 33 4f df 0a 34 a7 fc 9c 2c
       3.8739591e-07 9.422057e-08 1.2933491e-07 4.4618367e-12
0000f0 8d 7e 80 2b a4 5e a7 22 3b 2f 7b 34 d3 95 0e 34
       9.130072e-13 4.5365645e-18 2.3393379e-07 1.3279286e-07
000100 2b d0 b1 32 d7 01 b0 33 ad 47 99 32 38 b9 8b 2b
       2.0700176e-08 8.195973e-08 1.7844139e-08 9.927953e-13
000110 81 b2 64 2a 57 01 9c 22 9b d1 85 31 74 72 05 32
       2.0312399e-13 4.2285303e-18 3.894639e-09 7.7676425e-09
000120 d2 7e de 33 c8 6b 10 33 11 67 42 33 df 09 e8 2b
       1.0360749e-07 3.362564e-08 4.5262883e-08 1.6487331e-12
000130 ec e7 bd 2a 82 dc dc 21 af cb 90 33 94 82 5d 33
       3.3734072e-13 1.4966148e-18 6.7425724e-08 5.1574332e-08
000140 c6 cc 53 35 cf 4c 3b 34 bb c4 5d 34 c7 d7 ec 2c
       7.890161e-07 1.7443675e-07 2.0653799e-07 6.7314795e-12
000150 6a cf c1 2b 20 29 e4 22 c3 ec c7 34 96 f8 59 34
       1.3771044e-12 6.1843067e-18 3.7238905e-07 2.0300135e-07
000160 54 53 ec 33 4b 59 25 34 62 31 42 33 e2 f2 31 2c
       1.1004764e-07 1.5399307e-07 4.521406e-08 2.528804e-12
000170 e7 9f 11 2b 13 86 60 23 72 d9 6a 33 15 93 39 33
       5.173626e-13 1.2171456e-17 5.4680136e-08 4.320744e-08
000180 f0 4b b6 35 73 68 e5 35 12 a6 02 35 7d fd ac 2d
       1.3582157e-06 1.7092228e-06 4.867044e-07 1.9666707e-11
000190 25 95 8d 2c 83 0e 40 24 a8 ac 27 35 1b 26 c3 34
       4.0240194e-12 4.1645655e-17 6.2463596e-07 3.6349306e-07
0001a0 25 96 61 34 58 e7 1b 33 91 08 d1 33 89 34 71 2c
       2.100938e-07 3.6299156e-08 9.733879e-08 3.4277323e-12
0001b0 17 7b 45 2b e2 eb c6 22 8d 34 27 34 b5 70 d4 33
       7.015928e-13 5.391776e-18 1.5572205e-07 9.8925206e-08
0001c0 53 1b d2 34 3f 1c 02 36 b6 81 90 34 d9 95 93 2d
       3.913543e-07 1.938795e-06 2.6916467e-07 1.6778511e-11
0001d0 72 95 71 2c 99 11 bf 24 cf 91 82 33 df 1a ff 33
       3.4331119e-12 8.286286e-17 6.080119e-08 1.1879251e-07
0001e0 a7 27 58 34 fb 81 17 35 9f 4c eb 33 9d e8 fe 2c
       2.0130993e-07 5.644103e-07 1.09569775e-07 7.2449395e-12
0001f0 b1 99 d0 2b 01 8d 50 24 20 57 9b 33 36 bb 65 33
       1.4821947e-12 4.5222245e-17 7.233598e-08 5.3488485e-08
000200 a7 04 a7 35 8e 2f a0 36 dc 2d 47 35 6c fc 47 2e
       1.2443824e-06 4.7739077e-06 7.420001e-07 4.5471557e-11
000210 42 a7 23 2d de ea 2c 25 64 6d c3 34 f7 f4 f4 34
       9.302616e-12 1.4998198e-16 3.6401173e-07 4.5626777e-07
000220 16 a6 a6 34 8c c8 ba 34 31 2d 2d 34 f3 7f 12 2d
       3.1040753e-07 3.4791117e-07 1.6128321e-07 8.32755e-12
000230 9c cd ef 2b 54 3e 65 24 e5 02 36 34 ec de 02 34
       1.7039039e-12 4.9709253e-17 1.6951124e-07 1.2188292e-07
000240 fb 21 21 34 d4 b5 42 35 6f 43 ce 33 f8 4c e5 2c
       1.5006655e-07 7.2535227e-07 9.6048886e-08 6.5171167e-12
000250 65 a1 bb 2b c1 86 03 24 0c 6c e6 32 11 fb b8 33
       1.3331945e-12 2.8520238e-17 2.6824658e-08 8.6138364e-08
000260 6d a2 e9 33 64 94 7f 32 2c cb 32 33 fb 57 bd 2b
       1.0879453e-07 1.4876694e-08 4.162864e-08 1.3453677e-12
000270 89 f2 9a 2a 37 22 97 21 e5 a8 96 33 9c b6 1e 33
       2.7524188e-13 1.0241215e-18 7.015641e-08 3.6953324e-08
000280 98 74 9d 33 ab cb 23 34 8c 29 cf 33 38 e7 d2 2c
       7.3320905e-08 1.5254652e-07 9.646746e-08 5.9942294e-12
000290 c4 95 ac 2b d5 50 19 24 e5 04 fd 32 9f 70 4e 33
       1.2262903e-12 3.3245054e-17 2.9455302e-08 4.806554e-08
0002a0 81 52 e9 32 8d 9b 67 32 35 cb 59 33 c0 8e 64 2c
       2.7162288e-08 1.3481338e-08 5.0709065e-08 3.247999e-12
0002b0 97 03 3b 2b 26 71 e5 23 35 21 aa 32 4d c3 1e 33
       6.644073e-13 2.487615e-17 1.9805706e-08 3.6964867e-08
0002c0 a3 9d 27 34 46 e5 08 35 8e ce d0 33 61 ad ae 2c
       1.5610435e-07 5.0997585e-07 9.723327e-08 4.9646264e-12
0002d0 d9 fa 8e 2b 7c e9 4c 23 84 3d 97 33 60 40 61 33
       1.0159331e-12 1.1108304e-17 7.042675e-08 5.2445444e-08
0002e0 a8 2a 31 34 7a 57 2a 35 c1 b0 08 34 24 57 2e 2d
       1.6499928e-07 6.345723e-07 1.273029e-07 9.910104e-12
0002f0 5c a7 0e 2c e9 11 87 24 e4 29 1f 33 82 24 9c 33
       2.0272317e-12 5.857726e-17 3.705817e-08 7.270957e-08
000300 43 85 57 35 b1 30 86 36 71 3b 0b 35 7b d5 11 2e
       8.028766e-07 3.9991796e-06 5.1868034e-07 3.315879e-11
000310 12 b9 ee 2c 43 71 4f 25 b2 b9 09 34 82 d6 ae 34
       6.7849138e-12 1.7992763e-16 1.2826675e-07 3.25661e-07
000320 d7 4c 7a 33 e3 e1 48 33 f8 8f f3 32 87 31 c4 2b
       5.8277546e-08 4.677157e-08 2.8354393e-08 1.3940384e-12
000330 3a 8b a0 2a 4d fc bc 22 cf 66 f0 32 8b 07 0e 33
       2.8518317e-13 5.1224636e-18 2.798643e-08 3.306881e-08
000340 0f 47 d0 35 35 9a 0d 35 a3 e9 02 35 43 07 7c 2d
       1.5517888e-06 5.2750994e-07 4.876876e-07 1.4326154e-11
000350 f9 4b 4e 2c ed 22 9e 22 35 d7 72 35 ee 83 06 35
       2.9316534e-12 4.2862965e-18 9.046519e-07 5.0110873e-07
000360 ea 16 e6 33 d8 a0 17 35 7e ee 92 33 2c b7 9d 2c
       1.0714378e-07 5.648594e-07 6.842036e-08 4.4825445e-12
000370 29 15 81 2b 81 02 46 24 d7 11 8d 32 30 86 5a 33
       9.171874e-13 4.2936527e-17 1.6422673e-08 5.0879123e-08
000380 38 e5 92 32 61 a7 a1 31 71 69 86 32 95 a3 c1 2b
       1.7100874e-08 4.7047455e-09 1.5647602e-08 1.3758878e-12
000390 43 6f 9e 2a d5 5d b0 22 db ef 37 32 c2 22 69 33
       2.8143641e-13 4.7804244e-18 1.0706539e-08 5.4281152e-08
0003a0 d7 71 18 35 4c 09 11 36 f5 f8 ee 34 84 0d f8 2d
       5.679007e-07 2.1612095e-06 4.4512095e-07 2.8200338e-11
0003b0 0b f6 ca 2c cf a6 aa 24 f5 b8 14 34 ce 53 94 34
       5.7685016e-12 7.400833e-17 1.3850861e-07 2.7628124e-07
0003c0 63 b9 84 34 3f 0e 5d 35 33 f0 24 34 b3 54 4b 2d
       2.4721803e-07 8.2349646e-07 1.5361074e-07 1.1558021e-11
0003d0 24 65 26 2c ae c5 7c 24 3d 59 b5 33 9e d0 23 34
       2.3646163e-12 5.481123e-17 8.444702e-08 1.5256452e-07
0003e0 74 2c 97 33 45 e0 6c 34 ca 80 78 33 c2 99 84 2c
       7.0395714e-08 2.2060802e-07 5.7859133e-08 3.768736e-12
0003f0 c3 06 59 2b f4 18 9b 23 c4 38 06 33 f7 9e 03 33
       7.710327e-13 1.6815702e-17 3.1250934e-08 3.0645392e-08

exp_avg f4 [128]
000000 3a 7c 0d b9 43 aa 8c 38 00 0e 75 b9 35 74 9c b8
       -0.00013493086 6.707434e-05 -0.00023370236 -7.460305e-05
000010 62 3d 88 39 60 a5 d3 38 f1 3c d6 37 14 5b c4 b8
       0.00025985675 0.000100920675 2.5539166e-05 -9.362973e-05
000020 39 43 0c 38 bb 90 79 b8 41 a2 10 39 a5 59 4a b8
       3.3441207e-05 -5.9501017e-05 0.00013793354 -4.824404e-05
000030 a6 28 d6 39 4b 77 92 b8 4f fe be b9 be a2 bb b8
       0.00040847546 -6.9840426e-05 -0.000364291 -8.947168e-05
000040 78 e4 aa 39 09 ee 46 39 b6 bf 8f b8 60 07 92 b8
       0.0003259515 0.00018971426 -6.85448e-05 -6.963196e-05
000050 70 bc 16 b8 52 ba 85 b8 92 74 31 39 1a e6 90 b9
       -3.5938283e-05 -6.376639e-05 0.00016923461 -0.0002763726
000060 55 55 7b b9 56 ff 47 38 d9 8a 7f b9 55 01 33 b9
       -0.00023969014 4.7683097e-05 -0.0002437042 -0.00017071266
000070 b8 81 10 b8 7a 36 57 39 ef 3a 07 b9 01 ee bb 38
       -3.4453085e-05 0.00020524292 -0.00012896558 8.9611865e-05
000080 b5 a5 2c 39 00 fc f2 b7 32 2d 05 b9 fc ed 87 38
       0.00016464929 -2.8965995e-05 -0.00012700705 6.48163e-05
000090 cc 45 c7 b9 28 c5 f3 37 e1 34 98 b9 d4 26 fc b6
       -0.0003800824 2.9059665e-05 -0.00029031097 -7.5147054e-06
0000a0 6c c6 36 b8 1f 2f 39 b8 be 18 df 37 eb ed 46 b8
       -4.3576976e-05 -4.4151322e-05 2.6595193e-05 -4.7428457e-05
0000b0 a2 39 be 38 b8 14 88 39 25 54 f7 b7 40 80 5b 38
       9.070641e-05 0.00025955378 -2.9483877e-05 5.233311e-05
0000c0 cb 46 80 b8 1f 27 bc 38 ff 96 b2 b9 5a 9c 38 38
       -6.116702e-05 8.9718254e-05 -0.00034063307 4.4014632e-05
0000d0 bd e0 6a b8 3f 1d db 38 2a c7 b0 b9 61 45 5b 38
       -5.599925e-05 0.00010448181 -0.00033717725 5.2278283e-05
0000e0 67 5f 75 b7 b0 aa 10 b9 09 d5 49 38 85 59 7d 38
       -1.4625351e-05 -0.00013796496 4.812054e-05 6.0403272e-05
0000f0 26 8e 40 b8 18 67 2f b6 88 b3 0a 39 75 34 63 b8
       -4.5908753e-05 -2.613704e-06 0.00013227586 -5.4169872e-05
000100 cc 7e 1c b9 0a f6 b5 37 dd 0a d8 b8 5f 14 d1 38
       -0.00014924555 2.1691452e-05 -0.00010301706 9.969691e-05
000110 ca a8 93 37 e1 d9 2e b8 e8 25 9d 37 2a f9 0e b9
       1.7602364e-05 -4.168775e-05 1.873351e-05 -0.00013634996
000120 fb 90 1f b9 3e be 71 b9 9a 50 58 b9 f6 aa da 39
       -0.00015217431 -0.00023054422 -0.00020629392 0.00041707576
000130 c6 1d c3 38 b6 d9 66 39 6d 65 42 b9 58 ec 72 39
       9.30387e-05 0.00022015613 -0.00018539066 0.00023166963
000140 7e 97 85 b8 d3 88 57 b8 09 79 11 b9 67 dd 08 b9
       -6.370152e-05 -5.1387422e-05 -0.00013873367 -0.0001305245
000150 97 ad 49 b7 83 35 6a 38 66 9e e2 b8 f0 b9 c2 38
       -1.2020951e-05 5.5839784e-05 -0.00010806024 9.2852744e-05
000160 57 b0 99 38 f9 c1 75 39 16 66 0e 39 da e9 35 b8
       7.3284544e-05 0.00023437281 0.00013580205 -4.3371554e-05
000170 bb 12 38 b9 48 6c 4f 38 b2 86 03 39 66 2e b0 b7
       -0.00017554585 4.945349e-05 0.00012543311 -2.1002441e-05
000180 72 52 2d b7 ef 13 0d 38 65 f2 8d b9 5f b8 53 39
       -1.0330799e-05 3.3635584e-05 -0.00027074214 0.00020191212
000190 16 63 77 b9 4f 72 00 b8 e8 64 d2 b7 3a d1 be b8
       -0.00023592668 -3.0624036e-05 -2.5080939e-05 -9.0988775e-05
0001a0 ef 1c ee b8 64 d9 9b 38 f2 56 69 b8 da e2 ee 38
       -0.00011354114 7.431468e-05 -5.5632503e-05 0.00011390979
0001b0 75 35 b9 b7 0b e5 06 39 13 7d e5 b4 ab 59 00 b8
       -2.2078611e-05 0.00012864561 -4.2745577e-07 -3.0601088e-05
0001c0 9a 51 c0 37 1c be f7 38 00 1a 6d b8 1d 6e 5a 39
       2.2926182e-05 0.000118132884 -5.6529418e-05 0.0002083112
0001d0 6e 63 41 b8 1a a9 8c b7 00 4b 04 b9 53 a5 ac 39
       -4.6107387e-05 -1.6768045e-05 -0.0001261644 0.00032929573
0001e0 24 2c f3 37 ad 3f c0 b7 85 16 f6 37 32 52 a3 38
       2.8988412e-05 -2.2917835e-05 2.9335972e-05 7.787756e-05
0001f0 ca 5a 43 b7 04 0f 15 39 29 1b e5 38 6b 45 fa b8
       -1.1644044e-05 0.00014215341 0.0001092463 -0.00011933859
