Basic_Path_Finding/Assets/results/PlayerMaze1/PlayerMaze/PlayerMaze-23726.onnx (onnx, 74869 bytes, 9 tensors)

network_body.observation_encoder.processors.0.normalizer.running_mean f4 [8]
4.486438 0.4427407 -0.39636457 -19.99878 0.4999755 -4.5384487e-09 1.6280245 0.17506608
00000000: e690 8f40 e9ae e23e 4cf0 cabe 80fd 9fc1
00000010: cafc ff3e 9ef0 9bb1 1b63 d03f 8644 333e

network_body._body_endoder.seq_layers.0.weight f4 [128, 8]
0.14975658 0.0928283 0.08943236 -0.02960903 -0.116657406 0.10457942 0.35853767 -0.0817881
-0.7590428 0.048027955 -0.11764348 -0.051179856 -0.22972856 -0.339893 0.56018925 -0.041922882
-0.28734922 -0.4712442 0.8442764 0.13243303 0.3088411 -0.17251459 -0.58628845 0.019313483
0.054229576 0.082152955 0.17634644 0.08562737 -0.38326228 0.028393753 0.1814486 0.34322423
-0.09596398 -0.43360367 -0.26974267 -0.31379688 0.7353533 0.05940426 -0.2492117 0.72825885
0.16716272 -0.24553376 0.44641152 0.042178374 0.40101528 -0.030710619 0.61328506 0.054934785
-0.6719868 -0.13901228 0.14693493 0.34118104 0.011319736 0.19584745 0.04811571 -0.053779423
-0.19371255 0.2669653 0.04481988 0.33656457 0.005207886 0.30677205 -0.26648572 -0.15086514
0.42584127 0.035983168 -0.005420676 -0.80317926 -0.105791055 -0.37165624 0.22945066 -0.051885515
0.06485472 0.27260885 -0.1459351 0.21302204 -0.24703993 3.136241e-05 -0.7405133 0.11382443
0.28836694 0.39877453 -0.53067493 0.3488541 -0.1493616 -0.10496804 -0.8179057 0.087241195
-0.13638507 -0.07434608 0.3457883 0.43609944 0.10439785 -0.102959305 -0.057993297 -0.20653047
-0.34589309 -0.29337382 -0.13003667 0.07753654 0.15280198 -0.14351915 -0.24230781 -0.18920495
0.017733272 0.29643098 -0.13526547 0.45418867 0.037266888 -0.0968763 -0.47231284 -0.029658036
0.8851501 0.14239785 -0.040933594 0.06774854 -0.23991106 0.16792345 0.2794672 -0.0842696
-0.13155726 -0.11677357 0.29106972 0.029650407 -0.29681388 -0.03630405 -0.36695266 -0.5593564
0.1705487 -0.26714754 -0.6999648 0.64787555 -0.29775026 -0.16333228 -0.032025523 0.18780968
-0.35215762 -0.02307981 0.38539803 0.59411514 0.30000806 0.13376708 0.055046372 -0.27040863
0.7206369 -0.014279808 0.4216739 0.2008148 0.04010761 -0.17859429 0.4551441 0.39365584
-0.45728064 0.1860645 -0.053668987 -0.005080005 -0.07782698 0.04049302 -0.28532085 -0.280075
0.06547167 0.28051385 0.1569778 0.41309893 -0.7754662 -0.031744555 0.49667677 -0.31329742
0.15047465 0.6682005 0.45989475 -0.2910076 0.13804887 -0.3143268 -0.045505878 0.28897983
0.13764304 -0.40243286 -0.16883038 -0.6213325 -0.4562935 0.43453345 0.3620157 -0.17914835
0.7939537 0.1528756 0.40722048 -0.46159837 -0.45962003 -0.127216 0.4012711 -0.13796446
0.2779754 -0.4143164 0.36716855 0.10074584 0.5010748 0.6017657 0.15691255 0.10983358
-0.72182435 -0.0983876 -0.11630061 0.23088914 0.35013655 0.55148673 0.50300676 0.24354637
-0.30927786 0.080933325 -0.44142264 0.4386891 0.06341896 1.0222999 -0.6253628 0.2739077
0.4257703 -0.29391763 -0.2159371 -0.12380455 0.080938004 -0.6208938 0.5618765 0.6486189
-0.16164447 0.53304034 -0.12835325 0.15486316 -0.23711716 -0.59249467 0.13803852 0.44857395
0.15715314 0.124574035 -0.6600346 0.23788865 -0.6403303 0.68877804 0.38952187 0.12845904
0.10558895 0.05393725 -0.035804786 -0.22207072 0.16526116 -0.26222432 -0.2648727 0.38326126
-0.17115948 0.03564512 0.08432746 0.5228295 -0.03335433 0.2715973 0.030250493 -0.3014103
00000000: ca59 193e c41c be3d 5028 b73d a38e f2bc
00000010: 14ea eebd bc2d d63d 4092 b73e 8580 a7bd
00000020: a150 42bf f6b8 443d 11ef f0bd f8a1 51bd
00000030: f73d 6bbe 7506 aebe 9068 0f3f 54b7 2bbd
00000040: 701f 93be eb46 f1be 8022 583f 869c 073e
00000050: 6c20 9e3e aaa7 30be 0017 16bf 4f37 9e3c
00000060: d51f 5e3d cf3f a83d 2994 343e 675d af3d
00000070: f43a c4be 049a e83c a9cd 393e 16bb af3e
00000080: c388 c4bd 4d01 debe b61b 8abe fca9 a0be
00000090: 1d40 3c3f e251 733d 5a31 7fbe 2c6f 3a3f
000000a0: b42c 2b3e 346d 7bbe 0d90 e43e 3bc3 2c3d
000000b0: e051 cd3e d694 fbbc 4000 1d3f 4c03 613d
000000c0: 5407 2cbf 3c59 0ebe 1c76 163e 48af ae3e
000000d0: 6a76 393c 3c8c 483e fb14 453d d047 5cbd
000000e0: 955c 46be adaf 883e 0d95 373d 3152 ac3e
000000f0: eaa6 aa3b 3a11 9d3e d170 88be 647c 1abe
00000100: de07 da3e 1663 133d ed9f b1bb 289d 4dbf
00000110: fba8 d8bd ba49 bebe 1df5 6a3e e885 54bd
00000120: 8dd2 843d 6393 8b3e 0370 15be 7322 5a3e
00000130: 09f8 7cbe 228b 0338 4892 3dbf c81c e93d
00000140: d5a4 933e 2d2c cc3e 50da 07bf 019d b23e
00000150: 3ff2 18be 7cf9 d6bd 4562 51bf 83ab b23d
00000160: 87a8 0bbe c242 98bd 2a0b b13e 6d48 df3e
00000170: 8ace d53d 54dc d2bd 618a 6dbd b97c 53be
00000180: e618 b1be 1835 96be 5528 05be 7acb 9e3d
00000190: 1f78 1c3e aff6 12be 8a1f 78be f1be 41be
000001a0: 5e45 913c cdc5 973e 0883 0abe 6b8b e83e
000001b0: 2aa5 183d 1567 c6bd fdd2 f1be 69f5 f2bc
000001c0: 3299 623f bed0 113e fca9 27bd bfbf 8a3d
000001d0: 3fab 75be 20f4 2b3e 5316 8f3e 8a95 acbd
000001e0: f2b6 06be fb26 efbd 1707 953e 69e5 f23c
000001f0: fdf7 97be 8eb3 14bd 38e1 bbbe fb31 0fbf
00000200: 52a4 2e3e 90c7 88be e530 33bf 2cdb 253f
00000210: b972 98be 9440 27be 322d 03bd 2e51 403e
00000220: 014e b4be df11 bdbc e452 c53e ee17 183f
00000230: a89a 993e 3dfa 083e 4e78 613d 0073 8abe
00000240: a97b 383f dbf5 69bc a4e5 d73e 65a2 4d3e
00000250: e147 243d 6ce1 36be a608 e93e 428d c93e
00000260: b020 eabe b187 3e3e 03d4 5bbd 2c76 a6bb
00000270: c063 9fbd 02dc 253d 9315 92be fe65 8fbe
00000280: 0316 863d 839f 8f3e cabe 203e b481 d33e
00000290: f484 46bf 9406 02bd 6b4c fe3e 8568 a0be
000002a0: 0716 1a3e 300f 2b3f 5377 eb3e f3fe 94be
000002b0: af5c 0d3e 71ef a0be 5f64 3abd 2af5 933e
000002c0: 4cf2 0c3e ae0b cebe dfe1 2cbe a60f 1fbf
000002d0: 4d9f e9be 2b7b de3e 1f5a b93e aa72 37be
000002e0: 8d40 4b3f 6c8b 1c3e 347f d03e 9f56 ecbe
000002f0: 5153 ebbe e944 02be 6873 cd3e 8e46 0dbe
00000300: cb52 8e3e 4721 d4be 84fd bb3e d653 ce3d
00000310: 7046 003f 510d 1a3f afad 203e 6ef0 e03d
00000320: 7bc9 38bf 707f c9bd 042f eebd 346e 6c3e
00000330: 1945 b33e 3c2e 0d3f 0dc5 003f 3864 793e
00000340: ab59 9ebe 5fc0 a53d 2602 e2be dc9b e03e
00000350: cde1 813d b9da 823f c717 20bf a13d 8c3e
00000360: 91fe d93e 5f7c 96be 9d1e 5dbe 3d8d fdbd
00000370: d3c2 a53d e5f2 1ebf 23d7 0f3f e30b 263f
00000380: 2186 25be 5575 083f 096f 03be 7394 1e3e
00000390: d7ce 72be bbad 17bf f859 0d3e 7cab e53e
000003a0: c1ec 203e ac20 ff3d 07f8 28bf 1599 733e
000003b0: b0ec 23bf c253 303f 696f c73e c48a 033e
000003c0: 053f d83d 4eed 5c3d 0aa8 12bd 8266 63be
000003d0: 393a 293e 4442 86be 659d 87be d23a c43e
000003e0: 6e44 2fbe 9e00 123d e0b3 ac3d 27d8 053f
000003f0: 8d9e 08bd cd0e 8b3e e2cf f73c 7352 9abe

network_body._body_endoder.seq_layers.0.bias f4 [128]
0.0018726108 -0.0011662688 0.0012597457 0.005723828 -0.001788406 -0.018629877 0.007993429 -0.0012906144
-0.0027212624 0.0071718614 -0.002789147 -0.0021878723 -0.003307692 -0.0016913426 -0.00028605212 -0.0069683823
-0.00019680028 0.0027755555 -0.008116367 0.0028706205 0.00018751764 9.0070156e-05 -0.016633924 0.0029471454
-0.0032003068 -0.0056638806 -0.002113736 -0.0032889156 -0.00614556 -0.0003397237 0.00025452184 -0.0031306704
-0.0017817952 -0.0041507827 0.0044844253 -0.0010807974 0.00029339184 -0.008940937 0.0003223033 -0.0007364869
-0.0013096746 -0.005853273 -0.001285452 -0.0013582072 -0.009098092 -0.0045639854 -0.0038104241 -0.0024729115
-0.00566932 -0.0027245462 -0.005774716 -0.00947627 -0.0066136443 -0.0027059014 0.0022150197 -0.0038891514
-0.0018609088 -0.003684781 -0.005382694 0.0052725705 -0.0009416658 0.009897788 -0.0018693242 -0.0036235007
0.000786873 -0.0027323728 -0.003815284 -0.013617643 -0.0029891888 0.00018273867 -0.010923138 -0.0025717386
0.008399717 -0.00060524885 -0.001631441 0.00034880184 -0.0019862861 0.002399634 -0.005024067 -0.0050277556
-0.003896853 0.0011202275 -0.0029306635 -0.0026325171 -0.011114308 -0.0012816808 0.0029266872 -0.004163502
-0.0039037012 0.0014654718 -0.0045422628 0.008563089 0.0025438666 -0.0077365167 -0.0018571392 -0.0010194401
-0.00730752 0.0005748945 0.0006718929 -0.0018691584 0.0013418366 -0.0033850775 -0.0016202761 -0.0019035169
-0.00880358 -0.0018232131 0.0021044277 -0.008796718 -0.0012128957 -0.0028748577 -0.0043370407 -0.015484463
-0.0037760213 -0.0031246934 -0.004439797 -0.0025987965 0.002690578 -0.004315419 0.0007011106 0.0009319233
-0.00027743212 -0.0015818829 0.00021919391 0.006138242 -0.004651853 0.00013281469 -0.0039391313 -0.002753708
00000000: 6472 f53a 7ddd 98ba 0d1e a53a f38e bb3b
00000010: f368 eaba af9d 98bc dff6 023c d529 a9ba
00000020: 3557 32bb ef01 eb3b 1fca 36bb 6862 0fbb
00000030: ddc5 58bb 0ab0 ddba 44f9 95b9 0757 e4bb
00000040: 2c5c 4eb9 18e6 353b 83fa 04bc 0521 3c3b
00000050: 62a0 4439 0ce4 bc38 de43 88bc e524 413b
00000060: 3dbc 51bb 1398 b9bb 9b86 0abb d98a 57bb
00000070: b260 c9bb f11c b2b9 5871 8539 ef2b 4dbb
00000080: 208b e9ba 4a03 88bb 16f2 923b 8ba9 8dba
00000090: 63d2 9939 027d 12bc d1fa a839 cd10 41ba
000000a0: 63a9 abba d0cc bfbb 9d7c a8ba df05 b2ba
000000b0: 2a10 15bc 7c8d 95bb 4fb8 79bb 9210 22bb
000000c0: b4c5 b9bb 4d8e 32bb d439 bdbb 5b42 1bbc
000000d0: 45b7 d8bb 7e55 31bb dd29 113b 22e1 7ebb
000000e0: bde9 f3ba 5e7c 71bb 4f61 b0bb 87c5 ac3b
000000f0: 1fda 76ba 552a 223c 1d04 f5ba 4178 6dbb
00000100: 2746 4e3a 9c11 33bb d809 7abb 891c 5fbc
00000110: 44e6 43bb 8a9d 3f39 f6f6 32bc 9d8a 28bb
00000120: f79e 093c 90a9 1eba 13d6 d5ba 64df b639
00000130: 5a2c 02bb 2e43 1d3b eea0 a4bb dfbf a4bb
00000140: 5862 7fbb 99d4 923a 6010 40bb 4f86 2cbb
00000150: c918 36bc 12fe a7ba aacd 3f3b fc6d 88bb
00000160: 3dd5 7fbb 1315 c03a 43d7 94bb 334c 0c3c
00000170: 00b7 263b 9b82 fdbb 406b f3ba bc9e 85ba
00000180: ec73 efbb 84b4 163a f821 303a 8cfe f4ba
00000190: 91e0 af3a 2dd8 5dbb 725f d4ba 6e7f f9ba
000001a0: e43c 10bc e1f8 eeba 70ea 093b 1c20 10bc
000001b0: 07fa 9eba 1c68 3cbb bc1d 8ebb 8cb2 7dbc
000001c0: 2077 77bb a8c7 4cbb b77b 91bb 9250 2abb
000001d0: 6954 303b 5c68 8dbb bcca 373a 504c 743a
000001e0: 4f74 91b9 2f57 cfba 6bd7 6539 4e23 c93b
000001f0: 926e 98bb 2c44 0b39 d413 81bb 8e77 34bb

network_body._body_endoder.seq_layers.2.weight f4 [128, 128]
-0.0070852097 0.07957745 -0.1705179 0.11283179 0.011656814 0.12675902 -0.015769258 0.033841178
-0.21705125 -0.068029225 0.0909833 -0.04930643 -0.015750851 0.04193584 -0.015194848 0.12185032
-0.041859455 -0.12844062 -0.13689978 -0.01783148 0.08762935 -0.05670669 -0.06486697 0.015436911
0.094115 0.013923517 -0.04753335 0.10473568 -0.04035782 0.17003754 -0.07374551 0.079450965
0.06330109 0.18736827 -0.13742127 -0.227416 -0.025207961 -0.041452233 0.2724383 0.0476306
0.045113172 -0.13817231 0.030071676 0.083067596 -0.005987014 -0.021504182 0.058972437 -0.047777046
-0.00233898 -0.019049207 -0.065670095 -0.15109208 0.02878457 0.15520154 -0.104468994 -0.01922995
0.056224305 -0.047552798 -0.11518269 0.088726945 0.1266197 -0.08040931 0.10632866 -0.18554136
-0.055576663 -0.14947972 -0.07264163 0.028443433 -0.086493425 0.06280435 -0.10296409 -0.05736547
0.022916978 0.05114778 -0.122476555 0.12230056 -0.005065501 0.03570507 0.10008411 0.0801566
-0.028841324 0.24312453 -5.12943e-05 -0.04896858 0.0016049896 0.13945907 -0.1282184 -0.08605776
-0.07776799 -0.081463166 0.01750932 0.10246132 0.027118072 -0.09684121 -0.08545917 0.027660614
0.045094416 0.022444913 0.070026204 -0.025193768 -0.024170572 0.065479346 0.12253828 0.118604146
0.04499707 -0.09695363 -0.024319703 0.0035933745 -0.046090465 0.17203353 -0.07657747 0.10415272
-0.08929843 -0.015199728 0.057547443 -0.067064844 -0.025334451 0.08157708 0.07333631 0.12302306
-0.17122458 -0.21162425 -0.17173852 0.011383101 0.116170704 0.10926987 0.13988407 -0.014726185
0.10905943 0.08674105 0.11398649 -0.031380426 0.0326451 0.12111075 0.12013355 0.07261251
0.15807913 0.17612413 -0.08811891 0.26216677 0.026460841 0.011781086 0.014075598 -0.011504353
0.027270347 -0.06036315 0.025511691 -0.1737971 0.03171115 0.04563458 -0.014649857 0.034682535
-0.009857233 0.015918573 -0.09931949 0.08100525 0.055111196 0.009222789 0.11424597 0.14521492
-0.11267206 0.05915087 0.079621784 -0.15012293 0.081254244 -0.03552486 0.1379648 0.15264015
-0.04140303 -0.05843837 -0.16426933 0.016207747 -0.010025229 -0.12208965 -0.10162168 0.0038663016
0.030503144 0.012990315 0.0085406825 0.06191645 0.0063185175 -0.110324584 -0.109940715 0.0131119
0.11107005 0.056747753 -0.06996526 -0.001319915 0.09499098 -0.099079065 -0.1886036 0.11911529
-0.03004016 -0.06384021 0.008549755 -0.122624755 -0.2015852 -0.09840628 -0.046618547 -0.07631861
-0.03451441 -0.15412267 0.021213168 -0.041241612 -0.073599935 -0.04322567 0.08174017 0.09433567
-0.0057477197 0.044268917 0.16102979 -0.052326288 -0.040779296 -0.048495337 -0.09358581 -0.020255122
0.07714159 0.0104425065 0.056912318 -0.08034083 0.0021399385 -0.015195479 0.034574866 -0.10399877
-0.018140653 0.1830245 0.10005197 -0.10132335 -0.1454504 0.03578492 0.056851283 -0.13097781
-0.0877709 0.016244452 0.063227415 0.03573077 0.08008173 -0.094637334 0.008376134 -0.052835226
-0.037509087 -0.14188194 -0.05161256 0.007599076 0.005690905 0.11053313 0.07442846 0.007971568
-0.013912261 -0.011954266 -0.013030522 0.13100095 0.08617177 0.0075689475 -0.07035777 0.054050557
00000000: 0c2b e8bb 81f9 a23d 3f9c 2ebe 5a14 e73d
00000010: 39fc 3e3c 1ecd 013e 882e 81bc 0c9d 0a3d
00000020: af42 5ebe e852 8bbd 7455 ba3d 8af5 49bd
00000030: ee07 81bc eac4 2b3d d0f3 78bc a98c f93d
00000040: d274 2bbd f085 03be 752f 0cbe 5313 92bc
00000050: 0477 b33d 4645 68bd f9d8 84bd 19eb 7c3c
00000060: 5dbf c03d 771f 643c 54b2 42bd a97f d63d
00000070: 3e4e 25bd 521e 2e3e e307 97bd 30b7 a23d
00000080: 00a4 813d 78dd 3f3e 29b8 0cbe bddf 68be
00000090: ed80 cebc d1c9 29bd 087d 8b3e 4e18 433d
000000a0: 97c8 383d 0b7d 0dbe e058 f63c 581f aa3d
000000b0: b72e c4bb 8a29 b0bc 158d 713d ddb1 43bd
000000c0: 9349 19bb 150d 9cbc 0b7e 86bd e2b7 1abe
000000d0: 9ecd eb3c 27ed 1e3e d7f3 d5bd 2188 9dbc
000000e0: 754b 663d b9c6 42bd e7e4 ebbd 79b6 b53d
000000f0: 98a8 013e a3ad a4bd d7c2 d93d 8efe 3dbe
00000100: 5ba4 63bd 3611 19be 23c5 94bd 3402 e93c
00000110: 7723 b1bd 919f 803d d6de d2bd 0ef8 6abd
00000120: 63bc bb3c 5680 513d fdd4 fabd b778 fa3d
00000130: 81fc a5bb 7b3f 123d e6f8 cc3d 2529 a43d
00000140: a444 ecbc a3f5 783e d624 57b8 4793 48bd
00000150: 845e d23a 5cce 0e3e af4b 03be 0d3f b0bd
00000160: d344 9fbd 29d6 a6bd b56f 8f3c 3ed7 d13d
00000170: b826 de3c af54 c6bd 3805 afbd 8398 e23c
00000180: ecb4 383d 65de b73c e669 8f3d 2963 cebc
00000190: 5d01 c6bc 091a 863d 5af5 fa3d bbe6 f23d
000001a0: d94e 383d a08f c6bd 1d3a c7bc d27e 6b3b
000001b0: 5bc9 3cbd 8f29 303e a6d4 9cbd 054e d53d
000001c0: 18e2 b6bd 4808 79bc deb6 6b3d 4b59 89bd
000001d0: 328a cfbc e211 a73d 5931 963d 84f3 fb3d
000001e0: 7f55 2fbe 07b4 58be 39dc 2fbe 3080 3a3c
000001f0: e8ea ed3d e2c8 df3d c53d 0f3e 1946 71bc
00000200: 8d5a df3d 4ba5 b13d c071 e93d c388 00bd
00000210: deb6 053d ea08 f83d 9408 f63d deb5 943d
00000220: 7fdf 213e e259 343e b077 b4bd b93a 863e
00000230: 68c4 d83c 7505 413c 569d 663c c17c 3cbc
00000240: 1066 df3c 5a3f 77bd e5fd d03c def7 31be
00000250: 8de3 013d 53eb 3a3d f405 70bc 460f 0e3d
00000260: 3b80 21bc ab67 823c 0468 cbbd 15e6 a53d
00000270: 47bc 613d 2e1b 173c cbf9 e93d 38b3 143e
00000280: 9cc0 e6bd 2f48 723d bf10 a33d d3b9 19be
00000290: a068 a63d 8482 11bd a546 0d3e b34d 1c3e
000002a0: 3996 29bd 125d 6fbd 3836 28be 1cc6 843c
000002b0: dc40 24bc 230a fabd 071f d0bd c761 7d3b
000002c0: bbe1 f93c 55d5 543c 38ee 0b3c 1a9c 7d3d
000002d0: 910b cf3b dbf1 e1bd 9928 e1bd 4bd3 563c
000002e0: b278 e33d 5570 683d f249 8fbd 0001 adba
000002f0: a28a c23d f7e9 cabd 4d21 41be b8f2 f33d
00000300: c816 f6bc a8be 82bd 4614 0c3c b022 fbbd
00000310: 5a6c 4ebe 3b89 c9bd 17f3 3ebd ee4c 9cbd
00000320: fb5e 0dbd 55d2 1dbe 3dc7 ad3c f7ec 28bd
00000330: 90bb 96bd 660d 31bd 6467 a73d 0f33 c13d
00000340: 5e57 bcbb 5353 353d fee4 243e 1754 56bd
00000350: 3108 27bd 0ca3 46bd eba9 bfbd 12ee a5bc
00000360: 69fc 9d3d 0c17 2b3c e41c 693d bc89 a4bd
00000370: 363e 0c3b 75f6 78bc 609e 0d3d 4ffd d4bd
00000380: b59b 94bc c66a 3b3e 0ce8 cc3d 9e82 cfbd
00000390: f3f0 14be 3593 123d e4dc 683d 0c1f 06be
000003a0: 3bc1 b3bd 1613 853c 607d 813d 6e5a 123d
000003b0: e401 a43d 38d1 c1bd 0d3c 093c c069 58bd
000003c0: 21a3 19bd 8049 11be b167 53bd ab01 f93b
000003d0: c57a ba3b 325f e23d f36d 983d 2e9b 023c
000003e0: 41f0 63bc d3db 43bc f87d 55bc 1d25 063e
000003f0: d37a b03d ef04 f83b bc17 90bd 1e64 5d3d

network_body._body_endoder.seq_layers.2.bias f4 [128]
-0.0017750927 -0.0022957977 -0.0008743014 -0.0011262204 -0.0032455348 -0.003460905 -0.0057071056 -0.002033481
-0.0040347683 -0.0065571223 0.00077957613 -0.007047448 -0.0050696568 9.1585236e-05 -0.0025644158 0.0023795175
-0.003302557 -0.0029550022 -0.009040131 -0.0008432747 -0.0011637014 -0.0014380654 -0.003419358 -0.001588058
0.0012933908 0.0013136605 -6.739641e-05 -0.0041214875 -0.00061759446 -0.0025869226 -0.00174883 -0.0020844073
0.0024374176 0.0018369821 -0.0024633715 -0.0026025372 -0.0009107175 -0.000440679 -0.0021702482 -0.0031367699
-0.0037064604 0.00028058668 0.0041855965 -0.001969069 -0.002572646 -0.0016222653 -0.0013370863 -0.0047328575
-0.0009635954 -0.00023699545 -0.0053682644 -0.0065732813 -0.004050138 0.00051757623 -0.0039272686 -0.002822961
-0.002039825 -0.0006864966 -0.0017322575 -0.003249378 -0.0020469837 -0.002385423 -0.0008377181 -0.00027484223
-0.003315118 -0.002876531 -0.0002739193 -0.000300647 -0.0028551626 -0.001975905 -5.1549086e-05 -0.0060475366
-7.909539e-06 -0.002277689 -0.0006801311 -0.004408358 -0.0003029323 -0.0019796086 0.0067775236 -0.0018005808
-0.0006257896 -0.009321256 -0.0009887608 -0.0030964746 -0.002962793 -0.0011888817 -0.007500451 -0.0020583565
-0.0052747657 -0.0034644487 -0.002272273 -0.0024459339 0.0014205455 -0.010418683 -0.0011246295 -0.0027984702
-0.0036286933 0.0006667322 -0.0023906445 -0.004047276 0.006839902 -0.0018786952 -0.001880659 0.00031687596
-0.004580399 -0.0017808351 0.0018992166 0.0032015792 -0.0031885048 -0.000909448 -0.0025575259 -0.0037620184
-0.0018115825 -0.0037088767 -0.0018365653 -0.00072934706 -0.001635515 0.0009877846 -0.0032413064 -0.0042096544
-0.0041710213 -0.0027558547 -0.0006958107 -0.00029172754 -0.0022716825 -0.0031059976 0.00066478516 -0.0013929186
00000000: 3aaa e8ba 1875 16bb 6031 65ba b09d 93ba
00000010: 0ab3 54bb 5ad0 62bb ac02 bbbb 2644 05bb
00000020: 1736 84bb 21dd d6bb 785c 4c3a 47ee e6bb
00000030: 5d1f a6bb 7311 c038 c20f 28bb aef1 1b3b
00000040: b66f 58bb b6a8 41bb 0f1d 14bc 350f 5dba
00000050: 5787 98ba 787d bcba 4f17 60bb 6226 d0ba
00000060: fe86 a93a 222f ac3a 2c57 8db8 8b0d 87bb
00000070: 10e6 21ba 5c89 29bb ff38 e5ba 8d9a 08bb
00000080: 15bd 1f3b e4c6 f03a 8470 21bb 548f 2abb
00000090: 38bd 6eba ef0a e7b9 b93a 0ebb 4492 4dbb
000000a0: 16e8 72bb b51b 9339 5427 893b 7f0b 01bb
000000b0: d699 28bb 31a2 d4ba 2c41 afba 1616 9bbb
000000c0: cb99 7cba fb81 78b9 44e8 afbb ae64 d7bb
000000d0: 05b7 84bb f4ad 073a 51b0 80bb 6d01 39bb
000000e0: 96ae 05bb 02f6 33ba eb0c e3ba 84f3 54bb
000000f0: b026 06bb c254 1cbb 4f9a 5bba b318 90b9
00000100: 7342 59bb 2f84 3cbb d39c 8fb9 28a0 9db9
00000110: ae1d 3bbb 2f7e 01bb 6936 58b8 6a2a c6bb
00000120: 36b3 04b7 4845 15bb d34a 32ba fd73 90bb
00000130: e3d2 9eb9 52bc 01bb fd15 de3b 7701 ecba
00000140: 070c 24ba 2eb8 18bc 4f99 81ba 39ee 4abb
00000150: 6b2b 42bb 40d4 9bba 58c6 f5bb 7ee5 06bb
00000160: f1d7 acbb ce0b 63bb 6aea 14bb f64b 20bb
00000170: 9931 ba3a 20b3 2abc 4e68 93ba 8a66 37bb
00000180: 5fcf 6dbb a4c7 2e3a 5cac 1cbb 039f 84bb
00000190: 4221 e03b 8d3e f6ba 7280 f6ba 5f22 a639
000001a0: 2c17 96bb e96a e9ba 22ef f83a 96d1 513b
000001b0: 3cf6 50bb 0668 6eba 2a9c 27bb 328c 76bb
000001c0: 9f72 edba a010 73bb e8b8 f0ba a731 3fba
000001d0: c75e d6ba 8d78 813a 196c 54bb 24f1 89bb
000001e0: 10ad 88bb 929b 34bb 1167 36ba 02f3 98b9
000001f0: 82e0 14bb fe8d 4bbb fa44 2e3a 9892 b6ba

action_model._continuous_distribution.log_sigma f4 [1, 2]
0.015919989 -0.010470862
00000000: a36a 823c fa8d 2bbc

action_model._continuous_distribution.mu.weight f4 [2, 128]
-0.010203232 -3.5810284e-05 -0.0027863404 -0.0040838313 -0.0074754967 -0.006179427 -0.031182697 -0.017111996
-0.0018885967 0.004589681 0.023360172 -0.006223976 -0.009125147 0.00034171654 -0.01243041 -0.022180593
-0.014582974 0.005527947 0.0014404462 0.007155494 -0.02295818 0.0054564965 -0.015842604 0.008316119
-0.009198099 -0.008676405 0.018519929 -0.0011865773 -0.011533168 -0.012958792 0.027930716 -0.022992162
0.020556768 0.02633007 -0.012651985 -0.0027363896 -0.0011372251 -0.03801682 -0.012413488 -0.0054131853
-0.006541422 -0.022833893 0.0023893781 -0.015940001 -0.0035082044 0.0135437315 -0.01781405 0.00085630827
0.036073234 0.02802836 -0.0042385557 -0.01073673 0.004185969 0.03706306 -0.018311147 0.001064023
-0.036897913 0.00096679863 -0.0042415513 0.0043144925 -0.01829881 -0.012085644 0.010695951 0.0005549871
-0.0017393087 -0.021518258 0.010406615 -0.008827666 -0.011395009 0.022070426 0.013384619 -0.014322099
0.034551363 0.0006944679 0.02845044 -0.0005627591 -0.03157751 0.016531492 0.018226124 0.014921144
0.021490894 -0.0012218949 0.028883666 0.012553939 -0.011663516 0.027174607 -0.002564174 -0.007389344
-0.001034397 -0.021260612 -0.027252598 0.025403991 0.029351482 -0.0014514904 -0.022587184 0.005129387
-0.007893079 -0.0115035325 0.00877383 2.3907443e-05 0.014425861 -0.004676803 0.010135082 -0.018791132
0.005284831 -0.011241173 0.021949776 0.01926823 -0.018274017 -0.014342112 -0.0062964405 -0.0024272539
-0.01607574 0.008288355 -0.03146062 0.005011513 -0.004575193 0.010208151 -0.023088342 -0.011020649
-0.007952469 -0.0019492303 -0.0061646784 0.006838526 -0.031159572 -0.016516404 0.014439364 -0.0029815708
-0.00047506866 0.02365954 0.030673705 0.027398095 -0.012260079 -0.007915198 0.011542723 -0.009482474
-0.009832191 8.5736574e-05 -0.02847515 -0.0023262124 0.013168723 -0.00035920143 0.015240852 0.0040088287
-0.009513743 -0.039982982 0.00081767014 -0.0063761924 0.0023036697 0.013502173 0.0028204403 0.0060884818
-0.029224431 0.02418634 -0.009476823 -0.008777513 0.031258766 -0.00991254 0.025041193 0.012971065
0.0047687786 -0.00413428 -0.011854164 -0.0074398885 0.014000499 -0.018385671 -0.0051603797 -0.013902803
0.010113867 -0.013603085 -0.022022743 0.024110569 -0.007527455 0.02257618 0.018185329 -0.00061657955
0.033420257 0.010739413 0.00027228356 0.015235018 0.010523342 -0.0050579347 0.03234882 0.008349729
-0.017378893 -0.0033677 0.026066443 -0.013643809 0.0037176104 -0.0029417614 0.054422084 -0.0017183069
0.0096245585 -0.0075209783 -0.0030324 -0.004726625 0.03292457 0.030995369 -0.010636665 0.01601508
-0.011783327 -0.010407521 0.009005049 0.0051952573 -0.0021526115 -0.010399971 -0.008850627 0.021719813
0.006894332 -0.0014056008 0.025393307 0.0026533639 -0.008116537 -0.0026830886 0.003964811 0.012713784
0.0075314883 -0.0069805146 0.03676343 0.012498265 -0.017032731 0.00127713 -0.016731735 0.012480683
-0.0028773912 0.0051858444 0.026043052 -0.0014941064 -0.0012788872 0.01586438 0.009120829 0.01220731
0.010552035 -0.0025039245 -1.8582181e-05 0.002108009 -0.015169517 0.008642852 0.00021014409 -0.017199451
0.008609979 0.012943185 -0.033901326 -0.004245943 0.02285124 -0.028455624 -0.00906886 -0.0030188998
0.00011673723 0.01035627 0.01751578 0.008512849 0.011803749 -0.0005408183 -0.004989829 -0.019625496
00000000: 752b 27bc 0033 16b8 099b 36bb a9d1 85bb
00000010: 03f5 f4bb ca7c cabb db72 ffbc 752e 8cbc
00000020: ca8a f7ba 0965 963b d55d bf3c 7ff2 cbbb
00000030: a481 15bc 6b28 b339 eba8 4bbc 13b4 b5bc
00000040: 6ded 6ebc c823 b53b 5bcd bc3a a278 ea3b
00000050: cb12 bcbc 69cc b23b 59c8 81bc 5540 083c
00000060: a0b3 16bc 7b27 0ebc 1bb7 973c ed86 9bba
00000070: 9df5 3cbc 1d51 54bc f5ce e43c 0f5a bcbc
00000080: ab66 a83c 29b2 d73c 454a 4fbc 0055 33bb
00000090: f10e 95ba 86b7 1bbd f161 4bbc 1761 b1bb
000000a0: 6d59 d6bb 250e bbbc 1d97 1c3b 9b94 82bc
000000b0: e7e9 65bb 87e6 5d3c c5ee 91bc e079 603a
000000c0: 87c1 133d bb9b e53c 95e3 8abb 1ce9 2fbc
000000d0: 742a 893b 6fcf 173d 4201 96bc b076 8b3a
000000e0: 4422 17bd c270 7d3a b6fc 8abb 9660 8d3b
000000f0: 63e7 95bc dd02 46bc 123e 2f3c 8e7c 113a
00000100: 84f9 e3ba 0f47 b0bc 8280 2a3c eaa1 10bc
00000110: 22b2 3abc 0acd b43c 294b 5b3c 3da7 6abc
00000120: bb85 0d3d f40c 363a e610 e93c 2086 13ba
00000130: 6b57 01bd 0d6d 873c f44e 953c d077 743c
00000140: ac0d b03c fd27 a0ba 709d ec3c 09af 4d3c
00000150: 5518 3fbc 489d de3c b30b 28bb 4f22 f2bb
00000160: 9b94 87ba bc2a aebc d740 dfbc 081c d03c
00000170: 8572 f03c f03f beba c208 b9bc 6b14 a83b
00000180: f951 01bc 5079 3cbc 1cc0 0f3c d88c c837
00000190: 725a 6c3c de3f 99bb 9d0d 263c dcef 99bc
000001a0: 602c ad3b e62c 38bc 04d0 b33c 68d8 9d3c
000001b0: 64b3 95bc 2dfb 6abc 5f52 cebb 9012 1fbb
000001c0: 45b1 83bc e1cb 073c dadc 00bd 9e37 a43b
000001d0: 80eb 95bb 1740 273c c323 bdbc f48f 34bc
000001e0: 134b 02bc 517d ffba 1201 cabb b715 e03b
000001f0: 5c42 ffbc 694d 87bc 1593 6c3c 7566 43bb
00000200: a312 f9b9 a7d1 c13c 6c47 fb3c f871 e03c
00000210: 80de 48bc bfae 01bc b01d 3d3c 615c 1bbc
00000220: 3317 21bc 79cd b338 b844 e9bc 5e73 18bb
00000230: a1c1 573c 3353 bcb9 c4b4 793c 7e5c 833b
00000240: 88df 1bbc 32c5 23bd ea58 563a 61ef d0bb
00000250: 2af9 163b 3838 5d3c 23d7 383b e381 c73b
00000260: 1368 efbc 6e22 c63c ad44 1bbc 8fcf 0fbc
00000270: 3109 003d 3568 22bc 3023 cd3c 9784 543c
00000280: 6a43 9c3b db78 87bb f837 42bc 4fca f3bb
00000290: 5962 653c 8c9d 96bc 6718 a9bb 95c8 63bc
000002a0: a2b4 253c 79df 5ebc 0a69 b4bc 8783 c53c
000002b0: dfa8 f6bb aef1 b83c 66f9 943c f4a1 21ba
000002c0: aee3 083d 5df4 2f3c 48c1 8e39 4c9c 793c
000002d0: 186a 2c3c 08bd a5bb 3280 043d 4dcd 083c
000002e0: 2e5e 8ebc a1b4 5cbb 4b89 d53c 488a 5fbc
000002f0: 27a3 733b 91ca 40bb b1e9 5e3d d038 e1ba
00000300: 53b0 1d3c 8a72 f6bb 3bbb 46bb cee1 9abb
00000310: eadb 063d 00ea fd3c 6845 2ebc 0f32 833c
00000320: db0e 41bc 4f84 2abc ea89 133c fa3c aa3b
00000330: d412 0dbb a464 2abc 3802 11bc c0ed b13c
00000340: d9e9 e13b 233c b8ba a005 d03c 0fe4 2d3b
00000350: 39fb 04bc c2d6 2fbb 3feb 813b 7a4d 503c
00000360: b4ca f63b cdbc e4bb 4095 163d 86c5 4c3c
00000370: 3a88 8bbc 5f65 a73a fe10 89bc c77b 4c3c
00000380: 9d92 3cbb 04ee a93b 3d58 d53c e4d5 c3ba
00000390: 55a0 a7ba 04f6 813c 886f 153c 2b01 483c
000003a0: 71e2 2c3c e218 24bb eee0 9bb7 8626 0a3b
000003b0: 9189 78bc c09a 0d3c 205a 5c39 dde5 8cbc
000003c0: df10 0d3c a70f 543c 1edc 0abd 8d21 8bbb
000003d0: 8632 bb3c c51b e9bc 8e95 14bc bcd8 45bb
000003e0: d3d0 f438 58ad 293c 417d 8f3c 7a79 0b3c
000003f0: 8364 413c b4c5 0dba b881 a3bb a6c5 a0bc

action_model._continuous_distribution.mu.bias f4 [2]
0.0001238341 -0.0003347391
00000000: 77d9 0139 ec7f afb9

onnx::Div_51 f4 [8]
1.0669281 0.12700197 2.3771415 0.13000098 0.0072581824 0.006492001 0.73933643 0.7903547
00000000: 1a91 883f ce0c 023e 1623 1840 fa1e 053e
00000010: 0cd6 ed3b daba d43b 2745 3d3f b054 4a3f
