BasicAvoidance/Assets/results/BasicAvoidance1/PlayerAvoidance/PlayerAvoidance-26092.onnx (onnx, 74465 bytes, 8 tensors)

network_body.observation_encoder.processors.0.normalizer.running_mean f4 [6]
000000 b5 fe ce bd 72 fd ff 3e 00 00 00 00 6e d3 60 3c
       -0.10107175 0.4999805 0.0 0.013722284
000010 e8 f8 fe 3e 18 73 54 40
       0.49799275 3.3195248

network_body._body_endoder.seq_layers.0.weight f4 [128, 6]
000000 93 5b 18 be c4 6c 85 be 79 5c 59 bd a6 14 f2 3e
       -0.14878683 -0.26059544 -0.053066704 0.47281379
000010 92 09 b8 3d 33 70 f9 be 92 d8 f1 3e a7 26 6e 3e
       0.089862004 -0.48718414 0.47235543 0.23256932
000020 0c 77 1f 3f 28 51 6c 3e 9a 7a 15 bf 9e 9a 37 be
       0.62291026 0.23077834 -0.583902 -0.17930076
000030 46 24 03 3f 5f 41 29 3f e1 bc f6 3e 38 29 c9 be
       0.51227224 0.66115373 0.48190978 -0.3928926
000040 7a 0e 78 bf d6 12 32 be 79 60 41 3f 05 7c dc 3e
       -0.9689709 -0.17389998 0.7553783 0.4306337
000050 c9 d9 24 3f 8a 26 a0 3e bd d2 d4 3b 93 5f 11 bf
       0.64394814 0.31279403 0.0064948485 -0.5678646
000060 99 04 c8 bd 4a 47 3f 3d 7f b2 97 bd d3 c5 c9 3e
       -0.09766502 0.046698846 -0.07407092 0.3940874
000070 71 1e 17 3e 69 59 cb be 24 82 27 bf 6b 40 ec be
       0.14757706 -0.39716652 -0.65432954 -0.46142897
000080 3f 5a d7 be af e3 38 be 7c e9 36 3e 5d b0 12 3f
       -0.4206104 -0.18055604 0.17862505 0.5730036
000090 cd 18 96 3d 9a 8f c7 3e 11 5f dd be 39 38 2e bf
       0.07328949 0.38976747 -0.43236592 -0.6805454
0000a0 aa 4f 09 3e 39 9b 39 3f d5 ba 35 bf 84 0b 94 be
       0.13409296 0.72502476 -0.7098821 -0.28915036
0000b0 f0 66 b2 3d f8 1e 30 3e b8 c0 f2 be 81 ad 28 3e
       0.0871104 0.17199314 -0.47412658 0.16472436
0000c0 7d ee 6e bf 54 1d 83 3e 91 a6 95 3f 9a 64 b3 3d
       -0.93332654 0.25608313 1.1691457 0.087594226
0000d0 4c b9 3c bd e9 4c 1f 3f de 2b 87 3d 4d d9 43 3e
       -0.04607515 0.6222673 0.06600164 0.19125862
0000e0 07 0b c7 3d 5a 01 85 be d2 79 02 be af 21 50 bd
       0.097189 -0.25977594 -0.12741783 -0.050813373
0000f0 78 76 0b bf e7 86 43 3e 53 1c c6 be 80 95 8f be
       -0.54477644 0.1909443 -0.38693485 -0.28043747
000100 82 7f e2 3d 93 05 28 bf 19 9f 8b 3e 17 5a 86 3e
       0.110594764 -0.65633506 0.2726982 0.26240608
000110 bc 65 07 3f 36 cc 11 3e 67 dc 23 3f 64 24 da 3d
       0.5288961 0.14238057 0.6400818 0.10651472
000120 a5 45 1f be b6 2b a7 bf 05 a2 1e 3f 75 f5 ad 3c
       -0.15553911 -1.3060215 0.6196597 0.021235207
000130 96 c5 00 3f 60 84 c4 3e 92 f2 46 3d be d4 40 bd
       0.5030149 0.38382244 0.048571177 -0.047077887
000140 67 86 9e 3d 90 e5 e0 3e 29 fa 82 3d 59 9d 98 3e
       0.07740479 0.43925142 0.063953705 0.29807547
000150 1d 14 d5 3e 70 4d 50 bd 39 c3 1c 3f a9 5a 38 bf
       0.41616908 -0.0508551 0.61235386 -0.72013336
000160 e7 56 ab 3e dd 66 c8 bd 3f 72 03 3f a0 9e 53 3e
       0.3346474 -0.097852446 0.513462 0.2066598
000170 6e db 14 bf a3 79 26 be c7 37 5f 3e 72 3c 21 3f
       -0.58147323 -0.16257338 0.21798621 0.6298286
000180 67 8f ce be af 9e a8 3d 1a 88 43 bf ae 98 5c be
       -0.40343782 0.082333915 -0.7637955 -0.21542618
000190 96 ba 27 be 6d d8 bc be 78 5f e0 be 30 a2 e9 3d
       -0.1637977 -0.3688387 -0.43822837 0.11407888
0001a0 10 a0 c8 be 8c 49 bc 3e 26 4b aa bd 61 bc 15 3f
       -0.39184618 0.36774862 -0.08315115 0.5849057
0001b0 aa 55 45 3f 42 b1 33 3f 18 2b 41 bd aa 19 84 be
       0.7708384 0.7019235 -0.047160238 -0.2580083
0001c0 9f 2f eb 3d 1e 61 68 3e b5 3e 4f bd 09 50 db 3e
       0.114836924 0.22693297 -0.05059691 0.428345
0001d0 31 7f 26 bf 9e 09 a4 3d e3 c2 fa be 03 e5 cc 3e
       -0.6503783 0.08009647 -0.48976812 0.40018472
0001e0 e1 89 7e be 87 0e 7d 3e 93 4e 33 bf 72 72 9d be
       -0.24857284 0.24712573 -0.7004177 -0.30751377
0001f0 05 55 ca be 6a 55 35 3f ff 97 04 3f f0 43 b3 3e
       -0.3951799 0.70833457 0.5179443 0.3501277
000200 17 fa ed be aa 3c 05 be b0 de 65 be 7c 81 d9 3d
       -0.46479866 -0.13011423 -0.2244823 0.106204
000210 44 d4 7d 3e 23 0e ef 3d 74 d1 99 3e 34 a7 10 bc
       0.24788004 0.11672618 0.30042613 -0.008828927
000220 77 dc 8d 3d ac 4f 82 be a9 3d 06 be d2 13 ac be
       0.06926816 -0.2545141 -0.13109459 -0.33608872
000230 20 ea ed 3e 19 4d 8c 3e f7 d6 42 bf cf 59 09 bf
       0.46467686 0.2740257 -0.7610926 -0.5365266
000240 24 56 da be b1 82 e2 bd 57 6d 1e 3e a0 a6 41 bf
       -0.42643845 -0.11060084 0.15471397 -0.75644875
000250 24 6d 06 bf 1b 4b 1a 3f 48 78 c0 3d 44 60 a3 bc
       -0.52510285 0.6027085 0.09397942 -0.019943364
000260 ca fc 1f 3d c9 5a 9a bd 50 61 bb be 1b bd 00 be
       0.039059438 -0.07536847 -0.3659768 -0.12572138
000270 06 59 a9 3e 47 91 fd 3e 84 b4 43 3e 42 7a 98 3e
       0.33075732 0.495249 0.1911183 0.29780775
000280 b4 18 ac be 31 21 56 3f 90 22 d5 3e 55 43 b2 3d
       -0.33612597 0.83644396 0.41627932 0.08704249
000290 1d 45 82 3e ae 81 e2 be 0b 21 b1 3e 4c 71 7b bd
       0.25443354 -0.44239563 0.34595522 -0.061387345
0002a0 e0 ae 75 3e 3c 18 d5 be 5e 2d 24 3e 17 05 38 3f
       0.23992491 -0.41620052 0.16032931 0.71882766
0002b0 1a f0 73 3d a1 3c e8 be 36 8f 07 be 85 f2 34 3d
       0.05955515 -0.45358756 -0.13238224 0.044176597
0002c0 27 21 5f be 7d 69 8b be aa cc 12 3f 88 f6 d8 3e
       -0.2178999 -0.2722892 0.5734354 0.42375588
0002d0 33 2a 28 bf c3 6f 2f be 93 68 64 3f e3 af 6e 3d
       -0.6568939 -0.17132477 0.8922207 0.058273207
0002e0 61 09 f8 3e 48 3f ac be ae be 93 bd dd bf 30 be
       0.48444656 -0.3364203 -0.07214104 -0.1726069
0002f0 6d bd 06 bf 70 ad 1d be 63 71 d0 3d 9f fc 56 3f
       -0.5263279 -0.15398192 0.10177877 0.8397922
000300 8a 2a e3 3e ed 6e 49 be 9b 47 2d bd a0 22 ec 3d
       0.44368392 -0.19671221 -0.042304616 0.11530042
000310 20 07 83 3e ed 60 9c 3e 19 6d 6f 3e 4d eb 86 bf
       0.25591373 0.30542699 0.23381461 -1.0540558
000320 e5 f2 a6 be fa 63 16 be 13 5b 6e 3f fb 88 37 3e
       -0.3260719 -0.14686576 0.9310772 0.17923348
000330 3b ce 8f 3e ec 23 8f be bc f4 b6 be 04 e6 13 bf
       0.2808703 -0.27957094 -0.35733593 -0.5777285
000340 c1 c5 85 be 3a 3f 62 3d 74 12 99 3e 5c cb c2 be
       -0.26127437 0.05523608 0.2989689 -0.38045776
000350 3e 05 01 bf 0d 38 e6 be 32 ad 33 bf d4 a6 0a bf
       -0.50398624 -0.44964638 -0.7018615 -0.5416081
000360 cb ce ff bc 7c f7 1e be 12 30 fd be 18 1e 51 be
       -0.031226536 -0.15524095 -0.49450737 -0.20421636
000370 e9 70 73 be d8 a1 bd 3d f8 30 c9 3e ec 75 9a 3e
       -0.2377354 0.09259385 0.39295173 0.30168092
000380 c0 f2 ab 3e 44 bf 70 3e c6 1d 1a 3e e6 10 35 be
       0.3358364 0.23510462 0.1505042 -0.17682227
000390 39 0b bb bd 02 26 1d be a3 ab 05 be bc 91 91 be
       -0.09133 -0.1534653 -0.13053755 -0.284315
0003a0 80 fb 96 be 32 d3 5c 3e 04 12 19 be b1 22 ec 3e
       -0.29488754 0.2156494 -0.14948279 0.46120217
0003b0 a6 19 00 3f ff 41 e0 be 8c e8 69 bd 54 b8 c1 3e
       0.50039136 -0.4380035 -0.05710654 0.37835944
0003c0 c9 73 1e 3d 45 3f 79 3f 96 65 7e 3f 36 a6 06 3f
       0.03868464 0.97362167 0.9937376 0.5259737
0003d0 6e 30 12 bf 38 4e 82 be 16 ce 33 bd 98 54 12 3c
       -0.5710515 -0.254503 -0.04389771 0.0089313015
0003e0 a9 4e f8 3d 57 3a ef 3d c5 e6 be be 2a 56 6d be
       0.12124378 0.11681049 -0.37285438 -0.231774
0003f0 62 a8 c5 be 1c 26 39 be cd 5b 0c 3f 08 e3 3b 3f
       -0.38605028 -0.18080944 0.54827577 0.733933

network_body._body_endoder.seq_layers.0.bias f4 [128]
000000 35 fb e6 ba 0c 83 0c bd 37 0d db bc dc dd 89 bb
       -0.0017622473 -0.034304664 -0.0267397 -0.004207356
000010 ef eb 1a 3c 53 b5 01 3d 69 e4 af 3c 61 eb 02 3d
       0.009455665 0.031667065 0.02147122 0.031962756
000020 34 30 09 3d 16 cd 9b bc 58 9c c8 3c 17 7e 08 bc
       0.033493236 -0.019018691 0.024488613 -0.008330843
000030 50 8f 87 3c 0e 81 58 bc 6b 03 11 bd b2 de 0c bd
       0.016547829 -0.013214363 -0.03540365 -0.034392066
000040 79 ca 96 3c 54 90 31 3c 8a 84 56 bd db 3f 0f 3c
       0.018407093 0.010837633 -0.052372493 0.008743252
000050 57 f0 db 3c 54 10 c8 bc a2 47 d8 3b 06 83 43 bc
       0.026848001 -0.024421848 0.006600336 -0.011933094
000060 44 3b 12 3d 12 ec 70 b9 53 cb ca bc 9d c7 70 3c
       0.03570105 -0.00022976127 -0.024755156 0.014696029
000070 a6 a4 8f bc aa ea e6 bc 81 2a d6 3c e7 68 23 3d
       -0.017534565 -0.028188068 0.026143314 0.039894965
000080 d3 bb 7d bd 31 46 8f bc cd 25 20 bd ec e5 47 bd
       -0.0619467 -0.017489525 -0.03909855 -0.048803255
000090 c3 6b 18 3c b2 b6 5a bc d2 dd 22 3c 8c b9 4a 3b
       0.009303036 -0.013349222 0.009940581 0.0030933348
0000a0 24 52 9a bc 93 05 a4 3a 2d 1c e4 3c 79 9a 29 bb
       -0.018837996 0.0012513868 0.027845467 -0.0025879426
0000b0 7b bb f5 bb 7b da 41 3d a2 d6 db bc 46 4a 94 bd
       -0.007499156 0.0473275 -0.026835743 -0.07240729
0000c0 5a 0d 79 3c fd a2 b0 bc 57 5d 9b 3c c8 e8 19 bd
       0.015200937 -0.021562094 0.018965406 -0.037575513
0000d0 ac 9c af bc ab 07 96 3c 36 98 8e bb b8 de 6c bd
       -0.021437012 0.018314203 -0.004351641 -0.05782959
0000e0 eb 80 78 3c 0f 0b d3 bc fe b9 aa bc 74 63 94 3c
       0.015167455 -0.02576211 -0.020840641 0.01811383
0000f0 3f 49 2a bc 16 f9 fe bb 07 d4 6f 3c 06 d9 e2 3c
       -0.01039344 -0.007781158 0.014637954 0.027691375
000100 3c 4e c7 bb a6 93 4f 3c 47 9e 83 bc bb 53 a2 3c
       -0.0060823243 0.0126694795 -0.016066683 0.019815316
000110 be 43 1a bd aa c8 14 3c fd 80 9a 3c 85 39 f5 bc
       -0.03766226 0.009081045 0.018860335 -0.029934654
000120 64 38 57 3c 0e 4d bd bc 7b ca e6 3b eb db 6d bc
       0.013136003 -0.023108032 0.0070431805 -0.014517765
000130 99 a1 f2 3b 37 0f a9 3c a2 fc 2e 3b 4e ad 0f bd
       0.007404518 0.020637138 0.0026700874 -0.035077386
000140 c5 25 8f 3c 11 c5 b2 bc b4 dd e0 3c c7 23 ff 3a
       0.017474065 -0.021822484 0.027449466 0.0019465619
000150 28 de fd bc 81 78 cc 3c 5c 78 8c 3c 96 48 f6 bc
       -0.030989721 0.024959804 0.017147236 -0.030063909
000160 8b b3 b8 bb 69 b6 2e 3c cb 34 1b 3d 0e 5c da bc
       -0.0056366376 0.010663607 0.037892144 -0.026655223
000170 41 4f 3c bd f4 d4 13 bc e9 ef 5b bc 01 61 45 3b
       -0.04597402 -0.00902294 -0.013423898 0.0030117633
000180 3c 97 a6 ba 70 81 a8 3c 1d 67 00 3d 61 dd 00 3d
       -0.0012709866 0.020569533 0.031348336 0.031461123
000190 b2 eb c0 3c 2b 85 25 3d 25 f9 92 bc c6 7f da 3c
       0.023549888 0.040410202 -0.017941067 0.026672255
0001a0 42 5a 79 3c d8 31 5e bc 6e ed c4 39 74 ad c7 3c
       0.015219273 -0.013561688 0.00037560932 0.024374701
0001b0 65 db f8 bc a2 14 f6 3b 05 e7 0c 3c c9 5d 02 bd
       -0.030378053 0.007509784 0.008600001 -0.03182772
0001c0 f5 cc ab bc 7a 06 48 bc eb 73 5e bc 39 bb 09 3d
       -0.020971755 -0.012208575 -0.013577442 0.033625815
0001d0 5e f6 64 3c a6 90 7d bc b3 80 76 3b 9c 02 80 bc
       0.013974754 -0.015476381 0.0037613332 -0.015626244
0001e0 48 39 1d bd 30 72 3a bc f7 77 83 bc 37 19 2a 3c
       -0.038384706 -0.0113797635 -0.016048415 0.010381988
0001f0 fa 75 ca 3c 21 56 34 bd ad 66 94 bc 75 73 27 3c
       0.024714459 -0.04402745 -0.018115366 0.010220398

network_body._body_endoder.seq_layers.2.weight f4 [128, 128]
000000 01 06 32 bd a5 ce 93 3d 6b a2 a4 3d 79 48 9e bd
       -0.043462757 0.07217149 0.08038791 -0.07728667
000010 33 df 76 be 94 6e ba bd de 68 1f 3d 8d 1d 80 bd
       -0.24108581 -0.09103122 0.03891837 -0.06255636
000020 04 72 19 3d ef 89 29 3e 58 ca f5 bd 3d e8 19 3e
       0.03746225 0.16556524 -0.12001485 0.15029998
000030 99 af cb 3a c2 4d 1b 3d b4 b1 bf 3c 77 48 e2 bd
       0.0015540003 0.037915953 0.023400165 -0.11048978
000040 f9 30 78 bd 0d 76 b6 bd 2f ce cf 3c b0 c9 dd bc
       -0.06059358 -0.08909235 0.02536687 -0.027073711
000050 e4 ea bd bd 2d 7b 16 3d 72 fb 69 3d 5f 57 a4 bd
       -0.092733175 0.036738563 0.057124563 -0.08024477
000060 a0 de e0 3c fd 51 98 3d e3 63 d3 bd 26 10 d8 3d
       0.027449906 0.07437513 -0.10321786 0.10549955
000070 4c 61 76 be fb 87 e1 3b 46 9c a6 bc a1 ec 01 be
       -0.24060553 0.006882665 -0.020338189 -0.12687923
000080 73 f8 12 3e 0e 34 cd 3d 03 4f 07 3e 9c f2 2c bd
       0.14352588 0.10019694 0.13213734 -0.042223558
000090 64 4d 87 bc f7 a5 80 bd f3 a7 02 3d 39 1f ba bc
       -0.016516395 -0.06281655 0.03189845 -0.022719966
0000a0 64 1c 8c bd 11 75 1e be d4 d3 fb bd a7 39 f2 3d
       -0.068413526 -0.15474345 -0.122962624 0.118274026
0000b0 9d d0 b6 bd f4 39 01 3e 62 05 4b 39 ee a0 9b 3c
       -0.089265086 0.12619764 0.00019361594 0.018997636
0000c0 85 ea 2d bd 78 f4 c9 3d 1f 6a 36 3d 74 23 39 3c
       -0.042459983 0.09861082 0.0445348 0.011299957
0000d0 c3 14 04 bd 5c 1f fc bc d9 17 cc bd 78 d8 39 be
       -0.032246362 -0.030776672 -0.09965486 -0.18148983
0000e0 df 7b b1 3d 7f e9 6e 3d a6 fe b3 bd 0d b9 71 bc
       0.08666205 0.058328148 -0.08788805 -0.014753592
0000f0 7c a6 8b 3c 3c 41 a7 bd 36 7f 3e 3d 7a c9 3a be
       0.01704716 -0.08166739 0.046508037 -0.1824092
000100 3a f1 17 3e b0 21 6f 3d c6 73 c9 3d 5c d9 97 bc
       0.14838114 0.058381736 0.09836535 -0.018536262
000110 b5 f2 f7 3d 57 a5 6c 3c f1 7c ba bc b5 14 f2 bd
       0.121068396 0.014443717 -0.022764655 -0.11820356
000120 5e 93 8f bd 3f dc 83 3e 55 a3 89 3d 99 c9 fd bd
       -0.0701053 0.25753972 0.06720606 -0.12391967
000130 5b 25 d5 bd b4 bd 38 be 34 91 35 3e 9c 5d 9b 3c
       -0.104075156 -0.18041116 0.17731172 0.018965535
000140 f3 e2 9c 3d c1 c6 bf bd 1d 5c 9c 3d 0b 37 46 bd
       0.07660475 -0.09364081 0.07634757 -0.048392337
000150 8d 45 3b 3d 32 c6 aa bd ec ee dc 3c b7 03 94 bd
       0.045720626 -0.08338584 0.026969396 -0.07227271
000160 e5 11 19 be 38 6a a1 3d 11 e9 1d 3e 96 2f ef bd
       -0.14948232 0.07881588 0.15420939 -0.11678998
000170 b5 cc ca 3c d6 3f 84 bd ef ce f1 3d 3a 57 82 3c
       0.024755815 -0.06457488 0.118070476 0.015910733
000180 9f 23 e3 bd 13 4d 3c be a5 32 11 bc 3a 32 2d bd
       -0.110907786 -0.18388776 -0.008862172 -0.042284228
000190 ea a3 75 3c 6b 63 b7 bc b4 13 7e bd d4 e2 7e be
       0.014992693 -0.022386273 -0.06203051 -0.24891216
0001a0 1a c0 1a be 38 45 36 be 20 a3 7e bc 8b 4b bd bd
       -0.15112343 -0.17799842 -0.015541822 -0.09242924
0001b0 c8 b6 ed 3b eb ff 9d 3c 1f fa cd bd 87 3f df bc
       0.0072544552 0.01928707 -0.100574724 -0.027251972
0001c0 3e 83 85 3d 9e bf c8 bc 69 38 f9 3c a9 f7 05 be
       0.06519173 -0.024505433 0.030422406 -0.13082756
0001d0 88 06 8f bd f1 e2 5c bd 3c 9e 72 bd ce cb 87 3d
       -0.069836676 -0.053927366 -0.059232935 0.066306695
0001e0 ab f1 4c bd e0 b9 31 be 73 ab 3f 3e bc 09 01 be
       -0.05003516 -0.17356062 0.18717746 -0.1260137
0001f0 f5 e1 eb bd 84 52 75 bd 44 e2 97 3d 50 28 a1 3d
       -0.11517707 -0.059893146 0.074162036 0.07869017
000200 9c de 80 bd 51 0f ba 3d be 56 c3 3b 80 03 e7 bd
       -0.06292459 0.090849526 0.005961268 -0.112799644
000210 7b 23 08 be af 4d 58 bd 8a 2d 8c 3d c7 b3 87 3d
       -0.13294785 -0.05280846 0.068446234 0.06626087
000220 db f1 e7 3d 21 ea 95 3d 7e 84 8c bd 7b bd df 3c
       0.11325427 0.07320047 -0.068612084 0.027312031
000230 a7 af f9 bd 5e 9f c9 3c 2f 86 e4 bd c7 0d 65 3b
       -0.12191706 0.024612125 -0.11158406 0.003495084
000240 6e 66 22 3d 1b 55 3c bb a5 42 06 be 33 d4 29 3d
       0.039648466 -0.002873725 -0.1311136 0.041462135
000250 6c 31 6b bd 29 09 fa 3d de 36 f2 bd 38 c7 83 bd
       -0.05742018 0.122087784 -0.11826871 -0.06434482
000260 d7 59 fc 3d 0f 53 52 3c 19 65 1f 3e 4d 09 1f 3e
       0.12321823 0.0128371855 0.1556591 0.15530892
000270 0a b3 fe bc 47 5f cf bc 3f 10 ad bd dc 33 3a 3d
       -0.031091232 -0.025313986 -0.08450364 0.045459613
000280 10 c2 99 bc b0 a4 d7 3c e1 14 aa 3d ae b0 5e bd
       -0.018769294 0.026323646 0.083047636 -0.054367714
000290 19 22 fe 3c 6d c8 8a 3d e1 3b 47 3e 49 36 d8 3d
       0.031022118 0.067765094 0.19456436 0.10557229
0002a0 78 f5 24 bc a3 75 bf 3d eb 55 37 bb c3 68 62 3e
       -0.01006829 0.09348609 -0.0027974795 0.22110276
0002b0 cc ee 44 bd 67 cf 22 3e 08 d7 6e bc ed c2 03 3e
       -0.048079297 0.1589943 -0.014577635 0.12867327
0002c0 d1 02 84 bd c7 aa 69 bd b1 a5 78 3d ac f5 a4 bd
       -0.0644585 -0.05704763 0.06070489 -0.08054671
0002d0 26 f6 30 3c b9 0a 68 bd c4 60 32 3d 64 3d c5 ba
       0.010800874 -0.05665085 0.043549314 -0.0015048203
0002e0 44 17 ce 3b b9 11 d7 bc 6b cf 5f 3d 72 95 0e bc
       0.0062893946 -0.026253568 0.05464117 -0.008702623
0002f0 e1 ad 1f bd a5 77 50 3d 8b 77 15 bd 67 b5 01 be
       -0.038984183 0.050895352 -0.03649096 -0.12666856
000300 b9 e3 0f 3e ae 14 fa 3d 2a 52 6b bd 01 22 2e bb
       0.14051713 0.122109756 -0.057451405 -0.002657056
000310 cd dd 80 bc b5 a0 18 3c e2 3b 9d bc 26 5a 15 3d
       -0.015730763 0.009315659 -0.019193593 0.036462925
000320 a2 c0 cc 3b e5 c8 c8 bc d5 a8 ae bd e0 fd f4 3c
       0.0062485496 -0.024509856 -0.08528296 0.029906213
000330 3e 54 46 3d 5c d7 08 bd 49 75 30 be c4 71 fa 3c
       0.048420183 -0.033408508 -0.1723224 0.030571826
000340 b6 d5 6e 3d 8c 95 26 be 51 fb c8 bc ce 59 19 bd
       0.05830928 -0.16267985 -0.0245339 -0.03743916
000350 d8 f5 3e 3d 42 2d bf bd 10 77 98 3c 9f 70 b9 bd
       0.046621174 -0.09334804 0.01861146 -0.09054684
000360 db 7d 3c be 75 8c 2f be eb f1 46 3d 70 5d de bd
       -0.18407385 -0.17143424 0.048570555 -0.108576655
000370 ab 37 4c bd 2d 2c b9 3d d2 7c 87 3b 9d 3f d0 3d
       -0.049857777 0.09041629 0.004134753 0.10168383
000380 00 d5 f1 bc 9d 74 0d be 72 2d 74 3d 67 2a 7c bd
       -0.029520512 -0.13814016 0.059613653 -0.061563876
000390 6a 4b 9c 3d 40 dc 2e be a2 88 f7 3b da 57 01 be
       0.076315716 -0.17076206 0.0075541297 -0.12631169
0003a0 fb a2 99 3d fa b4 72 3c 0a f9 ec bd 1b 5f e6 3d
       0.07501789 0.014813656 -0.11570938 0.11248609
0003b0 62 51 e3 3d 39 cb a9 3d 30 5c c6 bd 53 76 5b 3c
       0.11099507 0.08290715 -0.09685552 0.01339491
0003c0 47 55 ea 3d 5c b1 45 3d 07 2d 48 bd 0e bd c5 3d
       0.114420466 0.048264846 -0.048871066 0.096552
0003d0 52 a6 38 3d f1 52 26 3e 02 1b 96 3c 8f b9 e2 3d
       0.04508049 0.16242577 0.018323425 0.11070549
0003e0 f2 86 2b be da 7e 72 3d 18 b6 20 3e 02 9d 3e 3d
       -0.16750696 0.059203006 0.15694463 0.046536453
0003f0 2c 21 b3 3d 46 44 d4 3d 80 03 6b bd b0 14 4a be
       0.087465614 0.103645846 -0.057376385 -0.19734454

network_body._body_endoder.seq_layers.2.bias f4 [128]
000000 11 38 a0 3b 54 ec e7 3b 77 ab 0c bb 5f 82 83 bd
       0.004889496 0.007077733 -0.0021464506 -0.06421351
000010 3e 44 a1 bc ad 09 89 3c 92 ca 55 3c 5d d7 03 bc
       -0.01968586 0.016728247 0.013048785 -0.008046952
000020 dd 2a 92 bc d2 cc 55 bb 56 fc 8b bc 67 63 ad 3c
       -0.017842704 -0.0032623303 -0.017088097 0.021165563
000030 e6 26 bc 3b ea 16 d0 3c 78 ad 09 bc f6 88 48 3a
       0.0057419417 0.025401551 -0.008403175 0.00076498033
000040 32 67 f0 3b c2 03 b6 bc ef 02 a6 3c 0d 17 c7 bb
       0.0073365206 -0.022218589 0.02026507 -0.006075746
000050 98 40 d8 bc c7 ed 10 3c 53 de b2 bc 07 4a b6 3c
       -0.026397988 0.008845753 -0.021834528 0.022252096
000060 30 b7 0c bc 6c 17 93 3c a0 6f 13 bc 76 5c 73 3c
       -0.008588597 0.017955504 -0.008998781 0.014853587
000070 41 fc 86 3c 76 d8 0d bd d6 c6 7a 39 2a 33 ab bb
       0.016477706 -0.03463026 0.0002391593 -0.005224605
000080 f3 83 d4 bc 28 a8 45 3a 46 54 b1 3b af 58 1c 3c
       -0.025941825 0.0007540011 0.0054116575 0.009542628
000090 1b ed 8c 3b 0f 15 b6 bb fd 58 0f bc 74 a7 65 3c
       0.004300726 -0.0055567096 -0.008749244 0.014016975
0000a0 f5 82 bf 3c 5b b0 9e 3c fa f6 b8 3a 54 57 69 3c
       0.023377875 0.019371202 0.0014111691 0.014242012
0000b0 9c b1 9b bc b3 9d 02 3c b1 95 26 bd 69 9b 07 3d
       -0.01900559 0.007972169 -0.0406701 0.033107195
0000c0 c2 2c 9d 3c c1 0f 56 3c fe 12 ed 3a 25 c8 38 bd
       0.019186381 0.013065279 0.0018087325 -0.045112748
0000d0 c1 70 ee bc ff bd 43 3c 4f a7 59 3c 2f 26 e1 3b
       -0.0291065 0.011947154 0.013284518 0.006871007
0000e0 a4 4f 08 bd 98 36 85 bc 87 e8 16 3c a1 5c 51 3c
       -0.033279076 -0.016261384 0.009210712 0.012778432
0000f0 e9 54 68 3c 4e d4 16 bc 5b 83 02 bb 09 df 80 3a
       0.0141804 -0.009205891 -0.001991472 0.0009832095
000100 98 d1 a2 3c 4c 20 60 bc 96 6b 97 3c ee 8c 0b 3d
       0.019875333 -0.013679575 0.018483918 0.034069948
000110 9e 63 d9 3b d1 71 59 3c cb 75 ea 3b 86 1f ff bc
       0.0066341897 0.013271765 0.0071551553 -0.031142961
000120 e6 e2 e2 bb 63 fb 92 3c b7 12 ff bc fc 35 7a 3c
       -0.006924021 0.017942136 -0.031136854 0.01527166
000130 b3 db 93 bc 60 2c d2 3b 78 15 81 3c 45 de d1 bb
       -0.018049097 0.0064139813 0.015757307 -0.0064046704
000140 ae 4d 1c bc 63 84 a7 3c b6 8e 86 bc 52 c4 c3 bc
       -0.009540005 0.02044887 -0.016425472 -0.023897324
000150 70 ab 0d 3d e4 3f 8b 3a 95 96 18 3c d1 72 8a 3c
       0.034587324 0.0010623899 0.009313245 0.016900452
000160 3d 7a 7d bd e4 91 d8 bb f1 2d 1b 3c 38 86 6a bd
       -0.061884154 -0.0066091884 0.0094714025 -0.057256907
000170 7a 55 64 bc f8 5c 49 3c d9 9e 28 3c 1e 19 b9 ba
       -0.013936395 0.012290232 0.0102917785 -0.0014121865
000180 02 ec 52 3c 6d b4 12 bd 9d f7 b3 3c f6 d3 b7 3a
       0.012873651 -0.0358166 0.021968657 0.0014024961
000190 6f 48 c1 bb 7e 42 3f 3c be d4 5b bc 12 59 03 bd
       -0.0058985273 0.011673568 -0.013417421 -0.032067366
0001a0 e9 25 0c ba ea a1 25 3c e8 eb 61 37 ef 28 9b 3c
       -0.0005346225 0.010109404 1.3465971e-05 0.018940417
0001b0 f1 de 9d bc 7f 80 73 bc 62 f3 23 bc d5 61 d5 bc
       -0.019271346 -0.014862179 -0.010006757 -0.026047627
0001c0 55 74 69 bc 10 46 28 3c 5f ca 6d ba 6d 14 00 3c
       -0.014248927 0.01027061 -0.0009070988 0.00781737
0001d0 80 a9 4f bb 85 aa 23 bb 34 66 b0 bc 72 8f ac bc
       -0.0031686723 -0.0024973464 -0.02153311 -0.021064494
0001e0 2a 80 59 bc 6c 22 06 bc 8f b8 57 3c b3 d2 82 3c
       -0.013275186 -0.008186918 0.013166561 0.01596961
0001f0 c2 0d 71 3b 78 d4 98 bc d2 e6 5e bc e0 e4 5d 3c
       0.0036781882 -0.018656 -0.013604837 0.013543338

action_model._discrete_distribution.branches.0.weight f4 [3, 128]
000000 77 64 55 bc 2a 15 e1 3c 1b 5d 41 3c fa 11 e6 bb
       -0.013024441 0.027475912 0.011801983 -0.007021186
000010 f6 f4 8a bc fe de a8 3c c9 7e cb bc 27 04 36 3d
       -0.01696251 0.020614143 -0.02484073 0.044437554
000020 bb 1f 4b bd f2 69 91 bb dd 90 5c 3c 76 33 25 3d
       -0.049590807 -0.0044376785 0.0134622725 0.04033228
000030 99 41 de 3b 21 ab a2 3c 15 32 4c bc 90 62 8a 3c
       0.006782722 0.019856991 -0.012463112 0.016892701
000040 5f 2b 9b 3c d3 50 a2 bc cd ba b0 3c d3 a3 21 bd
       0.01894158 -0.01981393 0.021573449 -0.039462876
000050 d2 8b b7 bc 04 cf 1e 3d ab 46 23 bd de 57 19 3d
       -0.022405539 0.038771644 -0.039862316 0.037437312
000060 67 85 06 3c d8 26 bf 3c 34 3c de bc cd 11 02 3d
       0.008210517 0.023333952 -0.027128316 0.031755257
000070 c8 86 2c bb 77 1c 25 bb c6 56 94 3c 0b 1b 03 3d
       -0.0026325453 -0.0025193968 0.018107783 0.032008212
000080 d3 f7 10 3c 5b 3f a0 3c ef e2 a5 3c 3a f7 ae ba
       0.008848148 0.01956146 0.020249812 -0.0013348826
000090 ba 3b 27 b9 28 fd 58 bc 98 77 30 3c 7f de d8 3b
       -0.00015948611 -0.013243951 0.010770701 0.0066183205
0000a0 db da b2 3c b5 91 1f 3d da c0 08 bc 6b 0b af 3c
       0.021832874 0.038957316 -0.008346761 0.02136775
0000b0 99 a8 20 bd 8e a6 84 3c e5 e5 5c bc 7f ab 32 3c
       -0.039223287 0.0161927 -0.0134825455 0.010905146
0000c0 07 66 10 3d 8d b0 cb 3c 2f 81 a2 3c ce f5 54 bc
       0.03525355 0.02486446 0.01983699 -0.0129980575
0000d0 18 8e 24 bd 51 8c 11 3d e7 7b 13 3c 98 96 80 3b
       -0.040174574 0.035534207 0.009001709 0.003924202
0000e0 d5 82 72 3a 50 df 9a 3c 17 29 75 bc 66 70 01 bc
       0.0009251063 0.018905312 -0.01496341 -0.007900333
0000f0 8e d5 77 bc 76 89 66 3b 9d f6 91 3c 32 49 79 3c
       -0.015126599 0.0035177148 0.01781779 0.015215205
000100 6f 6a 05 3d 89 05 05 3d 91 3f 34 3d 01 12 83 39
       0.032572206 0.03247598 0.044005934 0.0002499968
000110 99 7f 0d 3d 44 68 dd 3c 6f 25 fc bb 5b 0d 8b 3a
       0.034545515 0.027027257 -0.007694892 0.0010608839
000120 67 c6 cb 3b 8d fd 51 3d 02 08 da b9 79 8c b8 3b
       0.0062187198 0.051267195 -0.00041586166 0.00563198
000130 e1 ca 03 bd 43 25 bf 3c bb 63 af 3c 36 12 b1 3c
       -0.032175902 0.023333197 0.02140986 0.021615129
000140 35 62 8f 3c 47 98 eb 3c f0 43 0e bd b3 53 97 3c
       0.017502883 0.028759135 -0.03473276 0.018472528
000150 14 03 64 3d e3 8f 30 bb 4d 58 68 bc 1a b0 dd 3c
       0.055666998 -0.0026941232 -0.014181209 0.02706151
000160 7e 8c af bb 92 c7 02 bc ea 53 0c 3c f2 b1 81 bb
       -0.005357324 -0.007982152 0.008564929 -0.0039579803
000170 77 1b 34 bc e1 ed c5 bc 25 7a bd 3b 1e 45 6c bc
       -0.010992876 -0.024161281 0.005782383 -0.014420776
000180 73 c8 45 3d 2a b0 c4 3b 25 96 b1 3b 8b b5 a2 3a
       0.048286866 0.0060024457 0.00541951 0.0012413723
000190 1a 4a 1c 3b 24 ba 03 3d aa 50 bf b9 88 92 b6 37
       0.002384788 0.03215994 -0.00036490458 2.1764325e-05
0001a0 54 a9 94 3c 7c 39 89 3b 99 a3 11 bd cd 45 6a 3c
       0.018147148 0.004187761 -0.03555641 0.014298868
0001b0 75 53 5f 3c c4 77 bc bc 1f d6 92 bc 38 1c be bc
       0.013630738 -0.023006327 -0.017924367 -0.023206815
0001c0 a1 a3 9e bb 19 64 0b 3d 50 18 97 3c 69 8c 9c 3c
       -0.0048412834 0.034031007 0.01844421 0.019109922
0001d0 51 b6 12 3d 89 36 44 bc a1 12 a2 bb d7 f0 95 3b
       0.0358184 -0.011975893 -0.0049460684 0.0045758295
0001e0 bd e4 c1 ba 52 c3 f3 3b 8d e0 e4 3c fb 91 5f 3c
       -0.0014792901 0.0074390555 0.027939105 0.013645644
0001f0 2e 4f 42 3b 41 90 4e 3c 88 46 02 bb ac 84 21 3d
       0.0029649246 0.012607635 -0.0019878466 0.039433166
000200 1e d0 88 bd aa ca 74 bd 22 17 7c bb 2c c1 b1 3c
       -0.0668032 -0.059763588 -0.0038465937 0.021698557
000210 98 ba 2f 3d c2 e7 6e bd dd 71 cb 3c e4 a8 a7 bc
       0.04290256 -0.05832649 0.024834568 -0.020466276
000220 85 05 e9 3c 96 1d e0 bc 9d ad d5 bc fd 35 4b bc
       0.028445015 -0.027357858 -0.026083762 -0.0124030085
000230 0b 2c 1d 3a 4a ae 80 bd 74 92 e1 bc 19 92 8e bb
       0.00059956376 -0.06283243 -0.027535655 -0.0043509123
000240 48 d0 84 bd 5d f2 3f 3d b5 be 2c bc bf 9c 12 37
       -0.06485039 0.046861995 -0.010543515 8.738773e-06
000250 19 a7 32 3c 1a 9f 59 bd ca 85 05 3d 19 3b a7 bc
       0.010904097 -0.053130247 0.032598294 -0.020413922
000260 1b bf 8a bc 34 61 3d 3c cf 2b 81 3c a1 7d eb 3b
       -0.01693683 0.01155882 0.01576796 0.007186607
000270 e8 44 f7 3c ca 6b 51 bd 72 30 17 bc 82 0e 30 bd
       0.030184224 -0.051128186 -0.009227859 -0.042982586
000280 2c e0 90 bc 9b 50 42 bc b8 3d 45 bb 24 5f 95 3c
       -0.017685018 -0.011860038 -0.0030096602 0.018233843
000290 61 2b 6d bd b5 30 28 3d 4d 4f 15 bd 1e 2a 46 bd
       -0.057902697 0.041062076 -0.03645258 -0.04838001
0002a0 16 c9 8e 3c 6c 53 16 bc 00 a7 1f 3d 3e 56 98 bb
       0.01742987 -0.009175163 0.038977623 -0.0046489527
0002b0 0b 52 d4 3c 56 ce ba 3b 05 a6 a8 3c ba 8c 2f 3a
       0.025918027 0.0057008667 0.020586977 0.000669669
0002c0 a8 3a d3 bc 2c 71 75 bd ae 16 77 bb e9 3e dc ba
       -0.025784805 -0.059922382 -0.0037702727 -0.0016803417
0002d0 59 c5 34 3d 44 15 e5 bc 6b 33 4b bd 3e 0b 2c 3c
       0.044133518 -0.027964242 -0.049609583 0.010500727
0002e0 68 8c 73 3c aa f1 75 ba 15 19 e1 3a e4 03 6c 3c
       0.014865018 -0.0009382019 0.0017173613 0.0144052245
0002f0 35 47 7d bd cc 0b 8c bc 55 cb 97 bb 77 d6 52 bb
       -0.061835486 -0.017095469 -0.0046323934 -0.0032171288
000300 8d 5d 9a bd e3 fe ae bc 2d 5d 70 bc a9 e0 d2 bc
       -0.07537375 -0.021361774 -0.014670652 -0.025741892
000310 7c e1 dc bb 02 cd c7 ba 0c cf 5f 3d 5a e4 7b 38
       -0.006740747 -0.0015243592 0.054640815 6.0055732e-05
000320 34 83 2d bc e0 1b 94 bc 47 04 61 3c 24 0e 22 bd
       -0.010590363 -0.018079698 0.01373393 -0.039564267
000330 f3 85 10 3d 5c c6 96 bc 1a 94 07 bd 4b b6 90 3b
       0.035283994 -0.018405132 -0.033100225 0.0044162623
000340 4f 78 29 bc 0a c4 ed bb 93 34 18 3d eb ad c3 bc
       -0.010343625 -0.0072560357 0.037159514 -0.023886641
000350 89 11 7b bd 89 84 61 3d 35 38 2b bd 1a 0b a0 bb
       -0.06129602 0.055058036 -0.04180165 -0.004884136
000360 f7 87 87 bb 08 43 43 3d c5 da 3f 3c a4 a7 af b9
       -0.0041360813 0.047671348 0.011709874 -0.00033503503
000370 47 73 85 3d 9c 95 07 3d a0 74 b2 bc aa e8 0e 3d
       0.06516128 0.033101663 -0.021784127 0.034889854
000380 30 ae 52 bd c1 51 96 3c 15 83 4a bd 3a 0d 98 bc
       -0.05143565 0.01834953 -0.049441416 -0.018560994
000390 5a dd c8 b7 b8 bd 25 bd f2 bd 99 bc 38 04 70 3a
       -2.3944933e-05 -0.040464133 -0.01876733 0.0009155902
0003a0 82 2d 12 3c d7 f9 b1 bc 21 7d 1c 3d 9e c0 c7 3c
       0.008921983 -0.021725578 0.03820527 0.02438384
0003b0 36 81 1f bd f5 14 72 3d 7a a4 18 3d 0f 6f 6d 3d
       -0.038941585 0.059102017 0.037266232 0.05796724
0003c0 c1 33 10 3d 77 12 e9 3c 81 a7 2c bc 66 49 5e 39
       0.035205606 0.028451188 -0.010537983 0.00021198913
0003d0 af 6e d9 bc a5 ab e7 bc 4f 64 f0 3b 87 bc c6 bc
       -0.026542036 -0.028280089 0.0073361765 -0.024259819
0003e0 5c 2c 86 bc d2 54 21 bb ac 17 3e 3c 76 c2 16 3c
       -0.016378574 -0.0024617207 0.0116023235 0.009201637
0003f0 ad bf 34 3c 50 6c 81 3b 03 2e 3f bd 7b c3 65 3b
       0.011032027 0.0039496794 -0.04667474 0.0035059142

action_model._discrete_distribution.branches.0.bias f4 [3]
000000 86 4e c8 3c dc c0 0e bc ec 47 7f bc
       0.024451505 -0.008712973 -0.015581112

onnx::Div_52 f4 [6]
000000 e4 9f 10 40 01 cc e2 3b 25 db ca 3b eb da f0 3c
       2.259759 0.006921292 0.006190675 0.029401263
000010 79 c8 bd 3d 52 15 44 41
       0.09266753 12.255205
