BasicAvoidance/Assets/results/BasicAvoidance1/PlayerAvoidance/PlayerAvoidance-8943.pt (torch, 442002 bytes, 41 tensors)

network_body.observation_encoder.processors.0.normalizer.running_mean f4 [6]
00000000: 1ae3 173d aff8 ff3e 0000 0000 7f27 6538
00000010: ad8a eb3e 9719 24c1
0.037081815 0.49994418 0.0 5.463464e-05 0.4600424 -10.2562475

network_body.observation_encoder.processors.0.normalizer.running_variance f4 [6]
00000000: 7bac 3a47 f6fe 9f3f 0000 803f ed8f 813f
00000010: 5762 dd42 ba85 a84a
47788.48 1.2499683 1.0 1.0122048 110.69207 5.522141e+06

network_body.processors.0.normalizer.running_mean f4 [6]
00000000: 1ae3 173d aff8 ff3e 0000 0000 7f27 6538
00000010: ad8a eb3e 9719 24c1
0.037081815 0.49994418 0.0 5.463464e-05 0.4600424 -10.2562475

network_body.processors.0.normalizer.running_variance f4 [6]
00000000: 7bac 3a47 f6fe 9f3f 0000 803f ed8f 813f
00000010: 5762 dd42 ba85 a84a
47788.48 1.2499683 1.0 1.0122048 110.69207 5.522141e+06

network_body._body_endoder.seq_layers.0.weight f4 [128, 6]
00000000: 33b3 0fbe 14d6 1dbf 8a45 71bf f278 1c3f
00000010: a0e6 9fbe baeb f9bd 1a3e 7cbe 5f0a d43d
00000020: b43c b93e 0d66 f3be a00b 453f bbc7 21bf
00000030: b06a 9cbd 50f1 053f b917 353e 6c6a 893f
00000040: bbee 8d3f 80f7 1cbf 8b4c 2c3e cb81 febe
00000050: c873 7ebe 7952 acbe 9040 ca3e 381a 0c3f
00000060: 34e3 cc3e 23b8 d33d a059 acbd 43c5 44bc
00000070: b319 f43e aa0e e7bd 2d56 133f 28bd dbbe
00000080: 88e5 a7be e85b 323e f579 793d c895 11be
00000090: 7c30 c53d 50c1 7e3e 96a1 4cbf 8ed9 c63e
000000a0: 2b17 babe b74b e93d d34c 44bf 3da3 2d3e
000000b0: 2e58 dbbe 366c 253f 534f 2bbf b145 94be
000000c0: 8578 373f 0ce6 20bc 2f9d c53e a85a bb3c
000000d0: 1890 a5bd bf7b 58be fd0a a33e a6aa 78bd
000000e0: 95c1 ec3e a126 ec3e 9fae 44be 3f35 9fbe
000000f0: 1c50 edbc 1445 c13f 09ff c6bd e895 9abd
00000100: fe5d 93bd dfd7 193f 6da0 c23c 6605 10be
00000110: 3601 7e3e 571c 7bbd 28f1 553f eed0 babe
00000120: 4fc2 ed3e ead6 df3e 93f4 13bf 0afc d5bc
00000130: 2f6b 7d3e cf26 563f 3ee3 04bf 8445 8cbe
00000140: 12f1 a23e 2e3c 373e 2979 c93d 12cf 6cbe
00000150: 73ba 6c3e e4ff 1fbf 91c9 443f c13d 0fbe
00000160: af3d 95be aec2 c43e 17ae ae3e 2d1f 2bbf
00000170: 9ea8 093e 4d55 b0be 2ee2 cbbe e1b0 273e
00000180: 4cb7 5ebd 7f68 89bd ab57 16bf caea b7be
00000190: ebda 7ebe 9d04 653f 9430 34bf db85 393e
000001a0: 8d55 053e 1f36 063f d822 99be e27e ff3d
000001b0: e648 ddbe 2b90 1c3f 7ded aebc edab eb3d
000001c0: 8641 573e 022d 593f 56ef e7be 8e39 c23e
000001d0: 8f7d 7ebb 4f64 c23e 4e8d 623f fc10 79bb
000001e0: a508 083f 3e85 cb3e 580c 923e d322 60bd
000001f0: 2e62 14bd 7a3d 9c3e a29f 0c3f 3580 113d
00000200: a092 96be 25c3 703e e1e7 a53e 0d63 3c3e
00000210: 93f2 7dbd 3a19 26bf e12d 08be 7b10 063f
00000220: 7564 763d c03c 303e d736 f83e ca44 7a3e
00000230: ac19 85be 158c 8aba 1056 60bd 9273 09bf
00000240: 7adf 833e 1cad 78bd f089 4f3f 1a6c 193e
00000250: c588 9fbd 05a9 e8bd a662 2abf 1000 613b
00000260: d14d 8bbe 4d9b 4bbe e2ae 9ebe 635b b4be
00000270: 3f2a 983e 86ab b9bf 8980 4ebf 004e 4d3e
00000280: 2621 d0be 651d f03e 13a3 dfbe 7403 f13e
00000290: f085 0c3e 740e 42bd 8466 353f 71a8 53bc
000002a0: 36ba 07bf 2774 19bf b702 12be e9e7 25be
000002b0: 2dfd aabe e740 a7be b43c 03bf 6a1d 633e
000002c0: 4a00 553e 2997 763d 20fd 97be 7166 a33d
000002d0: e76f 583d db99 06bf d7af efbe 2bcb a3be
000002e0: 0197 84be 098b 6e3e b586 2ebd 5b04 c0be
000002f0: 7178 6c3f 338b 0ebe 8a8d 803d 010a bb3e
00000300: 6f8d 423e 91e7 e3be c297 77bd eaf1 1e3f
00000310: 4351 f63d 8651 15be e8f5 5abe 75e9 853f
00000320: 5cc5 efbe 9630 7f3e 9b60 ddbd aa47 96be
00000330: d931 993d ccc2 4d3e 4f8b f63e 456c 80bd
00000340: 801f 243d 822d 073e e186 59be eb2c 433e
00000350: 92f1 6c3e 58b6 febe 700d 033f 30bf 39be
00000360: 8a81 a0be a0db 0f3e ee33 7ebe 0ca4 16bd
00000370: af9d 03bf 9ddc debe 1441 523d c768 a73e
00000380: 5b8e 06be f83e c8be 8b51 de3d d703 9abc
00000390: fb86 3ebe 8223 febe c052 0e3f 0b23 1cbf
000003a0: a312 3e3e 6632 c9be 05c9 a93e 62ab 30bf
000003b0: a0f5 263f b93f 90be c404 adbd 2470 d4be
000003c0: bcd8 1cbf f797 633e 1a0c 593e b83f cb3e
000003d0: 5fab 80be 5af8 85be 4856 7dbe 4fc9 ca3c
000003e0: 5885 5b3f bfab 1e3e f453 85bd 4481 353e
000003f0: 8535 2ebe 58ff 2fbf 67b4 fd3e 6961 383f
-0.14033203 -0.6165478 -0.94246733 0.6112205 -0.3123064 -0.122031644 -0.24633065 0.10353541
0.36179125 -0.47538796 0.76970863 -0.6319539 -0.076375365 0.5232134 0.1768483 1.0735602
1.108848 -0.61315155 0.16826074 -0.497084 -0.24848855 -0.33656672 0.39502382 0.54727507
0.40017092 0.10337856 -0.08415532 -0.0120099215 0.47675857 -0.11282094 0.5755337 -0.42917752
-0.32792306 0.17417872 0.060907323 -0.14217293 0.09628388 0.2487843 -0.7993406 0.38837856
-0.363458 0.113913946 -0.76679724 0.16956802 -0.42840713 0.6461824 -0.66917914 -0.2895942
0.71668273 -0.009820472 0.38596484 0.022870377 -0.08084124 -0.21140955 0.3184432 -0.060709618
0.4624144 0.46123222 -0.19207238 -0.3109531 -0.028968863 1.5099206 -0.09716613 -0.075481236
-0.07195662 0.6009502 0.023758138 -0.1406456 0.2480515 -0.061306324 0.835711 -0.36487526
0.46437308 0.43718654 -0.57795066 -0.026121158 0.24747919 0.8365297 -0.51909244 -0.27396786
0.31824547 0.1789405 0.098375626 -0.23125866 0.23118 -0.62499833 0.76870066 -0.13988401
-0.29148623 0.3842978 0.34117195 -0.66844445 0.13443229 -0.3444008 -0.39821 0.16376068
-0.054374024 -0.06709384 -0.5872752 -0.35921317 -0.24888198 0.89460164 -0.70386624 0.18117468
0.13020916 0.5242633 -0.29909396 0.12475373 -0.4321968 0.6115748 -0.021353478 0.115074016
0.21021089 0.848343 -0.45299786 0.37934536 -0.0038832163 0.37967154 0.88496864 -0.0038004508
0.5313819 0.39750093 0.28525043 -0.05472071 -0.036226444 0.30515653 0.5493108 0.03552266
-0.2940874 0.23511942 0.32403472 0.1839716 -0.061998915 -0.6488224 -0.13298751 0.523689
0.060154397 0.17210674 0.4847934 0.24440303 -0.2599615 -0.0010570312 -0.054769576 -0.5369197
0.25756437 -0.060711965 0.8106985 0.14982644 -0.077897586 -0.11360363 -0.66556776 0.0034332313
-0.27207807 -0.19883461 -0.309928 -0.35225973 0.2971973 -1.450547 -0.8066488 0.20049286
-0.4065029 0.46897426 -0.43679103 0.47072947 0.13722968 -0.047377065 0.7085955 -0.0129185775
-0.5301851 -0.5994286 -0.14258848 -0.16201748 -0.33396283 -0.32666704 -0.512645 0.2217919
0.20800892 0.06020275 -0.29685307 0.079785235 0.052841093 -0.52578515 -0.46813843 -0.31990942
-0.25896457 0.23295225 -0.042608935 -0.37503323 0.9237128 -0.13920288 0.062769964 0.3653107
0.18999265 -0.4451261 -0.060447462 0.6208788 0.12027218 -0.1458188 -0.21382868 1.046187
-0.4683026 0.24920878 -0.10809442 -0.2935155 0.07480211 0.2009384 0.4815316 -0.06270651
0.040069103 0.13200954 -0.21242858 0.19060104 0.23139027 -0.49748492 0.5119238 -0.18139338
-0.3134883 0.14048624 -0.24824497 -0.03677754 -0.5141248 -0.4352769 0.051331595 0.32697126
-0.13140242 -0.3911054 0.10855397 -0.01880066 -0.18606178 -0.49636465 0.55595016 -0.6099097
0.18561797 -0.39296263 0.33161178 -0.6901151 0.65218544 -0.28173617 -0.084481746 -0.41491807
-0.6126821 0.22225939 0.21196023 0.3969705 -0.25130746 -0.2616604 -0.24739945 0.024754195
0.8575034 0.15495203 -0.065101534 0.17725092 -0.17012604 -0.68749 0.495517 0.72023636

network_body._body_endoder.seq_layers.0.bias f4 [128]
00000000: 6b78 e93c 0c39 98bb 34ff 85bc 485c 0e3d
00000010: 3194 65bd 87ad d2bc 227e 163d 288b c93c
00000020: 98ec 413d 1c23 fe3c 3b9c 013d 29bf b53c
00000030: 38d6 fdba b883 823c 540a b83c 2a55 263d
00000040: 12c2 f93a 2625 2fbd 22de ce3b fd3a 48ba
00000050: 8d08 aabb 1a5f 16bc a77b a43c 313c 153d
00000060: cb26 043c d232 333c ce4a e63c 55a0 8e3c
00000070: 9802 c03c f7ff d03c e82e 723b 7529 13bd
00000080: 6da1 923c 1c66 053d 4061 5abc f916 63bd
00000090: 30df 403d 0854 3abd a356 293a 0eaf 473d
000000a0: b414 203d c992 5b3c f3d5 053b 3c97 b43a
000000b0: b779 9239 6cd4 1abd cf7d 63bc 4f0d 453d
000000c0: 406d 043c 77d7 913c 233a 5a3c ae1a 7e3c
000000d0: 9605 24bc e5ec 213d 6c96 64bd 85f3 383d
000000e0: 6ac0 f13c f03f 183c 541b 463d 39dc d8bb
000000f0: 99ac 88bd 1832 e9bc 2591 033d 407d 453d
00000100: dd13 f6bc 2c25 1bbd 73b5 253c 9b63 1d3b
00000110: 5b0a afbc 92d1 2fbd 16c2 e5bc 8171 99bc
00000120: a395 9f3c 7674 9dbc 6425 b03b d820 d23b
00000130: ba25 b1bc 6bd1 13bc c310 12bd 973c 8ebc
00000140: 6769 24bc a675 2cbc b19a c43c 9c2c 6f3c
00000150: ab21 4d3b 4654 ad3c a777 433d 7d31 20ba
00000160: 997b 753d 97b2 e23c b2fb 033d 2bc3 d4bc
00000170: 38ee 133d d2bb 1a3d 1dba d33b de02 f33c
00000180: 9365 2dbc 29ad c83c 13d2 e5bb f826 4d3d
00000190: cf8c 1b3c a5e0 0b3d 8ea2 d33b 448c 9abc
000001a0: 08e6 9d37 5a67 a33c aed2 043d 0e0a b43c
000001b0: 044e 3fbb 911b 0f3d 9579 093d 43e4 053b
000001c0: cee3 63bd 534a 4e3d 7081 8d3a c681 683b
000001d0: bf05 b83c 6934 2a3d 92cd d5bc 19bb 06bd
000001e0: 8d1c 78bc 4f5c c43c 8517 7c3c 220e e23c
000001f0: e7d7 9cbc 9d4d 073b dd99 823c 85e3 fa3c
0.028499803 -0.0046454724 -0.016357042 0.034755975 -0.05604953 -0.02571751 0.036741383 0.024602488
0.047344774 0.0310226 0.031643134 0.022185879 -0.001936621 0.015931949 0.022465862 0.040608563
0.001905503 -0.042760037 0.0063131014 -0.00076381845 -0.0051890076 -0.009177947 0.020078493 0.036434356
0.00806589 0.0109374095 0.028111842 0.017410437 0.023438737 0.025512679 0.0036954228 -0.03592821
0.01789924 0.032568082 -0.01332885 -0.05544183 0.04708785 -0.045490295 0.0006459748 0.04875093
0.039082244 0.0134016955 0.0020421713 0.0013777982 0.00027937975 -0.037800238 -0.013884976 0.048108395
0.008082688 0.017802937 0.013319525 0.015509291 -0.010011097 0.03953256 -0.055807516 0.045154113
0.029510695 0.009292588 0.048365906 -0.0066180495 -0.066735454 -0.02846627 0.032120842 0.04821515
-0.030038768 -0.037877247 0.010114062 0.0024015668 -0.021367243 -0.04292447 -0.028046649 -0.01873088
0.019480532 -0.019220572 0.005375551 0.0064126067 -0.021624435 -0.009022097 -0.035660516 -0.017362876
-0.0100348955 -0.010526096 0.023999544 0.014598038 0.0031300585 0.021158349 0.04772153 -0.000611089
0.059932325 0.027673049 0.032222457 -0.02597197 0.036115855 0.037776776 0.0064613954 0.029664453
-0.010583299 0.024496632 -0.007013568 0.05008599 0.009494021 0.034149785 0.006458587 -0.018865712
1.8822975e-05 0.019946743 0.032427482 0.02197745 -0.0029190788 0.0349384 0.033563215 0.0020430244
-0.055637173 0.05036385 0.0010796022 0.0035477742 0.022463677 0.04155389 -0.026099 -0.032893274
-0.015143526 0.023969797 0.015386467 0.02759463 -0.019145919 0.0020645626 0.015942508 0.030626068

network_body._body_endoder.seq_layers.2.weight f4 [128, 128]
00000000: 88ca 3f3b 4fe4 07bd afa5 0a3c c1d2 b3bd
00000010: e75e 0f3b 05a3 f23c fdba dcbd 1a27 83bd
00000020: deb9 bfbd 6fd9 ecbd 94e2 333d c500 ee3c
00000030: 659b 85bd 18a6 27bd c685 a33a 6af0 a2bc
00000040: 8898 e6bd bca9 163d 0295 9abe 0415 1dbd
00000050: 35a9 c83d 1338 d5bc 4240 2b3d 2bb1 18bd
00000060: f7d3 5ebc 542a 923d 1f21 4dbc 2525 113a
00000070: 2f08 7d3d 8e7b 8dbc c270 02be 33d9 4fbd
00000080: 2918 b2bd eea9 0bbe f6e0 123e 7328 e23d
00000090: c455 2bbc 424c 95bc 37ce 903c 4c47 e03c
000000a0: eb3b e6bd f95b ed3d a894 8a3d bb2c 3a3d
000000b0: eaa0 573d 36ce 11be aad3 eb3b 9c2c 0a3d
000000c0: d268 b03b 165d 883c 93fa 1f3d 8590 a7bd
000000d0: e8ad 6b3c 81a7 14be 50d2 d6bd 7c52 0cbe
000000e0: d973 a13d a241 333d 3aa0 d0bc a86c 85bc
000000f0: 24dc 2cbd 1619 6d3d c7d1 a1bd a8d7 f9bb
00000100: 13da db3c 89c0 66bc c8d8 0a3e cde2 863d
00000110: a1b0 18be 23d3 b93c 92f8 83bd b23f 0f3d
00000120: cc9f e13d 1ae7 f4bd 911d a13d 96b8 18bd
00000130: 8de5 773d 8c32 243e ed43 8a3b 8e3d e3ba
00000140: 679d 2d3d f637 333d 7033 acbd 268c 863d
00000150: c65a f5bb b875 343d abbc a43c ed5c b43d
00000160: 75b0 b73d 97a3 2fbd f648 92bd 36e6 6e3d
00000170: 87ee 3c3d f9a6 f1bb fdd3 45bd 284a 54bd
00000180: 4d08 cb3d de61 263d 581f 323d 5844 b03c
00000190: 4b4d 813d 6d81 e53c edb1 9ebd 5eb0 9b3c
000001a0: f998 d53d 13fb f9bd 65b3 b13b 08ab 1bbe
000001b0: c799 32bc 1a0c 6ebd 650b 8bbd ef98 45be
000001c0: 8f0a 3b3e 6d18 a4bd 506f 8ebc 9287 f6bc
000001d0: 2712 023e 0512 96bd 7046 313d aa62 fb3d
000001e0: 62ed 093e 7f20 b5bc 5382 663c 9274 9ebd
000001f0: 5940 47bd 93c2 11bd 06a7 84bb cbbb debd
00000200: e361 123e 27c0 953c 924d 31bc 93d5 7f3e
00000210: 29fd af3c d1e4 023e 72f8 133d 926c c3bc
00000220: c487 8cbd 388c be3b 2ba0 67bd 377a d4bc
00000230: 6989 40bb 16a0 52be 5d15 b13d 292b d8bc
00000240: 352f 013e 5881 a63b 5db1 273d 10d5 4a3d
00000250: 013f ca3c b295 763d bd14 18be 0db5 28bd
00000260: e3bf fa39 07b0 74bd 2e87 783d 0c99 5bbc
00000270: 79b8 01be 4cce d4bd 6ed9 273e 84ac dcbd
00000280: 6f24 813b 1aab 68bd e5e7 973d 3721 21bd
00000290: 111b b83d d900 993d 867d d9bd 76eb 0d3e
000002a0: af58 dfbd 8dc1 2abc 0fd3 b33d 3cd9 a23c
000002b0: fad4 613e f045 aabb 00b0 1d3e a7b0 0abd
000002c0: a852 07bd d750 80bd f1c1 a1bb ba7e 60bd
000002d0: 4620 403d 923b cebb dc53 d03d 1439 97bd
000002e0: 2665 293d b766 c5bd dfa3 dabb c365 ccbb
000002f0: 1728 27bd 949a 9e3d 9838 933d c2e9 b13b
00000300: 7c35 c43d 5581 fc3d 4a1e 2d3e 4b47 ba3d
00000310: 7f28 c6bd d1d1 eebc 65f3 aabd c1d8 c83c
00000320: 7a0b 70bd 2cf0 003d 44d2 1fbd a47a 543d
00000330: 0344 4b3c 50c9 c3bd 0f5c 423d d841 ddbc
00000340: d9d6 aebd fa5c 34bd e66f afbc 613a 193d
00000350: 1fb4 1d3d 6898 1e3d d5bc dabd 2c5a bebd
00000360: 2222 31be dd85 18be 746b bd3b 4b60 3f3e
00000370: b7cb f13b 09bc 02be 9e67 733e e143 283d
00000380: e389 d83a eb98 2b3c aa5a a0bb 98f1 27bd
00000390: a708 f93d e423 8f3c 1ab6 f3bc 722b 14be
000003a0: dffe 6f3d 7377 36bd 8b3b 07bd f910 1abe
000003b0: 4f72 b9bd cc4d 00bd b624 7b3d 1f8e 993d
000003c0: 3d01 ad3d 7063 9dbd 993d 163c 1657 9b3b
000003d0: 1049 6b3d 52d7 99bc c1f9 e2bc 7198 9bbb
000003e0: 258b a23d 0300 07be 5151 103e 94d3 c6bd
000003f0: 5817 fbbb 8dc0 e43c 219d 58bd c7d8 ab3d
0.0029265005 -0.033176716 0.008462354 -0.087804325 0.0021876635 0.02961875 -0.10777853 -0.064039424
-0.09361623 -0.1156491 0.043917254 0.029053101 -0.0652378 -0.040929884 0.0012475781 -0.019890029
-0.11259562 0.036782965 -0.3019181 -0.03835012 0.09797899 -0.026027715 0.041809328 -0.037278336
-0.013600341 0.0713698 -0.012520104 0.0005536846 0.061775383 -0.01727083 -0.12738326 -0.050744247
-0.086960144 -0.13639042 0.14343628 0.11042871 -0.01045746 -0.01822484 0.017676456 0.027377747
-0.11241897 0.11589808 0.06766635 0.045452815 0.052643694 -0.1423882 0.007196863 0.03373395
0.0053835893 0.01664595 0.039057326 -0.08181862 0.014384724 -0.14517023 -0.10489333 -0.1370334
0.07883424 0.043763764 -0.025467027 -0.016287163 -0.04220213 0.057885252 -0.0790134 -0.007624585
0.026837384 -0.01408399 0.13559258 0.065862276 -0.14911129 0.022683686 -0.064438954 0.034972854
0.11016807 -0.119581416 0.078669675 -0.03728541 0.06052165 0.16034907 0.004219523 -0.001733707
0.04238644 0.04375454 -0.084082484 0.065697 -0.0074876277 0.044057578 0.020109495 0.08806787
0.089692034 -0.04288062 -0.071428224 0.058325015 0.046125915 -0.007374641 -0.04829787 -0.051828533
0.099136926 0.040620677 0.043486923 0.021516964 0.063135706 0.028015817 -0.077487804 0.019004997
0.10429568 -0.12206092 0.005422997 -0.15201962 -0.010900921 -0.05811701 -0.06789283 -0.19296621
0.18265747 -0.08012471 -0.017387062 -0.030093942 0.12702237 -0.07327656 0.043280065 0.12274678
0.1346946 -0.022110222 0.014069158 -0.07737078 -0.04864535 -0.03558595 -0.004048231 -0.108756624
0.14295153 0.018280102 -0.010821717 0.24983816 0.02148302 0.12782599 0.036125608 -0.023855481
-0.06861833 0.005815055 -0.056549232 -0.025937183 -0.0029378778 -0.2056888 0.08646653 -0.026387768
0.12615664 0.005081337 0.04094063 0.0495196 0.024688246 0.060201354 -0.14851661 -0.04118829
0.00047826683 -0.059738185 0.060675792 -0.013403188 -0.12668027 -0.103909105 0.16391537 -0.10775092
0.003941111 -0.0568038 0.07417277 -0.039338317 0.089895375 0.07470865 -0.10619645 0.13859352
-0.10905587 -0.010422123 0.087804906 0.019878976 0.220539 -0.0051963255 0.1539917 -0.033859875
-0.03303781 -0.06265419 -0.0049364497 -0.054808356 0.04690578 -0.0062937224 0.10172245 -0.07383934
0.04135623 -0.09638732 -0.006672367 -0.006237717 -0.040809717 0.07744327 0.07188529 0.0054294774
0.09580514 0.123293556 0.16906086 0.09095629 -0.09675693 -0.029152783 -0.08347205 0.024517419
-0.058604695 0.031479046 -0.039018884 0.05187477 0.012406352 -0.09559882 0.047451075 -0.027008936
-0.08537073 -0.04403398 -0.021415662 0.03740919 0.038501855 0.038719565 -0.10680548 -0.09294543
-0.17298177 -0.14894815 0.0057806317 0.18689077 0.007379021 -0.12767042 0.23769996 0.04108036
0.0016520586 0.01047347 -0.0048936205 -0.041001886 0.121598534 0.017473169 -0.029749919 -0.14469698
0.058592673 -0.04454751 -0.03301577 -0.15045537 -0.09055006 -0.031324193 0.061314307 0.074978106
0.08447502 -0.07684982 0.009169959 0.004740606 0.057442725 -0.01877943 -0.027706983 -0.004748397
0.07936696 -0.13183598 0.1409352 -0.09708324 -0.007662695 0.027923847 -0.052884225 0.08390956

network_body._body_endoder.seq_layers.2.bias f4 [128]
00000000: eff2 78bc e528 8abc 1c87 d8bb 262d d33c
00000010: 1143 9abd 55fe 8a3c ef1b c9bc 40d3 093c
00000020: 35dd 04bc ec76 21bd f9a0 2b3d f7dd 52bd
00000030: 085a 163c 5236 223c 822e 20bd bd2c 8abd
00000040: 6af5 573d 29b3 dfbc 53ff e1bb d939 9dbc
00000050: 5747 56bd 0ddb 91bd 3a87 103d 5257 53bc
00000060: 2a1b 4ebd 21bb cabc 2847 8bbd e8d0 263d
00000070: 08c6 4abc 88a7 9dbc af46 333d 7380 e0bb
00000080: 0614 3d3c 9547 303a 0796 01bd e011 89bd
00000090: 62c9 63bd 1314 85bd 77f1 4ebd 6317 413b
000000a0: 5d4d 85bd 296d c0bb d4c7 2d3d 9014 3abd
000000b0: 8375 193d 63f9 edbc 0d54 233d f2bb 09bd
000000c0: b283 e93c afd1 beba 54e8 453d 9e03 3c3c
000000d0: 02fa d9bb 0ccf f53c 929f 4c3d 341e 1fbd
000000e0: 8295 5f3d d66a 473c fc19 fcbc e815 41bb
000000f0: 2dec 373d 92ba 33bd 1db4 eebc e6a0 07bd
00000100: 7639 34bc d85c 663d 9525 22bd a81f 363d
00000110: d64c 96bb b104 57bd 208b 40bc c427 48bd
00000120: 8493 523c 079b 27bc 64cb f33c 6c72 6abc
00000130: 60fb 893c 0c1d e9bc fa71 93bc 45d1 78bd
00000140: eb1f 453b c304 5a3d 77cc 00bd 179f f6bc
00000150: 23e1 70bd 600c 283d ff02 83bd ea20 b3bd
00000160: e3c7 0dbd e6be f23b fe70 fe3c f472 26bc
00000170: 8e89 09bc c137 f23c fc4a 363b 851b 69bc
00000180: 6410 3b3d 0617 23bd f94a 7dbd c789 29bc
00000190: 6505 50bd 79f1 abbc a8f6 19bd 2bbc 7b3b
000001a0: b7ba 2d3d 536d 063d ede1 453d 7e79 183c
000001b0: 9145 bbbc 6919 13bd c18e 25bc edae 2f3d
000001c0: c3b4 d13c 3eb9 bcbc 40d8 99bb 1f00 14bb
000001d0: 2b63 11bd 8eca 913c d68e 8ebc 5b21 263d
000001e0: f066 81bd b94c 123d e628 1dbd d208 47bd
000001f0: 6401 d0bc 9736 f7bc d015 833c 6a3b bdbc
-0.015194639 -0.016865203 -0.006607903 0.025778364 -0.07532323 0.016966978 -0.024549453 0.008412182
-0.0081093805 -0.039420053 0.041901562 -0.051481213 0.009176739 0.009900646 -0.039106853 -0.067468144
0.05272428 -0.02730711 -0.006896892 -0.019192623 -0.05231413 -0.07121859 0.035285212 -0.012899237
-0.050318874 -0.024747433 -0.06800681 0.040726572 -0.012376316 -0.019244924 0.04376858 -0.00685125
0.0115404185 0.0006724534 -0.031637218 -0.066928625 -0.055611975 -0.064979695 -0.050523248 0.0029463402
-0.065088965 -0.005872388 0.0424269 -0.045429766 0.037465584 -0.02904958 0.03987508 -0.033626504
0.02850518 -0.001455834 0.04831727 0.011475472 -0.0066521177 0.030005954 0.049956866 -0.038847163
0.05458594 0.012171468 -0.030774109 -0.002946252 0.04490297 -0.0438791 -0.02913862 -0.03311243
-0.011000028 0.056240886 -0.039586622 0.044463784 -0.0045867963 -0.05249471 -0.01175192 -0.04886605
0.012852553 -0.0102298325 0.02976007 -0.014309507 0.016843498 -0.028456233 -0.017998684 -0.06074645
0.003007884 0.053227197 -0.031444993 -0.030105157 -0.058808457 0.041027427 -0.06397056 -0.08746512
-0.034614455 0.007408011 0.031059738 -0.010159243 -0.008394612 0.029567601 0.002781569 -0.014227753
0.04566993 -0.03981688 -0.061839078 -0.01034779 -0.050786395 -0.020989167 -0.037588745 0.0038411717
0.042414393 0.032819103 0.048311163 0.00930631 -0.02286032 -0.035912905 -0.010104836 0.04289143
0.02559889 -0.02303755 -0.0046949685 -0.002258308 -0.035494965 0.01779678 -0.017402094 0.040559154
-0.06318462 0.0357177 -0.038369082 -0.048592396 -0.025391288 -0.030177398 0.016001612 -0.02309962

action_model._discrete_distribution.branches.0.weight f4 [3, 128]
00000000: bf01 2b3c 766f 19bc 7aaa 4dbc e0db debb
00000010: e51b e23c 550f 5b3c 8b84 933c 404a 98bc
00000020: b6f6 cebc 22d6 ea3c bdc4 bebc 7dcd d43c
00000030: 21d5 08bc 7e9f b7bc 6425 663c 5630 dd3c
00000040: 792f 51bc 59cb 323c ca2d 48bc 1a2a 18bc
00000050: f7ff 183b 2366 2e3d 7e4a 9dbc 7bce 0e3c
00000060: c603 ea3c 0594 883c f596 2e3d 41c1 2bbb
00000070: d63e 073c cedc 13bc e5d0 35bc 4383 a4bb
00000080: 3820 bf3b 0f27 9ebc 36e4 3dbb 2db9 ba3c
00000090: 207d f23c 5289 083d c699 513c 061d 45bc
000000a0: 08cf 0d3d 22d0 a23b 9d85 58bc 4182 e63c
000000b0: 0920 82bc a1a9 2a3b dfb4 dcbc bb1f ae3c
000000c0: d5f3 87bb 1079 053c 8f5f cabc daaf 463c
000000d0: bcca 083d 7ba9 9bbc 8862 93bc fe62 753c
000000e0: 66ff f4bc c3a7 cb3b b212 ae3b 103a 3cbc
000000f0: 6c29 2ebc e8ce 883c e798 c33b c728 a33c
00000100: a5ed 463c 757b e7bc 0853 993b 6079 94bc
00000110: 811d 073c f7bd e63a 8d57 003d 8a49 9e3c
00000120: 3668 723b 99c8 573c 490f f13b 81fc 09bc
00000130: 8d0f b8bc 18d8 583c 0b68 6f3c 69d3 8f3c
00000140: c23f 9d3b 9ace 08bd f3af 7c3c 38b1 933b
00000150: 2601 363c 4b17 22bc cc43 193d e848 f23c
00000160: 6071 1cbc 06d4 403c fb18 49bb 8ab6 8dbb
00000170: b238 6f3c 8faf bdbc 7c6d 40bc f5b4 a03c
00000180: 13c5 f6bc 6473 bd3b d2a8 193d 92b5 1c3c
00000190: a38e d43c fe5b 01bc ca51 04ba 1118 8d3c
000001a0: df54 97b9 0386 c1bc bafd 97bc 62e9 a63b
000001b0: 4994 8d3b 1763 293c 23e0 b03c 5dfc 8ebc
000001c0: b9ce 79bc ad7e 7b3b 9b5e e33b f037 1e3c
000001d0: 79ec 373c e69e 09bb 4b62 a63b 5ad3 73bb
000001e0: 043f bd3c f638 68bc aab0 f93b d3ff 173c
000001f0: 095f 3f3c 1587 73bb 8290 afbb 0f3f 253c
00000200: 394a 193d 5bc1 8f3c 7f71 973c 2d53 84bc
00000210: dc11 d0bc 542d 94bc 0837 37bc bfe0 133d
00000220: 8949 b13c f822 99bc 33a8 523c 829c 573c
00000230: 653b 543c dfb1 073d 488f 6f3c 7f0a 4d3c
00000240: fb64 a3ba edc0 703c 0699 913c 727a aabc
00000250: c50b b2ba ae89 fb3a b3a1 05bd 97fd dfbc
00000260: b1f7 0438 d9a2 ec3c 5aec 563c 32d6 adb6
00000270: fcc8 433c c6fc 843c 666f 4b3b 258e ab3c
00000280: 1af5 79bc 438a e73b 46b0 58bb 135e c4bb
00000290: 4c65 8cbb 4367 70bc 12c2 ab3b 9998 0f3d
000002a0: 416a 433b b397 82bc e8ad 11bc 47c5 a0ba
000002b0: 7cb3 b63c 3321 933c 4525 89bb 8651 653b
000002c0: 0e55 a5bc 9362 dabc 8759 70bc aa7b 3b3c
000002d0: 25c6 303b 441f 793c 32ae 16bb b24c bbbb
000002e0: 066d 88bc 22df 28bd fa9c 413c 3885 8e3c
000002f0: 1cbe c3bb 2a74 a5bc c17d 84bc f3b9 d93c
00000300: adf8 46bd f912 1bbc f729 c13b 09f3 373a
00000310: ca78 283a 63b1 c5b8 6fe0 803c b45c ce3b
00000320: 0fa0 7abc 1585 5abc 51b4 c63c 85eb b53c
00000330: 46e7 5f3c a5e9 9fbc a9e8 70bc 38eb eabb
00000340: 68a1 91bb 12b9 7dbc 650d dc3c 4f24 8d3c
00000350: 10c8 103b 12dd 37bc d310 9bbc 3444 003c
00000360: 5ba0 1e3c bbb0 60bd 4379 b7bc fc6c 1b3c
00000370: 7283 aabc d315 6dbc 23e9 87bc 3d9f c4bc
00000380: b8f4 9c3c 479d 5d3b b468 4bbc 58a6 d339
00000390: de7b 803b 41ba 353c d99f 353a 27c8 1ebd
000003a0: 4bfd 9abb d918 973c 4366 b6ba 300a 18bd
000003b0: 6a23 c4bc 5902 d33c d4b3 04bd 9810 5abc
000003c0: fdbb 81bb 7f22 86bc 1dff 4bbc 420c 0dbd
000003d0: 17d0 633c 1b9a 8a3b bdee 52bd 62a3 003b
000003e0: 68d0 a0bc 4a76 4fbb eb87 983c fda6 303c
000003f0: 97ef 7bbc caf0 923c c059 4bbb 03db a6bc
0.010437428 -0.009364953 -0.012552852 -0.0068011135 0.027601192 0.013370355 0.018007537 -0.018590093
-0.025264125 0.02866656 -0.023287171 0.02597689 -0.008351595 -0.022414919 0.014047001 0.027000587
-0.012767666 0.01091274 -0.012217948 -0.009287382 0.0023345926 0.042577874 -0.01920056 0.008716221
0.028566252 0.016672144 0.042624433 -0.0026207718 0.008254727 -0.009024812 -0.011097168 -0.0050205304
0.005832698 -0.019305734 -0.0028975136 0.022793377 0.02960068 0.033334084 0.01279301 -0.0120308455
0.03462127 0.004968659 -0.01321545 0.028138282 -0.015884416 0.0026041048 -0.026941715 0.021255365
-0.00414894 0.008146539 -0.024703769 0.012126887 0.033396468 -0.019001713 -0.01799132 0.014977215
-0.02990694 0.006215067 0.0053122872 -0.011488453 -0.010629993 0.016700223 0.005969155 0.019916905
0.01214162 -0.028257111 0.0046790875 -0.018124282 0.00824678 0.0017604221 0.031333495 0.019322176
0.0036988384 0.013170385 0.0073565585 -0.008422018 -0.022468353 0.0132351145 0.014612208 0.017556863
0.0047988603 -0.033400156 0.015422809 0.00450721 0.011108672 -0.009893249 0.03741817 0.02957578
-0.009548515 0.0117693 -0.0030685056 -0.004324739 0.01460092 -0.023155002 -0.011744853 0.019617537
-0.03012327 0.005781578 0.037514515 0.009564774 0.02594692 -0.007895468 -0.0005047588 0.01722339
-0.00028864198 -0.023623472 -0.018553603 0.0050937394 0.0043206555 0.010338566 0.021591252 -0.01745432
-0.01524704 0.0038375065 0.006938768 0.009656891 0.011225813 -0.0020999252 0.0050776354 -0.0037204833
0.023101337 -0.014173737 0.007619937 0.009277302 0.011680373 -0.0037159373 -0.005357803 0.010085835
0.0374243 0.017548254 0.018486736 -0.016152943 -0.025399141 -0.01808802 -0.011182554 0.036103006
0.02164151 -0.018693432 0.012857485 0.013159873 0.012953614 0.033128615 0.014621563 0.0125147095
-0.0012466008 0.014694435 0.017773163 -0.02081034 -0.001358383 0.0019190812 -0.03262491 -0.0273426
3.1701933e-05 0.028886246 0.013117874 -5.1807374e-06 0.011949774 0.016233813 0.003104174 0.020941803
-0.015256191 0.0070660426 -0.0033064052 -0.00599266 -0.0042845365 -0.014673057 0.005241641 0.035057638
0.002981797 -0.015941476 -0.00889156 -0.0012265824 0.022302382 0.017960167 -0.004185351 0.0034991219
-0.020182159 -0.026658332 -0.0146697825 0.011443058 0.0026973572 0.015205208 -0.0022992012 -0.00571593
-0.016653549 -0.04122842 0.011817211 0.017397508 -0.0059735905 -0.020196993 -0.016173245 0.026577925
-0.048577 -0.009464973 0.005894895 0.0007017111 0.00064266904 -9.426733e-05 0.015732018 0.006297672
-0.01529695 -0.013337393 0.024255903 0.022207031 0.01366598 -0.01952059 -0.014703908 -0.0071691535
-0.00444429 -0.015486019 0.026861856 0.017229227 0.0022091903 -0.011222141 -0.01892892 0.007828761
0.009681786 -0.054856043 -0.02239669 0.009486433 -0.020814631 -0.014470535 -0.01659066 -0.024001712
0.01915966 0.0033815668 -0.0124151 0.00040368992 0.003921016 0.01109177 0.0006928421 -0.0387651
-0.004729902 0.018444465 -0.0013915974 -0.03711909 -0.023942668 0.025757955 -0.03239806 -0.01330962
-0.0039591775 -0.01637387 -0.01245096 -0.034435518 0.013904593 0.0042297966 -0.05149721 0.0019628634
-0.019630626 -0.00316562 0.018619498 0.010782001 -0.015376947 0.017937083 -0.0031028837 -0.020368105

action_model._discrete_distribution.branches.0.bias f4 [3]
00000000: 6689 38bd a4aa caba ec4d 3c3d
-0.04505291 -0.0015462232 0.04597275

exp_avg f4 [128, 6]
00000000: 070e 3aba 7d68 d635 0000 0000 9d8f dc36
00000010: d708 a7ba 2c41 16ba c4de f5b8 d887 84b4
00000020: 0000 0000 a3e3 2431 c253 06b8 011a 6237
00000030: 8718 02b8 a8b8 dcb4 0000 0000 5d99 b4b6
00000040: 4d40 e438 6b33 1a39 d2c6 12ba dcbd 37b6
00000050: 0000 0000 c570 0b35 4e1b 0eb9 d17a adb9
00000060: 479b 8239 44bf 4435 0000 0000 bf54 17b5
00000070: b7d5 a435 4d8c fe33 0b1a b9b9 7a98 1ab5
00000080: 0000 0000 8310 b9b4 f5b2 38b8 4295 01b9
00000090: 78cd 02ba e67b 3735 0000 0000 6914 6bb6
000000a0: 6880 68ba e93f 0cba a52b 18ba f498 d6b4
000000b0: 0000 0000 7711 0137 9c70 c338 147d 89b8
000000c0: b817 8bba f4ef d434 0000 0000 2c1c 6db6
000000d0: da74 2abb 49b7 95ba 573a 9dba fc96 3436
000000e0: 0000 0000 be6b d3b6 800e 17bb 4149 81ba
000000f0: 63a5 c1b9 4e82 65b4 0000 0000 b662 1636
00000100: ba8a 08ba 58d9 cfb9 5365 76b9 467e 5eb5
00000110: 0000 0000 e27d 0336 e507 ae38 fd04 7eb7
00000120: 5e3f b4b9 9dc7 8cb5 0000 0000 d5d8 f6b6
00000130: 0246 40b8 34e0 03b9 e3e5 d138 467f d3b5
00000140: 0000 0000 696d d536 372c 553a 989a 7c39
00000150: 9ebe e3b9 a2fc bf35 0000 0000 9740 8db6
00000160: e281 93ba 8794 10ba aa71 81b9 5a8f 49b5
00000170: 0000 0000 e9dd 1435 987e 89b8 697d 0db9
00000180: 0bbd 59b9 f6f2 47b3 0000 0000 792f 1a35
00000190: c255 b6b9 9e33 88b9 cf42 813a ffbe 93b6
000001a0: 0000 0000 929a d636 5708 133b 6678 7b3a
000001b0: 4068 a6b9 d727 9ab5 0000 0000 ee29 de36
000001c0: 0520 beb9 0669 0fba d3d8 a036 c093 22b4
000001d0: 0000 0000 d800 5136 ee99 aab8 a260 c3b8
000001e0: 87a8 acb9 5baa 0c35 0000 0000 94b0 56b7
000001f0: ec1f 35ba 8f09 fab9 1fba 4eb9 bb3f 4534
00000200: 0000 0000 1184 98b7 4c9e b4b9 0e81 93b9
00000210: 4aee 62b8 91c1 4bb4 0000 0000 adf2 8b34
00000220: f5df 3fb9 f6f0 f2b8 4243 91ba d591 e635
00000230: 0000 0000 2dce e3b5 4bbd 06bb a816 61ba
00000240: 9209 2db9 b46e 06b5 0000 0000 b7c9 45b4
00000250: 905a 5039 66eb 8438 249f 25ba 7d1a e935
00000260: 0000 0000 e52c 3cb5 876b 7aba cb02 05ba
00000270: 9d6e c3b9 247b a333 0000 0000 250b bf36
00000280: 535a 0eba 2ec9 91b9 5668 81b8 befb dab4
00000290: 0000 0000 930a 8c36 dfb6 c2b7 2137 9ab8
000002a0: c0f7 9cb9 3d9c 8fb4 0000 0000 cff2 2a36
000002b0: e31f 16b8 4243 06b8 c461 57b9 36b5 e9b5
000002c0: 0000 0000 70e8 2d37 5c86 3c3a 5722 8638
000002d0: d31a f338 67c8 0fb5 0000 0000 2a37 ec36
000002e0: a0b9 d039 87b7 a039 5c7f 2b38 eb3f fd34
000002f0: 0000 0000 eb72 3234 7c5a c1b8 ea97 9ab7
00000300: 0e43 f4b9 cf7b d734 0000 0000 3016 99b6
00000310: 2d28 84ba c2c0 0dba 757d d5b6 91fc 6fb5
00000320: 0000 0000 e54a 6b36 309e 6a39 ea7e fb38
00000330: a94c 3c38 29f5 6134 0000 0000 f17d 92b6
00000340: b058 4cb8 0a5a 9e37 60a0 fc39 e458 c1b2
00000350: 0000 0000 06f7 d7b2 b4d2 a939 edce 9639
00000360: a76f 04ba 54af 17b6 0000 0000 3cdb c836
00000370: 81dc 7f3a b3d9 be39 cdcb 8839 7684 2134
00000380: 0000 0000 cd71 06b6 b628 6439 642f 1f39
00000390: 2094 b8b9 b191 2035 0000 0000 dc13 b6b5
000003a0: d67b b7b9 b9c2 6cb9 d0fb 8dba f8d2 3e36
000003b0: 0000 0000 976c 09b6 c88c 20bb bdbe 86ba
000003c0: eb7a 4aba 247a 8235 0000 0000 b650 c236
000003d0: a90e 16ba 092e efb9 10ca 5638 eb06 fdb5
000003e0: 0000 0000 7db4 fa36 dbe4 293a 0952 8a38
000003f0: 76d6 d8b8 5de9 29b5 0000 0000 c436 b2b6
-0.0007097427 1.5974653e-06 0.0 6.5732297e-06 -0.0012743723 -0.0005731757 -0.00011724004 -2.4685755e-07
0.0 2.3994537e-09 -3.2026095e-05 1.3476704e-05 -3.1017258e-05 -4.1112548e-07 0.0 -5.382272e-06
0.00010883864 0.00014705739 -0.00055990845 -2.7379638e-06 0.0 5.1945636e-07 -0.00013552347 -0.00033088637
0.00024911223 7.329402e-07 0.0 -5.6375205e-07 1.2281151e-06 1.1853317e-07 -0.00035305353 -5.7591353e-07
0.0 -3.447095e-07 -4.4035685e-05 -0.00012358002 -0.00049897237 6.835311e-07 0.0 -3.502961e-06
-0.00088692317 -0.00053500995 -0.00058048434 -3.9971894e-07 0.0 7.6930655e-06 9.3193e-05 -6.555967e-05
-0.0010611927 3.9662666e-07 0.0 -3.533215e-06 -0.002600959 -0.0011422421 -0.0011995536 2.6909975e-06
0.0 -6.300833e-06 -0.0023049414 -0.000986375 -0.0003693505 -2.1374692e-07 0.0 2.24092e-06
-0.000520866 -0.0003964405 -0.00023498134 -8.2885197e-07 0.0 1.9593795e-06 8.298437e-05 -1.5140741e-05
-0.00034379488 -1.0488908e-06 0.0 -7.356614e-06 -4.5841567e-05 -0.00012576656 0.00010008716 -1.5757767e-06
0.0 6.3606317e-06 0.00081318937 0.00024090183 -0.00043438835 1.4304135e-06 0.0 -4.2096467e-06
-0.0011253918 -0.00055152964 -0.00024689484 -7.508694e-07 0.0 5.545722e-07 -6.556249e-05 -0.00013493527
-0.00020765157 -4.655427e-08 0.0 5.743855e-07 -0.0003477764 -0.000259784 0.000986183 -4.4031763e-06
0.0 6.3956913e-06 0.002243539 0.0009592831 -0.0003173966 -1.1485489e-06 0.0 6.620997e-06
-0.0003626348 -0.0005470667 4.7936132e-06 -1.5141177e-07 0.0 3.1143918e-06 -8.134903e-05 -9.316324e-05
-0.0003293196 5.2401964e-07 0.0 -1.2796507e-05 -0.0006909359 -0.00047690838 -0.00019715026 1.837024e-07
0.0 -1.818131e-05 -0.00034450216 -0.00028134178 -5.4104523e-05 -1.8976267e-07 0.0 2.6067337e-07
-0.0001829861 -0.00011584342 -0.0011082666 1.7178778e-06 0.0 -1.6972823e-06 -0.0020559605 -0.0008586445
-0.00016502131 -5.0079984e-07 0.0 -1.8420438e-07 0.00019870163 6.338097e-05 -0.0006317964 1.7367562e-06
0.0 -7.010079e-07 -0.0009552766 -0.00050739635 -0.00037275712 7.612678e-08 0.0 5.693541e-06
-0.00054303295 -0.00027806446 -6.1706334e-05 -4.078883e-07 0.0 4.173556e-06 -2.3211758e-05 -7.353561e-05
-0.00029939227 -2.6749504e-07 0.0 2.5473307e-06 -3.5792484e-05 -3.201073e-05 -0.00020540418 -1.7412592e-06
0.0 1.0365722e-05 0.0007191652 6.396014e-05 0.00011592139 -5.3563275e-07 0.0 7.03977e-06
0.00039811153 0.00030654317 4.088819e-05 4.717143e-07 0.0 1.6619349e-07 -9.219811e-05 -1.8428971e-05
-0.00046589266 4.0136953e-07 0.0 -4.5623383e-06 -0.0010082774 -0.00054074463 -6.3625e-06 -8.940197e-07
0.0 3.5061323e-06 0.00022374908 0.00011992252 4.489409e-05 2.1043947e-07 0.0 -4.3658006e-06
-4.8719987e-05 1.8876995e-05 0.00048184674 -2.250858e-08 0.0 -2.5141627e-08 0.00032391178 0.000287644
-0.0005052038 -2.2602808e-06 0.0 5.9859867e-06 0.00097603357 0.00036401823 0.00026091785 1.5042482e-07
0.0 -2.0033797e-06 0.0002175894 0.00015181076 -0.00035205577 5.9816654e-07 0.0 -1.3565837e-06
-0.00034996745 -0.00022579254 -0.0010832492 2.8435006e-06 0.0 -2.0477798e-06 -0.0024497975 -0.0010280233
-0.00077240047 9.721302e-07 0.0 5.7910465e-06 -0.00057242304 -0.0004561993 5.120976e-05 -1.8851982e-06
0.0 7.471592e-06 0.00064809405 6.595633e-05 -0.00010339629 -6.3296994e-07 0.0 -5.311189e-06

exp_avg_sq f4 [128, 6]
00000000: 27b7 4b37 76f1 922f 0000 0000 2863 0f33
00000010: 9f75 b938 2528 5337 c3a9 1435 cd86 d22d
00000020: 0000 0000 59d5 d631 3439 0034 439b 0e35
00000030: 8c9b af35 6f0d 252e 0000 0000 313d 9b32
00000040: db93 1c35 8854 9535 3828 8b36 6d7f ee2e
00000050: 0000 0000 46d6 0533 424a 1f35 504f 4e36
00000060: ef77 6535 ac45 bf2d 0000 0000 f15b c231
00000070: 75fc 2934 eaa6 1b35 2e4a 8335 4a0b cf2d
00000080: 0000 0000 1683 9431 ef74 8936 7a5b 5735
00000090: 818f d435 7fd3 5f2e 0000 0000 9cd4 7b32
000000a0: 4b7f 0637 f7c5 d335 9323 0936 4b4c 6d2e
000000b0: 0000 0000 2cb2 aa32 d52f fb36 a8f1 0b36
000000c0: 1c04 2637 7a35 842f 0000 0000 ddc1 2733
000000d0: ca15 2e38 85ab 1c37 d40b db36 a3cf 3e2f
000000e0: 0000 0000 6f99 0833 e508 2938 d16e eb36
000000f0: 122b 0d36 eb0a 922e 0000 0000 891b d532
00000100: 0f04 9335 3472 f735 5160 5d36 1012 ad2e
00000110: 0000 0000 2770 3133 dde8 fd34 1b87 2036
00000120: 4b43 4736 4ecd f92e 0000 0000 77d6 d732
00000130: b5f4 f234 e3dc 1836 0a90 b235 45c2 352e
00000140: 0000 0000 64bd 9232 d636 0436 014f c635
00000150: 8a0d c735 4947 3a2e 0000 0000 b8af cf31
00000160: 7bc6 1d37 d7e1 df35 4c79 6e35 d38b ce2d
00000170: 0000 0000 7f15 a330 e52f 9336 82fd 4835
00000180: 8a90 aa35 d7ab 212e 0000 0000 a976 3c32
00000190: 7334 b135 e794 8535 dff0 0b37 1e09 932f
000001a0: 0000 0000 74f5 0734 108b b637 d30f f236
000001b0: 642a 9936 d73f 2b2f 0000 0000 1e9c 8933
000001c0: 3070 5135 f0ac 8836 9dd2 9e35 53e5 4b2e
000001d0: 0000 0000 1484 be32 37dc 4234 de3e a035
000001e0: 1034 5437 195f e32f 0000 0000 eb4a 9133
000001f0: b2b8 3237 cc3e 0c37 b867 8d37 fd12 1e30
00000200: 0000 0000 ba40 0734 24f9 9236 70a4 4c37
00000210: c984 ca34 70e8 612d 0000 0000 02b8 9131
00000220: e2fe 8e35 7109 b534 07ce cd36 32d0 272f
00000230: 0000 0000 3912 2733 fad0 d537 963f d536
00000240: 4fb1 7435 22ee 0a2e 0000 0000 8c27 db31
00000250: 7281 8a36 945d 6935 2978 2436 5af8 842e
00000260: 0000 0000 44b8 a231 3d14 8737 dfbc 4336
00000270: f007 8b36 8935 ed2e 0000 0000 a66b be32
00000280: 8c6d 6d37 b40e 6b36 5394 ee35 5498 932e
00000290: 0000 0000 377d 2433 a2dd a334 af5e e935
000002a0: 64ba 1d36 bec9 582e 0000 0000 b179 0a32
000002b0: c787 7937 b2db 1f36 49cb b936 e053 292f
000002c0: 0000 0000 fe13 1733 b4c4 d537 f23f ca36
000002d0: 3494 6e36 9366 b82e 0000 0000 3add 7c32
000002e0: 0f21 5637 aa84 4836 5fa5 7935 7cfd 072e
000002f0: 0000 0000 f3ce 3832 d0e1 8534 7434 4f35
00000300: 0301 1236 2693 932e 0000 0000 a886 0333
00000310: 2ecf 3b36 d5e7 1336 e5bf 8835 1856 072e
00000320: 0000 0000 1877 fe31 485c 9436 0825 9035
00000330: 0e0c 1735 83ef 962d 0000 0000 dccd 7731
00000340: f237 f534 6585 e634 9b9f c535 8a9f 2f2e
00000350: 0000 0000 1893 f132 c1cc e734 b0b8 b435
00000360: e364 ce36 9763 162f 0000 0000 49b5 d732
00000370: 0102 fe37 32fc e336 d0fd 0735 4ac5 8b2d
00000380: 0000 0000 a0cc 8231 b67d b835 76eb eb34
00000390: acc3 de34 79ea 472d 0000 0000 1fc7 9431
000003a0: 7ab8 6235 3f50 d834 44e0 2037 ebb5 5f2f
000003b0: 0000 0000 1b5b 3833 4a7f 1f38 0c86 0f37
000003c0: 9105 2437 b08a 842f 0000 0000 d60a 5c33
000003d0: a9d9 8538 a845 4237 4524 2136 1557 872e
000003e0: 0000 0000 eed5 b832 b6d0 9136 0e61 0636
000003f0: fd42 4036 0b1a ab2e 0000 0000 ca90 0233
1.2142386e-05 2.6728814e-10 0.0 3.3384964e-08 8.843396e-05 1.2585927e-05 5.538133e-07 2.39341e-11
0.0 6.2524745e-09 1.194174e-07 5.312506e-07 1.3083786e-06 3.7528588e-11 0.0 1.8072202e-08
5.8329687e-07 1.1125967e-06 4.147205e-06 1.0845622e-10 0.0 3.1161356e-08 5.9340175e-07 3.0742558e-06
8.5483674e-07 2.1745127e-11 0.0 5.6565956e-09 1.5831195e-07 5.798489e-07 9.78185e-07 2.3538189e-11
0.0 4.3222697e-09 4.096531e-06 8.022686e-07 1.5836996e-06 5.0892176e-11 0.0 1.4658465e-08
8.01666e-06 1.577834e-06 2.0435298e-06 5.3955323e-11 0.0 1.9871628e-08 7.4859513e-06 2.0853277e-06
9.895328e-06 2.4048658e-10 0.0 3.9059035e-08 4.1505125e-05 9.33826e-06 6.5280856e-06 1.7354167e-10
0.0 3.1804515e-08 4.0301024e-05 7.0164465e-06 2.1035708e-06 6.641251e-11 0.0 2.4808985e-08
1.0953535e-06 1.8436172e-06 3.298763e-06 7.870338e-11 0.0 4.1313026e-08 4.7294353e-07 2.39205e-06
2.969248e-06 1.13596785e-10 0.0 2.5126822e-08 4.525406e-07 2.2778338e-06 1.3303954e-06 4.132718e-11
0.0 1.7082762e-08 1.9701451e-06 1.4775143e-06 1.4830596e-06 4.2354818e-11 0.0 6.04447e-09
9.404142e-06 1.6680523e-06 8.883842e-07 2.3481583e-11 0.0 1.186592e-09 4.386517e-06 7.487471e-07
1.2708053e-06 3.6759786e-11 0.0 1.09700204e-08 1.3202792e-06 9.952608e-07 8.341128e-06 2.6745622e-10
0.0 1.266215e-07 2.1760847e-05 7.214004e-06 4.5646902e-06 1.557504e-10 0.0 6.407957e-08
7.802182e-07 4.0732484e-06 1.1833214e-06 4.6360537e-11 0.0 2.2178973e-08 1.8147772e-07 1.1939226e-06
1.2648306e-05 4.135863e-10 0.0 6.765716e-08 1.06526295e-05 8.359271e-06 1.6856808e-05 5.750705e-10
0.0 1.2596402e-07 4.380143e-06 1.2197634e-05 3.7722046e-07 1.2841381e-11 0.0 4.2409747e-09
1.0654005e-06 3.3720747e-07 6.133461e-06 1.5262527e-10 0.0 3.889929e-08 2.5488891e-05 6.355297e-06
9.11551e-07 3.158907e-11 0.0 6.378235e-09 4.12779e-06 8.693544e-07 2.4507847e-06 6.046781e-11
0.0 4.735769e-09 1.6102678e-05 2.9167202e-06 4.143447e-06 1.0787022e-10 0.0 2.2167864e-08
1.4151807e-05 3.5026287e-06 1.777555e-06 6.711845e-11 0.0 3.8298108e-08 3.0522375e-07 1.7387409e-06
2.3503317e-06 4.9291897e-11 0.0 8.060327e-09 1.487317e-05 2.3820726e-06 5.537095e-06 1.5400259e-10
0.0 3.517561e-08 2.5483176e-05 6.0275133e-06 3.555103e-06 8.385572e-11 0.0 1.4718632e-08
1.2763091e-05 2.9879543e-06 9.3000375e-07 3.0920586e-11 0.0 1.0757264e-08 2.493748e-07 7.718984e-07
2.1756284e-06 6.710925e-11 0.0 3.0623283e-08 2.7985766e-06 2.203965e-06 1.0188638e-06 3.0771913e-11
0.0 7.4059123e-09 4.4214867e-06 1.0739614e-06 5.6269425e-07 1.715939e-11 0.0 3.6060248e-09
4.5675512e-07 4.2937896e-07 1.4724095e-06 3.9932092e-11 0.0 2.8122983e-08 4.317608e-07 1.3464796e-06
6.151023e-06 1.3677802e-10 0.0 2.5111733e-08 3.0280093e-05 6.7944866e-06 5.0660765e-07 1.5890084e-11
0.0 3.806761e-09 1.3745655e-06 4.394348e-07 4.1493092e-07 1.1363904e-11 0.0 4.3300044e-09
8.446001e-07 4.0291522e-07 9.588959e-06 2.0346362e-10 0.0 4.29237e-08 3.80271e-05 8.554674e-06
9.776458e-06 2.4109204e-10 0.0 5.1232597e-08 6.3824766e-05 1.1579519e-05 2.4011981e-06 6.154558e-11
0.0 2.1517703e-08 4.345634e-06 2.002405e-06 2.8649222e-06 7.780806e-11 0.0 3.039967e-08

exp_avg f4 [128]
00000000: 7b60 b139 1748 5bb8 8899 b6b8 c501 18ba
00000010: 24c4 2239 2aca ffb8 36cb 1739 9388 b1b8
00000020: 0c29 b038 3d66 153a afde 3db8 c910 38b9
00000030: 24ee 68b9 fbf7 aeb9 fcd3 9e39 6ebf 26b9
00000040: 4c6a 25b7 e174 74ba c40f 7fb9 6d7f 06b8
00000050: b3bd e838 832e 2338 8b90 28b8 3dbf be39
00000060: a56d deb8 e3d7 c039 e43e 8737 7229 b5b8
00000070: 0b9d 6db8 e257 c1b9 2be6 edb8 8f82 d138
00000080: 4444 b238 a089 46b9 7cee 3a38 21f4 9fb6
00000090: 3df9 fab9 0d9f 0538 2dd6 0439 badd 1d3a
000000a0: 43e2 5739 6553 d1b9 c490 0cb9 87f0 4938
000000b0: 8793 50b9 a712 ffba 2ca0 2ab7 fb53 833a
000000c0: 4a5d 1b38 e2e4 2fb8 b80a d7b9 21f5 e0b9
000000d0: d58d 49b8 35be ae3a 0ef5 1cb8 3db9 c7b7
000000e0: 510e 56b8 f6a3 d238 1b66 1c3a 2703 a0b8
000000f0: bc04 b738 44e9 08b9 6fa9 f939 07ad 4d3a
00000100: 5fc5 fa34 e315 b237 68e1 d7b9 db54 81b9
00000110: 445c 6336 8424 a838 3ab3 13b9 3848 a2b8
00000120: 5b08 b937 bc0e 2eba fbe1 2bb9 48ea 12b9
00000130: 9211 46b9 aac3 7039 0bd4 a8b9 2e16 cbb9
00000140: 3cc4 4039 edf0 93b9 0957 0536 4b2f 76b7
00000150: 91db 9fb9 80bd 1f3a 7ed2 5837 d318 5fb8
00000160: 9101 9e39 5771 213a 31e2 283a abaa 5d39
00000170: 3870 b339 2b48 2538 2385 17b9 baf0 48b8
00000180: 6ac1 92b9 8c04 e839 6fb9 17b9 4758 4f3a
00000190: ac39 a4b8 8ee4 043a 2f72 49b7 55e3 b0b9
000001a0: 64b6 1db8 c67f b338 4e11 4cb9 761c 02b9
000001b0: 35c0 76b7 2220 fa37 eb3a 28b8 9072 543a
000001c0: 08c0 8939 3776 2e39 5d3a 07ba 2095 21b9
000001d0: 8b0f af38 68f7 f339 c58c 8fba 1dca 3c39
000001e0: 0f34 f937 6757 a938 2f69 e239 d623 feb9
000001f0: 92be 4eb7 de20 8cb7 d2b4 20b9 b87f fc39
0.00033831954 -5.2280808e-05 -8.707034e-05 -0.00057986035 0.00015522592 -0.000121970035 0.00014476184 -8.4654566e-05
8.3999796e-05 0.00056991336 -4.52685e-05 -0.0001755386 -0.00022213958 -0.00033372626 0.0003029405 -0.00015902307
-9.859516e-06 -0.00093252776 -0.00024324568 -3.2066764e-05 0.00011097956 3.8905546e-05 -4.0188937e-05 0.00036382108
-0.00010606208 0.00036781942 1.612254e-05 -8.638472e-05 -5.665146e-05 -0.00036877306 -0.00011343913 9.990215e-05
8.500417e-05 -0.00018934021 4.456796e-05 -4.7669896e-06 -0.00047869413 3.18578e-05 0.00012668288 0.00060221145
0.00020588287 -0.0003992572 -0.0001340537 4.8146143e-05 -0.00019891384 -0.0019460515 -1.01700825e-05 0.0010019535
3.7041762e-05 -4.1936415e-05 -0.00041015982 -0.00042907245 -4.8054226e-05 0.0013331833 -3.7421523e-05 -2.3808907e-05
-5.103491e-05 0.000100441204 0.00059661426 -7.629982e-05 8.727002e-05 -0.00013056869 0.0004761922 0.00078459125
4.6709735e-07 2.1229445e-05 -0.00041175936 -0.0002466802 3.3879342e-06 8.017666e-05 -0.0001408578 -7.738214e-05
2.205761e-05 -0.0006639769 -0.00016392015 -0.00014010922 -0.00018889297 0.00022961074 -0.0003220144 -0.00038735702
0.0001838365 -0.0002821753 1.9869206e-06 -1.4673754e-05 -0.00030490433 0.00060936064 1.2923612e-05 -5.3190462e-05
0.00030137275 0.00061585516 0.00064423966 0.00021139781 0.0003422515 3.9406277e-05 -0.0001445008 -4.790791e-05
-0.00027991395 0.00044253876 -0.00014469562 0.00079095777 -7.8308716e-05 0.00050694577 -1.2007119e-05 -0.00033738711
-3.760158e-05 8.559185e-05 -0.00019461403 -0.00012408369 -1.4707494e-05 2.9817285e-05 -4.0109193e-05 0.00081042293
0.0002627375 0.00016637972 -0.0005158538 -0.0001540971 8.3475454e-05 0.00046532904 -0.0010951987 0.0001800437
2.9707355e-05 8.074828e-05 0.00043184447 -0.00048473355 -1.2322927e-05 -1.6704606e-05 -0.0001532615 0.00048160343

exp_avg_sq f4 [128]
00000000: a10d 2837 81bd fb34 4e62 8635 0a72 8336
00000010: cb09 1a35 e628 3f35 17a3 ca35 2350 ef35
00000020: 7b3b 0837 0dfe c536 d2ad 1136 a820 2336
00000030: 0078 4836 1a2d bb35 fe7b c235 a131 2c35
00000040: 1f73 9a35 d52a e036 d497 a436 59ea b435
00000050: 629b 2337 b343 7437 69cc ad34 8ab0 b436
00000060: 33a4 5235 545d 1936 d358 6636 cc30 0336
00000070: 2587 ff35 b7a5 b436 795f 3e36 06e9 7135
00000080: 63f4 0a36 bcb5 7735 e4a9 0635 6923 a935
00000090: 32eb b736 3d7b e234 c8f4 b134 3dc3 f336
000000a0: b04a 1b37 1cdb 0b36 23ce 1f36 10d0 1036
000000b0: 9084 ef36 b74e 6137 955e 0236 78a0 4c37
000000c0: f7de ba35 a07e c434 2e8f e736 3adf 8136
000000d0: dbc3 db36 675a d237 3f85 1c35 7a4b 2737
000000e0: ad00 0c35 b326 da35 43b9 b236 c05a cf35
000000f0: 7e8c f134 b121 da35 6649 ac36 1031 4337
00000100: dce4 9436 c145 0235 5f49 8d36 719a 2335
00000110: 7403 8d36 1d2d 9435 23e8 7135 a206 4036
00000120: a11f 8136 4b05 0636 12b1 4236 15e9 5636
00000130: ecbb ca35 dacc 2437 01c0 b135 eef3 0236
00000140: 9628 8435 de95 0336 97d0 df35 7e06 b436
00000150: ef30 6e36 47b2 6336 ee6a 6036 364e fb36
00000160: c001 2437 bb18 df37 f342 ef36 b6b9 6935
00000170: 517c 7a36 c20b 9736 f04e 8536 d47d 3f36
00000180: b454 0736 b266 b536 8811 d135 ff71 b137
00000190: 7d19 2e36 5c27 5937 bc55 9035 f26f 8835
000001a0: 0eca f335 6f4e 4c36 6437 6936 dcb2 9535
000001b0: de84 b835 bee8 7635 80ed cd35 840b 9d37
000001c0: 51a8 8c35 8071 e436 5d40 0037 ff21 1136
000001d0: 6807 9e36 ff56 9337 f9c5 9a36 a584 1836
000001e0: ba72 9636 9a6a aa35 6c9c cc36 a19e 0137
000001f0: 68c9 e735 e31e 3636 275f bf35 2fde 5236
1.0016754e-05 4.6890275e-07 1.0012388e-06 3.91738e-06 5.738372e-07 7.121256e-07 1.5097638e-06 1.783021e-06
8.120081e-06 5.900633e-06 2.170786e-06 2.4307901e-06 2.9872172e-06 1.3945712e-06 1.4490213e-06 6.414721e-07
1.1507399e-06 6.6807065e-06 4.905256e-06 1.3479249e-06 9.751735e-06 1.4559296e-05 3.237249e-07 5.38497e-06
7.847004e-07 2.28531e-06 3.4324373e-06 1.9548925e-06 1.9038313e-06 5.38371e-06 2.8367779e-06 9.011859e-07
2.0705854e-06 9.227913e-07 5.0166113e-07 1.2601787e-06 5.4812053e-06 4.2185448e-07 3.314692e-07 7.264693e-06
9.2561095e-06 2.0840153e-06 2.3812834e-06 2.157878e-06 7.1381874e-06 1.3429372e-05 1.9426564e-06 1.219671e-05
1.3922971e-06 3.6599977e-07 6.901005e-06 3.8704866e-06 6.549509e-06 2.5076048e-05 5.830843e-07 9.971549e-06
5.215505e-07 1.6253529e-06 5.3263807e-06 1.5449114e-06 4.499197e-07 1.6252071e-06 5.134544e-06 1.1634329e-05
4.4373865e-06 4.853028e-07 4.210669e-06 6.0946974e-07 4.2025295e-06 1.1039989e-06 9.01173e-07 2.861409e-06
3.8481817e-06 1.9970637e-06 2.9011321e-06 3.2024157e-06 1.5104865e-06 9.8228575e-06 1.3243408e-06 1.9513495e-06
9.846578e-07 1.9607755e-06 1.6675502e-06 5.365174e-06 3.5493247e-06 3.3929407e-06 3.3440842e-06 7.489488e-06
9.775569e-06 2.6595188e-05 7.130549e-06 8.706951e-07 3.7325265e-06 4.5015195e-06 3.9728984e-06 2.853446e-06
2.0165871e-06 5.4061757e-06 1.5576816e-06 2.1153128e-05 2.5942857e-06 1.2943372e-05 1.0753788e-06 1.016537e-06
1.8163717e-06 3.0444023e-06 3.4751947e-06 1.115342e-06 1.3747738e-06 9.1980826e-07 1.5342812e-06 1.872122e-05
1.0479799e-06 6.8081426e-06 7.64438e-06 2.1626472e-06 4.709629e-06 1.7564276e-05 4.6126047e-06 2.2726974e-06
4.4837043e-06 1.2697012e-06 6.0978837e-06 7.725933e-06 1.7269458e-06 2.7138092e-06 1.4258302e-06 3.1421766e-06
