BasicAvoidance/Assets/results/BasicAvoidance1/PlayerAvoidance/PlayerAvoidance-1294.onnx (onnx, 74465 bytes, 8 tensors)

network_body.observation_encoder.processors.0.normalizer.running_mean f4 [6]
0	0xbeb32f43	-0.34996995
1	0x3effcd63	0.49961385
2	0x00000000	0.0
3	0x3b716f72	0.0036840108
4	0x3efc160d	0.49235573
5	0x40de6bc3	6.9506545

network_body._body_endoder.seq_layers.0.weight f4 [128, 6]
0	0xbeec221f	-0.46119782
1	0xbdbca7f6	-0.092117235
2	0xbf4023fd	-0.75054914
3	0x3e0e78ab	0.13913219
4	0xbdc21bbb	-0.094779454
5	0x3e3df421	0.18550159
6	0xbf03a277	-0.51419777
7	0x3d2aa833	0.041664314
8	0x3e7df47c	0.24800295
9	0x3f749652	0.9554187
10	0x3d73b09d	0.059494603
11	0xbf050dbf	-0.519741
12	0x3f1ad119	0.6047531
13	0xbf19c0da	-0.60059893
14	0xbe1c3607	-0.15254985
15	0x3e00e582	0.1258755
16	0xbe1c2636	-0.15248951
17	0xbf05a08b	-0.52198094
18	0xbf074970	-0.5284643
19	0xbf007ec4	-0.5019343
20	0xbd021769	-0.031760607
21	0xbec27662	-0.37980944
22	0x3e3a3d0d	0.18187352
23	0xbdc8654e	-0.09784947
24	0x3e1bf635	0.1523064
25	0x3cdaa2cd	0.026688958
26	0xbdde6754	-0.10859552
27	0xbf0df671	-0.55454165
28	0xbf0889dc	-0.53335357
29	0x3ed1c03f	0.40966985
30	0x3f88eeb7	1.069785
31	0xbeb5dc61	-0.35519698
32	0xbf1482cd	-0.58012086
33	0x3eddab22	0.43294626
34	0x3ecb0afa	0.39656812
35	0x3ec8ae63	0.39195547
36	0xbd3781d3	-0.044801544
37	0x3f0272c4	0.5095637
38	0xbdf19f85	-0.11798004
39	0x3eaa8ede	0.33312124
40	0xbe55a8b1	-0.20865132
41	0xbf0c26ac	-0.5474651
42	0x3c6bd735	0.014394571
43	0x3dedeb96	0.116172
44	0xbed35e4d	-0.41282883
45	0xbb106185	-0.0022030782
46	0x3ebe8d24	0.37217057
47	0x3e04692c	0.12930745
48	0xbeeb2a74	-0.45930827
49	0x3cb6f007	0.02233125
50	0x3e0eae06	0.13933572
51	0x3d81c9d0	0.06337321
52	0xbd8fb08a	-0.07016094
53	0x3ebdeacf	0.37093207
54	0xbc2820bc	-0.010261711
55	0x3e298e07	0.16558085
56	0xbec2cbcd	-0.38046113
57	0xbf332043	-0.699711
58	0x3c38479f	0.011247545
59	0x3f03e874	0.5152657
60	0x3eecc242	0.46241957
61	0xbf9c5584	-1.2213597
62	0xbde5d38f	-0.11221992
63	0x3eaa6f2b	0.3328794
64	0x3e77df3d	0.24206252
65	0x3e5ccf63	0.21563487
66	0xbdaaedc8	-0.083461344
67	0x3f16df30	0.5893431
68	0x3c77c551	0.0151227275
69	0xbe966c43	-0.29379472
70	0x3e95c3ac	0.29250848
71	0xbd8613cb	-0.06546744
72	0xbf1f7f97	-0.6230406
73	0xbf3defe3	-0.74194163
74	0x3e3b7e3e	0.18309876
75	0xbda507d8	-0.08058137
76	0xbed58c99	-0.4170883
77	0xbcebb525	-0.0287729
78	0xbec2f12d	-0.38074628
79	0x3e77bee9	0.2419392
80	0xbd7c4dae	-0.06159752
81	0x3e2a6036	0.16638264
82	0xbeac62e2	-0.33669192
83	0xbe2280b8	-0.15869415
84	0xbe9ff38a	-0.31240493
85	0xbe2bd286	-0.16779527
86	0x3e2057ef	0.15658544
87	0xbece9a30	-0.4035201
88	0x3e7eab90	0.24870133
89	0xbe9ef5c1	-0.3104687
90	0xbe2f24b9	-0.17103852
91	0xbf0aef4d	-0.54271394
92	0xbe9511fd	-0.29115286
93	0x3efa3c3d	0.48874083
94	0xbf056f39	-0.5212284
95	0xbed333ad	-0.41250363
96	0x3f00de61	0.50339323
97	0x3f5724da	0.84040606
98	0xbed2f0fe	-0.41199487
99	0x3ee61ecc	0.4494537
100	0xbedd53b3	-0.4322792
101	0x3d8a8643	0.0676389
102	0x3effa3fa	0.49929792
103	0x3f457465	0.7713073
104	0xbe2385f6	-0.15969071
105	0x3e149608	0.14510357
106	0xbe9259d6	-0.28584164
107	0xbe75acb4	-0.23991662
108	0xbe58027e	-0.210947
109	0xbdb0fc3e	-0.086418614
110	0xbdecd51c	-0.11564085
111	0x3f446b2e	0.76726043
112	0xbef5d254	-0.4801203
113	0xbe9431fa	-0.2894438
114	0x3efe20c7	0.49634382
115	0x3ea3e9f0	0.32014418
116	0xbdb071d9	-0.08615465
117	0x3e043691	0.1291144
118	0x3f1e7c8d	0.619088
119	0x3ed546cd	0.4165558
120	0x3f219b88	0.63127947
121	0xbd86355c	-0.06553146
122	0xbccae5d1	-0.024767788
123	0xbe25c7d1	-0.16189505
124	0xbf15104c	-0.5822799
125	0x3ef660b5	0.48120657
126	0x3ddec2ec	0.10877022
127	0x3ed1f334	0.41005862
128	0x3e984f64	0.2974807
129	0x3f46cead	0.7765911
130	0xbea5ac97	-0.32358238
131	0x3e6be7c4	0.2303763
132	0x3e34f800	0.1767273
133	0x3ebc4414	0.3677069
134	0x3e49b378	0.19697368
135	0x3d803b70	0.06261337
136	0x3db72e13	0.08944335
137	0xbd45e494	-0.048313692
138	0x3df0d821	0.11759973
139	0x3f5086f8	0.81455946
140	0xbd667cea	-0.05627147
141	0xbdb43d17	-0.088007145
142	0x3dd8e6cd	0.10590897
143	0xbeabb747	-0.33538267
144	0xbdc3d118	-0.09561366
145	0x3efae95d	0.49006167
146	0xbef549a3	-0.47907743
147	0x3e188fec	0.14898652
148	0xbe856a97	-0.26057884
149	0x3d4a8e87	0.04945233
150	0x3e45bd3e	0.19310471
151	0x3df414ec	0.11918053
152	0xbe74e317	-0.23914753
153	0x3f11ad0e	0.56904685
154	0xbd1cfad9	-0.038325164
155	0xbe4d716b	-0.20062797
156	0xbd54320f	-0.051805552
157	0x3ef6f81a	0.4823616
158	0xbcac4894	-0.021030702
159	0x3e4c003e	0.19921967
160	0xbdc25aec	-0.09489998
161	0x3f377f74	0.71678853
162	0x3f2a5c15	0.66546756
163	0x3ea8054e	0.32816547
164	0x3e89e5fe	0.26933283
165	0x3e6fb0d7	0.23407303
166	0x3eb79b07	0.35860464
167	0xbca69d4e	-0.02033868
168	0xbe2df1a2	-0.16986707
169	0x3ef643ee	0.480987
170	0xbe3a1794	-0.18173057
171	0x3f249bcc	0.6430023
172	0xbf53ac27	-0.8268456
173	0x3e739848	0.2378856
174	0xbebd7dee	-0.3701014
175	0x3f072d43	0.5280344
176	0x3cdd908a	0.02704646
177	0x3de44617	0.11146181
178	0x3b7186b6	0.0036853976
179	0xbf0987d7	-0.537229
180	0x3e41ad04	0.18913656
181	0xbe85ccff	-0.26132962
182	0xbf00d6ca	-0.5032774
183	0xbe55ca90	-0.20878053
184	0x3ed52ed7	0.41637298
185	0x3f79b4fe	0.975418
186	0xbda1c821	-0.078995
187	0xbe87c443	-0.26516923
188	0xbee84030	-0.4536147
189	0x3ed68df1	0.41905168
190	0x3e858105	0.26074997
191	0x3ec12a04	0.37727368
192	0xbe113afd	-0.14182658
193	0xbee2211b	-0.44165882
194	0x3ec83f21	0.39110664
195	0x3d7d2ce9	0.061810408
196	0x3ef71345	0.4825689
197	0xbe1faa61	-0.15592338
198	0xbee7e7c4	-0.4529401
199	0xbf261107	-0.6486973
200	0x3e114290	0.14185548
201	0x3e735850	0.23764157
202	0xbc064d46	-0.008197134
203	0x3f45b814	0.77234006
204	0x3fa1abff	1.2630614
205	0xbea397f2	-0.31951863
206	0x3f2b4396	0.669
207	0x3edb7357	0.42861435
208	0xbe4fc5f6	-0.2029036
209	0x3e128f16	0.14312395
210	0x3e019565	0.12654646
211	0xbed660c6	-0.41870707
212	0x3eda0612	0.42582756
213	0x3ee01e44	0.4377309
214	0x3e98d9c0	0.2985363
215	0xbe339e45	-0.17540844
216	0x3e7e1f8f	0.24816726
217	0x3f3b377b	0.7313153
218	0x3ea7dbda	0.3278492
219	0xbe8c4fab	-0.27404532
220	0xbdcb412a	-0.099245384
221	0x3e3c4920	0.1838727
222	0x3ed3ec66	0.41391295
223	0x3db013c3	0.08597519
224	0xbefaf41f	-0.49014375
225	0x3f12d10b	0.57350224
226	0x3f05dbd8	0.5228858
227	0xbf17b1a0	-0.5925541
228	0x3e534f65	0.20635755
229	0xbed00cce	-0.4063477
230	0x3db541cd	0.08850441
231	0x3e4a6837	0.19766317
232	0x3f2ddf49	0.6791883
233	0xbeb4b960	-0.3529768
234	0xbefa2f87	-0.48864385
235	0x3f14baa0	0.5809727
236	0x3daa4528	0.08313972
237	0xbed75b87	-0.42062017
238	0xbf2c778e	-0.67369926
239	0xbeccd7db	-0.40008435
240	0xbeec4db2	-0.46153027
241	0xbe77b99a	-0.24191895
242	0x3d117dad	0.035520244
243	0x3f2c5f86	0.6733326
244	0x3f01bc9d	0.50678426
245	0x3e3e5ae7	0.18589364
246	0xbf25efcb	-0.6481902
247	0x3d683140	0.056687593
248	0x3ec96c3f	0.39340398
249	0x3f786278	0.9702525
250	0x3dabf30b	0.08395966
251	0x3e1b146a	0.15144506
252	0xbdb0a833	-0.086258315
253	0x3e7cf670	0.24703383
254	0xbf2bb1d8	-0.67068243
255	0xbf22b53c	-0.6355779

network_body._body_endoder.seq_layers.0.bias f4 [128]
0	0xbbaf52d0	-0.005350448
1	0xbad89165	-0.0016522823
2	0xb98fe09b	-0.0002744243
3	0x39170075	0.00014400652
4	0xbc2e1a6c	-0.010626417
5	0x3c0adc9b	0.008475448
6	0xbbc8bd73	-0.0061260997
7	0xbb50f731	-0.0031885619
8	0xbb96b9ba	-0.004599777
9	0xbbcf43dc	-0.006325228
10	0x3bfa4174	0.007637197
11	0x3bd09f82	0.006366671
12	0x3c37279e	0.011178879
13	0xbc0469f9	-0.0080819065
14	0x3aede9f3	0.0018151387
15	0x3b0acc8c	0.0021179048
16	0x3b4061b6	0.0029355115
17	0x3b98b75b	0.0046605296
18	0x3afe74db	0.0019413488
19	0x3bbb79c2	0.005721302
20	0xbc1ded0b	-0.009639035
21	0x3acf364d	0.001580903
22	0x3ba3bb07	0.0049966606
23	0xba544b7f	-0.0008098408
24	0x3aedb304	0.0018135016
25	0xbbecc7ce	-0.007225967
26	0xbb939230	-0.004503511
27	0x3b849c81	0.004046977
28	0x3bad7ef2	0.005294674
29	0x3c03ca24	0.0080438
30	0xba58ed94	-0.0008275148
31	0x359ed2a0	1.1833217e-06
32	0xbb90ba05	-0.0044167065
33	0x3b53aeb0	0.0032300167
34	0x3a808b51	0.0009807145
35	0x3af5b279	0.0018745206
36	0x3857597c	5.1343333e-05
37	0x3b92e845	0.004483255
38	0x3b4baed7	0.0031079554
39	0x3aa14a8d	0.0012305543
40	0x39e0f773	0.00042908973
41	0xbb4668b8	-0.003027482
42	0x390d9e38	0.00013505749
43	0x3b62d665	0.0034612652
44	0xbb27d4bc	-0.0025608977
45	0x3c6c2f70	0.014415607
46	0xbbf054e7	-0.00733434
47	0x3c0ec886	0.008714801
48	0xbc19d7a0	-0.009389788
49	0x3a8a3420	0.0010544099
50	0xbb268cbb	-0.0025413472
51	0x3c33222f	0.010933443
52	0x3bcbce78	0.0062196814
53	0x3be11aa5	0.0068696314
54	0x3c19f8fd	0.009397742
55	0xba9b98d7	-0.0011871111
56	0x3a1432b0	0.0005653305
57	0x3b880d9e	0.004152014
58	0xbb67dcf7	-0.0035379508
59	0x3a79a2ed	0.0009522874
60	0xbb95bcf7	-0.0045696455
61	0x3ba2f502	0.004973055
62	0xb9560563	-0.00020410637
63	0xbb5bc311	-0.0033533017
64	0x3b938418	0.004501831
65	0x3bceec23	0.006314771
66	0x3c03f8ca	0.008054921
67	0x3bb30843	0.0054636314
68	0xbbd12f49	-0.0063838107
69	0x3b9f0b95	0.0048536756
70	0x3a82e84c	0.0009987443
71	0x3a8102a4	0.0009842706
72	0x3be63624	0.007025497
73	0x3ba66d42	0.0050789425
74	0x3ae03710	0.0017106254
75	0x3ba39a8d	0.004992789
76	0x3b8ef770	0.004362993
77	0x3b26856f	0.0025409122
78	0x3bd37d1d	0.0064541236
79	0x3c0173aa	0.007901112
80	0xbbc9d43f	-0.006159335
81	0x3ba94da2	0.0051667253
82	0xbc0ae0f3	-0.008476484
83	0xbc028d4f	-0.007968261
84	0xb9d1f50f	-0.0004004617
85	0x3bc4d9c5	0.0060074055
86	0xbc2d5a1d	-0.010580567
87	0x3c0b5a90	0.0085054785
88	0xbb8e71cd	-0.004347062
89	0x3ba5aadc	0.0050557684
90	0x399330d6	0.0002807441
91	0x3ba254e8	0.0049539693
92	0x37953ae8	1.7789615e-05
93	0x3b42a75b	0.0029701802
94	0x3b8d4a01	0.0043118005
95	0x3ad691e0	0.0016370378
96	0xbbbeac81	-0.005818904
97	0x391aa950	0.00014749658
98	0xbbbcc3ce	-0.0057606464
99	0x39ddf160	0.00042332243
100	0xbc3e5424	-0.01161674
101	0x3b2e5ea4	0.0026606703
102	0xbb9b867a	-0.0047462555
103	0xbbf605b3	-0.0075080036
104	0x3b594a8c	0.0033156006
105	0x3c066a85	0.008204107
106	0x3b8db514	0.0043245647
107	0x3920db62	0.00015340516
108	0xbbba6926	-0.005688804
109	0xbb866fa4	-0.004102664
110	0x3af384d7	0.0018579018
111	0xba68f6c5	-0.0008886869
112	0xbb9709b7	-0.0046093124
113	0xbc16ce69	-0.009204485
114	0x3b99441c	0.0046773087
115	0xba9fe860	-0.001219999
116	0x3b8c50bb	0.0042820848
117	0x3c025393	0.007954496
118	0xbbe63c57	-0.007026236
119	0x3c006af6	0.0078380015
120	0x3a2c5c7c	0.00065750605
121	0x3bbee336	0.0058254255
122	0x3927b92f	0.00015995347
123	0xb9c8e285	-0.00038315743
124	0x3ae11df4	0.0017175064
125	0xbaa06ed8	-0.0012240065
126	0xbb31f470	-0.0027153753
127	0xbb092585	-0.0020926904

network_body._body_endoder.seq_layers.2.weight f4 [128, 128]
0	0x3e753e1f	0.23949479
1	0xbe4d039c	-0.20020908
2	0xbe1f5feb	-0.15563934
3	0x3da0d4ea	0.0785311
4	0xbd70a497	-0.058750715
5	0x3ce77a78	0.02825664
6	0x3c00abd3	0.007853466
7	0xbd0fd2b6	-0.03511306
8	0x3d7f2d7e	0.062299244
9	0x3dc1e97d	0.094683625
10	0xbb0f1aaa	-0.0021835961
11	0xbd814cbd	-0.06313465
12	0xbd269656	-0.040670715
13	0xbce513ce	-0.027963545
14	0xbcc934d0	-0.024561316
15	0x3e28bbd5	0.16477902
16	0x3c88c115	0.016693631
17	0xbbe100eb	-0.0068665645
18	0x3d06f8be	0.032952063
19	0xbd11813b	-0.035523634
20	0x3e090047	0.13379012
21	0xbd09022f	-0.033449348
22	0xbe17bcdf	-0.14818142
23	0xbc9ea412	-0.019365344
24	0x3d460b49	0.048350606
25	0xbe3f0c02	-0.18656924
26	0xbe495910	-0.19662881
27	0x3b6ff98d	0.003661725
28	0x3cfdd5b9	0.0309857
29	0xbd2218d6	-0.039574467
30	0xbdfcf026	-0.12350492
31	0xbddb3495	-0.107033886
32	0xbdd7b290	-0.10532105
33	0xbd73a524	-0.059483662
34	0xbe1fa1a9	-0.15589012
35	0xbda733b7	-0.08164161
36	0x3d6b2084	0.057404056
37	0x3cb7b019	0.022422837
38	0xbe4eff59	-0.20214595
39	0x3ba9dd88	0.0051838793
40	0x3cbf358b	0.023340961
41	0x3d493af5	0.04912849
42	0xbd936f6b	-0.07198986
43	0xbd2b3881	-0.041801933
44	0x3d4bf5ba	0.04979489
45	0xbe2fc2a3	-0.17164092
46	0x3d753b9c	0.0598713
47	0xbe2b8a2f	-0.16751932
48	0x3d8f56fc	0.06999013
49	0xbc4f3c32	-0.012648629
50	0xbd20d50d	-0.03926568
51	0xbd885088	-0.06655985
52	0x3c875197	0.016518397
53	0x3e779d20	0.24181032
54	0xbd007318	-0.031359762
55	0x3e29a1c9	0.16565622
56	0x3d855b54	0.0651156
57	0xbc10c553	-0.008836108
58	0x3cd1d8ba	0.025616039
59	0xbd04f5f3	-0.032461118
60	0x3e33aa22	0.1754537
61	0xbcf7bed4	-0.030242361
62	0x3d6fea4c	0.058573052
63	0xbd9455d1	-0.07242931
64	0x3d4afce8	0.049557596
65	0xbd2c78fd	-0.04210757
66	0x3e39959b	0.18123476
67	0x3d946ee7	0.072477154
68	0xbda20a1c	-0.079120845
69	0x3dd7e08f	0.10540878
70	0xbd93ccd0	-0.07216799
71	0x3d4cf86a	0.050041594
72	0xbe18f0d2	-0.14935616
73	0x3de5ffa9	0.11230404
74	0xbd4a8a36	-0.049448214
75	0x3ba51e54	0.005039016
76	0x3d77cabf	0.060496088
77	0x3d48eaec	0.049052164
78	0x3b31b217	0.0027114206
79	0xbd0475a5	-0.032338757
80	0xbd4ef427	-0.05052581
81	0x3d9c7035	0.07638589
82	0xbd9ccd7c	-0.076563805
83	0xbc26452f	-0.010148331
84	0x3e1ba18c	0.15198344
85	0xbd3c207f	-0.04592943
86	0xbc9f0990	-0.01941374
87	0xbb6deb80	-0.00363037
88	0x3c80df37	0.015731437
89	0x3dfe0b6d	0.12404523
90	0x3dd45841	0.103683956
91	0xbbcd64c6	-0.0062681166
92	0x3d2b8c5e	0.04188191
93	0xbc8395a5	-0.016062567
94	0xbd0f00dc	-0.03491293
95	0x3deb0805	0.11476139
96	0x3db671aa	0.089083984
97	0x3dcb2e90	0.099209905
98	0xbdc1b8da	-0.09459086
99	0x3c2f0373	0.010681975
100	0x3d69a187	0.05703881
101	0xbd38eb69	-0.04514638
102	0x3c796f9d	0.015224365
103	0x3e12c8e7	0.1433445
104	0x3c022d08	0.007945307
105	0x3dece30b	0.115667425
106	0xbdac9624	-0.084270746
107	0xbdaa22cc	-0.08307418
108	0xbc888763	-0.01666612
109	0xbd0b0e43	-0.033949148
110	0x3cc8446a	0.024446685
111	0x3a7e3ff6	0.0009698862
112	0x3d930047	0.07177787
113	0x3e176e0e	0.14788076
114	0xbdd323b2	-0.10309543
115	0x3d99a90f	0.075029485
116	0xbe5bdcec	-0.21470994
117	0xbd17c1ab	-0.03704993
118	0x3c6e6325	0.014550005
119	0xbd6812d5	-0.056658585
120	0x3de8f5ca	0.113750055
121	0x3d657b4d	0.056025792
122	0xbc975a24	-0.0184756
123	0xbe4f9fa1	-0.20275737
124	0xbd90fb79	-0.070792146
125	0x3cdb29bc	0.026753299
126	0x3c3b4a41	0.011431278
127	0xbcbc1a02	-0.02296162
128	0x3df14621	0.11780954
129	0x3e1f15c4	0.15535647
130	0xbdd04145	-0.10168699
131	0xbb5a0149	-0.0033264926
132	0x3dab5df9	0.08367533
133	0xbe56ffa4	-0.20995957
134	0x3da6b215	0.08139435
135	0x3d8848ea	0.06654532
136	0xbd801d64	-0.06255606
137	0xbd861511	-0.06546987
138	0xbd601d55	-0.054715473
139	0x3d08f09e	0.033432595
140	0xbc7909c4	-0.015200082
141	0xbdef0405	-0.116706885
142	0x3d30ab65	0.043132205
143	0x3df2886b	0.11842426
144	0xbc515c39	-0.012778335
145	0xbd8a5f00	-0.06756401
146	0x3d7af024	0.061264172
147	0xbdee231b	-0.116277896
148	0x3cf53856	0.02993409
149	0xbe805c01	-0.25070193
150	0xbde812dc	-0.11331722
151	0xbcde721f	-0.027154027
152	0x3dffa93f	0.12483453
153	0x3c534a4c	0.012896132
154	0xbdbcbbe7	-0.09215527
155	0xbc9814a6	-0.018564533
156	0x3d90b0e1	0.07064987
157	0x3d2d067b	0.04224251
158	0xbd20b138	-0.03923151
159	0xbd58a1e2	-0.05288876
160	0xbdf79348	-0.120886385
161	0x3d7e4d72	0.062085576
162	0xbe64d458	-0.22346628
163	0x3d6b3962	0.05742777
164	0x3df05895	0.11735646
165	0xbe88c3f0	-0.26711988
166	0xbd370dea	-0.044691004
167	0x3dd91e94	0.106015354
168	0x3d067445	0.032825727
169	0x3db55801	0.08854676
170	0xbc03313f	-0.008007347
171	0x3d7c522c	0.061601803
172	0xbcc264ed	-0.023729766
173	0x3da88fa2	0.08230521
174	0x3d9237bd	0.071395375
175	0xbe08a23c	-0.13343138
176	0x3e138a8c	0.1440832
177	0xbc774007	-0.015090949
178	0x3e10db2d	0.14146109
179	0xbcc24c69	-0.023718076
180	0x3c583aac	0.013197582
181	0xbd1cecb2	-0.038311668
182	0xbd205bb5	-0.03914996
183	0x3da2368c	0.0792056
184	0xbd860ce4	-0.065454274
185	0xbdc20538	-0.09473652
186	0xbd6e2c84	-0.058147922
187	0xbcbcdc98	-0.023054406
188	0xbe13ebb7	-0.14445387
189	0xbe724375	-0.23658545
190	0x3cd4762b	0.025935253
191	0x3dd3d846	0.10343985
192	0x3de4306b	0.111420475
193	0xbc7e6429	-0.01552681
194	0xbcabd620	-0.020976126
195	0x3cee90b1	0.029121729
196	0xbdb7198a	-0.08940418
197	0x3d198ddf	0.037488814
198	0x3c97f050	0.018547207
199	0xbb4c37e1	-0.0031161236
200	0xbe15804b	-0.14599721
201	0xbe208182	-0.15674403
202	0xbce3d04d	-0.027809286
203	0x3d62c602	0.055364616
204	0xbd8a40f4	-0.0675067
205	0x3e2a0517	0.16603504
206	0x3d794d2f	0.060864624
207	0x3a2c2c97	0.00065679237
208	0x3b973c7e	0.0046153655
209	0xbc93b601	-0.018031122
210	0x3ae5b76b	0.0017525976
211	0x3db88021	0.09008814
212	0xbd87a462	-0.066231504
213	0x3e955b45	0.29171196
214	0x3d98ea0d	0.07466517
215	0x3c0a2b85	0.008433227
216	0x3d906984	0.070513755
217	0x3e7d6e6d	0.24749155
218	0xbe2aecda	-0.16691914
219	0xbd8236fe	-0.06358145
220	0xbe639c54	-0.22227603
221	0xbde12ee3	-0.10995271
222	0xbe39b968	-0.18137133
223	0xbd20c660	-0.039251685
224	0x3cae98dc	0.021313123
225	0x3bbc6bb5	0.0057501444
226	0x3c90cba2	0.017675225
227	0x3ded54b6	0.11588423
228	0xbdb5ac1f	-0.0887072
229	0xbdb42165	-0.08795432
230	0x3d2e9ac1	0.042628054
231	0x3d08e894	0.03342493
232	0x3c819bad	0.015821302
233	0x3decc54a	0.115610674
234	0xbc4c4a27	-0.012468851
235	0x3dcd8703	0.10035517
236	0x3ca51b2c	0.020154558
237	0xbd943631	-0.07236899
238	0xbd032230	-0.032015026
239	0xbdf312e4	-0.118688375
240	0xbdf54e7c	-0.1197786
241	0xbd5f469a	-0.05451069
242	0xbc9eed2c	-0.019400202
243	0x3cca7081	0.02471185
244	0x3c617952	0.013761835
245	0xbe07480c	-0.13211077
246	0xbde339ee	-0.110950336
247	0x3d251642	0.04030443
248	0x3dcbde3d	0.09954498
249	0xbc09bd24	-0.008406911
250	0xbd7e1439	-0.062031005
251	0xbdb23726	-0.08701925
252	0x3d576f2e	0.052596264
253	0x3c5306b9	0.012880021
254	0xbd4af8f5	-0.04955383
255	0xbe23a728	-0.15981734

network_body._body_endoder.seq_layers.2.bias f4 [128]
0	0xbacfc5e8	-0.0015851827
1	0x3ba102ce	0.0049136644
2	0xbb96bc96	-0.004600118
3	0xbaca57a5	-0.0015437497
4	0x3b1d955b	0.0024045322
5	0x3bb06327	0.0053829136
6	0xbaf0d383	-0.0018373582
7	0x3b05ed03	0.002043546
8	0xbbb8bff8	-0.005638119
9	0x3c362511	0.011117236
10	0xba99c5d7	-0.0011731935
11	0x3be50eda	0.006990296
12	0x3b0552ef	0.0020343622
13	0xbb3be649	-0.0028671196
14	0x3b08b007	0.0020856874
15	0x3bbf67ac	0.005841216
16	0xba44d498	-0.00075084856
17	0xb9cbb5b2	-0.0003885455
18	0xbb85b986	-0.004080954
19	0xb9ab2e7e	-0.000326503
20	0xbbc6d4c7	-0.0060678455
21	0x3b413cfb	0.002948581
22	0xbb45a6ca	-0.0030159228
23	0xba759946	-0.0009368848
24	0x38f3eb5b	0.00011630981
25	0x3b42ef9b	0.0029744867
26	0xba929879	-0.0011184356
27	0x3a0d09c0	0.0005380176
28	0x3b4e80e0	0.003150992
29	0x3b1ad683	0.0023626394
30	0xba1942aa	-0.00058464205
31	0x3c05f7a4	0.008176718
32	0xbaa9cee1	-0.0012955331
33	0x3b43a936	0.0029855496
34	0xbb86ce8d	-0.0041139782
35	0xb9205541	-0.00015290549
36	0xb7cc7b8f	-2.4376232e-05
37	0x3ae992c5	0.001782023
38	0xbbdde9b9	-0.0067722467
39	0xbb08142a	-0.0020763972
40	0xba8879c0	-0.0010412261
41	0xbb180ae7	-0.0023199858
42	0x3a867728	0.00102589
43	0xbb602ee8	-0.0034207646
44	0xba3c523d	-0.00071838853
45	0xbc103c13	-0.008803385
46	0x3b6e5ea4	0.0036372328
47	0xbb518b4a	-0.0031973892
48	0x3b33d7d9	0.0027441888
49	0xbb1641cb	-0.00229274
50	0xbabd2e56	-0.0014433365
51	0xba157a80	-0.0005702153
52	0xbbac2b08	-0.005254153
53	0xbb9dfa97	-0.0048211324
54	0xbb9071e3	-0.0044081076
55	0xbb479bf6	-0.003045795
56	0x391ff84e	0.00015255922
57	0x3a541d35	0.00080915104
58	0x3ac47a7d	0.0014990118
59	0xbaf0ed44	-0.0018381258
60	0x3b36701d	0.002783782
61	0xbb77facc	-0.0037838696
62	0x3c105fcd	0.008811903
63	0xba1ea361	-0.0006051567
64	0x3aa15b4d	0.0012310535
65	0x3a8ee922	0.0010903219
66	0xba87f064	-0.0010371325
67	0xbbeedcfb	-0.0072895265
68	0xbaa8730a	-0.0012851667
69	0xba1cb61a	-0.0005978063
70	0xba4bae80	-0.0007769838
71	0x3b663b31	0.0035130496
72	0xbad63892	-0.0016343764
73	0x3a0ef8f1	0.0005453965
74	0x3b4191ae	0.0029536295
75	0x3b07f4f2	0.0020745364
76	0xbb7f5b5e	-0.0038964371
77	0xbbee0b9a	-0.0072645666
78	0x3bcdd2ee	0.0062812483
79	0xba89c1d8	-0.001051004
80	0xbb29a7ea	-0.0025887438
81	0xbb966df6	-0.004590745
82	0x3b6223ed	0.0034506277
83	0x3bef082e	0.0072946763
84	0x3b6b34c3	0.0035889603
85	0x3b1b0da8	0.0023659263
86	0xbab089a7	-0.0013468758
87	0x39db1458	0.00041786092
88	0xbb836151	-0.0040094038
89	0x3b4474f2	0.0029976931
90	0xbaca4988	-0.0015433291
91	0xba1e73da	-0.0006044485
92	0x3b9dfc62	0.004821346
93	0x3b805429	0.0039162827
94	0xbb02e660	-0.001997374
95	0xbb71265b	-0.0036796543
96	0xbb592430	-0.0033133142
97	0x3bad44a1	0.005287722
98	0xba220cf6	-0.0006181741
99	0x3a9bfd6d	0.0011901088
100	0x39c25ed5	0.0003707322
101	0x3bb45824	0.0055036712
102	0xba937de6	-0.0011252731
103	0x3b206d96	0.002447938
104	0x3b88edf9	0.004178759
105	0xbc26fd26	-0.010192191
106	0xbad5b31a	-0.0016303987
107	0x3bc1e345	0.005916985
108	0x3b13c9e7	0.0022550763
109	0xba180f2c	-0.00058006006
110	0xbbc0feae	-0.005889735
111	0xbaf2c7b0	-0.0018522646
112	0xbb7d922a	-0.0038691857
113	0x3b85c98d	0.0040828646
114	0x3a6ee6c2	0.0009113365
115	0xbbcfc5ce	-0.006340719
116	0x3b3b8df4	0.0028618546
117	0x3b95c060	0.004570052
118	0x3ad0b9d3	0.001592452
119	0x3a758ca7	0.0009366967
120	0x3a7ba0fa	0.00095988775
121	0xba9e1927	-0.0012061939
122	0x3bbb4c21	0.0057158624
123	0x3a8e72df	0.0010867974
124	0xbb4f73ca	-0.003165471
125	0x39a8fa5e	0.00032229995
126	0x3b139edd	0.002252511
127	0x3baa6d21	0.0052009975

action_model._discrete_distribution.branches.0.weight f4 [3, 128]
0	0xbc796f8b	-0.015224348
1	0xbc4670cf	-0.012111857
2	0xbb022019	-0.0019855557
3	0x3c6c8f24	0.014438424
4	0xbbde2080	-0.0067787766
5	0x3c7404da	0.014893735
6	0xbbc8f247	-0.0061323973
7	0xbc26c3bd	-0.010178504
8	0x3b71ebc7	0.0036914216
9	0x3c55f70c	0.013059389
10	0xbc59b24e	-0.01328714
11	0xbac8aad3	-0.0015309699
12	0x3ba9de9f	0.005184009
13	0x3c9071dd	0.01763242
14	0x3c622b0f	0.013804211
15	0xbc053a3d	-0.008131561
16	0x3befb7dc	0.007315619
17	0x39b524e3	0.00034550493
18	0xbbab3f5a	-0.005226058
19	0xbc865512	-0.016397987
20	0x37add50b	2.0722413e-05
21	0xbbce9c98	-0.0063052885
22	0x3b9a4e8c	0.0047090705
23	0xbcc81ce5	-0.02442784
24	0xbb94a49b	-0.004536224
25	0x3c5b04dc	0.013367858
26	0xb982533a	-0.0002485754
27	0xbbe84701	-0.0070885425
28	0xba3551c3	-0.00069167855
29	0xbb070726	-0.0020603626
30	0xbbbfc380	-0.005852163
31	0xbcbec112	-0.023285422
32	0x3c148860	0.009065717
33	0xba27b452	-0.0006397414
34	0x3a0252a3	0.000497142
35	0xbc407c29	-0.011748352
36	0x3cd6da82	0.02622724
37	0xbc4ad34a	-0.012379477
38	0x3bb2e2da	0.0054591717
39	0xbc61833c	-0.013764199
40	0xbb759245	-0.0037471217
41	0x3b90c85b	0.0044184155
42	0x3a9b5913	0.0011852108
43	0xbcb42d6a	-0.021994311
44	0x3a9f5981	0.0012157412
45	0x3bad6731	0.0052918424
46	0xbc48e138	-0.012260728
47	0x3b7ad171	0.003827181
48	0xbb7672ab	-0.0037604969
49	0x3c92a392	0.017900262
50	0xbb479c61	-0.00304582
51	0x3c44b0f2	0.012005078
52	0xbc273982	-0.010206582
53	0x3bcf73c1	0.0063309376
54	0xbbeab7a6	-0.007163006
55	0x3c4805ac	0.0122083835
56	0xbc8d5fb3	-0.017257547
57	0x3ca1aded	0.019736255
58	0x3c7fa732	0.015603827
59	0xb8c2b113	-9.2836235e-05
60	0xbcb12017	-0.021621747
61	0xbb88c18b	-0.0041734627
62	0x3c3c117d	0.011478779
63	0xba50ceb1	-0.000796537
64	0xbb836e04	-0.0040109176
65	0x3c7fa89f	0.015604167
66	0x3b315918	0.002706116
67	0xbb3a5cc2	-0.0028436636
68	0x3b6ebc86	0.0036428287
69	0xbb9b9418	-0.0047478788
70	0x3c00fa96	0.007872244
71	0xbc5d43b6	-0.013504913
72	0xbbc8ab88	-0.0061239637
73	0xbba69928	-0.0050841756
74	0x3c831710	0.016002208
75	0xbbb05df4	-0.005382294
76	0x3c15e3d2	0.009148555
77	0x3bd0537c	0.0063576084
78	0x3b169841	0.0022978934
79	0x3b082287	0.0020772533
80	0x3ba7253b	0.0051008738
81	0x3ba87229	0.005140562
82	0xbc9a36a2	-0.01882488
83	0x3c81937b	0.015817394
84	0xbc2011de	-0.009769885
85	0x3a6dc32c	0.00090699154
86	0xbc23abe4	-0.009989712
87	0xbaa21279	-0.0012365124
88	0x3c5596ea	0.013036469
89	0xbc7f4f09	-0.015582808
90	0xbc14049c	-0.009034302
91	0xbc56b4b2	-0.013104605
92	0x3ac4ffd8	0.0015029861
93	0x3cc8f6c9	0.024531739
94	0x3bfe5fc9	0.0077628833
95	0xbac3efd2	-0.0014948791
96	0x3c2b35df	0.010449856
97	0x3c27040f	0.010193839
98	0xbbbafd25	-0.0057064467
99	0xbbd346be	-0.006447642
100	0xbc3cae69	-0.011516192
101	0x3b2ab10d	0.0026045472
102	0x3c50f78a	0.01275433
103	0xbc4256c2	-0.011861505
104	0xbc2956e7	-0.010335661
105	0x3bb6071e	0.0055550477
106	0x3c63cd4a	0.013903925
107	0xbcb0be84	-0.02157522
108	0x3c4c4a3e	0.012468873
109	0xbbf0d9cd	-0.0073501826
110	0xbc666e8a	-0.0140644405
111	0x3c56e4f4	0.01311611
112	0xbc989f4b	-0.018630644
113	0x3c20554c	0.009785961
114	0x3a97ef3d	0.0011591684
115	0xbce1f50b	-0.027582666
116	0xbc7c4f94	-0.015399832
117	0x3c7b649c	0.015343811
118	0xbc36cf16	-0.011157772
119	0x39780726	0.00023653786
120	0xbc850ced	-0.016241515
121	0x3ca7ae48	0.020468846
122	0x3b159c01	0.0022828581
123	0x3d016a66	0.03159561
124	0xbc4ac8ac	-0.0123769455
125	0xbc1d359f	-0.009595304
126	0xbcfad2b9	-0.030618059
127	0xbb87f961	-0.0041496013
128	0x3baeedc6	0.0053384034
129	0x3c6ef7f8	0.014585488
130	0x3b3f525b	0.0029193375
131	0xbb278900	-0.0025563836
132	0xbbf2b746	-0.007407102
133	0xbc4af25f	-0.012386887
134	0xbc8a1829	-0.016857224
135	0xbc9b2635	-0.018939117
136	0xbb9a8ae1	-0.0047162627
137	0x3c7b106a	0.015323738
138	0x3b3fe051	0.002927799
139	0xbb02b8bd	-0.0019946538
140	0x3c25961d	0.010106591
141	0xbb467655	-0.0030282934
142	0xbc73db1b	-0.014883782
143	0xbcafc97c	-0.02145838
144	0xbcafdf11	-0.021468671
145	0xbcc01ca8	-0.023451164
146	0x3bb410eb	0.005495181
147	0x3c9fdad9	0.019513534
148	0xbc6a31ff	-0.014294147
149	0x3ba377b3	0.0049886345
150	0x3a3023b3	0.0006719187
151	0x39cea40c	0.00039413606
152	0x3c90b72e	0.017665472
153	0xbca85eca	-0.020553011
154	0xbc515009	-0.0127754295
155	0x3bee7368	0.007276941
156	0xbbc0e41f	-0.005886569
157	0xbc8c6876	-0.017139655
158	0x3bb0a359	0.0053905663
159	0x3ccb2915	0.024799863
160	0xbbb3497f	-0.005471408
161	0x3c9f9d14	0.01948408
162	0x3c8f49c5	0.01749123
163	0x3c2b7420	0.010464698
164	0xb9d991e9	-0.00041498177
165	0x3cd4f716	0.025996726
166	0xbc4b1dff	-0.012397288
167	0x3c359e5a	0.011085117
168	0xbc7eb3e5	-0.01554582
169	0x3c5e90d1	0.013584332
170	0x3c3e6364	0.011620376
171	0xbc53c50a	-0.012925396
172	0xbb2414d0	-0.002503682
173	0x3b8e4bf6	0.0043425513
174	0x3cbad4aa	0.022806484
175	0xbb9211dd	-0.004457696
176	0xbc744110	-0.01490809
177	0xbc8eeb81	-0.017446281
178	0x3cf08c1e	0.029363688
179	0xbc18a48b	-0.009316574
180	0xbbf7f07e	-0.0075665107
181	0xba41aa3f	-0.00073877344
182	0x3c0732c1	0.008251847
183	0xbc6b8a88	-0.01437629
184	0x3cbe6b2f	0.023244468
185	0xbc239e8d	-0.009986532
186	0x3c0bc372	0.0085304845
187	0x3c6ea4f8	0.014565699
188	0x3ca5c2d9	0.020234512
189	0x3ba254bd	0.0049539492
190	0x3c81d0ae	0.015846577
191	0xbc435acb	-0.011923502
192	0x3d0a39b1	0.033746425
193	0xbb84ab3f	-0.0040487344
194	0x3acf6d51	0.0015825426
195	0x3bacc360	0.005272314
196	0xbb9a92fa	-0.004717228
197	0x3c137349	0.008999654
198	0x3c85fcbc	0.016355865
199	0x3cd14fb8	0.025550708
200	0x3bb0d974	0.005397016
201	0x3bed049f	0.007233217
202	0xbac26f9a	-0.0014834285
203	0x3ce63256	0.028100174
204	0x3a9a051e	0.0011750793
205	0xbc736774	-0.014856208
206	0xbbaffcfc	-0.0053707343
207	0x3b1c920f	0.0023890769
208	0xbbd16b47	-0.0063909623
209	0xbb4d659b	-0.003134108
210	0x3cbfbc4d	0.023405218
211	0x3bcdabd1	0.0062765856
212	0x3cd5c02f	0.026092617
213	0x3bcae0c3	0.0061913445
214	0x3c0ae348	0.00847704
215	0xbabb6b1d	-0.001429889
216	0x3ba33f33	0.004981899
217	0x3c5699e3	0.013098213
218	0x3c59f4de	0.01330301
219	0x3be19fad	0.00688549
220	0xbb981cd2	-0.0046421075
221	0xbc0f5396	-0.008747956
222	0x3bf875ca	0.007582401
223	0x3c7ff98f	0.015623464
224	0xbc8844a0	-0.016634285
225	0xbc06c5ab	-0.008225839
226	0x3c39e5db	0.011346306
227	0x3c69d0fb	0.014271016
228	0x3c83c689	0.01608588
229	0x3c2c4cd0	0.01051636
230	0x3b057ff5	0.0020370458
231	0x3b978baf	0.004624806
232	0x3c48a1ba	0.01224559
233	0xbb70b414	-0.0036728429
234	0xbbe3713d	-0.0069409893
235	0x3c486895	0.012231966
236	0xbc2eca22	-0.010668309
237	0x3c84a9e4	0.016194291
238	0x3bba503d	0.0056858347
239	0x3aae1c63	0.0013283606
240	0x3c0722b7	0.008248023
241	0xbb5bf8fc	-0.0033565154
242	0xbc54eac8	-0.012995429
243	0xbbf759e2	-0.0075485567
244	0x3ae91fcd	0.0017785967
245	0xbcc557ee	-0.02408978
246	0x3c7a58e7	0.015279985
247	0x3a09e954	0.0005260904
248	0xbc189bbd	-0.009314475
249	0xbc0eb631	-0.00871043
250	0x3bedad87	0.007253352
251	0xbb4a1a93	-0.0030838593
252	0xbc3800c3	-0.01123065
253	0x3c389f1a	0.0112684015
254	0x3bd4097a	0.0064708563
255	0xbc23162a	-0.009954015

action_model._discrete_distribution.branches.0.bias f4 [3]
0	0xb8524455	-5.013154e-05
1	0x3ac6c8a7	0.0015166
2	0xbae2e2d1	-0.0017310028

onnx::Div_52 f4 [6]
0	0x40670b71	3.6100733
1	0x3cfe7e4d	0.031066084
2	0x3ce3a4b6	0.027788501
3	0x3d00c6f6	0.031439744
4	0x3dbcc57e	0.09217356
5	0x41013cb8	8.077324
