BasicAvoidance/Assets/results/BasicAvoidance1/PlayerAvoidance/PlayerAvoidance-837.pt (torch, 441938 bytes, 41 tensors)

network_body.observation_encoder.processors.0.normalizer.running_mean f4 [6]
0	0x3e30f077	0.1727923
1	0x3effb1ce	0.49940342
2	0x00000000	0.0
3	0x3c1f3144	0.009716336
4	0x3f076598	0.52889395
5	0x40de0bd9	6.9389462

network_body.observation_encoder.processors.0.normalizer.running_variance f4 [6]
0	0x45c69a17	6355.261
1	0x3f9ff638	1.2497015
2	0x3f800000	1.0
3	0x3fc383f4	1.5274644
4	0x40bc6a89	5.888005
5	0x46ad9324	22217.57

network_body.processors.0.normalizer.running_mean f4 [6]
0	0x3e30f077	0.1727923
1	0x3effb1ce	0.49940342
2	0x00000000	0.0
3	0x3c1f3144	0.009716336
4	0x3f076598	0.52889395
5	0x40de0bd9	6.9389462

network_body.processors.0.normalizer.running_variance f4 [6]
0	0x45c69a17	6355.261
1	0x3f9ff638	1.2497015
2	0x3f800000	1.0
3	0x3fc383f4	1.5274644
4	0x40bc6a89	5.888005
5	0x46ad9324	22217.57

network_body._body_endoder.seq_layers.0.weight f4 [128, 6]
0	0xbdfe4063	-0.124146245
1	0xbdfd0a0e	-0.123554334
2	0x3f09be44	0.5380595
3	0xbed251cd	-0.41078034
4	0xbf11c55e	-0.56941783
5	0xbc49d647	-0.012319154
6	0xbe41c464	-0.18922573
7	0xbe98f0eb	-0.29871306
8	0x3f2a2ece	0.6647767
9	0xbedff6bd	-0.43742934
10	0xbd9ec8c9	-0.077531405
11	0x3e29b0cf	0.16571353
12	0x3d33e478	0.043919057
13	0xbe26716a	-0.16254202
14	0xbf033d7d	-0.512657
15	0xbdc2f108	-0.09518629
16	0x3e83a219	0.25709608
17	0x3e8801f0	0.26563978
18	0xbe90b3c7	-0.2826216
19	0x3ecbccdd	0.39804736
20	0xbd0cd8f0	-0.034386575
21	0xbdf52272	-0.119694605
22	0x3ea5ee16	0.32408208
23	0xbf38f28b	-0.7224509
24	0x3ece1d50	0.4025674
25	0xbe08407f	-0.13305853
26	0xbf1a3c99	-0.60248715
27	0xbed6bf24	-0.41942704
28	0xbe283717	-0.16427265
29	0x3d8d5c14	0.06902328
30	0x3e8467a7	0.2586033
31	0xbf59d15a	-0.8508507
32	0x3f0008bb	0.5001332
33	0xbe0045bd	-0.12526603
34	0x3f14c800	0.58117676
35	0xbeb90067	-0.3613312
36	0x3ead36d9	0.33830908
37	0xbc4363ad	-0.01192562
38	0xbefc4c4f	-0.4927697
39	0x3e9c8109	0.30567196
40	0x3f109d82	0.5649034
41	0xbda2cbd2	-0.07949032
42	0x3ebe327b	0.3714789
43	0xbf57a001	-0.8422852
44	0x3edd13ec	0.43179262
45	0x3e684f77	0.22686563
46	0x3e41a0b2	0.18908957
47	0x3eaa19ff	0.33222958
48	0xbdcf95e5	-0.10136012
49	0xbf6ecf59	-0.9328514
50	0xbe9a6f89	-0.3016322
51	0x3d1b2f02	0.037886627
52	0x3dfeee0f	0.1244775
53	0xbdb282d0	-0.08716357
54	0xbe9f2d5a	-0.31089288
55	0x3f3f1036	0.7463411
56	0x3e8b82fe	0.27248377
57	0xbe3d8895	-0.18509133
58	0x3e7eee77	0.24895655
59	0xbf3d31ee	-0.7390431
60	0x3eb51db9	0.3537424
61	0xbf3b3d78	-0.7314067
62	0x3e98cb0e	0.29842418
63	0x3ea20de4	0.31651223
64	0xbf29b81d	-0.6629656
65	0xbe84dfb4	-0.25951922
66	0x3eb172fe	0.34658045
67	0xbf82e021	-1.0224649
68	0xbf3ee640	-0.74570084
69	0xbe9192e3	-0.28432378
70	0xbeb9f4c7	-0.36319563
71	0xbeca4426	-0.39505118
72	0xbee3c278	-0.44484305
73	0x3e1e16c0	0.15438366
74	0x3f0e33b1	0.55547625
75	0xbf7d4043	-0.9892618
76	0x3df2fdee	0.118648395
77	0xbef5db3a	-0.4801882
78	0x3c6976e3	0.014249536
79	0xbf071b6f	-0.52776235
80	0x3c23e4d5	0.010003288
81	0xbf88c96c	-1.0686469
82	0x3d39d2fc	0.045367226
83	0x3dfb43d2	0.12268795
84	0x3eb5edb1	0.35532907
85	0x3ed190ac	0.40930688
86	0xbed3dbbe	-0.41378587
87	0xbd40ca12	-0.04706771
88	0x3de84b67	0.11342507
89	0xbf2d6b0b	-0.6774146
90	0x3e8aa917	0.2708213
91	0x3f0ef373	0.55840224
92	0x3f261cb8	0.6488757
93	0xbeb3a0be	-0.35083574
94	0xbf075223	-0.52859706
95	0x3f2775bf	0.6541404
96	0x3ef24834	0.47320712
97	0xbd108972	-0.035287328
98	0x3da970c7	0.08273464
99	0xbe69d809	-0.22836317
100	0xbe3ca963	-0.18423991
101	0x3ef4331f	0.47695252
102	0x3d009e34	0.031400874
103	0x3e7a6b15	0.24454911
104	0xbdb70d12	-0.0893804
105	0x3ee35036	0.44397134
106	0x3e119d1f	0.14220093
107	0xbf0458f4	-0.5169823
108	0x3e4a062b	0.19728915
109	0xba323c03	-0.00067991036
110	0x3e78424a	0.24244037
111	0x3cd742ad	0.02627691
112	0xbf0a09a3	-0.53920954
113	0x3e869d37	0.2629182
114	0xbcaa3532	-0.020777319
115	0x3eaa42ab	0.3325399
116	0xbf23f31d	-0.64042836
117	0xbc88aa7a	-0.016682852
118	0x3dd9b2e8	0.10629827
119	0x3dcbd462	0.09952618
120	0xbe9c5ca0	-0.30539417
121	0xbeb532ff	-0.3539047
122	0xbe2e9822	-0.17050222
123	0x3da958cd	0.082688905
124	0xbe99c38e	-0.3003201
125	0x3e790bf7	0.2432097
126	0x3f8a4d18	1.0804777
127	0x3c6819a4	0.014166269
128	0xbe9eb614	-0.3099829
129	0x3ec3c3d8	0.38235354
130	0x3e7358a1	0.23764278
131	0xbe6270c4	-0.22113329
132	0xbf162188	-0.58644915
133	0x3e799c03	0.2437592
134	0x3f05708e	0.5212487
135	0xbde22738	-0.11042637
136	0x3dac6abb	0.08418795
137	0xbf4bd2ed	-0.7961872
138	0xbd8e2162	-0.06939961
139	0x3e835580	0.2565117
140	0xbe75df18	-0.24010885
141	0x3ecdbeb9	0.40184572
142	0x3ec87997	0.39155266
143	0xbe88affb	-0.26696762
144	0x3ef63838	0.48089767
145	0x3e8212c7	0.2540495
146	0xbe8e7d2f	-0.27829883
147	0x3e68cbb7	0.22733961
148	0xbeeb5aaf	-0.45967624
149	0xbec4d027	-0.38440058
150	0x3e296154	0.16541034
151	0x3e5a3842	0.21310523
152	0xbcde30b5	-0.027122835
153	0xbe424854	-0.18972903
154	0x3f007e9f	0.5019321
155	0xbd94c339	-0.07263798
156	0x3e70d387	0.23518191
157	0xbf0f393d	-0.55946714
158	0xbf59bf2d	-0.85057336
159	0x3ce21715	0.027598897
160	0xbe6e7ec4	-0.23290545
161	0xbde5d2ef	-0.11221873
162	0xbf10d8dd	-0.5658091
163	0xbdffcb57	-0.12489956
164	0x3e1105df	0.14162396
165	0x3e13a4bf	0.14418314
166	0x3e024d21	0.12724735
167	0xbe910051	-0.28320554
168	0x3ec4580f	0.38348433
169	0xbdf85b0a	-0.12126739
170	0xbe641301	-0.22272874
171	0xbf52f358	-0.82402563
172	0xbed042b3	-0.40675887
173	0xbe9a2799	-0.30108336
174	0x3f21ede3	0.6325361
175	0xbedadcfe	-0.4274673
176	0x3baa5d91	0.0051991423
177	0x3e9a2832	0.30108792
178	0xbe471635	-0.19442065
179	0x3f4ce532	0.80037224
180	0xbf6a326b	-0.9148318
181	0x3ee9cfd7	0.45666382
182	0x3e946693	0.28984508
183	0xbe35077e	-0.1767864
184	0xbce39b20	-0.02778393
185	0x3e95111c	0.29114616
186	0xbf0b844e	-0.54498756
187	0xbe8b7867	-0.27240297
188	0x3e64df2e	0.22350761
189	0xbdc9e59d	-0.098582484
190	0x3dbfb337	0.093603544
191	0xbf5da31c	-0.8657701
192	0x3ed977bb	0.4247416
193	0xbddc1287	-0.10745721
194	0xbcb819eb	-0.022473296
195	0xbcaa43ea	-0.020784337
196	0xbf87d04c	-1.0610442
197	0x3db902bd	0.090337254
198	0x3e851744	0.25994313
199	0x3e94a9da	0.29035836
200	0x3c9bb523	0.019007271
201	0xbec932d5	-0.39296594
202	0xbe6a3673	-0.22872333
203	0xbf33a28a	-0.7016989
204	0x3f0cb4c8	0.5496335
205	0x3e7a703e	0.2445688
206	0xbf0eb995	-0.55751926
207	0x3f06dc60	0.52680016
208	0xbf1911d7	-0.59792846
209	0x3f29184b	0.66052693
210	0x3ef2832c	0.473657
211	0xbe07bbaf	-0.1325519
212	0x3f48db53	0.7845966
213	0xbdb711b2	-0.08938922
214	0x3f1fc03e	0.62402713
215	0x3e9b5999	0.30341795
216	0xbd1c246d	-0.038120676
217	0xbe4d4247	-0.20044814
218	0xbe05d7ab	-0.13070552
219	0x3e0e58b2	0.13901022
220	0x3e9a1a09	0.30097988
221	0xbd6fad78	-0.058515042
222	0x3ea57467	0.3231537
223	0x3f1395b0	0.5765028
224	0x3e6b7daf	0.22997163
225	0xbe429105	-0.19000633
226	0xbf11a875	-0.5689767
227	0x3d1929e9	0.037393484
228	0xbf5e460b	-0.8682563
229	0x3e61b363	0.22041087
230	0x3e1670e7	0.14691506
231	0xbf2e0de0	-0.6798992
232	0xbecc184e	-0.39862293
233	0x3eedffd9	0.4648426
234	0x3e7c210c	0.24621981
235	0xbf6b8bc0	-0.92010117
236	0xbdf5a996	-0.119952366
237	0x3ef66cf5	0.48130003
238	0xbccc3ae4	-0.024930425
239	0xbcfac640	-0.030612111
240	0xbe81da60	-0.2536192
241	0x3eb537b1	0.35394052
242	0x3e40849d	0.18800588
243	0x3e069e6c	0.1314637
244	0xbec267fe	-0.37969965
245	0xbdf2d27a	-0.118565515
246	0x3e6c74f7	0.23091494
247	0xbe0cc388	-0.13746464
248	0xbe3ba48c	-0.18324488
249	0xbee96de6	-0.45591658
250	0xbceac656	-0.028659027
251	0x3da2520b	0.07925805
252	0xbd115752	-0.035483666
253	0xbed23c62	-0.41061693
254	0x3d91dd05	0.07122234
255	0xbe883bbd	-0.26608077

network_body._body_endoder.seq_layers.0.bias f4 [128]
0	0x3c1b886d	0.009492976
1	0xbbaa4083	-0.0051956787
2	0xb996da2c	-0.0002877278
3	0x3b88234f	0.0041545997
4	0x3c39daf9	0.011343711
5	0x3bbb3d4c	0.0057140943
6	0xbbdd31aa	-0.006750305
7	0xba10103d	-0.0005495584
8	0x3a4933f7	0.0007675285
9	0x3b211cc7	0.0024583803
10	0x3c095301	0.008381606
11	0x3ba987a1	0.005173639
12	0xbbe0696b	-0.0068485043
13	0x3ab89d5e	0.0014084985
14	0x3c40f65e	0.0117774885
15	0xbb88426e	-0.0041583097
16	0xbb8a6b83	-0.004224242
17	0xbb59a824	-0.0033211792
18	0x3c12543f	0.008931219
19	0xbabfecb1	-0.0014642683
20	0xbc0bab99	-0.008524799
21	0x3c2d319f	0.010570913
22	0x3c18302e	0.009288831
23	0x3c15118e	0.009098424
24	0x3c1b5d0e	0.009482635
25	0x3b3fb5da	0.002925268
26	0x3b84eb9b	0.0040564067
27	0xbc3d3089	-0.011547216
28	0xbbbb2c44	-0.005712064
29	0x3a78f5af	0.0009497059
30	0xbb6b8b39	-0.0035941137
31	0x3b8456e7	0.00403868
32	0x3bba4df2	0.0056855613
33	0x3bf44f7c	0.0074557643
34	0x3b885a4f	0.0041611562
35	0xbb9deeaf	-0.004819713
36	0x3b2bdfc1	0.0026225897
37	0x3bbaeb2f	0.0057043056
38	0x3b36186e	0.0027785557
39	0xbbf4f2dd	-0.0074752406
40	0xb9014fb4	-0.0001233209
41	0x3b7a9a99	0.003823912
42	0x3b5ddf25	0.0033854928
43	0xb98bc836	-0.00026661315
44	0xba9fdc7e	-0.0012196449
45	0x398c8bef	0.0002680714
46	0xbb6b1ad2	-0.003587414
47	0x3bb3fc9c	0.00549276
48	0x3b0e4c32	0.0021712896
49	0x3bf7be98	0.0075605623
50	0xbaae7d37	-0.0013312463
51	0x3bd27059	0.0064220843
52	0xb9b0a483	-0.00033691907
53	0xba3ed81f	-0.00072801294
54	0x3b82cf4e	0.003991998
55	0xbb0d3432	-0.0021546003
56	0xba43685f	-0.0007454212
57	0xbb8d8e29	-0.0043199253
58	0x3c032dd8	0.0080065355
59	0xbb35c64d	-0.0027736605
60	0xbb6d15e9	-0.003617639
61	0xbb1e04a6	-0.0024111657
62	0x3c0b7303	0.008511308
63	0xbc3707e3	-0.011171314
64	0x3922b247	0.00015515937
65	0xbbae905a	-0.0053272666
66	0x3a2fa4f3	0.00067002996
67	0xbb2cb316	-0.002635186
68	0x3b950619	0.004547846
69	0xbba22e06	-0.004949334
70	0xbab22dd6	-0.0013593982
71	0xbb087fc9	-0.002082812
72	0xbba84bd8	-0.0051359944
73	0x3c223ec7	0.009902663
74	0xbbcecda3	-0.006311135
75	0x3b15ba86	0.0022846772
76	0xbbdc9ded	-0.0067326934
77	0x38bc6313	8.9829926e-05
78	0x3b57b1a4	0.0032912279
79	0x3c56cbb6	0.013110092
80	0xbb39ac52	-0.002833147
81	0xbbc81f06	-0.006107214
82	0x3b730a70	0.0037085079
83	0x3bf19bb0	0.0073732957
84	0x3bdde7ef	0.0067720334
85	0xba52c419	-0.0008040085
86	0x3967a17c	0.00022090034
87	0xbbbc787f	-0.005751669
88	0xbb4c1a78	-0.0031143706
89	0xbab9c628	-0.0014173435
90	0xba8f30c9	-0.0010924573
91	0x39b4e01d	0.00034499253
92	0xbb828e7c	-0.0039842706
93	0x3b90ca4a	0.004418646
94	0x3bf84469	0.0075765145
95	0xb9c24134	-0.00037051144
96	0x3bd5de01	0.006526709
97	0xbb4e98ab	-0.0031524103
98	0xbb5ed17c	-0.0033999374
99	0x398400d4	0.0002517762
100	0xbbb9369d	-0.0056522624
101	0xbc07c51b	-0.00828674
102	0x3bc95984	0.0061447043
103	0xbbafdac7	-0.0053666565
104	0xba1fa881	-0.00060904777
105	0x3af1e1b4	0.0018454106
106	0x3b191c18	0.0023362692
107	0xbaa6bac8	-0.001272046
108	0x3b552af6	0.0032526827
109	0xbaed2565	-0.001809281
110	0x3bd1df62	0.006404803
111	0x3a893012	0.0010466597
112	0x3b031feb	0.0020008038
113	0x3a594b7d	0.00082891417
114	0x3ac26ae2	0.0014832879
115	0x3a84fd33	0.001014626
116	0xbb5d6d2a	-0.003378699
117	0x3c668f75	0.014072289
118	0xbaaa1080	-0.0012974888
119	0xbaca8cc5	-0.001545333
120	0xbc0bba07	-0.008528239
121	0x3c014594	0.007890124
122	0xba8d3144	-0.0010772129
123	0xbc1f8c94	-0.009738106
124	0x3b1ee8f6	0.0024247742
125	0x3b4a8418	0.0030901488
126	0x3b0c8d93	0.002144669
127	0xbba82f99	-0.005132627

network_body._body_endoder.seq_layers.2.weight f4 [128, 128]
0	0xbbd5e473	-0.0065274774
1	0x3dccbb04	0.09996608
2	0xbde4d627	-0.11173659
3	0xbd98201e	-0.07428001
4	0xbe0e8e72	-0.13921526
5	0xbd040d70	-0.032239377
6	0x3e09f438	0.13472068
7	0x3e00e264	0.12586361
8	0xbd428fff	-0.047500607
9	0x3c1348db	0.008989538
10	0xbca89747	-0.020579947
11	0x3cc75b0b	0.024335405
12	0xbd0bf892	-0.034172602
13	0x3d8684d0	0.06568301
14	0x3cc57ceb	0.024107417
15	0x3cdd81c4	0.027039416
16	0xbbdf561f	-0.0068156864
17	0x3d624072	0.05523724
18	0x3ce415ac	0.027842365
19	0x3deff4b5	0.11716596
20	0xbd5e3f59	-0.05425963
21	0xbd083a3e	-0.03325867
22	0xbdd40ae4	-0.1035364
23	0x3d024cd0	0.031811535
24	0xbcf6a655	-0.03010861
25	0x3db4ec75	0.08834163
26	0xbdeab64a	-0.1146055
27	0x3d9b2a1d	0.07576392
28	0xbd1012bd	-0.03517412
29	0xbd798f53	-0.0609277
30	0xbd92222b	-0.07135423
31	0x3c45b50f	0.0120670935
32	0xbd8c3d5b	-0.0684764
33	0xbae45a2e	-0.0017421895
34	0xbc3b02a2	-0.011414202
35	0x3cdc2a69	0.026875691
36	0xbdb24c49	-0.087059565
37	0xbdcf4f68	-0.101225674
38	0xbe04ffa5	-0.12988146
39	0xbcc26944	-0.023731835
40	0xbbe1c5c8	-0.0068900324
41	0x3c993942	0.01870406
42	0x3e0b9b7f	0.13633536
43	0x3e0cd828	0.13754332
44	0x3e0be190	0.13660264
45	0xbde8fdfd	-0.113765694
46	0x3cc40bbb	0.023931375
47	0xbd543f47	-0.05181816
48	0x3dec4e8c	0.11538419
49	0xbd96e042	-0.073669925
50	0xbc3efaa8	-0.011656441
51	0xbdb154fd	-0.08658788
52	0x3e73986e	0.23788616
53	0xbc67347f	-0.014111637
54	0x3e5f3b2a	0.21799913
55	0xbe10bf34	-0.14135438
56	0x3ac9cddf	0.0015396437
57	0xbd02dbf1	-0.031948034
58	0xbc92e13e	-0.01792967
59	0xbdc076d5	-0.093976654
60	0x3cc22574	0.0236995
61	0xbbd957a8	-0.006632764
62	0xbcc16c2d	-0.023611153
63	0xbca5dd66	-0.020247173
64	0x3e03ce19	0.12871589
65	0xbe3496b6	-0.17635617
66	0x3c1d59e8	0.009603955
67	0xbca8c42d	-0.020601356
68	0x3d9827bb	0.07429453
69	0x3c597324	0.013272081
70	0xbe4fd9d7	-0.20297943
71	0x3e7d7ba7	0.24754201
72	0xbd9b3328	-0.07578117
73	0xbda561bd	-0.08075283
74	0xbcae30c7	-0.021263493
75	0xbdedf3ef	-0.11618792
76	0xbd55be07	-0.052183177
77	0x3dd8624f	0.10565626
78	0xbd8c5f3c	-0.06854102
79	0xbe5c2939	-0.215001
80	0x3db08b7c	0.086203545
81	0xbdcf0159	-0.10107679
82	0xbd226dcd	-0.039655495
83	0x3cda119d	0.026619727
84	0xbd34f7e4	-0.04418172
85	0xbc0fd5d0	-0.008779004
86	0x3db7523a	0.0895123
87	0xbd633107	-0.055466678
88	0xbd9159d3	-0.07097211
89	0xbcfa0816	-0.030521434
90	0x3d8452d0	0.06461108
91	0xbd835f11	-0.06414617
92	0x3cb92030	0.022598356
93	0xbd909827	-0.07060271
94	0x3cb8224d	0.022477293
95	0xbd002a12	-0.03129012
96	0xbd9dbd10	-0.077020764
97	0x3e128bfa	0.1431121
98	0x393236bf	0.00016995797
99	0xbd59a7b9	-0.05313847
100	0xbd587dd4	-0.052854374
101	0x3d70b158	0.05876288
102	0xbd43562d	-0.047689606
103	0xbcc84324	-0.024446078
104	0xbced374f	-0.028957037
105	0xbd42f79d	-0.047599424
106	0xbe6b2234	-0.22962266
107	0xbdc59c47	-0.09648948
108	0x3d6fb184	0.0585189
109	0x3e3fa902	0.18716815
110	0x3de9418a	0.11389454
111	0xbdd59947	-0.10429626
112	0x3dec20db	0.11529704
113	0xbe0542b2	-0.13013723
114	0x3e3f62d0	0.18690038
115	0x3e45fc8e	0.19334623
116	0xbcb0dfc6	-0.021591078
117	0xbddea9b8	-0.10872215
118	0x3daf4e11	0.08559812
119	0x3ddb680f	0.10713207
120	0x3cc576be	0.024104472
121	0x3d062bb9	0.03275654
122	0xbe176d5d	-0.14787813
123	0x3dd94c04	0.10610202
124	0xbcbbe086	-0.02293421
125	0x3d8221b1	0.063540824
126	0xbe1d336f	-0.15351652
127	0x3c39335e	0.011303751
128	0x3de0f4f2	0.109842196
129	0x3e1f0c85	0.1553212
130	0x3db2c86e	0.08729635
131	0x3d1a2a71	0.03763813
132	0x3b00cd1a	0.00196535
133	0x3d162384	0.036654964
134	0xbdc7e05e	-0.097595915
135	0xbda94b2b	-0.0826629
136	0xb94658e3	-0.00018915864
137	0xbcaa4d43	-0.020788794
138	0xbd4e12cd	-0.0503109
139	0x3d3feabe	0.046854727
140	0xbd52354a	-0.05132035
141	0x3d94a673	0.0725831
142	0xbd27f4f1	-0.04100508
143	0xbcc9d367	-0.024636937
144	0xbd8619a5	-0.0654786
145	0xbdb4b9b9	-0.08824486
146	0xbe034487	-0.1281911
147	0x3c04e8ab	0.008112113
148	0xbd85dc1f	-0.065361254
149	0x3de34b87	0.1109839
150	0x3d8f26a3	0.06989791
151	0xbdd9ad39	-0.10628743
152	0x3e0a004d	0.13476677
153	0x3d5e3a49	0.054254804
154	0xbda4e099	-0.08050651
155	0xbd23ff31	-0.04003829
156	0xbbebbf70	-0.007194452
157	0xbdd06ed4	-0.10177389
158	0xbd058b23	-0.032603394
159	0xbc88dfbf	-0.016708253
160	0xbca7a7cd	-0.020465756
161	0xbd386477	-0.045017686
162	0x3dd17e96	0.102292225
163	0xbda908a6	-0.08253603
164	0x3cb2d670	0.021830767
165	0xbca6f2ba	-0.020379413
166	0xbe08de83	-0.13366131
167	0xbdeec074	-0.11657801
168	0xbd0b9312	-0.034075804
169	0x3d947c57	0.072502784
170	0x3dc175cf	0.09446298
171	0xbd10cbe7	-0.035350706
172	0x3cd34d7b	0.025793782
173	0xbe0a4b1d	-0.13505216
174	0x3cf064d5	0.029344955
175	0x3dee4ceb	0.11635765
176	0xbd232e0b	-0.039838832
177	0x3d52b5fc	0.051443085
178	0xbd032ac0	-0.03202319
179	0x3c8cd6f2	0.017192338
180	0xb93dba46	-0.00018093837
181	0xbe0147d6	-0.1262506
182	0xbc0c338e	-0.0085572135
183	0x3c02089e	0.007936625
184	0x3c508582	0.012727143
185	0xbda815e8	-0.08207303
186	0xbe14ed3b	-0.14543621
187	0xbdd4bd6b	-0.10387691
188	0xbdb292a4	-0.08719376
189	0xbca02e5e	-0.01955336
190	0xbc8ed15c	-0.017433815
191	0x3d0b3113	0.033982348
192	0xbdecf1de	-0.1156957
193	0x3cf9d3bc	0.03049647
194	0xbc2ce125	-0.0105517255
195	0xbd856ff1	-0.06515492
196	0xbbd784a1	-0.00657709
197	0x3d921f3b	0.07134863
198	0x3e6b366a	0.22969976
199	0xbd9baf08	-0.07601744
200	0x3c4b286f	0.012399777
201	0xbde7ebe8	-0.113242924
202	0x3d9ddf14	0.077085644
203	0x3befdda3	0.0073201223
204	0xbd6689e0	-0.05628383
205	0x3d949d8a	0.07256611
206	0xbd1d5ac2	-0.03841663
207	0x3dfcdd57	0.12346905
208	0xbdadf138	-0.084932745
209	0x3d6c3100	0.057663918
210	0x3de08de7	0.10964566
211	0x3d126eb7	0.035750117
212	0xbd1004fa	-0.035160996
213	0xbd0cc4fc	-0.034367546
214	0x3df79093	0.12088122
215	0xbdcd7d02	-0.10033609
216	0xbd17ff4e	-0.037108712
217	0xbe1d4c89	-0.15361227
218	0xbd578cf6	-0.052624665
219	0x3da6b243	0.081394695
220	0xbc488ed6	-0.012241086
221	0x3c7d440f	0.015458121
222	0xbd85f430	-0.06540716
223	0xbc049332	-0.008091735
224	0xbdb11bfd	-0.086479165
225	0x3d6349dc	0.05549036
226	0x3c8b601d	0.017013604
227	0xbdb75290	-0.089512944
228	0xbd7542d9	-0.059878204
229	0xbd4f0074	-0.05053754
230	0x3d8abfa6	0.06774835
231	0x3dbff233	0.09372368
232	0x3d00a5a9	0.031407986
233	0xbdbd0ef3	-0.09231367
234	0xbd810d96	-0.063014194
235	0xbc5932bb	-0.013256724
236	0x3d02158f	0.03175884
237	0x3dd0e109	0.10199172
238	0xbcb8551c	-0.02250152
239	0x3cd78593	0.02630881
240	0xbe3eadb8	-0.18620956
241	0x3d9f65cf	0.0778309
242	0xbdfc6861	-0.12324596
243	0x3db6c1c5	0.08923677
244	0xbb70b23c	-0.003672733
245	0xbe11b896	-0.1423057
246	0x3df0246b	0.11725696
247	0x3dcb4627	0.0992549
248	0xbd775bac	-0.06039016
249	0xbe2da10f	-0.1695597
250	0x3d061c54	0.03274186
251	0x3db56730	0.08857572
252	0x3d0107d3	0.031501602
253	0x3d09a8e7	0.033608343
254	0x3dd3b232	0.103367224
255	0x3c4e0876	0.012575259

network_body._body_endoder.seq_layers.2.bias f4 [128]
0	0xbb0375ee	-0.0020059305
1	0x3a84d8af	0.0010135378
2	0x3c13b52d	0.009015364
3	0xbb8fc8b8	-0.004387941
4	0x3c250dc6	0.010074085
5	0xbaea5bb7	-0.0017880116
6	0xbaefa45a	-0.0018283234
7	0xbbba121a	-0.0056784274
8	0x3bc85d4e	0.0061146384
9	0x3bf6cf4b	0.0075320355
10	0xbb4d3b31	-0.0031315798
11	0x3ba99b0a	0.005175953
12	0xbb561eab	-0.0032672088
13	0x3c0070a6	0.0078393575
14	0xbb55311d	-0.0032530494
15	0xbaf8c925	-0.0018980844
16	0x3ba9866e	0.005173496
17	0xbb09f2b4	-0.0021049203
18	0x3b30e152	0.002698977
19	0xba1c25c0	-0.0005956553
20	0xbb061e08	-0.0020464677
21	0x3b730483	0.0037081547
22	0x3bd2fd81	0.0064389114
23	0x3bd65343	0.0065406873
24	0xbb4e0dcd	-0.0031441331
25	0x3bfc86c2	0.007706494
26	0x3ae1d2a0	0.0017228909
27	0x38e7684e	0.000110343666
28	0x3b83a94d	0.004017985
29	0xba932b07	-0.0011228033
30	0xbaffc94e	-0.001951495
31	0xbaccb6c1	-0.001561843
32	0x3bd435cd	0.00647614
33	0xbafdc9fd	-0.0019362565
34	0x3b0e88ab	0.002174894
35	0x3b32473b	0.0027203101
36	0xbb645837	-0.003484262
37	0x3aa2fc0f	0.0012434738
38	0x3c0aec32	0.008479165
39	0xbad46453	-0.0016204215
40	0x3a26bd2b	0.00063605857
41	0x3bebc3da	0.007194978
42	0xbc453441	-0.012036384
43	0xbb318714	-0.002708857
44	0x3ba98e12	0.005174407
45	0xbb1c6c0e	-0.0023868117
46	0x39441d68	0.00018702971
47	0x3982701b	0.00024879057
48	0x3bf8d900	0.007594228
49	0xbbcc15ee	-0.0062282
50	0xbab1dc8e	-0.0013569759
51	0x3aa1feba	0.001235924
52	0x3b8710e8	0.0041218884
53	0x39c05555	0.0003668467
54	0x3b14fcd6	0.002273371
55	0xbbaae4ab	-0.0052152476
56	0x3b8c5f9a	0.0042838575
57	0xbbd06541	-0.0063597267
58	0xbc0ab389	-0.008465656
59	0xbb3bf958	-0.0028682556
60	0xbb51de3a	-0.0032023326
61	0x3bed5583	0.00724286
62	0xbbcb6cf6	-0.0062080575
63	0x3beeb602	0.0072848806
64	0xbbc1be3d	-0.0059125707
65	0xbbb66084	-0.005565705
66	0x3bf904c4	0.007599445
67	0xbba7ed1e	-0.005124702
68	0x3c006539	0.007836633
69	0xbb02a1fa	-0.0019932971
70	0x3b732dde	0.0037106196
71	0xbbdbe635	-0.0067107924
72	0xbbae2075	-0.005313928
73	0x3b22e738	0.0024857055
74	0xbb84bcd6	-0.0040508313
75	0x3c106ba7	0.008814729
76	0xbbba20c9	-0.005680178
77	0xbb7185cb	-0.0036853428
78	0xbb8f737f	-0.004377782
79	0xbb51b5d5	-0.003199925
80	0xbbfcf7d6	-0.007719974
81	0x384c82e8	4.8759306e-05
82	0xbb94ea35	-0.004544521
83	0x3c4bc5db	0.012437309
84	0x3b9272d0	0.004469253
85	0xbba6dcee	-0.005092255
86	0x3b455537	0.0030110606
87	0xbbbfe781	-0.005856455
88	0xbb2a3713	-0.0025972768
89	0xbbb1fc27	-0.00543167
90	0xbc151cbf	-0.009101092
91	0x3ba33624	0.0049808193
92	0x3b93aef8	0.004506942
93	0x3b85c8be	0.004082768
94	0x3baa647c	0.005199967
95	0xba65107c	-0.0008738113
96	0x3c08f59f	0.008359342
97	0x3b13d0fe	0.002255499
98	0xbc0f2d66	-0.008738851
99	0x3ac218e4	0.0014808443
100	0x3b9463cc	0.0045284983
101	0xbb1ff8cf	-0.0024409776
102	0x3b10a8f9	0.0022073372
103	0xbb11650c	-0.0022185473
104	0xbb9805d0	-0.004639365
105	0xbbbc091c	-0.0057383906
106	0x3b7a3fe2	0.003818505
107	0xbb89898c	-0.004197305
108	0xbb355653	-0.0027669861
109	0xbbb474b1	-0.0055070748
110	0xbb92e9f9	-0.004483458
111	0x3befc4cb	0.0073171607
112	0xba9d7684	-0.001201347
113	0xbbc0d6d9	-0.005884987
114	0x3bf5538a	0.0074867653
115	0x3b96be82	0.004600347
116	0xbbabb332	-0.0052398676
117	0xbb1ee527	-0.0024245472
118	0xbbfa38d0	-0.007636167
119	0xbb7341d6	-0.0037118099
120	0x3abc0813	0.0014345668
121	0xba6e6915	-0.0009094638
122	0x39949fb9	0.00028347762
123	0xba5e9715	-0.0008491141
124	0x3b107e01	0.002204776
125	0x3be04e1f	0.0068452503
126	0xbb5f7fa5	-0.0034103182
127	0xbb4a2564	-0.003084504

action_model._discrete_distribution.branches.0.weight f4 [3, 128]
0	0x3ca13143	0.01967681
1	0x3c2a3c03	0.0103902845
2	0xbc08ff18	-0.0083616
3	0x3bb869ef	0.0056278626
4	0xbcbfa8f0	-0.023395985
5	0x3a62ee72	0.0008656747
6	0x3a8037ed	0.0009782292
7	0xbc050dce	-0.008120967
8	0xbc93b65f	-0.018031297
9	0xbbc73b01	-0.006080032
10	0x3a09ad2d	0.00052519405
11	0xbb75b14e	-0.0037489715
12	0x3c816461	0.015794935
13	0xbc1d24ad	-0.009591264
14	0xba280529	-0.00064094603
15	0x3ab6f759	0.0013959213
16	0x381f4814	3.7975682e-05
17	0x3c6b77ea	0.014371851
18	0xbccae0d6	-0.024765413
19	0xbb77ed84	-0.003783078
20	0x3c90dcb5	0.017683366
21	0x3bd04f01	0.0063570742
22	0xbc6b6a5c	-0.01436862
23	0xbc9b394c	-0.01894822
24	0xba92379c	-0.0011155489
25	0xbc5435c1	-0.012952269
26	0xbc11c2e9	-0.008896568
27	0x3bb098b8	0.0053892992
28	0xbc7695d5	-0.015050371
29	0xbc25cfd2	-0.010120349
30	0x3c16e850	0.009210661
31	0xbc41462a	-0.011796514
32	0xbc321c1b	-0.010870959
33	0xbaade974	-0.0013268427
34	0xbae791af	-0.0017667318
35	0x3ab4138c	0.0013738736
36	0x3c14c938	0.009081177
37	0xbc0aed7e	-0.008479474
38	0xbc03625c	-0.008019056
39	0x3c918335	0.01776276
40	0x3b740195	0.0037232388
41	0xbbd56b0e	-0.006513006
42	0x3c9e66b6	0.019336086
43	0x3c321378	0.0108688995
44	0xbb643ee2	-0.003482752
45	0x3c9ce4cd	0.01915207
46	0xbbf91cda	-0.0076023163
47	0xbb9a8acc	-0.004716253
48	0xbc2aaad8	-0.010416709
49	0x3c60f95e	0.013731329
50	0xbbd7c460	-0.006584689
51	0xbbab7d2c	-0.0052334275
52	0xbb89765e	-0.0041950187
53	0x3c81d00d	0.015846277
54	0xbc2725dc	-0.0102018975
55	0x3c06d5d8	0.008229695
56	0xbcd9dbf4	-0.02659414
57	0x3bf7c36d	0.0075611384
58	0x3c64d889	0.013967642
59	0x3cbb02e9	0.022828536
60	0xbb38d12a	-0.0028200843
61	0xbcaed44e	-0.02134147
62	0x3c0a22d8	0.008431159
63	0xbc232931	-0.009958551
64	0x3ba2b08c	0.0049648937
65	0x3b907f06	0.0044096736
66	0xbb0ba995	-0.0021310796
67	0x3b3e9533	0.002908063
68	0x3a19a3c8	0.0005860892
69	0x3b139c87	0.0022523717
70	0xbcc376b3	-0.023860311
71	0x3c2e8293	0.0106512485
72	0x3bc7f08c	0.0061016735
73	0xbc5d93d3	-0.013524014
74	0xbc16be29	-0.009200611
75	0xbc2c9b17	-0.010535023
76	0x3b7d52df	0.0038654131
77	0x3bfe4245	0.007759365
78	0x38319beb	4.23453e-05
79	0x3c336c89	0.01095117
80	0x3a9544f1	0.0011388344
81	0x3c8038b2	0.015652034
82	0x3c3c5b7c	0.011496421
83	0xbc5ebe49	-0.013595172
84	0xbc150549	-0.009095498
85	0x3bf1817e	0.007370173
86	0x3c98ddec	0.018660508
87	0x3c925c6f	0.017866341
88	0x3c9b7d66	0.018980693
89	0xbbd1b143	-0.006399305
90	0x3c1732b9	0.009228402
91	0xbbc9e566	-0.0061613796
92	0xbcbf42b9	-0.023347246
93	0xbba1f2da	-0.0049422802
94	0xbbbcecdb	-0.00576554
95	0xbb33740c	-0.0027382402
96	0xbbe6448c	-0.0070272144
97	0xbc168f49	-0.009189435
98	0x3bf0882d	0.007340452
99	0x3c91ce22	0.017798487
100	0xbb3182d4	-0.0027086036
101	0x3c8114b0	0.015756935
102	0xbc17a4be	-0.009255586
103	0xbc49c6d2	-0.012315469
104	0x3c876c10	0.01653102
105	0xbb345843	-0.0027518428
106	0xbc21e35f	-0.00988087
107	0x3c3d8f18	0.011569761
108	0x3c9bcc23	0.019018238
109	0xbac6ab2f	-0.0015157218
110	0x3b811126	0.003938812
111	0xbce672ae	-0.028130855
112	0x3c27451e	0.01020935
113	0x3b7b4d54	0.0038345652
114	0xba033859	-0.000500565
115	0xbca5378c	-0.020168088
116	0xbb4ef903	-0.0031581528
117	0x39b5ba6f	0.00034661914
118	0x3c24bf4e	0.010055376
119	0x3cb537ab	0.022121271
120	0xbc420850	-0.011842802
121	0xbb62bc5c	-0.0034597134
122	0x3c42ac10	0.011881843
123	0xbbbf39e3	-0.005835758
124	0xbc1ba76d	-0.009500367
125	0xbb89a0db	-0.0042000837
126	0xbaa114cb	-0.0012289522
127	0x3a888591	0.0010415782
128	0x3bd79576	0.0065790964
129	0xbc317db1	-0.01083319
130	0xba7de356	-0.000968506
131	0x3c748af4	0.014925707
132	0x3b00cb40	0.0019652396
133	0x3ba7e5d5	0.0051238337
134	0xbc89397d	-0.016751045
135	0xbae29bc3	-0.0017288852
136	0x3c92ec26	0.01793487
137	0x3bb76346	0.005596551
138	0xbb135726	-0.0022482364
139	0x3c30732c	0.010769647
140	0x3bcd4e43	0.006265433
141	0x37d4e506	2.5379017e-05
142	0x3cef86f1	0.02923915
143	0x3c4c9f85	0.012489204
144	0xbc224330	-0.009903714
145	0xbb8c2dcd	-0.004277921
146	0x3c577833	0.013151216
147	0x3c2d788d	0.010587824
148	0xbb205d0f	-0.002446953
149	0x3bd63621	0.0065372144
150	0xbc7064ea	-0.014672497
151	0x3afdc9a9	0.0019362468
152	0x38b85850	8.790253e-05
153	0x3b268c15	0.0025413085
154	0xbbc1a845	-0.005909952
155	0x3a8c434b	0.0010701207
156	0xbc6b28e9	-0.014353015
157	0x3af45b07	0.0018642851
158	0xbc05675b	-0.008142318
159	0xbbd54027	-0.0065078917
160	0xbba39c55	-0.0049930015
161	0x39bd629f	0.00036122368
162	0xbc801425	-0.015634606
163	0x3b2074bc	0.0024483642
164	0xbbdd04fc	-0.006744979
165	0x3b96da8c	0.0046036895
166	0x3aecadc2	0.0018057155
167	0x3c17e13a	0.009270007
168	0x3bed0c53	0.007234135
169	0x3b3afbad	0.0028531358
170	0x3b8bd637	0.0042674798
171	0xba7ae814	-0.00095713255
172	0x3bb8390c	0.005622035
173	0xbc5202cf	-0.012818052
174	0xbc1316c6	-0.008977598
175	0xbc87d793	-0.016582286
176	0xbb3326e4	-0.0027336413
177	0x3bc7f243	0.006101878
178	0x3c74c819	0.014940285
179	0x3aa73656	0.0012757282
180	0x3b86ffd4	0.0041198526
181	0xbc000049	-0.007812568
182	0xbbb14d36	-0.0054108156
183	0x3b6458ee	0.0034843045
184	0x3bed3bd6	0.007239799
185	0x3bdbb6e0	0.00670515
186	0x3badf47d	0.0053086863
187	0x3c38940a	0.011265764
188	0x3c28ff31	0.010314749
189	0x3aabb621	0.0013100543
190	0x3c08f128	0.008358277
191	0xb9dddcfd	-0.00042317054
192	0x3be19cc4	0.006885143
193	0x3bbe8476	0.0058141304
194	0x3bb3f6fd	0.00549209
195	0x3ad13e6d	0.0015964039
196	0xbb961f9a	-0.004581404
197	0x3c57bfda	0.0131683
198	0x3c5b0ef2	0.013370262
199	0x3bca0298	0.00616486
200	0x3b183c26	0.002322921
201	0x3a7a31cb	0.0009544163
202	0x3b20753d	0.0024483942
203	0xbbc2a267	-0.00593977
204	0x3c18b68d	0.009320867
205	0xbba8f9fd	-0.005156754
206	0x3b28c373	0.0025751262
207	0xbbbc6ad9	-0.005750042
208	0xba916e0f	-0.0011095422
209	0xbc2dd71d	-0.010610369
210	0x3bd1163a	0.0063808234
211	0x3aabb4b6	0.0013100121
212	0xbc749040	-0.01492697
213	0x3c4e4982	0.012590768
214	0xbb31011c	-0.0027008718
215	0x3c7577f9	0.014982217
216	0x3a263024	0.0006339571
217	0x3bc5428e	0.006019897
218	0x3c47419d	0.0121616395
219	0xbbf03c8b	-0.007331436
220	0x3c0bc1bb	0.008530076
221	0xbc236372	-0.00997244
222	0xbc93f7bc	-0.018062465
223	0xbc0b5dfc	-0.008506294
224	0x3c92b4c7	0.017908467
225	0x3b91f091	0.0044537266
226	0x3bdd862e	0.00676038
227	0xbc64bfdb	-0.0139617575
228	0xbbc5ac5b	-0.0060325093
229	0x3b67014f	0.0035248583
230	0xbc2e9ac6	-0.010657018
231	0x3c245e40	0.010032237
232	0x3b6b5076	0.0035906113
233	0x3b3f3182	0.0029173796
234	0x3c2897c9	0.010290095
235	0xbc85e3ed	-0.016344035
236	0xbbf82224	-0.0075724293
237	0x3bf68856	0.0075235767
238	0x3c36cbf5	0.011157026
239	0x3c416577	0.011803976
240	0x3be6c68f	0.007042713
241	0x3bae02ef	0.0053104083
242	0xbc07568f	-0.008260383
243	0xb98c02ce	-0.0002670497
244	0xbaa68e33	-0.0012707174
245	0xbb9b6a10	-0.0047428682
246	0x3ba249b1	0.0049526324
247	0xbb74d3ce	-0.003735769
248	0x3c98ba44	0.018643506
249	0x3c65229c	0.013985302
250	0x3b9aa1e3	0.0047190054
251	0xbb60c3f7	-0.0034296492
252	0x3c4c0be2	0.012454005
253	0x387d27cc	6.0356964e-05
254	0xba7014d8	-0.00091583794
255	0x3c3a1150	0.011356667

action_model._discrete_distribution.branches.0.bias f4 [3]
0	0xbb8ab94c	-0.004233515
1	0xbaf394cf	-0.0018583777
2	0x3bab4098	0.005226206

exp_avg f4 [128, 6]
0	0x37f958a1	2.9724384e-05
1	0xb611c54d	-2.1721528e-06
2	0x00000000	0.0
3	0x37e94de8	2.7812042e-05
4	0x3912a838	0.00013986311
5	0x39c1ab53	0.00036939475
6	0xb8d90d82	-0.00010349882
7	0x3633aca5	2.677357e-06
8	0x00000000	0.0
9	0xb7b18052	-2.1159798e-05
10	0xb8cbb2cc	-9.713098e-05
11	0xb9c1c48a	-0.00036958262
12	0xb74f841f	-1.2368923e-05
13	0xb7287bcf	-1.0042407e-05
14	0x00000000	0.0
15	0x380ef20d	3.4080866e-05
16	0xb92498de	-0.00015697206
17	0x399777fd	0.00028890363
18	0x39ca31bc	0.00038565497
19	0xb7525244	-1.2536129e-05
20	0x00000000	0.0
21	0x38b3493f	8.549028e-05
22	0x38bae36a	8.91153e-05
23	0x3ad34d3d	0.0016121041
24	0xb8876ee8	-6.4579595e-05
25	0xb643c151	-2.916979e-06
26	0x00000000	0.0
27	0x381af819	3.694752e-05
28	0x38213237	3.8432157e-05
29	0x39bc0ee4	0.0003586925
30	0x3871fdc2	5.7695208e-05
31	0x36bd4dba	5.6416875e-06
32	0x00000000	0.0
33	0x38f34f79	0.00011601946
34	0x38f7611a	0.000117959644
35	0xb91b2b4a	-0.00014798078
36	0x3875a916	5.8570025e-05
37	0x3696d99e	4.4956823e-06
38	0x00000000	0.0
39	0xb8807ed8	-6.127142e-05
40	0x38e0e1c7	0.00010723207
41	0xb9b11b14	-0.00033780246
42	0x34c5b966	3.6829005e-07
43	0x369b5ba4	4.6300283e-06
44	0x00000000	0.0
45	0xb875bc79	-5.858808e-05
46	0xb8fbe16f	-0.00012010603
47	0x384bb7fc	4.857032e-05
48	0x38b14aaf	8.4539286e-05
49	0x377ed4f0	1.5189158e-05
50	0x00000000	0.0
51	0xb7c4c8d8	-2.3458546e-05
52	0x385348ef	5.0374245e-05
53	0xba96406e	-0.0011463293
54	0x399997fd	0.00029295674
55	0xb6fa6372	-7.4621576e-06
56	0x00000000	0.0
57	0x388d1b91	6.7285386e-05
58	0x39275d5d	0.00015961142
59	0x3a5b106d	0.00083566346
60	0xb9710c90	-0.00022988231
61	0xb7cd9bcf	-2.4510458e-05
62	0x00000000	0.0
63	0x39a05b0c	0.00030585413
64	0x3a3a02bb	0.0007095744
65	0x3b433958	0.0029788818
66	0x372f933c	1.04650935e-05
67	0xb70b01d6	-8.285473e-06
68	0x00000000	0.0
69	0x3926174c	0.00015839672
70	0x389775b9	7.222169e-05
71	0x3ab18c10	0.001354577
72	0xb55d5401	-8.245116e-07
73	0x360b0f7d	2.072163e-06
74	0x00000000	0.0
75	0xb76a001b	-1.3947511e-05
76	0xb8b8c8b7	-8.81119e-05
77	0xb95ca287	-0.00021041381
78	0x37be2496	2.2666802e-05
79	0x364e789e	3.07666e-06
80	0x00000000	0.0
81	0xb83f2676	-4.5573768e-05
82	0xb882a495	-6.229539e-05
83	0xb9cd72ba	-0.00039186125
84	0x38a10a98	7.6790515e-05
85	0xb7013ec8	-7.703617e-06
86	0x00000000	0.0
87	0x391d4441	0.00014998113
88	0x39099d3f	0.00013123917
89	0x3a9f1755	0.0012137691
90	0xb82f6bbc	-4.1823587e-05
91	0xb5cddc8b	-1.5337877e-06
92	0x00000000	0.0
93	0x3839ae33	4.4269673e-05
94	0x37461a27	1.1807809e-05
95	0xb905d4b5	-0.00012763108
96	0x36f9310a	7.426487e-06
97	0xb627df15	-2.501479e-06
98	0x00000000	0.0
99	0x385d3974	5.2744013e-05
100	0xb6ebdd63	-7.0293186e-06
101	0xb96c3f60	-0.00022530323
102	0x38e3fcf9	0.00010871323
103	0xb64677e5	-2.9574087e-06
104	0x00000000	0.0
105	0x385b1b93	5.223935e-05
106	0x37c867d9	2.3890216e-05
107	0x39bfc7eb	0.0003657931
108	0xb963ec15	-0.00021736354
109	0xb73892fd	-1.1001478e-05
110	0x00000000	0.0
111	0x39237422	0.00015588154
112	0x39d3b0e6	0.00040376856
113	0x3a2e5099	0.0006649583
114	0x387ab977	5.9777372e-05
115	0x3720304f	9.547991e-06
116	0x00000000	0.0
117	0xb7e120d5	-2.6837379e-05
118	0x3836fca9	4.362749e-05
119	0xba3ede18	-0.00072810194
120	0xb8cc6ce3	-9.74776e-05
121	0x36820888	3.875295e-06
122	0x00000000	0.0
123	0xb855ea56	-5.10014e-05
124	0xb90ceee4	-0.00013440434
125	0xb6ea1fb4	-6.977434e-06
126	0xba7099a2	-0.00091781665
127	0xb73ab851	-1.1129378e-05
128	0x00000000	0.0
129	0x398337bb	0.0002502779
130	0xb9371957	-0.0001746168
131	0x3ab141d5	0.0013523648
132	0x39b82763	0.0003512456
133	0xb5c34f21	-1.4551662e-06
134	0x00000000	0.0
135	0x39699ec2	0.00022279753
136	0x39251089	0.00015741786
137	0x3a12cfe9	0.0005600439
138	0x3925ae68	0.00015800598
139	0xb59fc52e	-1.190381e-06
140	0x00000000	0.0
141	0x38f0c83a	0.00011481387
142	0x3843de72	4.669879e-05
143	0x39fb710b	0.00047958674
144	0x390329d0	0.0001250871
145	0xb5810477	-9.612548e-07
146	0x00000000	0.0
147	0x39140941	0.00014117827
148	0x3936ad3f	0.00017421412
149	0x3a8388b8	0.0010035252
150	0xb9868c25	-0.00025662887
151	0xb74ea9c5	-1.2318084e-05
152	0x00000000	0.0
153	0x38fe5c0c	0.00012128809
154	0xb93265f7	-0.00017013388
155	0x3a908de1	0.0011028611
156	0x38b85eb2	8.791442e-05
157	0xb691dc80	-4.3470063e-06
158	0x00000000	0.0
159	0x372074fa	9.563979e-06
160	0x38fc319c	0.00012025537
161	0x3a3f2b19	0.0007292494
162	0xb8cbcde1	-9.718142e-05
163	0x36d41807	6.3208895e-06
164	0x00000000	0.0
165	0xb7c0e9f4	-2.2997127e-05
166	0xb792917f	-1.7472308e-05
167	0xb9e7ae11	-0.00044189443
168	0x37a43759	1.9576097e-05
169	0xb609ca42	-2.053232e-06
170	0x00000000	0.0
171	0x380c45cb	3.34436e-05
172	0x380ade30	3.3108692e-05
173	0x3a058b09	0.0005094265
174	0xb98820de	-0.0002596443
175	0xb73feda2	-1.1439815e-05
176	0x00000000	0.0
177	0x395d363c	0.00021096406
178	0x397dbf3c	0.000241992
179	0xb977a8c1	-0.00023618621
180	0x39a917ed	0.00032252018
181	0xb6569119	-3.1972943e-06
182	0x00000000	0.0
183	0xb7b8de5f	-2.2038059e-05
184	0x37d9c563	2.5960331e-05
185	0x3914666b	0.00014152534
186	0x39ddcfe3	0.00042307292
187	0xb7bf2e41	-2.2790513e-05
188	0x00000000	0.0
189	0x3905a64b	0.00012745817
190	0x3967309c	0.00022047985
191	0x3b18e843	0.0023331798
192	0xb9af13c4	-0.00033393328
193	0xb78833c0	-1.6236561e-05
194	0x00000000	0.0
195	0x39678a47	0.00022081389
196	0x3a394f28	0.0007068985
197	0x3af46362	0.0018645341
198	0xb8bbd05c	-8.955665e-05
199	0xb6010254	-1.9223853e-06
200	0x00000000	0.0
201	0x3815a8be	3.568152e-05
202	0x38a7de92	8.0046375e-05
203	0x398e4322	0.00027134368
204	0xb9c56653	-0.00037651006
205	0xb72e97f8	-1.0406591e-05
206	0x00000000	0.0
207	0x39786f38	0.00023692555
208	0x39a6cc28	0.00031814096
209	0xb905c9df	-0.00012759071
210	0xb8b00147	-8.392572e-05
211	0xb64a3033	-3.0128401e-06
212	0x00000000	0.0
213	0x3820b6b8	3.8317143e-05
214	0xb72de7ea	-1.03656e-05
215	0xb855108a	-5.079856e-05
216	0x38b14463	8.452756e-05
217	0x36b84d92	5.4926577e-06
218	0x00000000	0.0
219	0xb79c7070	-1.8649007e-05
220	0x370ee709	8.517652e-06
221	0xb92a7c3b	-0.00016258743
222	0xb8e9acb0	-0.00011142471
223	0xb6ed87fa	-7.07898e-06
224	0x00000000	0.0
225	0x38c58fc4	9.4204705e-05
226	0x3982a4e0	0.00024918374
227	0x3a1b591e	0.000592606
228	0x38b3dd88	8.5766485e-05
229	0x361c8728	2.3324483e-06
230	0x00000000	0.0
231	0xb78f6799	-1.709517e-05
232	0xb90d945b	-0.00013502075
233	0xb908310f	-0.00012988246
234	0xb703303c	-7.819439e-06
235	0x35b935ed	1.3799269e-06
236	0x00000000	0.0
237	0xb807a125	-3.2336586e-05
238	0xb78a29e5	-1.647039e-05
239	0xb9bb4cb6	-0.00035724574
240	0xb8d1d9b0	-0.00010006444
241	0x36ddfa62	6.6154616e-06
242	0x00000000	0.0
243	0xb836cd88	-4.3583597e-05
244	0xb9134b9b	-0.00014047178
245	0xb9b5c2a6	-0.00034668035
246	0xb93704b3	-0.0001745399
247	0xb5f7d120	-1.8463797e-06
248	0x00000000	0.0
249	0x38221688	3.8644794e-05
250	0xb7585245	-1.2893758e-05
251	0x37b36eab	2.1389997e-05
252	0x3943a4ea	0.00018658084
253	0x37a6caea	1.9883231e-05
254	0x00000000	0.0
255	0xb89ad6ef	-7.383327e-05

exp_avg_sq f4 [128, 6]
0	0x34638115	2.1187982e-07
1	0x2ea7e393	7.634706e-11
2	0x00000000	0.0
3	0x322bfdd4	1.0011224e-08
4	0x3488fd55	2.5516297e-07
5	0x3506d49a	5.0228266e-07
6	0x3392ff6f	6.845118e-08
7	0x2e084cb3	3.0990942e-11
8	0x00000000	0.0
9	0x318b37b5	4.0517656e-09
10	0x3308c74d	3.184623e-08
11	0x339f2ff2	7.412736e-08
12	0x3462e901	2.1132657e-07
13	0x2ea11f6c	7.327014e-11
14	0x00000000	0.0
15	0x32efe91d	2.792927e-08
16	0x33d649e7	9.978594e-08
17	0x3409d37c	1.2836057e-07
18	0x361b32c3	2.3126347e-06
19	0x3057af6e	7.8465845e-10
20	0x00000000	0.0
21	0x34451ac4	1.8356792e-07
22	0x3584852b	9.873523e-07
23	0x36f41b86	7.274971e-06
24	0x33bba8df	8.7385835e-08
25	0x2e05596e	3.032013e-11
26	0x00000000	0.0
27	0x3161d1b1	3.2861005e-09
28	0x33d89b66	1.00865506e-07
29	0x3471bd99	2.2513849e-07
30	0x3521cd97	6.0276346e-07
31	0x2f579636	1.9607502e-10
32	0x00000000	0.0
33	0x33af4ea5	8.163378e-08
34	0x3480a042	2.395846e-07
35	0x35aa6f73	1.2698423e-06
36	0x34536fb3	1.9691542e-07
37	0x2e8456f6	6.0181124e-11
38	0x00000000	0.0
39	0x32e64d1e	2.6810593e-08
40	0x338d9c2f	6.594234e-08
41	0x34ad65e2	3.229789e-07
42	0x33ec3ed2	1.1001033e-07
43	0x2e77b225	5.6319522e-11
44	0x00000000	0.0
45	0x32b34626	2.0870242e-08
46	0x330c8d74	3.272494e-08
47	0x3396d0b6	7.0228836e-08
48	0x345c8291	2.0536596e-07
49	0x2ea501e3	7.5036664e-11
50	0x00000000	0.0
51	0x32ce08dc	2.3985585e-08
52	0x3418fac7	1.4247335e-07
53	0x34ffd0b7	4.764931e-07
54	0x35477037	7.429657e-07
55	0x2f8e5ef3	2.5897115e-10
56	0x00000000	0.0
57	0x336b44f3	5.477791e-08
58	0x34c1e905	3.6118595e-07
59	0x36186d68	2.2713448e-06
60	0x3629c06a	2.5294962e-06
61	0x30866895	9.779507e-10
62	0x00000000	0.0
63	0x349b700d	2.8952527e-07
64	0x360375fb	1.9589195e-06
65	0x37175fac	9.022577e-06
66	0x35b33460	1.3351782e-06
67	0x3021d1b6	5.8869476e-10
68	0x00000000	0.0
69	0x33e5ff44	1.0710076e-07
70	0x353014b1	6.559522e-07
71	0x368805c6	4.053788e-06
72	0x346695ce	2.1474918e-07
73	0x2f04f093	1.2090799e-10
74	0x00000000	0.0
75	0x320af55e	8.088447e-09
76	0x345a2636	2.0316733e-07
77	0x35053279	4.961981e-07
78	0x338560d0	6.210905e-08
79	0x2e12c285	3.3369325e-11
80	0x00000000	0.0
81	0x3156fb01	3.1283778e-09
82	0x3301049e	3.0039352e-08
83	0x342ebb6d	1.6273198e-07
84	0x35aab162	1.2717612e-06
85	0x2fffd7d8	4.6537596e-10
86	0x00000000	0.0
87	0x33e8ed94	1.0846557e-07
88	0x3538ba18	6.8816144e-07
89	0x36acedbf	5.1536767e-06
90	0x33dd8597	1.0315414e-07
91	0x2e13f1bf	3.3638644e-11
92	0x00000000	0.0
93	0x31f4ec0d	7.1281705e-09
94	0x332827c5	3.915172e-08
95	0x33ba0f8f	8.66413e-08
96	0x33afa171	8.1784385e-08
97	0x2e176498	3.442277e-11
98	0x00000000	0.0
99	0x3204026f	7.683965e-09
100	0x3302b36d	3.043117e-08
101	0x33a11f33	7.502822e-08
102	0x341be960	1.4520401e-07
103	0x2eae37c6	7.922511e-11
104	0x00000000	0.0
105	0x32fc7f36	2.939451e-08
106	0x33c4f552	9.171585e-08
107	0x34acbbe8	3.2174216e-07
108	0x34dd52e9	4.1224783e-07
109	0x2f0b5ec0	1.2675638e-10
110	0x00000000	0.0
111	0x33705ea0	5.5965415e-08
112	0x34b84008	3.431926e-07
113	0x35147df4	5.531758e-07
114	0x3426e1ed	1.5542146e-07
115	0x2ea90bef	7.68735e-11
116	0x00000000	0.0
117	0x32c119a2	2.2479814e-08
118	0x33be2474	8.854195e-08
119	0x3496c62a	2.808386e-07
120	0x32ecf802	2.7586797e-08
121	0x2d63ff6a	1.2960169e-11
122	0x00000000	0.0
123	0x314fc1c3	3.0232605e-09
124	0x32951962	1.7357426e-08
125	0x32f8f002	2.8980143e-08
126	0x35931f25	1.0961418e-06
127	0x2fb0ca89	3.2158123e-10
128	0x00000000	0.0
129	0x344d3a85	1.9113402e-07
130	0x3504ff8c	4.95457e-07
131	0x35d0d485	1.5559059e-06
132	0x35e49513	1.703071e-06
133	0x301b777c	5.655847e-10
134	0x00000000	0.0
135	0x343cbb2e	1.757696e-07
136	0x353c2808	7.009371e-07
137	0x36c7536a	5.940373e-06
138	0x34ec4244	4.400664e-07
139	0x2f1ec026	1.4438281e-10
140	0x00000000	0.0
141	0x34194dfb	1.4277605e-07
142	0x34791f61	2.3201348e-07
143	0x3545899a	7.3588456e-07
144	0x36144da8	2.209892e-06
145	0x305593b9	7.7698875e-10
146	0x00000000	0.0
147	0x34824195	2.4262104e-07
148	0x3592f293	1.0948446e-06
149	0x36e147d2	6.7138835e-06
150	0x3462aeff	2.1111553e-07
151	0x2eb2e5e6	8.135341e-11
152	0x00000000	0.0
153	0x32b63084	2.1209651e-08
154	0x33fb389f	1.16983976e-07
155	0x34db5909	4.085671e-07
156	0x33d22e26	9.7872814e-08
157	0x2e7385e7	5.5370732e-11
158	0x00000000	0.0
159	0x3286c375	1.5688537e-08
160	0x33b4d1d4	8.420071e-08
161	0x34656c4d	2.1366687e-07
162	0x338847d0	6.346056e-08
163	0x2de87591	2.6427556e-11
164	0x00000000	0.0
165	0x317db65b	3.6920003e-09
166	0x330868a6	3.1760145e-08
167	0x33f809ee	1.1550206e-07
168	0x33fa7b92	1.16640095e-07
169	0x2ed346f1	9.607771e-11
170	0x00000000	0.0
171	0x315fc13d	3.2560614e-09
172	0x33fce8a1	1.17769794e-07
173	0x349344dc	2.7430985e-07
174	0x35006542	4.7831065e-07
175	0x2f2deb4b	1.5817851e-10
176	0x00000000	0.0
177	0x3395e47b	6.9799135e-08
178	0x33c70071	9.26674e-08
179	0x34a0725d	2.9885533e-07
180	0x34c95779	3.7502812e-07
181	0x2f0361f0	1.1949175e-10
182	0x00000000	0.0
183	0x328b1dce	1.6195283e-08
184	0x34100827	1.3414011e-07
185	0x34b9f14e	3.4634508e-07
186	0x362bca1a	2.5598624e-06
187	0x3081a2d4	9.432264e-10
188	0x00000000	0.0
189	0x345a7072	2.034374e-07
190	0x35e778a2	1.724595e-06
191	0x370f5f5e	8.545669e-06
192	0x3580d5a0	9.598916e-07
193	0x2fd5b0e0	3.8870152e-10
194	0x00000000	0.0
195	0x33a128d2	7.504572e-08
196	0x35a7e38b	1.2508693e-06
197	0x364a58d9	3.0152062e-06
198	0x341b053c	1.4437404e-07
199	0x2e973dca	6.877661e-11
200	0x00000000	0.0
201	0x32544b21	1.23571064e-08
202	0x33c4d8b5	9.16638e-08
203	0x34928ea0	2.7298393e-07
204	0x34dbc922	4.0938272e-07
205	0x2ecc0e45	9.279381e-11
206	0x00000000	0.0
207	0x334bed9c	4.7480725e-08
208	0x33d0c42c	9.721438e-08
209	0x34a0ee46	2.997569e-07
210	0x34108c1d	1.3462018e-07
211	0x2e504274	4.7352747e-11
212	0x00000000	0.0
213	0x32c5bd5c	2.3019929e-08
214	0x33858032	6.216614e-08
215	0x33e1550d	1.04928496e-07
216	0x33b3b01a	8.36737e-08
217	0x2e0b65db	3.1695407e-11
218	0x00000000	0.0
219	0x32a8ed61	1.9665721e-08
220	0x3324c164	3.8360113e-08
221	0x33d877dc	1.0080086e-07
222	0x33a3f4c2	7.6348e-08
223	0x2e3ee7c6	4.3406854e-11
224	0x00000000	0.0
225	0x31d6e379	6.2540804e-09
226	0x33f3b2b2	1.1348074e-07
227	0x34a7dc72	3.126657e-07
228	0x34547027	1.978484e-07
229	0x2e90cc69	6.5846724e-11
230	0x00000000	0.0
231	0x31dd163d	6.4344747e-09
232	0x33d1af5c	9.7642186e-08
233	0x347c4199	2.3493193e-07
234	0x340730e7	1.2590645e-07
235	0x2ec186ea	8.8005894e-11
236	0x00000000	0.0
237	0x3312f7d6	3.421868e-08
238	0x3418fe2a	1.4248567e-07
239	0x34c830fe	3.728855e-07
240	0x343988e8	1.7279274e-07
241	0x2ecf8c03	9.438141e-11
242	0x00000000	0.0
243	0x32020b98	7.569632e-09
244	0x34620a98	2.1051744e-07
245	0x34b00c4e	3.2791507e-07
246	0x33c04e5c	8.95495e-08
247	0x2e3c0e5e	4.275901e-11
248	0x00000000	0.0
249	0x31ab758c	4.9901185e-09
250	0x336b8912	5.4839866e-08
251	0x33bad656	8.7002874e-08
252	0x34dde164	4.132845e-07
253	0x2f2fa84d	1.597595e-10
254	0x00000000	0.0
255	0x334ef10f	4.8182354e-08

exp_avg f4 [128]
0	0xb914066d	-0.00014116774
1	0x3934c78d	0.00017240476
2	0xba290b35	-0.00064485084
3	0xba549b53	-0.00081103033
4	0xb9452008	-0.00018799317
5	0x39bd1d6c	0.0003607081
6	0x3997b401	0.00028935078
7	0x399bee04	0.0002974124
8	0x3a7ff849	0.00097644754
9	0xb9fd2689	-0.0004828463
10	0xbacf25f7	-0.0015804161
11	0xba0cbe8c	-0.000536897
12	0x390a5ceb	0.0001319532
13	0x39505669	0.00019868616
14	0xba02fabf	-0.00049964705
15	0xb8cde7b6	-9.818321e-05
16	0xb927d453	-0.00016005458
17	0xb948dfdc	-0.0001915688
18	0xba397596	-0.00070747116
19	0x3a2109b0	0.0006143106
20	0x398298fb	0.00024909512
21	0xba3bca8b	-0.0007163665
22	0xb8cf7776	-9.8927805e-05
23	0xb8a4cba5	-7.858061e-05
24	0xb88c6712	-6.6949186e-05
25	0xba4fa5d0	-0.00079211313
26	0xb992bd34	-0.00027988257
27	0x39d4dcf5	0.00040600417
28	0xb90ad185	-0.00013238758
29	0xba406fbc	-0.00073408685
30	0xb95866a8	-0.00020637608
31	0xbac0bc07	-0.0014704474
32	0xba891b29	-0.0010460365
33	0xb901c4ae	-0.00012375668
34	0xba2f0e05	-0.0006677809
35	0xb94aa529	-0.00019325748
36	0x39b8a687	0.00035219287
37	0xb9ef2253	-0.00045611206
38	0x391e5c51	0.00015102445
39	0x38bb3dc4	8.9283596e-05
40	0x39ded197	0.00042499296
41	0xb8f7f44f	-0.00011823384
42	0x3aa7657e	0.0012771336
43	0xb8cd0f88	-9.778055e-05
44	0xb95fb02e	-0.0002133257
45	0xb95174e1	-0.00019975334
46	0x39e33d24	0.00043342367
47	0xb7e88d1b	-2.7722263e-05
48	0x3940c939	0.00018385508
49	0xba076360	-0.00051646493
50	0x39d07888	0.00039762654
51	0xba059b24	-0.0005096665
52	0xb9c01f10	-0.00036644237
53	0xba0a394e	-0.0005272821
54	0xbaa6a369	-0.0012713495
55	0x3999581f	0.0002924809
56	0x3831c913	4.2387353e-05
57	0x3873eb2a	5.815473e-05
58	0xba6489fa	-0.000871807
59	0xba2af2b4	-0.0006521151
60	0x3994cb0e	0.00028380047
61	0xb9d66196	-0.00040889968
62	0xbaee88c0	-0.0018198714
63	0x39a5a2de	0.00031592598
64	0xba00260c	-0.0004888482
65	0x3997cb1d	0.00028952296
66	0x3994a365	0.00028350498
67	0x39de62ff	0.00042416897
68	0xb9707695	-0.00022932359
69	0xb8f45801	-0.00011651219
70	0x3980ad6b	0.0002454327
71	0xba06d774	-0.00051437994
72	0xb917da5b	-0.00014481826
73	0xba3ca24b	-0.00071958144
74	0xb9381f74	-0.00017559325
75	0x385622af	5.1053878e-05
76	0x3998f879	0.00029176826
77	0xba62ecac	-0.00086564827
78	0xbaa9a122	-0.0012941698
79	0xba770059	-0.0009422354
80	0x35bb4d88	1.395515e-06
81	0xb8125814	-3.489114e-05
82	0xba6e9c1b	-0.0009102241
83	0xb9fb0af0	-0.000478826
84	0xba2a05c8	-0.0006485847
85	0xb8dbcc7a	-0.000104808205
86	0xba26eb15	-0.00063674274
87	0xb9a1ea34	-0.00030882808
88	0x398a5b6c	0.00026389526
89	0xb8c476ed	-9.36816e-05
90	0xba01166c	-0.00049243006
91	0xb9e2fa4b	-0.00043292562
92	0xb8114300	-3.4633093e-05
93	0xb9566390	-0.0002044572
94	0xb9b802a3	-0.0003509718
95	0xb786a364	-1.605013e-05
96	0xba56fe0a	-0.0008201307
97	0xb97a71a1	-0.00023884188
98	0x3978c0ec	0.00023722992
99	0xba5837e5	-0.0008248075
100	0xb92f96c6	-0.00016745468
101	0xb80aac37	-3.306215e-05
102	0xb9543478	-0.00020237442
103	0xb902fed6	-0.000124927
104	0xba87882c	-0.0010340265
105	0xb9316483	-0.00016917479
106	0xb886db9c	-6.430523e-05
107	0xb9c03d60	-0.00036666822
108	0xba910574	-0.0011064247
109	0xba010b49	-0.0004922641
110	0xba222870	-0.0006185835
111	0x39170b6d	0.00014404739
112	0x3803c3c0	3.141514e-05
113	0x3a16a256	0.0005746236
114	0xba266a96	-0.000634828
115	0xb8b11fdf	-8.445954e-05
116	0xb974ced1	-0.00023346698
117	0xb9d94839	-0.00041443275
118	0xb8ea5349	-0.000111735026
119	0x38dc244e	0.0001049718
120	0x3a366c98	0.0006958931
121	0xba722ba7	-0.0009238072
122	0x397bcae1	0.00024012804
123	0x3a702122	0.00091602106
124	0x37854cb6	1.5890557e-05
125	0xba4b9d6d	-0.0007767294
126	0xb8ef3eeb	-0.000114081275
127	0xb9826296	-0.00024868984

exp_avg_sq f4 [128]
0	0x344506a1	1.8349466e-07
1	0x33a2b12e	7.575942e-08
2	0x34125a2c	1.3630114e-07
3	0x3602f783	1.951558e-06
4	0x3386e6d3	6.281848e-08
5	0x34d92c43	4.0451604e-07
6	0x340b1063	1.2951345e-07
7	0x33a60ffc	7.732885e-08
8	0x344f2a16	1.9293688e-07
9	0x353257f3	6.643815e-07
10	0x3630b771	2.633282e-06
11	0x35bfd232	1.4291784e-06
12	0x343d2368	1.7614877e-07
13	0x338501d4	6.193628e-08
14	0x35b12ffd	1.3201494e-06
15	0x339c6a4b	7.283651e-08
16	0x33b7d7fe	8.56089e-08
17	0x342ce0d9	1.6100547e-07
18	0x34ae529d	3.2470135e-07
19	0x3443cb14	1.823467e-07
20	0x3307ece5	3.164759e-08
21	0x35558ed7	7.955654e-07
22	0x35d5697f	1.590044e-06
23	0x34b62eab	3.3934097e-07
24	0x360be6c9	2.0846949e-06
25	0x34498592	1.8768176e-07
26	0x33baf7f7	8.7064045e-08
27	0x33518490	4.878217e-08
28	0x33d05858	9.7018244e-08
29	0x34a50c84	3.074275e-07
30	0x343ac7c8	1.739528e-07
31	0x361e15ed	2.3556597e-06
32	0x358f78b6	1.0689462e-06
33	0x34076f49	1.261334e-07
34	0x347707a6	2.300645e-07
35	0x33b1a46b	8.272112e-08
36	0x3396836d	7.0088255e-08
37	0x3400db9b	1.2000821e-07
38	0x33ecba11	1.1023452e-07
39	0x3415ec7e	1.3962742e-07
40	0x34140fa5	1.3789266e-07
41	0x337a6364	5.8298056e-08
42	0x34d08ded	3.8846284e-07
43	0x330bece8	3.2578924e-08
44	0x33980405	7.078783e-08
45	0x33be30d0	8.8564434e-08
46	0x341bcae8	1.4509317e-07
47	0x34929642	2.7303946e-07
48	0x33b037a9	8.205763e-08
49	0x34d9f022	4.059412e-07
50	0x34073ff6	1.2596124e-07
51	0x350a8144	5.159711e-07
52	0x33cbedad	9.496157e-08
53	0x34a7c566	3.12498e-07
54	0x3585ae48	9.959995e-07
55	0x34894500	2.5568443e-07
56	0x32ab3dd7	1.9935142e-08
57	0x34589cd6	2.0173624e-07
58	0x34b0233b	3.2808188e-07
59	0x34834155	2.4448187e-07
60	0x3410c0f8	1.3481247e-07
61	0x3491d56d	2.7163642e-07
62	0x3652a3e5	3.1387838e-06
63	0x338d1307	6.569285e-08
64	0x34101bdf	1.3421185e-07
65	0x344c1aaf	1.9008688e-07
66	0x33b663ff	8.4932246e-08
67	0x33f55a97	1.142518e-07
68	0x33cde6c1	9.58803e-08
69	0x3324618d	3.8272947e-08
70	0x33eecaa1	1.11195966e-07
71	0x347482d2	2.2771863e-07
72	0x3418243b	1.4169284e-07
73	0x3478e445	2.3179844e-07
74	0x337b27cf	5.8476697e-08
75	0x338e86d7	6.6369175e-08
76	0x33fc3448	1.1744174e-07
77	0x348c3190	2.6113094e-07
78	0x35ff3eac	1.901722e-06
79	0x35f88e3a	1.8518833e-06
80	0x341a446d	1.4367261e-07
81	0x339b0fce	7.220625e-08
82	0x35acf02a	1.2884896e-06
83	0x3462f012	2.1135227e-07
84	0x349f92bd	2.9722824e-07
85	0x33eb7c18	1.0965613e-07
86	0x34a3e25f	3.0525823e-07
87	0x3337abeb	4.2764366e-08
88	0x3487e86f	2.5314827e-07
89	0x32b3757a	2.0891765e-08
90	0x344c7be6	1.9044055e-07
91	0x352ff012	6.554193e-07
92	0x33c94750	9.3727635e-08
93	0x34b24df7	3.321181e-07
94	0x34a31658	3.0377373e-07
95	0x33521ce1	4.89207e-08
96	0x344a79b9	1.8856998e-07
97	0x33b622cb	8.481364e-08
98	0x33bbfb49	8.7535746e-08
99	0x34e93e99	4.3445178e-07
100	0x33cf06e4	9.640442e-08
101	0x32ec7a6d	2.7529689e-08
102	0x33cf7df5	9.6621e-08
103	0x34307a41	1.6435753e-07
104	0x357ed430	9.4931147e-07
105	0x33191696	3.564363e-08
106	0x3490ca37	2.696922e-07
107	0x33be7fb4	8.8707935e-08
108	0x357c02e6	9.3881533e-07
109	0x3452d632	1.9635698e-07
110	0x348b2e04	2.5924248e-07
111	0x33a61c02	7.735072e-08
112	0x3379b674	5.814077e-08
113	0x33d982b4	1.0128625e-07
114	0x3493dcee	2.754163e-07
115	0x33e01c88	1.04360026e-07
116	0x33c3478e	9.093411e-08
117	0x33a9ff73	7.916142e-08
118	0x348f782f	2.672327e-07
119	0x3441ae7a	1.8038e-07
120	0x34489c08	1.8683215e-07
121	0x353d3690	7.0487386e-07
122	0x34c7bda2	3.7204615e-07
123	0x3499815a	2.8592586e-07
124	0x341e9408	1.476875e-07
125	0x34237a23	1.5224991e-07
126	0x3394f3f5	6.9361626e-08
127	0x340d4759	1.3157604e-07
