BasicAvoidance/Assets/results/BasicAvoidance1/PlayerAvoidance/PlayerAvoidance-448.pt (torch, 441938 bytes, 41 tensors)

network_body.observation_encoder.processors.0.normalizer.running_mean f4 [6]
0	0x3e234aec	0.15946549
1	0x3eff6e0a	0.4988864
2	0x00000000	0.0
3	0xb3fade5e	-1.16819805e-07
4	0x3ecbf0d0	0.39832163
5	0xc1041df6	-8.257315

network_body.observation_encoder.processors.0.normalizer.running_variance f4 [6]
0	0x4518a38e	2442.2222
1	0x3f9fedc1	1.2494432
2	0x3f800000	1.0
3	0x3f800000	1.0
4	0x4145ba3d	12.357968
5	0x48358a21	185896.52

network_body.processors.0.normalizer.running_mean f4 [6]
0	0x3e234aec	0.15946549
1	0x3eff6e0a	0.4988864
2	0x00000000	0.0
3	0xb3fade5e	-1.16819805e-07
4	0x3ecbf0d0	0.39832163
5	0xc1041df6	-8.257315

network_body.processors.0.normalizer.running_variance f4 [6]
0	0x4518a38e	2442.2222
1	0x3f9fedc1	1.2494432
2	0x3f800000	1.0
3	0x3f800000	1.0
4	0x4145ba3d	12.357968
5	0x48358a21	185896.52

network_body._body_endoder.seq_layers.0.weight f4 [128, 6]
0	0xbd16bbc5	-0.036800165
1	0xbe218944	-0.15775019
2	0xbe0faf37	-0.14031683
3	0xbd8ee019	-0.06976337
4	0xbe87f3f5	-0.26553312
5	0xbdb4555c	-0.088053435
6	0x3ece91c4	0.40345585
7	0xbe9b9c8c	-0.30392873
8	0xbeb5c762	-0.3550368
9	0xbf47fc4c	-0.7811935
10	0x3f5b2419	0.85601956
11	0x3f68828a	0.90824187
12	0xbf2af34d	-0.667775
13	0x3eb21f36	0.34789437
14	0xbdfa8e38	-0.12234157
15	0x3e21c0c4	0.1579619
16	0x3dfb7efb	0.12280079
17	0xbe0a7b71	-0.13523652
18	0x3eab0e2e	0.33409256
19	0x3c0c7a8a	0.008574137
20	0xbe660ca5	-0.22465761
21	0xbec007ac	-0.37505853
22	0x3f1b4676	0.6065439
23	0x3f204456	0.6260427
24	0xbe7538be	-0.23947427
25	0x3a7c464d	0.0009623513
26	0x3eee98e5	0.46601024
27	0x3efb2ea8	0.49059033
28	0x3e3d5725	0.18490274
29	0xbefb88f1	-0.49127916
30	0xbed33263	-0.4124938
31	0xbed52f84	-0.41637814
32	0xbe4c7c55	-0.19969304
33	0x3d8c70e8	0.06857473
34	0xbdae40e4	-0.08508471
35	0x3c34f37f	0.011044382
36	0xbf865a4b	-1.0496305
37	0xbf5c017a	-0.85939753
38	0xbf2a7e27	-0.66598743
39	0x3ec32bfa	0.3811949
40	0x3e566170	0.20935607
41	0x3ee626c1	0.44951442
42	0xbe8f0215	-0.27931276
43	0x3e70a9d9	0.23502292
44	0xbd845a88	-0.0646258
45	0xbd8fe4d1	-0.07026065
46	0xbd9a5698	-0.07536048
47	0xbdc3c3e6	-0.09558849
48	0x3eef9a4e	0.46797413
49	0xbf1e0b7d	-0.6173628
50	0x3dc73002	0.09725954
51	0xbeb3496d	-0.35016957
52	0xbf070402	-0.5274049
53	0xbf0248f9	-0.508926
54	0xbe89bd9c	-0.26902473
55	0x3f1b704d	0.6071823
56	0x3f232416	0.6372694
57	0xbf3893b4	-0.7210038
58	0x3e2f077b	0.17092697
59	0xbe70f7f9	-0.23532094
60	0x3d18ad32	0.037274547
61	0x3f0e500c	0.5559089
62	0x3e1d99f7	0.15390764
63	0x3e3983fd	0.18116756
64	0xbeaace63	-0.33360586
65	0x3eab8605	0.33500686
66	0x3f42fe69	0.7616945
67	0xbd8dc726	-0.0692275
68	0x3dfb97f8	0.12284845
69	0xbece2b7c	-0.4026755
70	0xbf02a103	-0.51026934
71	0xbed84e99	-0.42247465
72	0xbdbebfcd	-0.09313927
73	0xbdd41c18	-0.10356921
74	0xbf3b5019	-0.73169094
75	0x3f09b54f	0.5379228
76	0xbd5012c4	-0.050799146
77	0xbf57747e	-0.8416213
78	0xbe26d50b	-0.16292207
79	0x3f1ae0df	0.60499376
80	0x3f2cbd1c	0.6747606
81	0xbe94aa36	-0.2903611
82	0xbde5f612	-0.11228575
83	0x3ec2df7c	0.3806113
84	0x3f48cc7f	0.78437036
85	0xbedcdcd9	-0.43137243
86	0x3f02d27a	0.5110241
87	0x3dc0dfae	0.094176635
88	0x3e4c4512	0.19948223
89	0xbeeb26f7	-0.45928165
90	0x3dfe284c	0.1241003
91	0x3ef49b4e	0.47774738
92	0x3f75fcc4	0.96088815
93	0x3e9adbd7	0.3024585
94	0x3e137ba6	0.14402637
95	0xbf540abe	-0.8282889
96	0xbf4e6141	-0.8061715
97	0x3f1eb128	0.6198907
98	0xbe8f3a39	-0.27974108
99	0x3e91e354	0.2849375
100	0x3ee00fe6	0.4376213
101	0xbe0f1d8c	-0.13976115
102	0xbdc675f9	-0.0969047
103	0x3d0a53ea	0.033771433
104	0x3f516684	0.8179705
105	0x3e087176	0.13324532
106	0xbeafe6c7	-0.34355757
107	0x3e0bfdad	0.13670988
108	0x3ec612ef	0.3868632
109	0xbddb634b	-0.10712298
110	0xbeee677b	-0.46563324
111	0xbe6535e9	-0.22383846
112	0xbe74f7db	-0.23922674
113	0xbeb30343	-0.34963426
114	0x3eca7416	0.39541692
115	0x3ecf9b26	0.40548056
116	0x3edfda3b	0.43721184
117	0x3ead44d9	0.3384159
118	0xbb18ad89	-0.0023296794
119	0xbd01f910	-0.031731665
120	0x3e2d9660	0.16951895
121	0x3f2eef7f	0.6833419
122	0xbe79ce47	-0.24395095
123	0xbebc1ed5	-0.36742273
124	0xbf0a14ee	-0.53938186
125	0xbedc40f5	-0.43018308
126	0xbe3a09c7	-0.18167792
127	0xbee3e68b	-0.44511828
128	0xbeb2a995	-0.34895006
129	0xbecb3dd9	-0.39695624
130	0x3d17de0c	0.037076995
131	0x3ec9b9a6	0.3939945
132	0x3d37b603	0.044851314
133	0x3d637209	0.055528674
134	0xbe84f2f6	-0.25966614
135	0x3e2fc0ee	0.1716344
136	0x3ee4ea10	0.44709826
137	0xbe6ea67e	-0.23305699
138	0x3e1f1f3d	0.1553926
139	0x3cf69ba7	0.030103518
140	0x3d18ccf7	0.037304845
141	0xbe70c706	-0.23513421
142	0x3e46206a	0.19348302
143	0x3ebd6993	0.3699461
144	0x3f116324	0.567919
145	0xbf17fe31	-0.5937224
146	0x3ebaf114	0.36512053
147	0xbce0762e	-0.027400102
148	0x3e51b1d4	0.20477992
149	0xbd9fb9f9	-0.07799143
150	0x3efbd91e	0.49189085
151	0x3f16c5cc	0.58895564
152	0xbea5741a	-0.3231514
153	0xbf185b9e	-0.59514797
154	0x3f1697bb	0.5882527
155	0xbf38ba5d	-0.7215937
156	0xbee86c9b	-0.4539536
157	0xbe869236	-0.26283425
158	0xbeaf18bd	-0.3419856
159	0x3ea79b7c	0.32735813
160	0x3e328404	0.17433172
161	0xbed5849f	-0.41702744
162	0xbf9324f2	-1.149565
163	0xbe455cb7	-0.19273649
164	0x3d02b9a3	0.03191532
165	0xbeec2c6f	-0.4612765
166	0x3d2422d4	0.040072277
167	0xbecee13e	-0.4040622
168	0xbe30498b	-0.17215554
169	0x3eac8268	0.33693242
170	0xbee8a20a	-0.45436126
171	0x3e9e429a	0.30910188
172	0x3c6a0538	0.014283471
173	0x3f002ac8	0.5006528
174	0x3defe0ae	0.11712776
175	0x3f1dd68d	0.61655504
176	0x3a8e6ee8	0.0010866793
177	0x3ef7511c	0.4830407
178	0x3ed995c3	0.42497072
179	0xbee45c19	-0.44601515
180	0x3e3008cf	0.1719086
181	0x3e1e09e0	0.15433455
182	0x3e18f95e	0.14938876
183	0x3e8e4e06	0.27793902
184	0x3dd179c0	0.102283
185	0x3efd4159	0.4946392
186	0x3ef26d26	0.473489
187	0xbe4e71aa	-0.20160547
188	0x3e35b945	0.17746456
189	0xbebc9447	-0.36831877
190	0xbf1e85eb	-0.6192309
191	0x3ef9e8fb	0.48810562
192	0xbf0c3278	-0.5476451
193	0xbe3f662b	-0.18691318
194	0x3bae2026	0.005313891
195	0x3f1725c2	0.5904199
196	0xbf1b0a08	-0.6056218
197	0x3eae5a77	0.34053394
198	0x3f63a479	0.8892284
199	0x3f17193f	0.590229
200	0x3f204f3a	0.6262089
201	0xbc080c87	-0.008303768
202	0x3e3b450a	0.18288055
203	0xbd06872e	-0.03284376
204	0xbe65807f	-0.22412299
205	0xbe13b403	-0.14424138
206	0xbd0d0b66	-0.0344347
207	0xbde536ad	-0.11192069
208	0xbdbe6b56	-0.092978165
209	0xbdcb7385	-0.09934143
210	0x3e7a5269	0.244455
211	0x3d918a3c	0.07106444
212	0xbe91698d	-0.2840084
213	0x3f25ecff	0.6481475
214	0xbd0b7032	-0.034042545
215	0x3d9382fd	0.072027184
216	0xbec14e12	-0.37754875
217	0x3e598ebc	0.21245855
218	0xbe468cef	-0.193897
219	0x3f382d06	0.719437
220	0x3ef072a7	0.46962473
221	0x3d1b83bf	0.03796744
222	0x3d8fc79b	0.070204936
223	0x3e8b71f4	0.27235377
224	0xbed2db6c	-0.4118303
225	0x3e681654	0.22664768
226	0x3e69ddbc	0.22838491
227	0xbe856e43	-0.26060686
228	0x3f33a758	0.7017722
229	0x3ebc39bc	0.36762798
230	0x3ea706a5	0.32622257
231	0xbf4ab784	-0.7918627
232	0x3e1dbca0	0.15403986
233	0xbe93bc97	-0.2885482
234	0xbe7f639f	-0.24940346
235	0x3dbdbe1b	0.09264775
236	0x3d9f1af2	0.07768811
237	0xbe749b92	-0.2388747
238	0x3fb192e0	1.3872948
239	0xbe60b9ff	-0.21945952
240	0x3ea3660d	0.31913796
241	0x3cb0eb1a	0.02159648
242	0x3f1727e8	0.5904527
243	0xbd0107d4	-0.031501606
244	0x3f9755d7	1.1823071
245	0xbf08143a	-0.53155863
246	0xbf442228	-0.7661462
247	0xbe829b41	-0.25509074
248	0xbd08f30b	-0.03343491
249	0xbe833a7f	-0.25630566
250	0xbddb7d15	-0.10717217
251	0xbf0b6d13	-0.5446331
252	0xbe03a783	-0.1285687
253	0xbeeb77ad	-0.45989743
254	0xbe5146be	-0.20437142
255	0xbe4e8bc4	-0.20170504

network_body._body_endoder.seq_layers.0.bias f4 [128]
0	0x3c0df268	0.008663751
1	0x3bb00591	0.0053717573
2	0x3c0627c6	0.008188194
3	0x3a3ba507	0.0007158075
4	0xbabb6836	-0.0014298025
5	0xba17e574	-0.0005794384
6	0x3c0b13c5	0.0084886
7	0x3ac4199d	0.0014961247
8	0x3b1810f8	0.0023203474
9	0xbbf425d9	-0.007450801
10	0x3b950193	0.004547307
11	0xbb156c96	-0.0022800318
12	0x3be9c942	0.0071345875
13	0x3b1d5dca	0.0024012201
14	0xbb268aa9	-0.0025412238
15	0x3b1e030a	0.0024110698
16	0x3c08e888	0.008356221
17	0x3c1a9ea6	0.009437239
18	0x3bd828b5	0.0065966495
19	0x39dbfae8	0.00041957875
20	0xbb74c19c	-0.0037346845
21	0x3c521142	0.012821497
22	0xbbeb4e6c	-0.0071809795
23	0x3bbf2369	0.0058330786
24	0xbb83948d	-0.0040155114
25	0x3bed4720	0.007241145
26	0xbbadc44c	-0.0053029414
27	0x3bee24d6	0.007267575
28	0x3c2205da	0.00988909
29	0xbc057560	-0.00814566
30	0x3b5f2f63	0.0034055344
31	0x3b417103	0.0029516823
32	0x3b3dd492	0.0028965813
33	0x3b3cda98	0.0028816815
34	0xbba046b0	-0.004891239
35	0xbb10b2fa	-0.0022079335
36	0x3b53fbef	0.003234621
37	0xba0833e5	-0.0005195721
38	0x3b9ce132	0.0047875876
39	0xba760318	-0.0009384616
40	0x3bb93e33	0.0056531667
41	0x3b931c7d	0.00448948
42	0x3c414a05	0.011797433
43	0xbb557475	-0.0032570635
44	0xbb389fd6	-0.0028171442
45	0x3baa52b3	0.005197847
46	0x3b50dc3c	0.0031869551
47	0x3a6e2f8c	0.00090860645
48	0xbb5aa1fd	-0.0033360713
49	0x3b8db6ad	0.004324755
50	0x3bf06924	0.0073367525
51	0x3bee5e6c	0.0072744396
52	0x3c4f1fa3	0.01264182
53	0x3c1b471c	0.009477403
54	0xbb07ad29	-0.0020702577
55	0xbbab2280	-0.0052226186
56	0x3a99a46e	0.0011721977
57	0x3b4dc7ac	0.0031399531
58	0x3b78e128	0.0037976
59	0x3c3aa25d	0.0113912495
60	0xbbc9a777	-0.0061539966
61	0x3b7372c4	0.0037147263
62	0x3b677394	0.0035316693
63	0x3b4de607	0.0031417625
64	0x3baf275b	0.0053452677
65	0x3bea9bd3	0.007159689
66	0x3b1d61bd	0.0024014555
67	0x3b8bfa14	0.004271755
68	0xb9abb1b5	-0.00032748064
69	0x3b515a1e	0.0031944583
70	0xbad8ede7	-0.0016550393
71	0xbb9745e4	-0.004616486
72	0x3b77617e	0.003774732
73	0x3c0f1445	0.00873286
74	0xba00bee9	-0.00049112603
75	0xbaa3eeb2	-0.001250705
76	0xba875725	-0.0010325654
77	0xb9fc1175	-0.00048078192
78	0xbb0feca4	-0.0021961117
79	0xbc1d9451	-0.009617881
80	0xbb3f5891	-0.0029197077
81	0x39a0ca59	0.0003066834
82	0x3b89d8dc	0.00420676
83	0x3b0ea41a	0.0021765293
84	0x3907e3a0	0.000129594
85	0x3c3e70dd	0.011623588
86	0x3a6fbb04	0.0009144994
87	0x3c2a1dc1	0.01038307
88	0xbb86c5d6	-0.0041129394
89	0x3c092d76	0.008372655
90	0x3b64cb8f	0.003491137
91	0x3bbd2726	0.005772489
92	0xb86d8737	-5.6631132e-05
93	0x3bb6f0d6	0.005582909
94	0xbb895688	-0.0041912235
95	0x3b0c5aa8	0.002141634
96	0x3b04c110	0.0020256676
97	0x3c6cf932	0.01446371
98	0x3c88bd60	0.016691864
99	0xbc699d31	-0.014258669
100	0x3c21e0f1	0.00988029
101	0x3b86313f	0.004095226
102	0xbb8ebf12	-0.0043562734
103	0x3ba92caa	0.005162795
104	0x3c43a622	0.011941465
105	0xba961de1	-0.0011452996
106	0xbc383188	-0.011242278
107	0x3bb40b68	0.005494524
108	0x3c02e9d0	0.007990316
109	0xba569422	-0.00081855257
110	0x3c0030c4	0.007824127
111	0x3b871d49	0.004123364
112	0x3bfc0d5a	0.0076920213
113	0xbb2f62c7	-0.0026761757
114	0x3a87de5a	0.0010365949
115	0x3b561667	0.0032667161
116	0xbb000153	-0.001953204
117	0xba4c8c7e	-0.00078029174
118	0x3c7532a9	0.014965692
119	0xbb20c203	-0.0024529702
120	0xbb0adb36	-0.0021187789
121	0x3c28efdc	0.010311093
122	0x3c07b6a2	0.008283289
123	0x3c396808	0.011316307
124	0xbb83db9f	-0.0040239836
125	0xba2477e4	-0.00062739686
126	0xbc23670f	-0.009973302
127	0x3b5bf49a	0.0033562542

network_body._body_endoder.seq_layers.2.weight f4 [128, 128]
0	0xbd8e45f4	-0.06946936
1	0x3daa302e	0.08309971
2	0x3d6b40ad	0.057434727
3	0xbdf48534	-0.11939469
4	0xbe1d5f20	-0.15368319
5	0x3d1e6f8f	0.03868061
6	0xbcaffc13	-0.021482503
7	0x3e070f99	0.13189544
8	0xbd21e8c8	-0.039528638
9	0xbdd3fe4a	-0.10351236
10	0x3cb3624e	0.021897461
11	0xbd239386	-0.03993561
12	0x3e3e0d5e	0.18559787
13	0xbd683e81	-0.056700233
14	0x3d1a24e4	0.037632838
15	0x3c85e823	0.016346043
16	0x3d4890f3	0.04896636
17	0x3c0314ce	0.008000566
18	0x3d13d75c	0.036094055
19	0xbde51771	-0.11186112
20	0x3ded72e6	0.11594181
21	0x3d024b4d	0.031810094
22	0xbd559dad	-0.052152324
23	0xbde4795b	-0.11155959
24	0x3e05c2ac	0.13062543
25	0x3da349c9	0.07973058
26	0xbca0e191	-0.019638808
27	0x3e121fb6	0.1426991
28	0xbd061fd2	-0.03274519
29	0x3da34b54	0.07973352
30	0x3e352323	0.17689185
31	0x3d49dc41	0.049282316
32	0x3d7b9332	0.061419673
33	0xbd928a9a	-0.071553424
34	0x3db01136	0.08597033
35	0xbdf52ea0	-0.11971784
36	0x3e12fb25	0.14353617
37	0x3e3931c8	0.18085396
38	0xbdde8486	-0.108651206
39	0xbd3ee3bb	-0.0466039
40	0xbe1afc07	-0.15135203
41	0xbe0d9931	-0.13827969
42	0x3de86f71	0.11349381
43	0xbdd22ffa	-0.10263057
44	0xbbf70cb4	-0.007539356
45	0xbd6742a6	-0.056460045
46	0x3e1200e6	0.14258155
47	0x3c634de4	0.013873551
48	0xbe28fd1b	-0.16502802
49	0x3cc24cfb	0.023718348
50	0x3e26be61	0.16283561
51	0xbcb39c1d	-0.021925027
52	0x3d9482db	0.07251521
53	0x3c85b3b6	0.016321044
54	0xbd70c4d2	-0.058781452
55	0x3e179974	0.14804631
56	0xbd1572b5	-0.036486346
57	0x3cb4abe4	0.02205462
58	0xbdf571c3	-0.11984589
59	0xbd2b0444	-0.041752115
60	0x3de66a2a	0.11250718
61	0xbced0e6e	-0.028937545
62	0xbdb62e12	-0.08895506
63	0x3b260b3a	0.0025336281
64	0x3d86450a	0.06556137
65	0xba8ec0c2	-0.0010891187
66	0x3d1be035	0.038055617
67	0xbd1f4d6c	-0.038892195
68	0x3d15b133	0.036545943
69	0x3d829181	0.06375409
70	0x3bd4c85d	0.0064936117
71	0xbe05ce25	-0.13066919
72	0x3dc2d0a7	0.095124535
73	0x3ccc3148	0.024925843
74	0x3cecc3fc	0.028902046
75	0xbdb651f6	-0.089023516
76	0xbdc9f8a1	-0.09861875
77	0xbd903762	-0.070418134
78	0xbd5490de	-0.05189597
79	0x3d0f5e1f	0.03500187
80	0xbc850f01	-0.016242506
81	0x3defbee4	0.11706331
82	0x3c8f1ee0	0.017470777
83	0xbb95d21d	-0.0045721666
84	0x3d2cf3f5	0.042224843
85	0xbd96f610	-0.073711514
86	0x3d19dac7	0.037562158
87	0xbe2e1f8c	-0.17004222
88	0xbd59cd58	-0.053174347
89	0x3cfd04f9	0.03088616
90	0x3df6cfe1	0.120513685
91	0x3cf9556e	0.030436244
92	0x3c807338	0.01567994
93	0x3dda669a	0.10664101
94	0xbe0b9bb9	-0.13633622
95	0x3dd5383d	0.10411117
96	0x3d9b85e4	0.07593897
97	0x3c73863d	0.014863548
98	0x3e353ca8	0.1769892
99	0xbe1b34c9	-0.15156855
100	0x3cbb9a8b	0.02290084
101	0x3db8713a	0.09005971
102	0x3ce5b66e	0.02804109
103	0x3c82b101	0.015953543
104	0xbcd430d1	-0.025902184
105	0x3c9dee4c	0.019278668
106	0x3dbd3f84	0.0924063
107	0xbc4d943a	-0.012547547
108	0xbccbf3ac	-0.024896465
109	0xbe0ce40d	-0.1375887
110	0xbe1bf882	-0.15231517
111	0x3cfe1af2	0.031018708
112	0x3e248cbe	0.16069314
113	0xbde9c476	-0.11414425
114	0x3dc0ba56	0.09410541
115	0x3d960f8a	0.073271826
116	0xbd67f897	-0.056633558
117	0x3d1b5d1f	0.037930604
118	0x3df58c92	0.11989702
119	0x3d253940	0.0403378
120	0x3a5f409f	0.0008516404
121	0x3e0027b6	0.12515149
122	0x3cfd8c23	0.030950611
123	0x3db77442	0.08957721
124	0xbc180012	-0.0092773605
125	0xbd32d419	-0.043659303
126	0x3cbb9780	0.02289939
127	0xbcedfa57	-0.029050035
128	0xbd0c695b	-0.034280162
129	0xbcfce841	-0.030872466
130	0xbd7f3e17	-0.062315073
131	0xbe134197	-0.1438049
132	0x3d2ac25a	0.041689254
133	0xbb1e4062	-0.0024147262
134	0x3d99184d	0.07475338
135	0xbc6fd866	-0.014638996
136	0xbbfe0195	-0.0077516534
137	0x3d7770d4	0.060410336
138	0x3ded7c14	0.11595932
139	0x3de6c205	0.11267475
140	0xbbd2b951	-0.006430783
141	0xbd725472	-0.059162565
142	0x3d5a7e05	0.053342838
143	0xbdcf4cb7	-0.10122054
144	0x3db52419	0.08844776
145	0x3cca9fa9	0.024734335
146	0x3d4a02ba	0.049319007
147	0xbd9e2b34	-0.07723084
148	0xbe12ee6e	-0.14348766
149	0xbd39fa17	-0.04540452
150	0xbcb5e6d4	-0.022204794
151	0xbe0523c0	-0.13001919
152	0x3d8e6ac7	0.0695396
153	0x3dd6d283	0.10489371
154	0xbd3488d4	-0.044075802
155	0x3d52ef28	0.05149761
156	0xbd5b51f5	-0.053544957
157	0xbc64ec2f	-0.013972326
158	0x3d76b50f	0.060231265
159	0x3d2b1862	0.0417713
160	0x3c998ce8	0.018743947
161	0x3d8ae754	0.067824036
162	0xbdbcf1e2	-0.09225823
163	0x3d766abf	0.060160395
164	0x3d926ad1	0.0714928
165	0x3dcadff1	0.09905995
166	0xbd6acf5e	-0.057326667
167	0x3ccbcc42	0.024877671
168	0x3ddef544	0.108866245
169	0xbbf56468	-0.007488776
170	0xbbb1712f	-0.005415104
171	0xbe0f40cb	-0.1398956
172	0x3d9f1cb9	0.0776915
173	0xbc62f672	-0.013852702
174	0xbda5cdac	-0.080958694
175	0x3e504c2e	0.2034156
176	0x3da17ea4	0.07885483
177	0xbe002bae	-0.12516662
178	0xbc656336	-0.0140007045
179	0xbd506f55	-0.050887424
180	0x3dc222d7	0.094793014
181	0xba5dbe6f	-0.0008458858
182	0x3c77c484	0.015122537
183	0xbccfa65c	-0.025347881
184	0x3e4bbcb6	0.19896206
185	0xbdeedc16	-0.11663072
186	0x3e115be3	0.14195208
187	0x3b6a991b	0.0035796824
188	0xbd72321d	-0.059129823
189	0xbdcd0b73	-0.100119494
190	0xbc105342	-0.008808913
191	0xbcaf52fd	-0.021401877
192	0xbd12eddd	-0.035871375
193	0xbb499585	-0.0030759287
194	0x3d1642c9	0.036684785
195	0xbd99183a	-0.07475324
196	0x3d83dadc	0.064382285
197	0xbcf63ca5	-0.030058214
198	0xbdc45e9b	-0.09588357
199	0xbd56798a	-0.052362002
200	0x3bbf9123	0.005846159
201	0x3c83d198	0.016091153
202	0x3d1dd364	0.038531676
203	0x3c7b179c	0.015325453
204	0xbe213ff7	-0.15747057
205	0x3d0f6db3	0.035016727
206	0x3d98075e	0.0742328
207	0x3cde6208	0.027146354
208	0xbdcb77e3	-0.09934976
209	0x3dd632fb	0.104589425
210	0x3dd02d44	0.10164884
211	0xbd9b1715	-0.07572762
212	0x3d09548b	0.033527892
213	0xbe1a8230	-0.15088725
214	0x3d815245	0.0631452
215	0xbe24be47	-0.1608821
216	0x3d2bb16f	0.04191726
217	0x3e360ec6	0.17779073
218	0xbda0377d	-0.078230835
219	0xbdccad83	-0.09994032
220	0xbd371250	-0.0446952
221	0x3d88b36a	0.066748455
222	0xbda73c9b	-0.081658565
223	0x3d07b4d2	0.033131428
224	0x3ca753d2	0.02042571
225	0x3dcbf4d4	0.09958807
226	0xbdfc6e0b	-0.123256765
227	0x3da28634	0.079357535
228	0xbe158683	-0.14602093
229	0xbe034ea7	-0.12822972
230	0xbd098d48	-0.033582002
231	0xbce6db61	-0.02818078
232	0xbd7697c8	-0.060203344
233	0x3cac46d2	0.021029864
234	0x3db6abde	0.089195
235	0x3cbedcc8	0.023298636
236	0x3e036237	0.12830435
237	0xbd8bd01e	-0.068268046
238	0xbe03d1c6	-0.12872991
239	0xbdf99da3	-0.1218827
240	0xbc548626	-0.012971437
241	0x3ca1011b	0.019653847
242	0xbcbbb731	-0.0229145
243	0xbd47aabc	-0.04874681
244	0x3da3bd2b	0.07995065
245	0xbc7cbd82	-0.015426042
246	0xbd3b0a19	-0.045663927
247	0x3e1084e4	0.14113194
248	0x3e0a2a44	0.13492686
249	0x3e08a9f3	0.1334608
250	0xbd218485	-0.03943302
251	0x3b988fe9	0.0046558273
252	0xbb719335	-0.0036861424
253	0xbd992bd1	-0.074790604
254	0x3dbd89f2	0.092548266
255	0x3d747120	0.059678197

network_body._body_endoder.seq_layers.2.bias f4 [128]
0	0x3bfc4200	0.0076982975
1	0xbbfbfa33	-0.007689738
2	0xbb2e0fb5	-0.0026559655
3	0xbad433ec	-0.001618979
4	0x3bc512a8	0.006014187
5	0x3ba7549b	0.0051065213
6	0xbb1ebc1e	-0.0024221013
7	0x3b3a509d	0.0028429397
8	0x3b965300	0.004587531
9	0xbb9c6389	-0.0047726077
10	0x3b07e381	0.0020734968
11	0x3acc47a5	0.0015585317
12	0x3b86e7cb	0.0041169873
13	0xbaf9be66	-0.0019053936
14	0xbb45dd37	-0.0030191669
15	0x39925974	0.00027913938
16	0x3c1c5a03	0.009542945
17	0xbb0f4afd	-0.0021864765
18	0x3b952091	0.0045510014
19	0xbaa0d3f0	-0.0012270194
20	0xbb51dc3c	-0.003202214
21	0x3b2a1db0	0.0025957637
22	0x3bd9f4ee	0.0066515123
23	0x3b940918	0.0045176856
24	0x39b24e55	0.00034009168
25	0x3b01601a	0.001974112
26	0x3bdf84bb	0.0068212426
27	0x3b16c2de	0.0023004333
28	0x3b1456a9	0.0022634661
29	0xbb0ee0f1	-0.0021801556
30	0x3b693f62	0.0035590758
31	0x3c10940b	0.008824359
32	0x3c0cf81b	0.008604075
33	0x3b66ed61	0.0035236704
34	0x3b83a095	0.0040169456
35	0x3b171562	0.0023053517
36	0xbac2f774	-0.0014874772
37	0x3ba0bb4d	0.0049051405
38	0xba381f25	-0.0007023684
39	0x3c582ab0	0.013193771
40	0x3b21d032	0.0024690744
41	0xb93ca4f9	-0.00017990534
42	0x3ad0c741	0.0015928523
43	0x3bca2c22	0.006169812
44	0xb8800ce2	-6.105915e-05
45	0xba00554e	-0.0004895524
46	0x3bc67a77	0.0060570794
47	0x3b9c73f5	0.0047745653
48	0x3b1a78e7	0.0023570599
49	0x3b274e4c	0.0025528846
50	0xbac48c3f	-0.001499541
51	0x3a89e9ec	0.0010521985
52	0x3ac0fccc	0.0014723777
53	0x3baa6e99	0.0052011725
54	0xbadf220c	-0.0017023697
55	0x39dfd6b8	0.00042693852
56	0x3a16fe77	0.0005759964
57	0xbb3e4f36	-0.0029038913
58	0x3acaef0a	0.0015482616
59	0x3add34e8	0.0016876729
60	0x3b08a64b	0.0020851071
61	0x3b84ec0c	0.0040564593
62	0x3b78fca8	0.0037992392
63	0x3baec144	0.0053330977
64	0x3c2f77fd	0.01070976
65	0x39b5792f	0.000346133
66	0x3b43e5ac	0.0029891534
67	0xbb4b40e9	-0.0031014031
68	0x3b8c28e0	0.0042773336
69	0x3b3034c4	0.002688692
70	0x3b61fd64	0.0034483308
71	0x3b6742b8	0.003528757
72	0xb9b59111	-0.00034631093
73	0x392e040e	0.00016595444
74	0x3b9eb0a8	0.0048428364
75	0x3bc005a6	0.0058600483
76	0xbba1add5	-0.0049340525
77	0x3ab2632d	0.0013609879
78	0x3b4dfb99	0.0031430481
79	0xbaed18aa	-0.0018089016
80	0x3b149809	0.0022673628
81	0x3b70939d	0.0036709078
82	0x3b85f004	0.00408745
83	0x3b758902	0.0037465696
84	0x3ba494d1	0.005022623
85	0x3bb13461	0.0054078554
86	0x3b83d600	0.0040233135
87	0xbbb7784a	-0.0055990564
88	0x3b18ebf4	0.0023333998
89	0x3b4e8526	0.0031512468
90	0x3ac96d08	0.0015367577
91	0x3b9584c3	0.0045629456
92	0x3b5de71c	0.0033859676
93	0x3bf350c4	0.0074253995
94	0xbaa88274	-0.0012856261
95	0x3c2cb815	0.010541935
96	0x3b95a9d2	0.0045673633
97	0x3c06e268	0.00823269
98	0x3b319d63	0.0027101866
99	0x3c005ad4	0.007834155
100	0xbb6b41e0	-0.003589742
101	0xba6bf235	-0.000900063
102	0x39709698	0.00022944284
103	0x3c2139ef	0.009840473
104	0x3ac5b5ec	0.0015084124
105	0x3a58e6ce	0.00082741387
106	0xbb80360d	-0.0039126934
107	0xbac4e97a	-0.0015023195
108	0x3adf0d8e	0.0017017589
109	0xbb5ea8be	-0.003397509
110	0x392c6e49	0.00016444283
111	0x3c087934	0.008329678
112	0xba7d30fc	-0.00096584833
113	0x3b1aacf6	0.0023601628
114	0x3b4f8dac	0.0031670136
115	0xbad3a96e	-0.0016148516
116	0x3b4ca71e	0.003122754
117	0x3b3a38b6	0.002841515
118	0xba914966	-0.0011084497
119	0x3b5f557e	0.0034078057
120	0x3a1a4083	0.0005884247
121	0x3b8940af	0.004188619
122	0x3b35e8c4	0.0027757147
123	0x3b96465b	0.0045860237
124	0xba96aec6	-0.0011496178
125	0x3b2d3efd	0.002643525
126	0x3bdfd59c	0.006830884
127	0xbb0c635b	-0.0021421525

action_model._discrete_distribution.branches.0.weight f4 [3, 128]
0	0x3c7b4be5	0.015337919
1	0xbbb6cb75	-0.005578453
2	0x3ae2574e	0.001726845
3	0x3c3699f9	0.011145108
4	0xbac17db6	-0.0014762196
5	0xbbd73ac7	-0.006568286
6	0x3b9afaad	0.00472959
7	0xbca789e9	-0.020451503
8	0x39f27304	0.0004624353
9	0xbc4544d8	-0.012040339
10	0x3d1351dc	0.03596674
11	0xbbd4b503	-0.006491305
12	0xbb8824e6	-0.0041547893
13	0x3befbd13	0.0073162406
14	0xba662e7c	-0.00087807304
15	0x3bcf5924	0.006327765
16	0x3c1fa03c	0.009742793
17	0x3c1439bb	0.009046967
18	0x3a91eb63	0.0011132773
19	0x3cf44a93	0.029820716
20	0x3ab474a6	0.0013767674
21	0xbc31cf4d	-0.010852647
22	0x3c984f1a	0.018592406
23	0x3a3ed5c3	0.0007279778
24	0xbaf110f0	-0.0018391889
25	0xbc1ca85d	-0.009561625
26	0x3bef11e4	0.007295834
27	0x3c459d19	0.012061381
28	0x3c8792b9	0.016549455
29	0x3bc008bc	0.005860416
30	0x3c4ce8f8	0.012506716
31	0x3cc85cac	0.024458252
32	0x3cf51327	0.02991636
33	0xbc2a5540	-0.010396302
34	0x3c44698e	0.011988057
35	0xbaaf217c	-0.001336142
36	0x3cbf1b35	0.023328403
37	0x3a3219c2	0.00067939993
38	0xbb0d2476	-0.0021536625
39	0x3c5bb6ff	0.013410329
40	0xbca2c194	-0.019867696
41	0xbc11e9bd	-0.008905825
42	0xbc7044a2	-0.014664801
43	0x3bc2a582	0.00594014
44	0xbbee2dd4	-0.0072686467
45	0x3c6b0750	0.014345005
46	0x3b3bedde	0.0028675715
47	0x3cc75b83	0.024335628
48	0xbc92bca1	-0.01791221
49	0xbd0dacc0	-0.034588575
50	0x3bfa60c9	0.007640932
51	0x3b890efd	0.004182695
52	0xbbfdcd81	-0.0077454452
53	0xbc48ca0a	-0.012255201
54	0xbc069ee1	-0.008216591
55	0xbcb1c2b7	-0.021699293
56	0x3c00c7c1	0.007860125
57	0xbbe3d2cc	-0.006952619
58	0xbc0a7e05	-0.008452897
59	0xbc89cc83	-0.016821152
60	0x3c58c7cb	0.013231228
61	0xbc80aa47	-0.015706195
62	0x3c4af7d0	0.012388185
63	0x3cc88f9c	0.02448254
64	0x3cb55f8d	0.022140289
65	0xba4cb3fb	-0.00078088016
66	0x3c7f85a3	0.015595826
67	0x3bc978f7	0.0061484533
68	0x3bfe56e4	0.007761823
69	0x3c792fc1	0.015209139
70	0x3ce2d708	0.027690426
71	0x3cb40478	0.021974787
72	0xbc3ab5ef	-0.011395915
73	0xbbb4ecb2	-0.0055213803
74	0x3c252e25	0.0100818025
75	0x3c653ee0	0.013992041
76	0x3a0d5458	0.00053912913
77	0xbc2134b6	-0.009839227
78	0x3bb3c2e2	0.0054858783
79	0x3bfb4727	0.007668394
80	0x3c9b9f7e	0.01899695
81	0x3c457e2e	0.012054009
82	0x3c46371e	0.012098102
83	0xbaaf29ed	-0.0013363935
84	0x3c7e9a01	0.015539647
85	0xbac43fee	-0.0014972666
86	0xbcb31bb2	-0.021863792
87	0xbbf91ca9	-0.0076022935
88	0xbc7b47f7	-0.015336982
89	0xbc558a06	-0.013033396
90	0xbb181455	-0.0023205478
91	0xbb7cc065	-0.0038566825
92	0xbcf379e7	-0.029721214
93	0x3ccdea10	0.025136024
94	0xbc482b0e	-0.012217296
95	0x3c270554	0.010194141
96	0x3b429a04	0.0029693851
97	0x3c130e14	0.008975524
98	0x3c0a4ed1	0.008441643
99	0x3cb2feaf	0.021849958
100	0x3c98909c	0.018623643
101	0xbb16f307	-0.002303304
102	0x3c32bd46	0.010909384
103	0x3cb73877	0.022365792
104	0xbc28eb96	-0.010310074
105	0xbc545c67	-0.012961484
106	0xbb6ed4eb	-0.0036442827
107	0xbc8f84c3	-0.01751936
108	0xbccc0993	-0.02490691
109	0xb98e1756	-0.00027101737
110	0xbccf0358	-0.02527015
111	0x3c6ba17d	0.0143817635
112	0xbacf90d2	-0.0015836006
113	0xbccf1be4	-0.025281854
114	0xbc3a3479	-0.0113650495
115	0xbb868771	-0.0041055013
116	0xbbf782af	-0.0075534205
117	0xbce818d0	-0.028332144
118	0x3b3b0a90	0.0028540231
119	0xbb44c52e	-0.0030024755
120	0xbb272445	-0.0025503796
121	0xbbecb3fc	-0.0072236042
122	0xbcdcedfd	-0.02696895
123	0x3c582341	0.013191999
124	0x3bc9b145	0.0061551654
125	0xbbaaa40c	-0.005207544
126	0x3c27aa09	0.010233411
127	0x3bc7f53e	0.006102233
128	0xbd1497fd	-0.03627776
129	0x3b2699be	0.0025421227
130	0x3c6b48f5	0.014360656
131	0xbbbd3dd4	-0.0057751928
132	0xbb91e1c8	-0.004451964
133	0xbc5f7f8f	-0.013641252
134	0x3bbbc3a6	0.00573011
135	0x3c023754	0.007947762
136	0xbc8ec8f0	-0.017429799
137	0x3b159afe	0.0022827978
138	0xbc16e58e	-0.009210004
139	0xbc04a8e8	-0.008096911
140	0xbc76dc20	-0.01506713
141	0xbb643f51	-0.0034827779
142	0x3c4c42c7	0.012467093
143	0xbc5bf4e3	-0.013425085
144	0xbc9d4661	-0.019198598
145	0x3bc62445	0.006046804
146	0xbc57817b	-0.013153429
147	0x3c18b3e1	0.00932023
148	0x3c521ab3	0.012823748
149	0xbbe39673	-0.006945425
150	0xbcb6894d	-0.022282267
151	0xbcac2ca9	-0.02101739
152	0x3c865b2d	0.016400898
153	0x3ad54544	0.0016271253
154	0xbc82a4a4	-0.015947647
155	0xbc1ef254	-0.00970133
156	0xbc492c1e	-0.012278585
157	0xbb12c91a	-0.0022397698
158	0xbc68152f	-0.014165207
159	0xbd0dcb83	-0.034617912
160	0xbc63da25	-0.01390699
161	0xbc84ab72	-0.016195033
162	0x3c1aa20c	0.009438049
163	0xbbb5999a	-0.0055419924
164	0x3ae6de78	0.0017613908
165	0xbc229f06	-0.009925609
166	0x3bcafbe3	0.006194578
167	0xbc57cf5e	-0.013171999
168	0x3c859363	0.016305631
169	0x3ba6f4a9	0.0050950837
170	0x3bda7f77	0.006668027
171	0xbc8910ae	-0.016731586
172	0x3c4c3eda	0.012466157
173	0xbc4fd2c1	-0.012684525
174	0xbc425fa6	-0.011863625
175	0x3c09bc4a	0.008406708
176	0x3a13e0c2	0.00056410965
177	0x3c59db3f	0.013296901
178	0x3bd88a08	0.0066082515
179	0xbc53e6b9	-0.012933427
180	0x3c5af5ba	0.01336425
181	0x3cb6bef9	0.02230786
182	0x3c65ca3d	0.014025268
183	0x3ce65d36	0.028120618
184	0xbc6b10cc	-0.014347266
185	0x3b321084	0.0027170489
186	0x3bd9cfd2	0.0066470886
187	0x3be3ffbd	0.0069579766
188	0xbc224492	-0.009904044
189	0xbb0e22c5	-0.0021688205
190	0x3c23e4a9	0.010003247
191	0xbba5b7c2	-0.005057306
192	0xbc8f1401	-0.017465593
193	0x3ca47d93	0.02007941
194	0xbc2abd05	-0.010421042
195	0x3ae3eedb	0.001738991
196	0xbc315f8f	-0.010826006
197	0xbc032094	-0.008003373
198	0xba339e4e	-0.00068518973
199	0xbbaee474	-0.0053372923
200	0x3bc2630a	0.0059322165
201	0x3b716c07	0.003683807
202	0xbb48cf2b	-0.003064106
203	0xbc3cccdc	-0.011523452
204	0x3c6ed70b	0.014577637
205	0x3b5a3656	0.0033296547
206	0xbc01f71c	-0.007932451
207	0xbb52c109	-0.0032158515
208	0xb93f0e3e	-0.00018220485
209	0x3a81ce09	0.0009903322
210	0xbbd29e8c	-0.0064275917
211	0xbbb2467f	-0.0054405327
212	0xbcd997c5	-0.026561627
213	0xbc099e65	-0.008399581
214	0x3c99d1bd	0.018776769
215	0xbabb5012	-0.0014290831
216	0xbc11cc00	-0.008898735
217	0xbb06b26e	-0.002055313
218	0x3c372c14	0.011179943
219	0xbb8c3642	-0.004278929
220	0x3bd82b43	0.006596954
221	0xbc2f186d	-0.010686976
222	0x3c65096a	0.013979295
223	0xbcb5c960	-0.02219075
224	0xbc465f94	-0.012107749
225	0xbcbed962	-0.023297016
226	0xbbc81deb	-0.006107082
227	0xbb4bf9a2	-0.0031124135
228	0x3c77f2ef	0.0151336035
229	0xbc0802d4	-0.0083014555
230	0xbb634855	-0.0034680564
231	0xbc912eeb	-0.017722568
232	0x3b2cdcc5	0.0026376706
233	0xbc234837	-0.009965948
234	0x3c72e29a	0.014824534
235	0x39abb219	0.00032748355
236	0xb88039d5	-6.114288e-05
237	0x3c5d4caa	0.013507048
238	0x3c6805ff	0.014161586
239	0xbc438fac	-0.0119361095
240	0xbbe5da2a	-0.0070145326
241	0xbac1abde	-0.0014775952
242	0xbc0f8d98	-0.008761786
243	0xbc939f1d	-0.018020207
244	0xbb1c7af5	-0.0023877
245	0xbb1021cc	-0.00219928
246	0x3b9b1e62	0.0047338465
247	0xbbea5c0c	-0.007152086
248	0xbca28562	-0.019838993
249	0xbb457eb0	-0.0030135326
250	0x3c889297	0.016671462
251	0xbc0f7af6	-0.0087573435
252	0xbb5df66c	-0.0033868803
253	0x3bffbcfa	0.00780451
254	0xbcfe6135	-0.031052211
255	0xbbbe904c	-0.0058155414

action_model._discrete_distribution.branches.0.bias f4 [3]
0	0xb89eefa0	-7.578661e-05
1	0xbb874813	-0.004128465
2	0x3b5c67b5	0.003363115

exp_avg f4 [128, 6]
0	0xb7af6f57	-2.0913472e-05
1	0xb63e306d	-2.8340394e-06
2	0x00000000	0.0
3	0x2f8493fe	2.4115815e-10
4	0xb9c6721a	-0.00037850515
5	0xb9558f8d	-0.0002036674
6	0x3a43b058	0.0007464937
7	0xb7a8dcc9	-2.0129972e-05
8	0x00000000	0.0
9	0xb2e4c614	-2.6632769e-08
10	0xb9eda842	-0.00045329524
11	0xba70d399	-0.0009186804
12	0x3a8ae3a3	0.0010596405
13	0xb7c67731	-2.3658942e-05
14	0x00000000	0.0
15	0xb28f20c7	-1.6662296e-08
16	0xba55a196	-0.00081493834
17	0xba40e127	-0.0007357769
18	0x39ac4900	0.00032860786
19	0xb73f2a40	-1.1394324e-05
20	0x00000000	0.0
21	0xb2b5d62a	-2.1168564e-08
22	0xb991b83a	-0.00027793815
23	0xba10dbf6	-0.0005525941
24	0xba09344b	-0.00052339275
25	0x37551a43	1.2701904e-05
26	0x00000000	0.0
27	0x324efd3d	1.2048358e-08
28	0x39ccf691	0.00039093618
29	0x39ae7dc4	0.0003328157
30	0xb99571f3	-0.00028504393
31	0x363a2eea	2.7743467e-06
32	0x00000000	0.0
33	0x31a2816f	4.7295354e-09
34	0x3a861fed	0.0010232903
35	0x3a0173d4	0.0004938219
36	0x3a8a1453	0.0010534622
37	0xb7e449d1	-2.7214091e-05
38	0x00000000	0.0
39	0xb2a53c59	-1.9235971e-08
40	0xbaa4e044	-0.0012579043
41	0xba512e65	-0.00079796306
42	0x39bc5cb9	0.00035927238
43	0xb7082e31	-8.1169865e-06
44	0x00000000	0.0
45	0xb231f9e0	-1.0359571e-08
46	0xba1326bb	-0.0005613376
47	0xb9be895b	-0.00036341962
48	0x37160758	8.942407e-06
49	0xb6cf216d	-6.172972e-06
50	0x00000000	0.0
51	0xb0dc64d2	-1.6035762e-09
52	0x3a3fe633	0.0007320374
53	0x399849a7	0.00029046574
54	0xb8f3c4ea	-0.00011623821
55	0x3658cb98	3.2305015e-06
56	0x00000000	0.0
57	0x3163382e	3.3064782e-09
58	0x392d1a53	0.00016508372
59	0x391e7dc2	0.00015114903
60	0x3955b15d	0.00020379336
61	0xb6b65dde	-5.4349503e-06
62	0x00000000	0.0
63	0xb18a8248	-4.03114e-09
64	0x3868a1bc	5.5463737e-05
65	0xb83d29d7	-4.5100078e-05
66	0x38948af7	7.083074e-05
67	0xb6e0a734	-6.695185e-06
68	0x00000000	0.0
69	0xb12670f5	-2.4220388e-09
70	0x39f106cd	0.0004597217
71	0x39aa6242	0.00032498135
72	0xb9ccb2d7	-0.00039043158
73	0xb64f6560	-3.0904412e-06
74	0x00000000	0.0
75	0x31624a27	3.292948e-09
76	0x3a02a248	0.0004983288
77	0x3914a81d	0.00014177007
78	0x39bb0a9e	0.0003567533
79	0xb7549233	-1.2670224e-05
80	0x00000000	0.0
81	0xb2ca44ea	-2.3547233e-08
82	0xba4aa86d	-0.0007730786
83	0xba3d46d3	-0.00072203315
84	0xb9050ac3	-0.00012687877
85	0x364ea5aa	3.0792821e-06
86	0x00000000	0.0
87	0x32b882a6	2.1479831e-08
88	0x38a0535f	7.6449236e-05
89	0x39631807	0.00021657358
90	0xb9964600	-0.00028662384
91	0xb6552110	-3.1758718e-06
92	0x00000000	0.0
93	0x321414c5	8.619456e-09
94	0x3a43834a	0.0007458223
95	0x39b2cb9a	0.000341025
96	0x3aecb71e	0.0018059944
97	0xb822f280	-3.8849656e-05
98	0x00000000	0.0
99	0xb2eaebd3	-2.7348426e-08
100	0xbaba6eaf	-0.001422366
101	0xba7dead9	-0.0009686179
102	0x39d34932	0.0004029959
103	0xb774d141	-1.4592254e-05
104	0x00000000	0.0
105	0xb2b35f55	-2.0881695e-08
106	0xba530907	-0.00080503564
107	0xba492291	-0.00076726923
108	0xb90df364	-0.00013537478
109	0xb3f50c44	-1.14109326e-07
110	0x00000000	0.0
111	0xb10b5d60	-2.028024e-09
112	0x37a59cef	1.974261e-05
113	0xb7125419	-8.721859e-06
114	0xb94dea48	-0.000196376
115	0x3672f236	3.6201795e-06
116	0x00000000	0.0
117	0x324ebb43	1.20333565e-08
118	0x39b5aa91	0.00034650092
119	0x39d98e3d	0.0004149544
120	0x3889138c	6.53631e-05
121	0x32c07a79	2.2407436e-08
122	0x00000000	0.0
123	0xb18b0871	-4.046392e-09
124	0xb6e5bf79	-6.847022e-06
125	0xb85fbd56	-5.3343676e-05
126	0x3a6b9c00	0.00089877844
127	0xb7d44120	-2.5302696e-05
128	0x00000000	0.0
129	0xb2e128b0	-2.621195e-08
130	0xba6f3089	-0.0009124359
131	0xba81b394	-0.0009895437
132	0xb96b477f	-0.00022437981
133	0x368a28ed	4.117485e-06
134	0x00000000	0.0
135	0x31b0293d	5.1269624e-09
136	0x3947cd99	0.0001905471
137	0x385bf72e	5.2443873e-05
138	0x391b14b6	0.00014789667
139	0xb66f6df3	-3.5677774e-06
140	0x00000000	0.0
141	0xb0a253f7	-1.1810916e-09
142	0xb91f7c4f	-0.0001520973
143	0xb921c237	-0.00015426507
144	0xb887276d	-6.444645e-05
145	0x36a13eed	4.8054994e-06
146	0x00000000	0.0
147	0x322ad671	9.944061e-09
148	0x3888bd46	6.52024e-05
149	0x394a6c57	0.00019304581
150	0xba8143c9	-0.000986212
151	0x370cd6b4	8.39464e-06
152	0x00000000	0.0
153	0x3317fe09	3.538847e-08
154	0x3995ca12	0.0002857005
155	0x39b5d241	0.00034679662
156	0xb9a2c645	-0.0003104677
157	0x369bc843	4.6426735e-06
158	0x00000000	0.0
159	0x31a0d61a	4.6809534e-09
160	0x3a0e49f8	0.00054278923
161	0x3995e1cf	0.00028587735
162	0x3a51f3db	0.00080090546
163	0xb79837de	-1.8145827e-05
164	0x00000000	0.0
165	0xb1888654	-3.9733923e-09
166	0x39a43012	0.00031316333
167	0xb9b8dc82	-0.00035259506
168	0x3a4756b4	0.00076041673
169	0xb7bb400f	-2.2321967e-05
170	0x00000000	0.0
171	0xb2d8a1cd	-2.5219288e-08
172	0xba63ca16	-0.0008689476
173	0xba7243ed	-0.0009241689
174	0xb96c2ec7	-0.0002252414
175	0x36746e2c	3.6422962e-06
176	0x00000000	0.0
177	0x31c1bb4a	5.6383316e-09
178	0x3916c8d3	0.00014379928
179	0x38d706fa	0.000102532984
180	0x3a225571	0.00061925413
181	0xb7688678	-1.3859586e-05
182	0x00000000	0.0
183	0xb29e82f6	-1.8453175e-08
184	0xb9e2f2f5	-0.00043287096
185	0xba3f890f	-0.0007306495
186	0x37c5b894	2.3570181e-05
187	0xb73c96ec	-1.12408125e-05
188	0x00000000	0.0
189	0xb2bae65f	-2.175801e-08
190	0x37241b3d	9.781504e-06
191	0xb9ad7101	-0.00033081326
192	0x39c5f7d0	0.00037759403
193	0xb7197d3d	-9.14867e-06
194	0x00000000	0.0
195	0xb20bd1e5	-8.138589e-09
196	0xba24b3ad	-0.00062828773
197	0xb9fb4da7	-0.00047932306
198	0xb91998af	-0.00014648096
199	0x36c41932	5.8441883e-06
200	0x00000000	0.0
201	0x32c1fc02	2.2582757e-08
202	0x38d715a4	0.0001025603
203	0x39fe2ad3	0.00048478562
204	0x3904fe5f	0.00012683262
205	0x34eec233	4.4472253e-07
206	0x00000000	0.0
207	0xb15b0736	-3.1872793e-09
208	0xb9cdb28a	-0.0003923367
209	0xb909eb8d	-0.00013153088
210	0xb71092b4	-8.617226e-06
211	0xb49a3a32	-2.8727078e-07
212	0x00000000	0.0
213	0xb244684e	-1.1432418e-08
214	0xb8dc8701	-0.00010515564
215	0xb942bedc	-0.00018572382
216	0x39cc7fa9	0.00039005026
217	0xb724e609	-9.828721e-06
218	0x00000000	0.0
219	0xb2259c16	-9.639754e-09
220	0xb96f0ab4	-0.00022796803
221	0xb9b95483	-0.00035348916
222	0x3930168b	0.00016793066
223	0xb6adf76b	-5.184605e-06
224	0x00000000	0.0
225	0xb182bbc2	-3.8048436e-09
226	0x391019b8	0.00013742491
227	0xb80bdd76	-3.3346434e-05
228	0xb9ac8628	-0.0003290635
229	0x36bbc09f	5.5954583e-06
230	0x00000000	0.0
231	0x32fe986a	2.9638802e-08
232	0x398b0c0f	0.0002652113
233	0x3a11d718	0.00055633625
234	0x3a11dd9f	0.0005564335
235	0xb7471fed	-1.1868758e-05
236	0x00000000	0.0
237	0xb22d53a8	-1.0088947e-08
238	0xb96dbf32	-0.00022673307
239	0xb94b2fc6	-0.00019377386
240	0xba512373	-0.00079779996
241	0x3711d088	8.691226e-06
242	0x00000000	0.0
243	0x328c8622	1.6359142e-08
244	0x38e5450c	0.00010932432
245	0x397a0039	0.00023841941
246	0x3992f11d	0.00028026933
247	0xb741d515	-1.15533085e-05
248	0x00000000	0.0
249	0x301a10e0	5.6048854e-10
250	0x3a586890	0.0008255327
251	0x38f4af96	0.00011667532
252	0x3a20cd45	0.0006134103
253	0xb77d6a39	-1.5104707e-05
254	0x00000000	0.0
255	0xb263daa4	-1.3262852e-08

exp_avg_sq f4 [128, 6]
0	0x339ba2f2	7.2473895e-08
1	0x2df7ae39	2.815802e-11
2	0x00000000	0.0
3	0x23623da1	1.2264535e-17
4	0x33e7a7a8	1.0787272e-07
5	0x33220773	3.772534e-08
6	0x3463b0f0	2.1205392e-07
7	0x2f2d7f38	1.5779456e-10
8	0x00000000	0.0
9	0x258607b5	2.3250517e-16
10	0x33a1e114	7.538088e-08
11	0x3445c0c0	1.8417177e-07
12	0x3495393e	2.7795062e-07
13	0x2f0bdffb	1.272155e-10
14	0x00000000	0.0
15	0x2444ef5f	4.270348e-17
16	0x33e53d9b	1.06748494e-07
17	0x3445485d	1.837338e-07
18	0x33b8ec84	8.6111896e-08
19	0x2e9094d9	6.5748025e-11
20	0x00000000	0.0
21	0x253aa79b	1.6189715e-16
22	0x3308d592	3.185921e-08
23	0x33a3ae29	7.6219585e-08
24	0x344f175d	1.9286877e-07
25	0x2ee248d1	1.0290225e-10
26	0x00000000	0.0
27	0x24040ce3	2.8633853e-17
28	0x340220af	1.2119084e-07
29	0x342010ae	1.4907229e-07
30	0x349073ba	2.6906292e-07
31	0x2f2d3c83	1.5755756e-10
32	0x00000000	0.0
33	0x245b5288	4.7557962e-17
34	0x34e97012	4.3481174e-07
35	0x34639644	2.1195689e-07
36	0x34fb70b2	4.683439e-07
37	0x2f503b3c	1.8938534e-10
38	0x00000000	0.0
39	0x2486ed8c	5.8515657e-17
40	0x34a461f0	3.061864e-07
41	0x34b852bb	3.4332865e-07
42	0x33e94e5c	1.08641615e-07
43	0x2e4a7d10	4.604056e-11
44	0x00000000	0.0
45	0x23a49019	1.7841943e-17
46	0x33f0c005	1.1210799e-07
47	0x339d76eb	7.332513e-08
48	0x33a49b6e	7.6651176e-08
49	0x2e3d47a7	4.3037265e-11
50	0x00000000	0.0
51	0x23b6ed51	1.9832987e-17
52	0x34356a27	1.6895557e-07
53	0x337fa78d	5.95242e-08
54	0x339b36ce	7.227719e-08
55	0x2e288079	3.8312884e-11
56	0x00000000	0.0
57	0x23016125	7.013675e-18
58	0x32fab2c8	2.918513e-08
59	0x331ed48f	3.6980563e-08
60	0x32e9feca	2.7240635e-08
61	0x2db05484	2.0046416e-11
62	0x00000000	0.0
63	0x230d5f15	7.66376e-18
64	0x33101b49	3.355243e-08
65	0x3291ba82	1.6965036e-08
66	0x33e2cdba	1.05613665e-07
67	0x2e64ea16	5.2049108e-11
68	0x00000000	0.0
69	0x23a2ccf1	1.7650871e-17
70	0x349c2008	2.908057e-07
71	0x33b4a3f0	8.411723e-08
72	0x33e37d06	1.0593253e-07
73	0x2e9b2b75	7.0563035e-11
74	0x00000000	0.0
75	0x23953835	1.6178417e-17
76	0x33ffadf9	1.1906008e-07
77	0x33b0bcec	8.230003e-08
78	0x34293872	1.5759886e-07
79	0x2ed60e16	9.7340955e-11
80	0x00000000	0.0
81	0x25149b19	1.2889503e-16
82	0x3453d450	1.9728145e-07
83	0x341e65ac	1.4751885e-07
84	0x340a8e7f	1.2904091e-07
85	0x2eb05765	8.019078e-11
86	0x00000000	0.0
87	0x25381b38	1.5968678e-16
88	0x339ffaa1	7.4496036e-08
89	0x33be6a59	8.866909e-08
90	0x34ccc6c0	3.814257e-07
91	0x2f66bf90	2.0986435e-10
92	0x00000000	0.0
93	0x24306ddf	3.825698e-17
94	0x353866fd	6.869521e-07
95	0x349a2584	2.8712032e-07
96	0x35924c2e	1.0900019e-06
97	0x2fe3dab3	4.1446455e-10
98	0x00000000	0.0
99	0x2511c1ba	1.2642382e-16
100	0x34c3e32c	3.648687e-07
101	0x352ae8c2	6.366864e-07
102	0x34be69d1	3.546725e-07
103	0x2f51ae47	1.9070355e-10
104	0x00000000	0.0
105	0x24be3986	8.2496814e-17
106	0x352e50de	6.493773e-07
107	0x349e4d7b	2.9486168e-07
108	0x331b61d6	3.617773e-08
109	0x2d7c6313	1.43465404e-11
110	0x00000000	0.0
111	0x22b7d3ba	4.9826424e-18
112	0x33c9a011	9.388908e-08
113	0x32a524a8	1.9225197e-08
114	0x33fb9fac	1.17171425e-07
115	0x2ebab214	8.489934e-11
116	0x00000000	0.0
117	0x24264fe4	3.6063182e-17
118	0x346154c0	2.098559e-07
119	0x33e2cab7	1.0560819e-07
120	0x335801e0	5.0293124e-08
121	0x2df5f8ef	2.7963824e-11
122	0x00000000	0.0
123	0x22d2bce4	5.712061e-18
124	0x33dbf9b6	1.0243404e-07
125	0x332e1668	4.053291e-08
126	0x34989934	2.8423676e-07
127	0x2f23221e	1.4836884e-10
128	0x00000000	0.0
129	0x25050ee4	1.1540956e-16
130	0x342d1fdc	1.6123471e-07
131	0x347c5adb	2.3502382e-07
132	0x338cc935	6.5558574e-08
133	0x2dbedf8f	2.1699779e-11
134	0x00000000	0.0
135	0x2333f985	9.756447e-18
136	0x325d2efc	1.2874576e-08
137	0x32ebaebc	2.743706e-08
138	0x32b9fba2	2.1651264e-08
139	0x2d980e56	1.7286766e-11
140	0x00000000	0.0
141	0x22f5b69e	6.6600737e-18
142	0x32462192	1.153275e-08
143	0x32bb15b3	2.1779533e-08
144	0x32c4e40e	2.292111e-08
145	0x2da2f72f	1.852704e-11
146	0x00000000	0.0
147	0x240b0c99	3.015149e-17
148	0x32ee61ac	2.7751263e-08
149	0x32bd1096	2.2010038e-08
150	0x353361f2	6.6825226e-07
151	0x2faa0ff5	3.0934158e-10
152	0x00000000	0.0
153	0x25b20686	3.0882498e-16
154	0x345c86f9	2.05382e-07
155	0x34c7f073	3.7241588e-07
156	0x34469597	1.8494607e-07
157	0x2eca1a11	9.190527e-11
158	0x00000000	0.0
159	0x23b36f3d	1.945433e-17
160	0x3452a4a1	1.9617666e-07
161	0x33e16583	1.0495844e-07
162	0x34f3e7bd	4.543089e-07
163	0x2f79c189	2.2715176e-10
164	0x00000000	0.0
165	0x24da863c	9.476983e-17
166	0x34cea887	3.849311e-07
167	0x34963825	2.7980528e-07
168	0x346d1a91	2.208201e-07
169	0x2f1a7f54	1.4051454e-10
170	0x00000000	0.0
171	0x24f922cb	1.0804548e-16
172	0x340f76a7	1.3361078e-07
173	0x34744ece	2.275294e-07
174	0x332d1ced	4.030601e-08
175	0x2e306dc5	4.0115262e-11
176	0x00000000	0.0
177	0x23993e0d	1.6614573e-17
178	0x3245bb86	1.1509547e-08
179	0x3306f48c	3.142172e-08
180	0x3468de8b	2.1687644e-07
181	0x2f29f81a	1.5458604e-10
182	0x00000000	0.0
183	0x249b5344	6.736159e-17
184	0x33d6edde	1.0008419e-07
185	0x3443f65b	1.8250414e-07
186	0x34248d57	1.532511e-07
187	0x2ee7bf99	1.05386984e-10
188	0x00000000	0.0
189	0x2547c582	1.7327417e-16
190	0x348c7ad7	2.616641e-07
191	0x33e70310	1.0757333e-07
192	0x34255bf1	1.540027e-07
193	0x2eb91ebe	8.418287e-11
194	0x00000000	0.0
195	0x23c0e217	2.0912434e-17
196	0x342c7101	1.6059859e-07
197	0x33fd23be	1.1787732e-07
198	0x341803af	1.4157443e-07
199	0x2eb69051	8.3020375e-11
200	0x00000000	0.0
201	0x252edca3	1.5166849e-16
202	0x33fb68f9	1.1707193e-07
203	0x33b7da73	8.561337e-08
204	0x33aa6bff	7.935886e-08
205	0x2e21cc42	3.678858e-11
206	0x00000000	0.0
207	0x23353d67	9.825032e-18
208	0x33d9d3d9	1.0143385e-07
209	0x33485d46	4.665096e-08
210	0x3398536a	7.0932245e-08
211	0x2e600d97	5.0943774e-11
212	0x00000000	0.0
213	0x24a8592a	7.3009436e-17
214	0x338858e6	6.349164e-08
215	0x332656e3	3.872891e-08
216	0x340b8955	1.2995345e-07
217	0x2ec75b35	9.065674e-11
218	0x00000000	0.0
219	0x242f7e0c	3.8053842e-17
220	0x33236cf6	3.8050494e-08
221	0x33cc317e	9.508493e-08
222	0x332ae91f	3.9793232e-08
223	0x2dc050b1	2.1863707e-11
224	0x00000000	0.0
225	0x23546897	1.1514691e-17
226	0x334be9a9	4.7477133e-08
227	0x32d68e20	2.497751e-08
228	0x34c994e5	3.7547503e-07
229	0x2f72fed1	2.2100301e-10
230	0x00000000	0.0
231	0x25850c1c	2.3080028e-16
232	0x3508af74	5.0919266e-07
233	0x34865aba	2.5025457e-07
234	0x33e78600	1.078115e-07
235	0x2ea4b1a1	7.48941e-11
236	0x00000000	0.0
237	0x23bd44b7	2.0520523e-17
238	0x32c6749c	2.3103262e-08
239	0x339635c2	6.994698e-08
240	0x34817ec9	2.412037e-07
241	0x2f12c993	1.3350236e-10
242	0x00000000	0.0
243	0x249aa646	6.706853e-17
244	0x336c8ebd	5.507785e-08
245	0x34154483	1.3901631e-07
246	0x3540ca0c	7.181959e-07
247	0x2fef1fbf	4.3496404e-10
248	0x00000000	0.0
249	0x2522f4a0	1.4134142e-16
250	0x34febb76	4.7447583e-07
251	0x34ed06d0	4.4149647e-07
252	0x340e39da	1.3245827e-07
253	0x2e9a1341	7.0065294e-11
254	0x00000000	0.0
255	0x23c02caf	2.0835606e-17

exp_avg f4 [128]
0	0xb900bc21	-0.00012277115
1	0xba675988	-0.0008825292
2	0xba87bfbf	-0.0010356827
3	0xba03347b	-0.00050050736
4	0x3a1141fd	0.0005541144
5	0x38f902e5	0.000118737844
6	0xba9bed31	-0.001189625
7	0xb9b9afbf	-0.0003541689
8	0xb98e0956	-0.00027091306
9	0x391394f0	0.00014074496
10	0xb979bcec	-0.0002381687
11	0xb99a394f	-0.00029415867
12	0xb90d63fb	-0.00013484053
13	0xba1134ee	-0.0005539198
14	0x390d8279	0.00013495413
15	0xb9148bc1	-0.00014166442
16	0xbade9fe7	-0.001698491
17	0xba26974f	-0.0006354944
18	0xb68aaebb	-4.133062e-06
19	0x39250c5f	0.00015740235
20	0x35fd4ae8	1.887177e-06
21	0xba910be4	-0.0011066166
22	0x393c59f2	0.00017962584
23	0xb9237908	-0.00015589979
24	0x395d079c	0.00021079037
25	0x39c0ea4c	0.00036795659
26	0x3952e4a2	0.00020112333
27	0xba507c2a	-0.0007953072
28	0xba7fefc5	-0.00097632065
29	0x3926f5c7	0.00015922553
30	0xba1ee378	-0.0006061117
31	0xba00e8a0	-0.00049174763
32	0xb9d0e0af	-0.00039840254
33	0x39868c39	0.00025662946
34	0x37aaf4cd	2.0379573e-05
35	0xb758e89c	-1.2928762e-05
36	0xb9e28d2b	-0.00043211257
37	0xb96ea914	-0.00022760435
38	0x39806c37	0.0002449469
39	0xba0852a5	-0.0005200303
40	0x39c7d2e6	0.0003811337
41	0xba0499d8	-0.0005058325
42	0xba2d0296	-0.00065998116
43	0x3942e3fb	0.00018586211
44	0x39579515	0.00020559535
45	0xb91e9cc2	-0.00015126451
46	0x389616de	7.156817e-05
47	0x3a3196f7	0.00067745097
48	0x39547148	0.00020260096
49	0x38e3363a	0.00010834304
50	0xba9e603f	-0.0012083127
51	0xb9c782ab	-0.00038053593
52	0xbaf20866	-0.0018465638
53	0xba2fdb0c	-0.0006708361
54	0x3640a334	2.8705226e-06
55	0x3971576f	0.00023016123
56	0x38de5d58	0.000106031715
57	0xb90434be	-0.00012608149
58	0xb8eb3a61	-0.00011216547
59	0xb9bdf43a	-0.00036230852
60	0x39dc097d	0.0004196874
61	0xb90d91b2	-0.00013501084
62	0x388bde94	6.669495e-05
63	0x39f7a002	0.00047230726
64	0xba287be5	-0.0006427153
65	0xba477a8a	-0.00076095073
66	0xb9c9652c	-0.00038413086
67	0xbac1679b	-0.0014755608
68	0x3952b986	0.00020096274
69	0xba21c452	-0.00061709166
70	0x38286a02	4.015305e-05
71	0x38bb04e1	8.9177636e-05
72	0xb8983a36	-7.2587674e-05
73	0xba9a344f	-0.0011764857
74	0xb92860f2	-0.00016057843
75	0x39a4d29d	0.00031437437
76	0x3906519a	0.00012809635
77	0xb9684a51	-0.00022152929
78	0xb4c87c83	-3.7343497e-07
79	0x3920ee81	0.00015347639
80	0xb903b90c	-0.00012562069
81	0xb9b10f14	-0.00033771305
82	0xb95abf40	-0.00020861346
83	0xb91e3a30	-0.00015089731
84	0x39a4e373	0.0003144998
85	0xba79fd31	-0.00095363247
86	0xb8ba1925	-8.873855e-05
87	0xb9b57f03	-0.0003461764
88	0xb7bd1705	-2.2541275e-05
89	0xba4544e8	-0.00075252214
90	0xb8573510	-5.1309413e-05
91	0xb9a88ba9	-0.00032147512
92	0xb89734ee	-7.2101e-05
93	0xb99db653	-0.00030081216
94	0xb94c65ac	-0.00019492832
95	0xb947ca14	-0.00019053399
96	0xba2764ba	-0.0006385554
97	0xba6b1290	-0.00089673046
98	0xba985150	-0.0011620913
99	0x399e6dd5	0.0003021794
100	0xbabda8cb	-0.001446986
101	0xb9b5df2c	-0.00034689286
102	0xb78ade81	-1.6554493e-05
103	0xba1e171b	-0.00060306647
104	0xba81975e	-0.000988703
105	0xb8d66222	-0.00010222594
106	0x3a026969	0.0004974814
107	0x3975ef9c	0.00023454282
108	0xb940ec8d	-0.00018398669
109	0x39de568b	0.0004240762
110	0xba484d4b	-0.0007640912
111	0xba2199e5	-0.00061645947
112	0xbaa04d8e	-0.0012230144
113	0xb948abe2	-0.00019137518
114	0xb89c95e1	-7.466577e-05
115	0xb9096416	-0.00013102623
116	0x390d4889	0.0001347383
117	0x3976c028	0.00023531972
118	0xba42385f	-0.00074089126
119	0x3854225c	5.057674e-05
120	0x399fa4dc	0.00030449673
121	0xba41ea2a	-0.0007397259
122	0xba870bc7	-0.0010303193
123	0xbae71bc9	-0.0017632182
124	0x38bbd411	8.956355e-05
125	0xb83aa4ac	-4.449922e-05
126	0x37d0e0fd	2.49003e-05
127	0xb91d0f37	-0.00014978355

exp_avg_sq f4 [128]
0	0x331fb748	3.7186766e-08
1	0x346692d8	2.147384e-07
2	0x3462a8b9	2.1109271e-07
3	0x33caebba	9.4492364e-08
4	0x34208e54	1.495294e-07
5	0x344c482f	1.9025241e-07
6	0x34abbc63	3.1988301e-07
7	0x339c17e8	7.2686646e-08
8	0x3382d365	6.092049e-08
9	0x33185222	3.5464957e-08
10	0x32b0723e	2.0541048e-08
11	0x339fcf53	7.4417265e-08
12	0x33a98f2e	7.89572e-08
13	0x341e1fca	1.4726461e-07
14	0x33eff87c	1.1174504e-07
15	0x34993232	2.8534993e-07
16	0x353753b8	6.829464e-07
17	0x34a075d0	2.9888042e-07
18	0x32a156e7	1.8782385e-08
19	0x33f433ae	1.1371536e-07
20	0x332f0514	4.074998e-08
21	0x34812970	2.4058272e-07
22	0x32fd6870	2.9500569e-08
23	0x32c64c80	2.3085022e-08
24	0x32e94313	2.7155272e-08
25	0x34f81c27	4.6214083e-07
26	0x33ed6f72	1.1056444e-07
27	0x349bb851	2.9005108e-07
28	0x3479450e	2.3215054e-07
29	0x3314618c	3.4547654e-08
30	0x346a7adc	2.1837644e-07
31	0x341081cc	1.3458265e-07
32	0x33fe9b32	1.18560266e-07
33	0x3410d1f2	1.3487423e-07
34	0x333fd913	4.466808e-08
35	0x3376edf8	5.749277e-08
36	0x33d842f1	1.00704604e-07
37	0x32e192c6	2.6260192e-08
38	0x34b4497a	3.3581074e-07
39	0x33b45f2a	8.3992134e-08
40	0x3438afa6	1.7200236e-07
41	0x34f2fbaf	4.5259137e-07
42	0x340162a6	1.204995e-07
43	0x34a109ee	2.9995812e-07
44	0x33d87f1c	1.0081405e-07
45	0x33789c06	5.7883902e-08
46	0x34888e5c	2.5435554e-07
47	0x34beec13	3.5562024e-07
48	0x332feef2	4.0962682e-08
49	0x34eaa800	4.3708133e-07
50	0x348f38cd	2.6677154e-07
51	0x3397e0df	7.072389e-08
52	0x35036be5	4.895831e-07
53	0x3425262b	1.5380708e-07
54	0x3397b5a9	7.064529e-08
55	0x331d81dc	3.6672517e-08
56	0x33a95651	7.8853766e-08
57	0x338bc997	6.509361e-08
58	0x3401f130	1.2101805e-07
59	0x32fe6652	2.9616022e-08
60	0x3322fbff	3.7947753e-08
61	0x33e4ed78	1.0660273e-07
62	0x3484ab3f	2.4711514e-07
63	0x346990c6	2.1752484e-07
64	0x3396c0c7	7.019985e-08
65	0x33f1dd64	1.1262708e-07
66	0x335e0619	5.169395e-08
67	0x34b85fe1	3.4342432e-07
68	0x349f9973	2.9727707e-07
69	0x33b528c3	8.435884e-08
70	0x33226c4b	3.7817056e-08
71	0x32be3f07	2.2147573e-08
72	0x3299e85c	1.7917209e-08
73	0x3458e010	2.0198081e-07
74	0x343d175d	1.7610496e-07
75	0x335fc80c	5.2103175e-08
76	0x33a0de04	7.490965e-08
77	0x3408852f	1.2714439e-07
78	0x3403ad1a	1.22633e-07
79	0x3296e376	1.7565736e-08
80	0x3334fd7e	4.2140066e-08
81	0x33a4aa91	7.667871e-08
82	0x32dd4bb9	2.576222e-08
83	0x333d44d2	4.4067583e-08
84	0x33c4e26c	9.168147e-08
85	0x3480b7f1	2.3975693e-07
86	0x331834a8	3.543815e-08
87	0x3426d69a	1.5538026e-07
88	0x329d51ef	1.8314465e-08
89	0x338a77d6	6.447924e-08
90	0x34191b45	1.4259156e-07
91	0x33fa4257	1.1653599e-07
92	0x33a0c23c	7.4859116e-08
93	0x3432784a	1.6621303e-07
94	0x3307e1ca	3.163749e-08
95	0x3337bb56	4.277839e-08
96	0x34e1974d	4.2019602e-07
97	0x344916ac	1.8727832e-07
98	0x3476d4a9	2.29879e-07
99	0x3303dba7	3.0700587e-08
100	0x348d33bf	2.6300947e-07
101	0x3430f7e0	1.6481454e-07
102	0x32c44e68	2.2853058e-08
103	0x336ac6d7	5.4663214e-08
104	0x344aae44	1.8876113e-07
105	0x32d098d3	2.4283883e-08
106	0x3398f632	7.122834e-08
107	0x33cdbf61	9.580868e-08
108	0x3416c2a2	1.4040646e-07
109	0x33e97c1c	1.08724834e-07
110	0x33a0c79b	7.4868886e-08
111	0x34daf703	4.078539e-07
112	0x3488e500	2.5498593e-07
113	0x3312bc48	3.4164515e-08
114	0x330b030d	3.2366234e-08
115	0x344261b6	1.8103205e-07
116	0x3305d6da	3.1161882e-08
117	0x33225d62	3.7803495e-08
118	0x338bc790	6.508992e-08
119	0x342e6a6e	1.6243732e-07
120	0x33584648	5.035534e-08
121	0x343e363b	1.7714858e-07
122	0x3436be70	1.7019352e-07
123	0x350bab07	5.203041e-07
124	0x335b058b	5.0994952e-08
125	0x3316e423	3.5132086e-08
126	0x3224a75f	9.584112e-09
127	0x32013e71	7.522986e-09
