BasicAvoidance/Assets/results/BasicAvoidance1/PlayerAvoidance/PlayerAvoidance-1444.onnx (onnx, 74465 bytes, 8 tensors)

network_body.observation_encoder.processors.0.normalizer.running_mean f4 [6]
000000 d3 3d a7 bd a5 d2 ff 3e 00 00 00 00 c6 42 c7 3b
       -0.08166089 0.49965397 0.0 0.006080958
000010 03 13 05 3f 40 44 3f 41
       0.51982135 11.954163

network_body._body_endoder.seq_layers.0.weight f4 [128, 6]
000000 16 ad 54 3e 10 eb 72 bf d8 6c 3f bf 22 be a0 be
       0.20769152 -0.94889927 -0.7477546 -0.3139506
000010 61 c8 09 bf bd 1c 92 be 91 9a 0f bf 32 16 a1 be
       -0.5382138 -0.2853755 -0.56095225 -0.31462246
000020 09 6c 19 3f 06 f4 48 3e 44 91 b2 3e 1a 47 6f be
       0.59930474 0.19624338 0.34876454 -0.23366967
000030 2a 7f 6a 3e 8b b7 79 be ab 2c 3e bf 63 22 1d be
       0.22900072 -0.24386422 -0.7428691 -0.15345149
000040 2f 18 2a be 96 ce 02 bd 23 c5 50 be 72 ec 91 bd
       -0.16610788 -0.031935297 -0.20387702 -0.071251765
000050 a3 33 6f 3e 0d 71 46 3d 9e 81 aa be d9 e3 e8 3e
       0.23359542 0.048447657 -0.33302015 0.45486334
000060 a0 f9 8e be 26 44 a9 3d 8e 8d b0 3e 15 5f 1c 3f
       -0.27924824 0.082649514 0.34482998 0.61082584
000070 f1 30 28 3e 42 6f 0c 3e c7 64 97 be dd 53 46 bf
       0.1642492 0.13714316 -0.29569075 -0.77471715
000080 40 24 f9 be a4 6e b3 3e 8c 44 99 3c 1c 6e 32 bf
       -0.4866047 0.3504535 0.018709444 -0.69699264
000090 ad ad 44 bf 6a 8b 0c 3f 75 79 f8 3e ca 78 d7 3e
       -0.7682751 0.5490023 0.48530164 0.42084342
0000a0 c6 89 97 bd 36 01 26 3e 0a 7c a4 bd e9 7a 06 3f
       -0.07399325 0.162114 -0.08031471 0.52531296
0000b0 9c 44 a1 be cc dd 10 bf 15 e3 12 3f 10 e6 81 3e
       -0.31497657 -0.56588435 0.5737775 0.25370836
0000c0 83 7b 92 3d e2 ff 15 bf b4 7f 28 3f b0 01 e1 be
       0.07152464 -0.5859357 0.6581986 -0.439466
0000d0 c7 f5 ea 3d 92 a0 ee be a6 26 c9 be 62 55 06 3e
       0.114726596 -0.4660688 -0.392873 0.13118508
0000e0 34 23 a2 be d2 36 8e be ca 36 b4 3e 54 7f ac 3e
       -0.31667483 -0.277762 0.3519805 0.33690894
0000f0 1f 21 3e be 14 66 35 bf 79 0d 6b be bb d2 b1 3e
       -0.18567322 -0.70858884 -0.22954358 0.34731087
000100 2c fd 18 3f 63 46 62 be d9 72 62 3e b7 5a 67 bf
       0.5976131 -0.22097163 0.22114123 -0.90372795
000110 26 08 7c 3f 62 02 4c 3e 10 c5 f9 3d d8 eb 9c be
       0.98449934 0.19922784 0.1219579 -0.30648685
000120 98 e1 4f 3f c3 ef 0a 3d 12 da ba 3e 60 44 1d 3f
       0.81203604 0.03392006 0.364945 0.61432457
000130 52 f1 65 bd 09 eb ba 3e e4 04 b0 3e f0 d4 80 bd
       -0.056138344 0.36507443 0.3437873 -0.062906146
000140 c3 75 30 be 14 39 b2 3e d6 43 0d 3f bd 5b fc 3e
       -0.17232423 0.34809172 0.55181634 0.4928874
000150 3e 66 2e be c0 75 e9 3e 40 57 76 bb 04 da 4e bf
       -0.1703119 0.4559765 -0.0037588626 -0.80801415
000160 82 d4 c9 3e dd 5d 66 3f 1d 53 63 be a2 f6 ba be
       0.39419943 0.89986974 -0.22199674 -0.3651629
000170 c7 98 57 bf 1e 14 cc 3e b8 2a fb 3e 4f 41 36 3d
       -0.84217495 0.39859098 0.4905603 0.044495877
000180 fc c8 9b 3e d4 e1 9e be 40 39 9d 3d 5d b7 c6 3d
       0.30426776 -0.31031668 0.07676935 0.097029425
000190 28 cc e0 3e 3a 8c 52 be 26 1f 0e bf b8 92 a9 3e
       0.4390576 -0.20561305 -0.5551628 0.3311975
0001a0 34 a2 8b be db dd 57 bf 9a d9 20 bd 5e d5 26 3e
       -0.2727219 -0.843229 -0.03927002 0.1629233
0001b0 62 61 1f 3d 4a 21 f9 3e bd 14 dd 3c 2c 45 dd 3c
       0.03891123 0.4865821 0.026987428 0.027010523
0001c0 fa 11 05 bf 4e 38 a6 be 4b dd e7 3e d2 62 1b 3d
       -0.51980555 -0.32464832 0.4528602 0.03793604
0001d0 a2 ba 6e 3f 35 9c 9b be 76 d5 b1 3e 59 33 65 bd
       0.9325353 -0.30392614 0.3473317 -0.055957172
0001e0 3b f3 cb bd 5f b9 e4 3e b0 55 87 be 86 c4 99 be
       -0.09958502 0.44672677 -0.26432562 -0.30032748
0001f0 4f 20 69 3d 70 a0 22 be db 29 80 3e f6 a3 0d be
       0.056915578 -0.15881515 0.25031933 -0.13832077
000200 51 e7 66 3f ee b9 dc bc be 7b 17 be d6 07 74 3e
       0.9019671 -0.026944127 -0.14793298 0.23831114
000210 09 f6 28 3d e1 f2 23 bf 51 9f 9a 3e 97 98 42 3f
       0.041250262 -0.6404248 0.30199674 0.76014084
000220 28 aa 12 be 20 71 b5 3f 8a 9d 92 3e 1d 20 e5 3c
       -0.14322722 1.4175148 0.28635818 0.027969414
000230 d9 c5 6d be b2 bb 31 3f c4 2d d3 be 3d 0c 96 3e
       -0.23220004 0.69427025 -0.41245854 0.29306212
000240 87 15 d0 bd 90 4e 2a bf 80 83 3b 3b 67 b8 34 bf
       -0.10160356 -0.66526127 0.0028612316 -0.70593876
000250 b4 c3 04 bf 43 29 69 be 52 18 12 3d 7a 9d 65 3e
       -0.5186112 -0.22769646 0.035667725 0.22423354
000260 bb a1 2c 3f 2e c7 18 3d c7 f1 76 bc d0 7c 1d 3e
       0.6743428 0.037299328 -0.015072293 0.15379643
000270 f0 7d f3 3d 88 2a d4 3d a2 72 1b be 13 6b 0f bf
       0.11889255 0.10359675 -0.15180448 -0.5602276
000280 5f 27 31 3e b7 da 29 3f a5 df 0a be 17 db e8 bc
       0.17300175 0.6634936 -0.13561876 -0.028424783
000290 9a 5e 15 3f 91 94 28 3e c1 98 86 3f ba d8 9b bd
       0.58347476 0.16462924 1.0515367 -0.07609697
0002a0 80 68 8b 3e 3f f3 c0 3e 3c b4 35 bd 2a 4c af 3d
       0.27228165 0.37685582 -0.044361338 0.08559449
0002b0 c5 18 08 3f 6f c8 c2 bd 7a cd 84 be 63 e1 64 bf
       0.53162795 -0.09510886 -0.25938016 -0.8940641
0002c0 0e a3 2f be 36 57 33 3e 86 2a 83 bd f5 79 03 bf
       -0.17152044 0.17513737 -0.06404595 -0.51357967
0002d0 16 05 8e be 2a bd 4f 3e 29 5b 37 3e 59 bc 19 3f
       -0.27738255 0.20287004 0.17905869 0.6005302
0002e0 16 79 74 3e 40 39 89 bd 2a d6 05 3e 5e 7a 09 be
       0.23874316 -0.06700373 0.13069978 -0.13425586
0002f0 74 bf e3 be 2a d1 1b be 0d 82 0a 3e c7 47 bc bd
       -0.44482005 -0.15216509 0.13526173 -0.09193378
000300 95 de bf be 25 bc c8 be ff a9 7d 3e ae 61 03 bf
       -0.37474504 -0.39206043 0.2477188 -0.5132092
000310 6b 89 31 bf 3f 7e 50 bf da c8 01 bf ea d4 9c 3e
       -0.6935031 -0.81442636 -0.506971 0.3063119
000320 17 71 dc bc 95 af d2 3d 64 63 1a bd cf 25 00 3f
       -0.026909394 0.10287396 -0.037692443 0.5005769
000330 fb b9 21 3e 5d b7 a7 3d fc b7 1c bf c5 0d 00 3e
       0.15793602 0.08189271 -0.6121824 0.12505253
000340 73 65 14 be 87 09 06 3f 40 0c a6 be 3e ec a8 be
       -0.14491825 0.5235829 -0.3243122 -0.32992738
000350 a4 6c da be 6d 9f aa 3e 7b d8 9e be 6b b1 82 3f
       -0.4266101 0.33324757 -0.31024536 1.0210394
000360 59 ab 09 be 79 7c 37 3f b5 3a 0b bd fe b6 9c bd
       -0.1344427 0.71674305 -0.033991534 -0.076520905
000370 e5 41 9a be 4b a6 8c bd 62 51 0b bf d1 73 19 3d
       -0.301284 -0.06867655 -0.54421055 0.037463967
000380 37 a1 a6 bb e2 9f 24 3f a9 85 1b bf 54 56 6b 3e
       -0.0050851363 0.6430646 -0.60750824 0.2298215
000390 82 7e 93 b9 23 c8 89 3e 9d 80 5f 3f c7 94 8c 3e
       -0.0002813228 0.26910505 0.87305623 0.27457258
0003a0 c0 8b 34 3d d6 b0 09 be 51 d1 32 bf 14 9a e7 be
       0.04407859 -0.13446364 -0.6985064 -0.4523474
0003b0 80 30 a3 3e a3 d6 11 3e fd b5 a1 be 24 a5 02 3f
       0.3187294 0.14242034 -0.3158416 0.51033235
0003c0 4f 58 11 bf 32 f8 24 be d5 30 98 3d 0d d4 a7 bf
       -0.56775373 -0.16110304 0.07431189 -1.3111588
0003d0 b6 f7 00 3f ef 8c 98 be a0 63 28 be 2e 55 79 3d
       0.50377977 -0.29795024 -0.16444254 0.06087225
0003e0 db ae 09 bf eb c3 f1 3e df e6 10 3e c5 73 7e bc
       -0.53782433 0.47219786 0.1415057 -0.015530531
0003f0 39 09 ab 3e d4 3b 18 3e 90 60 8c 3e 34 f8 9f 3e
       0.33405474 0.14866573 0.2741742 0.3124405

network_body._body_endoder.seq_layers.0.bias f4 [128]
000000 bc 23 74 bc af ae 66 3c 3e e3 16 bc 6e 55 1d bc
       -0.014901098 0.014079734 -0.009209452 -0.009602888
000010 80 f4 d3 b9 86 3a 2d 38 38 db 92 3c e8 3d 30 bc
       -0.00040427223 4.130092e-05 0.017926797 -0.010756947
000020 c6 99 ae bc bc ab f2 3b 85 1f 22 3c 11 ac 80 bc
       -0.02131356 0.0074057262 0.00989521 -0.015707048
000030 6c 59 61 bc 5b be 80 bb c8 d9 21 3c 31 be 2c 3c
       -0.01375423 -0.003928942 0.009878583 0.010543392
000040 fe bd 33 bc b2 bf b4 bb 84 5c 00 3c d0 da 9c bc
       -0.010970591 -0.005516016 0.007834557 -0.019147307
000050 bb 56 8d bc b3 97 46 bc d2 69 ae 3c d1 12 56 bc
       -0.01725327 -0.012121129 0.021290693 -0.01306601
000060 fb 79 9f bc a9 0c 84 bc 9b f0 92 bb f9 4c 8a bb
       -0.019467345 -0.016119318 -0.004484249 -0.0042206016
000070 bc 8d 39 bb d5 e0 96 3c e9 7f 87 3c 77 d3 a7 bc
       -0.002831324 0.018417755 0.016540485 -0.020486576
000080 15 de 06 bc 27 a9 81 3c 5f 1c 26 3c 1e b7 00 3c
       -0.008231659 0.015827728 0.0101386 0.007856159
000090 8c c7 d7 3c 88 32 d8 3c a0 7e 12 bc 89 7c 8e 3c
       0.026340269 0.026391283 -0.008941323 0.017393367
0000a0 76 f5 87 3b 89 6f 5c 3b a2 c1 6b ba 1d d2 58 bc
       0.0041491343 0.0033635816 -0.0008993392 -0.013233689
0000b0 55 01 89 3c 7d ab f2 3b 1a 22 b2 bb 0f f1 6e 3b
       0.016724268 0.007405697 -0.005436194 0.00364596
0000c0 cd da 16 bc b2 1d ef bc 62 12 86 3c dd aa 8b bc
       -0.00920744 -0.029188965 0.016366187 -0.017049247
0000d0 ac 13 02 bc d1 af e7 3c e2 65 11 3c c7 d7 93 bc
       -0.00793926 0.028282078 0.008874388 -0.018047227
0000e0 3c ae 8a bc 0e d3 f8 3c ce d3 e2 ba 0d b2 f5 3b
       -0.016928785 0.030374076 -0.0017305554 0.007498032
0000f0 99 92 97 bc 96 d5 72 bc df d7 1e 3c 1f 44 35 bc
       -0.01850252 -0.014821431 0.009695022 -0.011063605
000100 67 65 e8 bb 4d 15 cb 3c 5e 68 a5 3b fa 04 ce bb
       -0.007092166 0.02479043 0.005047842 -0.0062872143
000110 10 6b 70 3c 72 9a b7 3b bb 94 c2 3c 35 25 39 3c
       0.014673963 0.005603128 0.02375256 0.011300375
000120 4b 52 5a bc 8e 3f 03 3a 7b 78 63 bc e7 6e d7 3c
       -0.013325284 0.0005006724 -0.013883705 0.026298
000130 13 ce 86 ba 7e a7 77 bb 4c 84 9b bc 89 97 2d 3c
       -0.0010284804 -0.0037789042 -0.018983983 0.010595211
000140 76 a6 d6 3c ff 66 80 bc 49 2f 5d bc d8 b2 40 bc
       0.026202422 -0.015674112 -0.013500043 -0.01176139
000150 36 15 75 b9 eb 83 2d 3c a2 83 62 3b 65 71 2c bc
       -0.00023372922 0.010590534 0.0034563323 -0.010525082
000160 76 9b 93 3c 49 91 78 3c c6 58 9b 3c 3a 19 19 b9
       0.018018465 0.015171357 0.018963229 -0.00014600615
000170 25 bb b6 bb 49 a9 46 bc 69 41 af 3c ab a3 da bc
       -0.0055765086 -0.012125322 0.021393495 -0.026689371
000180 f3 bc dc 3c 88 ee 60 3c 95 65 04 bb 9a 9d 84 bb
       0.026945567 0.013728745 -0.002020215 -0.004047108
000190 87 59 5e 3c 62 31 fe bb f4 cd b0 3b cd e1 9a 3c
       0.01357115 -0.0077573517 0.0053956453 0.018906498
0001a0 84 5b 8b bc 6c c9 75 bc 68 f4 7d 3a 8b d9 10 bc
       -0.017011411 -0.015001636 0.00096876035 -0.008840929
0001b0 4b 68 10 bc 3b af d3 3c 87 fd f8 3b bc 5a 54 3b
       -0.008813928 0.025840392 0.007598582 0.0032402715
0001c0 ba 6f 68 bc ff 62 51 3c 95 bc 64 b9 38 52 d7 3c
       -0.014186794 0.01277995 -0.00021814027 0.026284322
0001d0 b9 b3 1d 3b 5c 67 97 3c ea bf 1b bc 28 e4 65 3c
       0.0024063422 0.018481903 -0.009506205 0.0140314475
0001e0 d0 b3 7c bc 50 20 5c 3c d8 1d 47 bc 52 6b 5d 3a
       -0.01542373 0.013435438 -0.012153111 0.0008446473
0001f0 f0 04 bf ba 74 1a 93 3c 9c 12 bd ba d6 3d a8 3b
       -0.0014573615 0.01795695 -0.0014425102 0.0051343245

network_body._body_endoder.seq_layers.2.weight f4 [128, 128]
000000 a7 22 04 3d ef da 33 bd 2c 51 c7 bc e9 2f 27 be
       0.03225961 -0.043909963 -0.024330698 -0.1632687
000010 9b c3 c9 bd 8b 59 97 bd ce 1c ed 3c d8 9b 40 3e
       -0.09851762 -0.07390126 0.0289444 0.1880945
000020 80 07 ef bc 2b 71 ec bb 08 ac 06 3a e3 86 0b be
       -0.029178381 -0.007215639 0.0005137329 -0.13625674
000030 fd 88 44 bd c0 d4 ca 3b 0c 42 28 bd b5 fb 2f bd
       -0.047982205 0.0061899126 -0.041078612 -0.042964656
000040 e4 d5 bd bd 76 4c da bd b7 d9 84 bd f4 e5 f2 bd
       -0.09269312 -0.10659115 -0.06486838 -0.11860266
000050 49 78 89 be f9 2b 00 3d 2c 7a e9 bc ee 38 86 bd
       -0.26849583 0.031291936 -0.028500639 -0.06553827
000060 df 9f dc 3c 82 9c a4 bd aa fe a7 bd f7 fe a6 bd
       0.026931701 -0.08037664 -0.0820287 -0.081540994
000070 d9 cc 92 bd cc 08 6c 3d 1d 7a a5 3d 4a 27 03 3e
       -0.07167978 0.057625577 0.08079932 0.12807956
000080 69 ec 25 bd fb b9 99 3b 9a 65 e3 bc 38 f2 32 3d
       -0.04050866 0.00469136 -0.027758408 0.04368803
000090 e4 38 b0 bd de 13 c0 bd a1 1b 88 3c eb d5 a8 bd
       -0.08604601 -0.09378789 0.016614737 -0.082439266
0000a0 40 8b 9f 3d 2f 33 a2 3d 81 54 e4 3c 0d 44 de 3d
       0.07790232 0.07919919 0.027872326 0.108528234
0000b0 0f ab f1 3d f4 a1 c6 3d 2d 2e 42 be d3 d2 fc 3c
       0.11800205 0.09698859 -0.18962927 0.030862248
0000c0 91 1a a8 bd 07 65 8d bd 55 18 08 3d f6 db 49 bc
       -0.08208192 -0.06904035 0.03322633 -0.012320509
0000d0 3b 14 86 bd 9f 09 3b bd a6 c0 ca bd 5d 94 ab bd
       -0.065468274 -0.045663472 -0.09900026 -0.083779074
0000e0 bc 1e d4 bd 58 9a 7d bd 20 ba a6 bb d2 6f 2b 3d
       -0.103574246 -0.06191477 -0.005088106 0.041854687
0000f0 03 b2 f1 3d df 0b 4f bd a7 e9 26 be 28 18 da 3d
       0.11801531 -0.05054843 -0.16300069 0.10649139
000100 84 15 0f be 83 b3 25 bd 80 6a 23 3d 20 b1 c8 3d
       -0.13973051 -0.0404544 0.03989649 0.09799409
000110 0f 5f 93 bd 8f dc e9 bd 12 b4 9e 3c a3 fb b1 3d
       -0.07195865 -0.11419021 0.019372974 0.08690574
000120 0c 84 63 bb 67 e5 7a 3d 51 14 bb bd 35 55 9b bd
       -0.0034716157 0.06125393 -0.091347344 -0.07584611
000130 fc 41 e5 3d 46 5a 8b 3d d5 2a 97 3d b6 43 50 bd
       0.11194226 0.06804328 0.073812164 -0.050845824
000140 e2 4e c4 3c 12 c3 5c bc c1 84 af 3d 11 25 04 3c
       0.023963396 -0.013474243 0.08570243 0.008065478
000150 92 35 11 bb 29 bb f3 3c c5 37 4c bd 98 12 ab bd
       -0.0022157175 0.02975233 -0.049857873 -0.08353156
000160 ac b9 06 3d 2e bb 15 bd 38 ab d4 bc dc 89 53 3c
       0.032891914 -0.03655546 -0.02596055 0.012911286
000170 2e 8c 36 be d1 01 8d 3d 7f fe ee 3c ee 9e f4 3c
       -0.17826912 0.06885112 0.029174088 0.02986094
000180 a4 f5 d9 3d db 7f 81 bd a2 a0 28 3d 15 c7 09 bd
       0.10642555 -0.063232146 0.041168816 -0.033637125
000190 7f 0d 82 bd 8d 1a 59 bd 26 a3 83 3d 7e e8 01 bd
       -0.063502304 -0.053003836 0.064276025 -0.031715862
0001a0 3c af 97 3c 8d 7b de bd 43 49 01 bd 05 1c 9c 3d
       0.018516175 -0.10863409 -0.03156401 0.07622532
0001b0 ec df dc bd e1 9c 53 3d 99 30 ff 3d 13 0a 93 3d
       -0.10784897 0.051663283 0.12460441 0.07179656
0001c0 d3 b4 c1 3d f6 52 ac 3d 11 ed 82 3c 00 27 2b be
       0.094583176 0.08414261 0.015982183 -0.16714096
0001d0 cb 7c 44 3d bb 1d 31 3a 17 9a 8b bd a6 92 73 3d
       0.047970574 0.00067564443 -0.068165 0.059466027
0001e0 53 30 85 bd 28 62 60 3e 8e f6 f1 bd b3 a5 24 3e
       -0.06503358 0.21912444 -0.11814605 0.16078834
0001f0 9a 3a 07 3e c5 58 bd bb 75 67 06 3c a0 53 f5 3c
       0.13205948 -0.0057784044 0.008203377 0.029947102
000200 64 ee b0 3d c9 54 19 3d 04 8d e5 3d 6f 1f 46 bd
       0.086392194 0.037434373 0.11208537 -0.04836982
000210 e2 89 1a bc d2 ff 73 be f0 40 cd bd 85 45 0e 3d
       -0.009432288 -0.23828056 -0.100221515 0.034734268
000220 3a 89 27 3d 69 6b 42 3e 31 26 55 3c 21 d4 e2 bd
       0.040902354 0.18986286 0.013009594 -0.11075617
000230 6b 22 cb 3d 7b c9 35 3e 27 8d 05 bd 56 96 94 bd
       0.09918674 0.1775264 -0.032605316 -0.07255237
000240 20 5a 9c 3b 0d 9e d7 bc a6 de 54 bd 39 ae 22 3d
       0.004771486 -0.026320482 -0.051970147 0.039716933
000250 a4 4f 2b 3d a2 65 f5 bd 33 7b c5 3d 5d 3b b5 3d
       0.041823998 -0.119822755 0.09642639 0.08849213
000260 f7 fc 37 bd 38 01 00 3e db 83 cd 3d 12 74 02 bd
       -0.04491898 0.12500465 0.10034915 -0.031848975
000270 45 d6 bf bd 74 b0 0e 3c 9a 99 42 be 0e 21 8c bc
       -0.093670405 0.008709062 -0.19003907 -0.017105605
000280 cc f3 3b 3e a2 6e 82 bc cc ed a9 bd 02 fe 53 be
       0.1835472 -0.015921894 -0.08297309 -0.20702365
000290 13 98 b2 bc 82 bc 03 be b5 7c a6 3d c2 82 d6 3d
       -0.02180103 -0.12864879 0.08129255 0.10474159
0002a0 58 7a 15 3d f7 ec c6 3c c5 0f 01 3d 42 cd d5 3d
       0.03649363 0.024282916 0.03150918 0.104395404
0002b0 e0 1c fe bd a9 9b f7 3c e0 0f be bd 0a e8 e5 bd
       -0.12407851 0.030225592 -0.09280372 -0.112258986
0002c0 52 ab 06 bd 4c ae f8 3d c4 77 30 3d 16 92 cd 3d
       -0.032878228 0.121426195 0.043082967 0.10037629
0002d0 98 83 be bd 6c 05 73 3c 87 b7 95 3d ae 2d 1b 3d
       -0.09302443 0.014832836 0.07310396 0.03788536
0002e0 6f 8b 04 3d 84 28 55 bd 92 0b 91 be 25 5c 00 be
       0.032359537 -0.05204059 -0.2832914 -0.1253515
0002f0 ee 45 b9 bc 3a e2 6c 3d 85 2e 12 3d 1a 95 be 3d
       -0.022616353 0.057832934 0.035688896 0.093057826
000300 f3 70 01 3e b2 6a 37 3e ac 29 83 3b 1b 4b 80 3c
       0.12640743 0.17911795 0.0040027704 0.015660813
000310 6b 77 b5 bd 27 83 48 3d a1 46 5b be 27 1d 16 3e
       -0.08860668 0.0489532 -0.21413662 0.14659558
000320 43 c1 5b bd f8 25 0e be 17 66 72 bd 5b b7 47 bb
       -0.053651106 -0.13881671 -0.05917939 -0.0030474279
000330 b2 fc ad bb 26 9f 9f bd 83 0a 38 3e c5 f8 18 3d
       -0.0053096646 -0.07794027 0.1797276 0.03734662
000340 d9 f5 2d be 90 33 9f bd 9b b8 5c bd 94 b2 a7 3d
       -0.16988315 -0.07773507 -0.05388699 0.08188358
000350 f6 88 c8 bd 62 5a f5 3d d8 7b bf bd 48 82 93 3b
       -0.09791748 0.1198013 -0.09349793 0.0045016147
000360 56 f8 a4 3d a3 06 a8 3d 17 bb d0 bd f6 de a7 bd
       0.08055179 0.08204391 -0.101919346 -0.08196823
000370 81 ed 80 3d bd bb 9d bd 2a f4 53 3c 16 21 a2 bd
       0.062953 -0.07701824 0.012936631 -0.07916467
000380 4b 10 8c bd a5 d6 26 3e 87 fd c1 3d c0 35 16 bd
       -0.06839045 0.16292818 0.09472185 -0.036672354
000390 37 44 8e 3d 26 5c a1 3c fa 5e 7d bc ad f6 83 3c
       0.06946605 0.01969726 -0.015464539 0.016108835
0003a0 f6 2c 53 3d 86 a5 97 3c 24 6c 87 3c 73 ce 86 bd
       0.05155655 0.018511545 0.016531058 -0.06582346
0003b0 16 d4 a4 bd bc e9 29 bd 1c 41 41 3d 51 31 f5 bc
       -0.08048265 -0.041482672 0.047181234 -0.029930742
0003c0 6b e8 5a bd 8d 6e e1 3b 09 d7 26 bd 07 45 b8 bd
       -0.053444307 0.0068796338 -0.040732417 -0.08997541
0003d0 3d ad 5d 3c c6 26 05 be 31 0c be 3d ea 27 c6 3d
       0.013530073 -0.13003072 0.09279669 0.09675582
0003e0 55 c4 18 be 82 8c ca bd 22 6f 5f bd 74 17 f3 bd
       -0.14918645 -0.09890081 -0.054549344 -0.11869708
0003f0 13 63 a4 bc df 2b 88 bd 85 ab c6 3d 61 d4 52 3d
       -0.020066774 -0.06648993 0.097006835 0.05147207

network_body._body_endoder.seq_layers.2.bias f4 [128]
000000 32 0e 87 3c c7 e1 bc bc 17 cf 90 bc bc dd 8d 3c
       0.016486261 -0.023056878 -0.017676873 0.017317645
000010 9e 06 2d bb af 61 cd 3c 83 9f 99 bc 00 d6 28 bb
       -0.002640165 0.025070993 -0.018752819 -0.002576232
000020 62 ac 46 3c 45 b4 4e bc f5 59 99 3c c7 53 a8 3c
       0.01212606 -0.012616222 0.018719653 0.02054776
000030 1c 72 24 3c dd 0e 59 bc e7 4e c1 3c 98 fa 78 bc
       0.010036971 -0.013248173 0.023597194 -0.015196465
000040 11 3a d7 3c ef 4b 40 3c 59 29 80 3c 84 9d 8b bc
       0.026272805 0.011736854 0.015644716 -0.017042883
000050 14 7d 92 bc d1 2d 42 bc 8e 16 47 3c f5 f8 32 bc
       -0.017881908 -0.011851744 0.012151374 -0.010923614
000060 3e eb 14 bc 41 43 e6 bb 75 34 45 bc 37 b3 2e 3c
       -0.009089289 -0.0070270603 -0.0120364325 0.010662845
000070 92 e9 4d 3c 99 ee 4b 3c 26 e2 88 3c bf 56 0a bb
       0.0125678945 0.012447023 0.016709398 -0.0021108834
000080 56 8a b1 3c 65 41 7e bb c5 21 56 bc f5 db 33 3c
       0.021672409 -0.0038796302 -0.013069575 0.010977735
000090 16 b3 85 bb c7 d3 bd bc db 45 a5 bb 56 2c 9d bc
       -0.0040801866 -0.023172272 -0.005043728 -0.01918618
0000a0 bd 80 8b bc 1f 38 55 bc a2 be ab bb d9 6e 5e bc
       -0.01702916 -0.013013869 -0.005241231 -0.013576233
0000b0 82 f5 f3 3b e3 35 4a bc ce de 57 bb 33 2f 9d bc
       0.0074450383 -0.012341949 -0.0032939198 -0.019187545
0000c0 cb 1f 9d bc 1b c7 ec 3c 80 68 7d bc 23 ee 03 bc
       -0.0191802 0.028903535 -0.015466809 -0.008052382
0000d0 74 1b 85 bc 7f 7f 64 bc 8f a7 74 bc 6a 40 ab 3c
       -0.016248442 -0.013946413 -0.014932527 0.020904738
0000e0 33 c6 43 bc d1 29 84 bc c1 23 9f 3c 46 da 2f ba
       -0.01194911 -0.01613322 0.019426228 -0.00067082455
0000f0 b5 2c 0e bc 29 10 3b 3c ef 0c dc bb 1a 8f 59 bc
       -0.008677651 0.011417427 -0.006715409 -0.013278747
000100 e2 a2 49 bc 04 68 83 bc 8b 89 63 bc af 70 98 bc
       -0.012306901 -0.01604081 -0.013887773 -0.01860842
000110 b9 89 81 bc 97 47 94 bc 6a 16 2b 3c 4a e9 c1 bb
       -0.015812742 -0.018100543 0.010442356 -0.005917703
000120 39 55 a3 3b 53 87 44 bc 09 99 79 3c 92 28 1c 3c
       0.0049845246 -0.011995154 0.01523424 0.009531157
000130 2e 66 9a 3a 7a a3 79 bc dd 45 f5 bb 84 13 b2 3c
       0.001177972 -0.01523673 -0.007485135 0.021737821
000140 30 62 e7 ba 1c 97 79 bc fd e1 94 bc 8a be 8e 3c
       -0.0017653164 -0.015233781 -0.018174166 0.01742484
000150 a5 57 6f bc 86 04 8c bc 5b be ce bb 6c cb 78 bc
       -0.014608298 -0.017092 -0.0063093132 -0.015185218
000160 45 81 8b bc 58 f8 83 bc aa 87 16 ba c9 5b 51 bc
       -0.017029414 -0.01610963 -0.00057422614 -0.012778231
000170 b4 df 48 3c 51 60 a6 bc 31 14 76 bc 70 06 90 3c
       0.012260366 -0.0203096 -0.015019462 0.017581195
000180 b6 e1 82 bc dc 6c 44 bc 2b f0 30 bc df f9 44 3c
       -0.015976768 -0.011988845 -0.010799448 0.012022465
000190 ed c3 e7 3b 54 89 70 3b 16 37 04 3c 65 0b 86 bc
       0.0070729167 0.0036702948 0.008069774 -0.016362855
0001a0 91 09 c3 3c ef c9 8c 3c 69 fa eb bb 9d e2 9b bc
       0.023808273 0.017186133 -0.007201482 -0.019028956
0001b0 44 2f 98 bc 4a 7a 89 3c 87 1a e6 bc f2 30 44 bc
       -0.018577226 0.016781945 -0.028088821 -0.01197456
0001c0 43 bf b1 3c ef ae 5c bc 2d fb 97 bc 79 1a 80 3b
       0.021697646 -0.013469442 -0.018552387 0.003909406
0001d0 f4 a2 13 bc 3c 5a a9 bc 9e 1f 2d bc d9 b7 ce bb
       -0.009011019 -0.02067291 -0.01056662 -0.0063085374
0001e0 53 d8 4f bc 14 32 60 bc 98 d0 08 bb 58 b6 e7 ba
       -0.012685853 -0.013683815 -0.0020876285 -0.0017678244
0001f0 82 8c 11 bc 05 03 45 3c 59 9c fc 3a 95 91 39 bc
       -0.008883597 0.012024646 0.001927267 -0.011326213

action_model._discrete_distribution.branches.0.weight f4 [3, 128]
000000 db a6 de ba 1e e4 24 3b 2b 8d bb bb 19 23 bb bc
       -0.0016986983 0.0025160383 -0.0057236156 -0.022843884
000010 f2 14 23 bc 93 cc a4 3a 3f 94 1b 3c da 33 78 bc
       -0.009953724 0.0012573175 0.009495794 -0.015149081
000020 4d 3a db ba 12 70 28 3c f4 8c 8b bc ed 1b 0c bc
       -0.0016725749 0.010280626 -0.017034985 -0.00855158
000030 16 05 8f bb 90 51 42 3a 0d 03 98 bc 4e 8d e6 3c
       -0.00436462 0.00074126665 -0.018556142 0.028143551
000040 9a 00 10 bc 69 e0 c6 bb 07 69 b6 3b 02 dd 06 3c
       -0.008789206 -0.0060692322 0.0055667195 0.008231403
000050 58 10 57 3c 05 68 aa 3c 7f 0b 8b 3c 0f a6 9e 3c
       0.013126455 0.020801554 0.016973255 0.019366292
000060 65 c7 b4 bb 39 18 c4 3b 31 55 be 3c e4 4e 50 bc
       -0.0055169337 0.005984333 0.023233982 -0.0127141215
000070 ae 5b 69 bc 0e 62 16 bd 54 a7 8e bc 17 10 06 3c
       -0.01424305 -0.036714606 -0.017413773 0.008182547
000080 65 f2 e2 bc 83 91 d7 ba 3c 2d 64 bb c8 18 8f bc
       -0.027703473 -0.0016446564 -0.0034817 -0.017467871
000090 c4 02 1e bc be 3c 12 bb 97 0e da 3c aa 3b 33 3c
       -0.009644214 -0.0022314037 0.026618285 0.010939518
0000a0 ea 6e bc bb 24 a3 2d ba ab 2a 29 3b 89 b5 a5 3c
       -0.0057505267 -0.0006623736 0.0025812786 0.020228164
0000b0 69 8a 43 bc 76 5e bc bb 75 1e bd 3c 81 9a e0 3b
       -0.011934855 -0.0057485653 0.023085812 0.006854356
0000c0 f8 8c 03 bb 1e a9 1c bc 5d 45 5e 3c 26 eb 58 ba
       -0.0020073038 -0.009561805 0.013566342 -0.0008274786
0000d0 50 5f 4d bc 77 53 4b ba 69 39 65 3c ba a4 a7 bc
       -0.012534931 -0.00077562727 0.013990738 -0.02046429
0000e0 9d 71 90 3c 8c 03 7c 3b 66 66 60 bc 3b 27 58 bb
       0.0176323 0.0038454263 -0.013696289 -0.0032982368
0000f0 81 22 12 3c 27 99 bb 39 12 42 d0 ba d7 29 8e 3c
       0.008919359 0.00035781527 -0.0015888831 0.017353935
000100 9c 02 96 3b 14 f4 32 3c cd 2a 8b 3c 54 49 f8 3b
       0.004577948 0.010922451 0.016988182 0.007577101
000110 cc 3b 90 3c bc d9 2e 3c 0c 65 c8 bb b3 9a 54 3c
       0.017606638 0.010672029 -0.0061155614 0.012976336
000120 db 54 b2 bc 7f 35 e2 bb 98 e3 3e bc 7e 25 0d bc
       -0.021768978 -0.00690335 -0.011650942 -0.008614896
000130 f2 69 a5 bb 54 6b 0b 3b 8f 51 38 bb 33 3e a5 bc
       -0.00504803 0.002127369 -0.0028124785 -0.02017126
000140 af c4 d5 bc 03 60 e7 3a d4 da a6 3b c7 c5 00 bc
       -0.026094763 0.0017652515 0.0050920043 -0.007859654
000150 38 92 59 bb f3 73 05 bb a4 6a 0d bc 99 68 fa 3c
       -0.0033198725 -0.00203633 -0.008631382 0.030567454
000160 d0 c6 db 3b 50 69 5d 3b ec 98 1e 3c d5 ec 49 3b
       0.00670705 0.0033784695 0.009680014 0.003081133
000170 2c 48 81 bc e7 b6 03 3b b8 b7 9f 3c 05 9c 11 ba
       -0.015781485 0.0020098032 0.019496784 -0.000555456
000180 15 3f b8 3c ea f5 89 3c 89 9f 86 bb 3e 50 7a bb
       0.022491017 0.016840894 -0.0041083735 -0.00381948
000190 e3 ad fc 3a 3d 63 89 bb bc e4 e6 bb f9 c5 42 3c
       0.0019277896 -0.0041927383 -0.00704631 0.011888021
0001a0 cb 8e f5 bb 92 45 8b bb b0 ab ed bb 88 c6 f8 b9
       -0.007493829 -0.004250237 -0.0072531328 -0.00047450163
0001b0 ad 96 cd 3b ed e3 74 bb fa d7 00 3c 4f 2b 32 bb
       0.0062740655 -0.00373673 0.007863993 -0.0027186458
0001c0 fe c1 ba bb f5 01 26 3c 5f cd 65 3a 7d 44 01 3a
       -0.005699395 0.0101323025 0.00087662594 0.0004931165
0001d0 0e 5b 82 3b 6b 75 12 3b 1d 87 26 bc 21 56 79 b9
       0.0039781397 0.0022347819 -0.010164049 -0.00023778576
0001e0 0c af 20 3b c3 93 8e 3c e8 51 be 3b ae d0 d5 bb
       0.0024518399 0.017404443 0.005808104 -0.0065251207
0001f0 88 52 d4 bb 1a 1d c3 bc 70 2e b6 ba e1 43 b5 39
       -0.006479565 -0.023817588 -0.0013899338 0.00034573584
000200 1a db 17 3c 8a ee 56 bb d4 c5 a8 bc d8 56 13 3c
       0.0092685465 -0.003279599 -0.020602144 0.008992873
000210 79 ee cb 39 72 0f 99 3c c4 35 66 3c 46 c6 dd 3a
       0.00038896853 0.018684123 0.014050905 0.0016920052
000220 cc 1e ad 3c 24 cf 33 bc b1 0e 97 3c c1 0f 95 3c
       0.02113285 -0.010974679 0.018439623 0.018195989
000230 25 5d a1 b9 08 ae 2d bc e4 9e a8 3c 8b 0b e7 bb
       -0.0003077771 -0.010600574 0.020583577 -0.0070509366
000240 cc fa b5 3c b8 9e 83 3c 8d 18 ac 3b fd d0 8e bc
       0.022214316 0.016066894 0.00525195 -0.017433638
000250 1f 1e 4d bc cd e9 d2 bc ba a0 6c 3c d6 1f 4a 3b
       -0.012519388 -0.02574625 0.014442617 0.003084173
000260 7b 31 97 bb a0 4b 2b 3c 38 b9 38 bc fc 52 a9 3b
       -0.004614053 0.010455042 -0.011274628 0.005167363
000270 89 f8 9b 3c 96 af 11 3c d3 8d 59 3c 08 be f1 39
       0.01903941 0.008891961 0.013278442 0.00046108686
000280 19 42 8e 3c e7 9f 58 3c c6 38 ba bb 41 2a 90 3c
       0.017365502 0.013221717 -0.0056830375 0.017598273
000290 ae 27 31 bb 69 7a 0d bb a0 e1 f8 ba 37 4a 1e 3c
       -0.0027031708 -0.0021587855 -0.001898814 0.009661249
0002a0 a8 c6 a4 bc 1f 15 4b bc f0 47 9b 3a 37 a7 83 bc
       -0.020114258 -0.012395172 0.0011847 -0.016070945
0002b0 16 4c a8 3b 32 48 3c bc c1 03 b7 3c bc 14 bc bc
       0.0051360233 -0.011491822 0.022340657 -0.022959106
0002c0 f0 24 53 bc 95 6d c2 3c 21 33 a4 bc 6c ae d3 bb
       -0.012887225 0.023733893 -0.020043911 -0.0064600017
0002d0 25 33 c7 bc a1 75 99 bc 34 13 fc bb a1 ae a1 3b
       -0.02431638 -0.018732848 -0.007692719 0.0049341475
0002e0 bb d9 d6 3b 5d 18 85 bb 44 58 19 3c 76 ff 4e 3c
       0.006556717 -0.004061742 0.009359423 0.012634149
0002f0 c6 6e 78 bb 2c 9d 7e 3c 12 18 b7 bc 17 01 da bc
       -0.0037907823 0.015540402 -0.022350345 -0.026611848
000300 90 f2 17 3c a5 1d 95 bc f9 13 8c bc 73 79 ae bc
       0.00927414 -0.018202612 -0.017099367 -0.021298146
000310 43 93 20 bc c9 8a 6a bc 1d e1 06 3c ea a0 17 bc
       -0.009800735 -0.0143153155 0.008232382 -0.0092546735
000320 36 28 0c bb 88 f1 33 bc a7 c9 76 3c b2 a9 19 3c
       -0.0021386272 -0.0109828785 0.015062726 0.009378837
000330 7d 7f bc 3b 6d 44 24 bd 08 28 26 bc 90 57 b9 3c
       0.0057525025 -0.04010432 -0.01014138 0.02262476
000340 97 19 97 bc 11 10 d9 bc 39 1f 95 bb c0 fa aa 3c
       -0.01844482 -0.026496919 -0.004550841 0.02087152
000350 7f 6b b3 bc 81 1a 65 bb a2 20 68 bb b9 4a 26 bc
       -0.021901844 -0.0034958425 -0.0035419841 -0.010149651
000360 98 06 0a bd cc d4 8c bc c8 96 a6 bb bb 1a 80 bc
       -0.033697695 -0.017191313 -0.0050838925 -0.015637746
000370 56 0b 83 3c 1a 3f f6 bc 93 4f d4 bc 99 f2 01 3c
       0.015996616 -0.030059386 -0.02591685 0.007931375
000380 e0 4b 6f bc 16 08 3b bb ba 74 52 bc 69 0a 2e 3c
       -0.014605492 -0.0028538755 -0.012845213 0.010622599
000390 88 3e 4f 3c 52 55 76 3c c3 11 b0 3c 7e 3c 8b bc
       0.012649186 0.01503499 0.021492844 -0.016996618
0003a0 42 04 0c 3d b2 84 92 3c 20 90 80 bc 0a 27 a6 bc
       0.034183748 0.01788554 -0.015693724 -0.020282287
0003b0 9a 56 15 bc df 31 5b 3c 6b 04 e7 3b 22 1a bc 3b
       -0.009114886 0.013378589 0.007050087 0.00574042
0003c0 74 ea c5 3c 63 b1 4a bc d7 af b0 bc 65 8b f5 3b
       0.024159648 -0.012371394 -0.021568222 0.0074934238
0003d0 f4 4c 4b bb 02 fe 83 bc 98 14 1b bc 69 9b ec 3a
       -0.003102121 -0.016112331 -0.009465359 0.0018051687
0003e0 a2 72 25 bc 75 75 20 bc 98 6f 14 3c 09 03 07 bb
       -0.010098131 -0.009793629 0.009059809 -0.0020601174
0003f0 1e 1f 6d ba cb aa 96 3c 1a 1e 2e 3c 24 61 6f bb
       -0.00090454693 0.018391987 0.010627294 -0.0036526406

action_model._discrete_distribution.branches.0.bias f4 [3]
000000 95 56 ce bb 0c bd 80 3c 18 5d 1b bc
       -0.0062969425 0.015715145 -0.0094826445

onnx::Div_52 f4 [6]
000000 75 17 0d 40 ac ec f0 3c 1d 81 d7 3c 5f 54 02 3d
       2.2045567 0.029409729 0.026306683 0.031818744
000010 72 59 46 3d a0 18 a6 3e
       0.048425145 0.32440662
