BasicAvoidance/Assets/results/BasicAvoidance1/PlayerAvoidance/PlayerAvoidance-68357.onnx (onnx, 74465 bytes, 8 tensors)

network_body.observation_encoder.processors.0.normalizer.running_mean f4 [6]
00000000: 22e2 2bbe d1fd ff3e 0000 0000 ca72 c13b
00000010: c2b0 023f 450c 3540
-0.16785482 0.49998334 0.0 0.0059035765 0.5105096 2.8288739

network_body._body_endoder.seq_layers.0.weight f4 [128, 6]
00000000: 32f9 a23e 3eff b0be 0a16 8fbe 72cd b2be
00000010: e5f9 873e 13b7 a1bc 43d8 19bf 5fec 1dbf
00000020: 1efe 73be d4e9 3d3e bc04 a9be bf58 a5be
00000030: 4ead a73e 9033 6d3f 0546 1b3e 727b 5cbe
00000040: 2436 3bbd 5830 46bd d09f 073d b5fd cdbe
00000050: f6fc d2be 2315 ad3e 5733 7fbf 3174 cf3c
00000060: 1c5f 5b3f 6385 e5be d9ef 00bd 388e c9be
00000070: 5bf2 d2be cdca babe 4185 6e3e 8758 1abe
00000080: 243b ea3e 528d 733e 2b4f f93e 4b48 97bd
00000090: f727 9fbe 6ea5 04be 9192 5eb9 d51d 87be
000000a0: 67ec 5c3e 751a cf3d e04a 383e d187 91bb
000000b0: fca7 97be 1c29 073c cad0 a4be a779 c13e
000000c0: 59b0 ffbe 9116 91bf d6ab 4abe e6e0 56be
000000d0: 64b4 c73e 7f6d 283e 08cf dbbe 1b39 eb3d
000000e0: ab1b 653f cdb8 89bd bbbd 0c3f 4f29 703e
000000f0: 1bac 2cbd 3e67 f2be 2d72 99be 242f 733e
00000100: d668 5dbe f3dd be3d 674f 743f 8aaf 643e
00000110: 9a4b 64be 1743 513f 01bb 9d3e ab7f b13e
00000120: 39a4 e0be 5e72 c13e 4a01 9b3e 6969 0b3f
00000130: 9229 64bc 63ad 803e b4b9 28be 22a0 b13d
00000140: 6ca9 b43d f318 b7be 2827 c9be 1664 1a3d
00000150: 0b25 d13e ed92 853d 27a9 223e 1dcd fbbe
00000160: 51b0 9cbe 6513 0cbe 53f6 29bf 8937 ee3e
00000170: 1ab8 283f a947 16bf 39a2 123f 7e7c 0abf
00000180: e40d 5c3f 5667 85be 2f97 703e c9d8 42bd
00000190: 38c8 ffbd 6211 823e 92ed e4bb 5411 17be
000001a0: 1177 1fbe 5e7d 053e 28ed eb3e 124a c03e
000001b0: 7835 2e3f e556 80be 508c c5be 3fc5 213f
000001c0: c78e 843e 95a5 5b3e 57e5 06bf 23b9 2cbf
000001d0: 4938 c1be cae4 d43e e50c 9fbd 24a0 0b3d
000001e0: 0b50 133f 0a08 65bf 6603 c53e 18b9 1abe
000001f0: da2e 2b3f 6b4f 9abe 413e 23be adc1 77bd
00000200: 1cc4 a93e 38f1 4b3f 6d4a 7c3d c184 933e
00000210: 8c1e 10be f607 72be 6461 40bf a625 c03e
00000220: 2583 e9be e2bc 0e3f b5b8 0abf a6b2 043e
00000230: 2246 a2bd 0de9 6c3d 2d1c 50bf 892d adbe
00000240: daf1 8c3e cdd3 7a3e e858 6c3e f80f 17be
00000250: 98cf b7be 026f 2b3f 920c adbd 525c 11bf
00000260: a1de e4be f7d0 483d 03e3 ed3e 431d a83c
00000270: 7a49 353e 4cbe 9abd 4c2c 36be 2a67 09bf
00000280: 97be 87be a26f ccbe 2fa6 d03e b647 1ebf
00000290: ab13 15bd 3990 0bbe 3b70 39bf 518a 1abe
000002a0: 4362 7fbe 6e48 0f3f cff9 0d3f 35e4 563f
000002b0: 13bd 9c3e 65fc 02bf fc5a b03e 8810 843e
000002c0: 7163 da3d 5f6a bb3d 6312 88be 714b 2cbe
000002d0: 1544 a9be 8afb 5e3e ebbc 62be ffba bc3e
000002e0: 35f8 a2be 7354 2c3e e2cf d9be fb7b 31be
000002f0: a8fb b5be e1d4 813e cc52 a0bf e0fd 693e
00000300: fde2 b6be 42a3 88be a29c a53e 4841 063f
00000310: 1015 e3bd 2bab 72be e7d0 173f 808d fb3e
00000320: af37 e6bc 81a8 efbd d168 e13d f667 d63c
00000330: 6841 49be d0a2 fd3e b119 043f fad3 e13e
00000340: 0a21 dc3c c7fc 11bf 5803 92bd c721 b3bd
00000350: e21b 58be 5aed a03e 445c 63bd c201 9b3e
00000360: 7f5a 02be 7167 423e e386 52be d198 ea3e
00000370: 9fbe 1fbf 5a63 6abf 6385 4cbe 739c 02bf
00000380: 31c3 a3bd 4ebb 1e3f 785f 073c 265b 393f
00000390: e55b e4be 36f3 823e e409 9ebe 384a 843e
000003a0: 4758 223e da33 10bf 4622 a4be 7a01 5bbe
000003b0: 8497 d7be 0034 cebe 4eb1 78bd f846 5ebf
000003c0: e3b2 60be 8459 4abe c07d 92be b124 babe
000003d0: dfa9 a13c b880 1a3e 418d ae3e 5157 873e
000003e0: 1670 5ebe ace3 5ebd 93f2 173f 6077 e1b8
000003f0: 6b8f 3dbe 4393 00bf fc0c 63be ce91 4bbe
0.31830746 -0.34569734 -0.27946502 -0.34922367 0.26557842 -0.019740617 -0.60095614 -0.616888
-0.23827407 0.1854623 -0.33011425 -0.3229427 0.32749408 0.92656803 0.15163429 -0.21531466
-0.04570593 -0.048385948 0.033111393 -0.40232626 -0.4120862 0.3380519 -0.99687713 0.025323959
0.85692 -0.44828328 -0.031478737 -0.39366317 -0.41200528 -0.3648285 0.2329302 -0.15072833
0.45748246 0.23784378 0.48693213 -0.07386836 -0.31085178 -0.12953731 -0.0002122617 -0.26389948
0.21574555 0.10112468 0.17997313 -0.0044412394 -0.2962035 0.008249547 -0.32190543 0.37788126
-0.4993923 -1.1335012 -0.19792113 -0.2098423 0.39004815 0.1644802 -0.4293139 0.114855014
0.8949534 -0.06724701 0.54977006 0.23453258 -0.04215632 -0.47344393 -0.29969922 0.23748451
-0.21622023 0.09319677 0.9543366 0.22332588 -0.22294465 0.81742996 0.30806735 0.34667715
-0.43875292 0.37782568 0.3027442 0.5445772 -0.013925927 0.25132284 -0.1647709 0.08673121
0.08821377 -0.35761222 -0.39287686 0.037693106 0.40848574 0.065221645 0.15884839 -0.49179927
-0.3060327 -0.13679273 -0.66391486 0.46526745 0.65905917 -0.58703095 0.5727878 -0.5409621
0.85958695 -0.26055402 0.23495172 -0.047570024 -0.124893606 0.25403887 -0.0069863284 -0.14752704
-0.15572764 0.13036105 0.46079373 0.3755651 0.68050337 -0.25066295 -0.38583612 0.631916
0.2589018 0.21449883 -0.52693695 -0.67469996 -0.37738255 0.41580802 -0.07766131 0.03408827
0.5754401 -0.8946539 0.38479155 -0.1510967 0.66868365 -0.30138716 -0.15941717 -0.060487438
0.33157432 0.79664946 0.061594415 0.2881222 -0.14074153 -0.2363585 -0.75148606 0.37528723
-0.45607868 0.5575696 -0.5418809 0.12958774 -0.07923533 0.057839442 -0.8129299 -0.33823803
0.27528268 0.24494858 0.2308079 -0.14752185 -0.3590057 0.6696626 -0.08449663 -0.56781495
-0.44701102 0.04902741 0.4646226 0.020521766 0.1770381 -0.075558275 -0.17790335 -0.5367304
-0.26512596 -0.3992892 0.40751788 -0.6182817 -0.03639571 -0.13629235 -0.72436875 -0.15091826
-0.24939828 0.55969894 0.554593 0.83941966 0.30613002 -0.51166373 0.34444416 0.25793862
0.10663498 0.09151148 -0.26576528 -0.16825654 -0.33059755 0.21775642 -0.22142379 0.36861417
-0.31829992 0.1682909 -0.42541414 -0.17332451 -0.3554356 0.25357726 -1.2525268 0.22850752
-0.35720053 -0.26687056 0.32346064 0.5244336 -0.11088002 -0.23698108 0.59303135 0.49131393
-0.028102724 -0.117020614 0.1100632 0.02617262 -0.19653857 0.4953828 0.516017 0.44107038
0.026871223 -0.5702633 -0.07129544 -0.08746677 -0.21104386 0.31431085 -0.055507913 0.3027478
-0.12729834 0.18984772 -0.20559268 0.45819715 -0.6240024 -0.9155785 -0.19972758 -0.5101997
-0.07996214 0.62004554 0.008262508 0.72404706 -0.4460136 0.2557618 -0.3086692 0.25837874
0.15853988 -0.5632912 -0.320574 -0.21387282 -0.42107785 -0.40274048 -0.060715966 -0.8682704
-0.2194324 -0.1976071 -0.28611565 -0.36356118 0.019734321 0.15088165 0.34092143 0.26433805
-0.21722445 -0.054416344 0.59354514 -0.000107510714 -0.18511741 -0.50224704 -0.22172922 -0.19879839

network_body._body_endoder.seq_layers.0.bias f4 [128]
00000000: ba31 2abc d46c 19bd f4ec 403d c4d4 063e
00000010: 832a fe3c 534e 823d d505 9dbd db1a efbc
00000020: 7bc9 ddbd f563 c8ba 20b7 643b 31a8 3d3d
00000030: 2987 c5bc 8604 12be 2586 4ebd c913 0abd
00000040: 620b 0a3d cb37 cbbd 4bc1 fc3a 24b9 47bd
00000050: 36f1 943d 4762 b7bd 231a 8c3c 9d7c 0abd
00000060: 3b58 873d 6fed 4abd 32fa 8b3d 427e 0e3e
00000070: 2f1b 44bc f098 923d d723 8cbd 5e30 093e
00000080: 5e1a 93bc 7fbd 31bd f070 373d f487 f4bd
00000090: ba2f 0a3e 4fc9 ce3c 4769 adbd 5aa2 4db7
000000a0: ba96 89bd ec07 cb3c b4c6 c5bd 4afa b1bd
000000b0: 887e c13d 5b0d b3bc f0c2 df3d 6f4a b03a
000000c0: e8fa c93b aecd 7a3d 3a63 3abb 6c52 01bd
000000d0: e0f9 2fbc 518f f23d ef28 283d 6f3b c1bc
000000e0: 8b81 b0bd 4e0d 01be c1ce e9bb 2cb0 75bd
000000f0: 00d6 5dbd afe1 92bd 4016 c73d fb50 733c
00000100: a000 f0bc 07f8 12be 8342 1f3e 5b37 c43d
00000110: 49ae adbd 5962 5fbd d724 0cbe c1e8 84bd
00000120: 5beb b9bd d8cf bcba 986f 933c a2a1 083d
00000130: 8915 483d b120 64bd fdea 813d 613c 7c3d
00000140: 83c2 6f3d 1eb9 ddbd a5f6 483c 09da 103e
00000150: 0b7e 703b 2e8e b5bd 7a6e 93bd b4bd ed3d
00000160: 8490 973c c348 2fbd f5f3 1c3c 6467 f0bd
00000170: 9d7b a63d 2564 6d3d 212a 01be 5af2 cfbd
00000180: 6276 293d 1b48 373d c262 013c 3544 bf3b
00000190: 5636 8b3d c47a 52bd f029 053e 37e6 d6bd
000001a0: a5b1 e83c d418 3fbd ce03 0cbe 71f6 05be
000001b0: 8055 f73d 52cf dd3d 988c 25bd 96d6 0cbd
000001c0: 74a4 f4bc d646 1cbd 1c5c 883d cb3b ee3d
000001d0: a782 963d dab1 cf3d 7896 f53c 9728 d9bd
000001e0: 2f52 c03d 7258 b6bd 4630 cc3d 7257 44bd
000001f0: 8b42 95bc 809a 0ebd 4a11 3ebd 1244 c83d
-0.010387832 -0.037457302 0.047100976 0.13167101 0.03102613 0.063625954 -0.07667128 -0.02918761
-0.10829445 -0.0015288579 0.003489919 0.046302978 -0.024112301 -0.14259538 -0.0504209 -0.033710275
0.03370226 -0.09922751 0.001928368 -0.04876055 0.0727257 -0.08954292 0.017102307 -0.033810247
0.066086255 -0.04954284 0.0683483 0.13915351 -0.011969372 0.07158077 -0.068427734 0.13397357
-0.017956909 -0.04339361 0.04478544 -0.119399935 0.13494769 0.025242476 -0.08467346 -1.2256753e-05
-0.06718202 0.02478405 -0.0965704 -0.08690317 0.09447962 -0.021856954 0.10925853 0.0013449917
0.0061639436 0.061231308 -0.0028440491 -0.031572744 -0.010740727 0.11843742 0.041054662 -0.02358791
-0.08618458 -0.12602732 -0.0071352427 -0.059982464 -0.054159164 -0.07171952 0.09721041 0.01485085
-0.029297173 -0.14352427 0.15552716 0.09580871 -0.08480508 -0.05453715 -0.13685928 -0.06489707
-0.090780936 -0.0014405204 0.017997548 0.03335727 0.048848663 -0.05569524 0.063436486 0.06158102
0.05853511 -0.10826324 0.012265836 0.14145674 0.0036696221 -0.08865009 -0.07198806 0.116084486
0.018501528 -0.042794 0.009579648 -0.1173847 0.08129046 0.057956833 -0.12613727 -0.10153647
0.041372664 0.0447465 0.007897081 0.0058369883 0.06797473 -0.05138661 0.13004279 -0.10493129
0.02840502 -0.046654537 -0.13673326 -0.13082291 0.12076855 0.10830559 -0.040417284 -0.034384333
-0.029863574 -0.038153492 0.066581935 0.11632498 0.07349139 0.10141344 0.029978976 -0.10603445
0.09390675 -0.08903588 0.09970145 -0.047934957 -0.018220207 -0.03481531 -0.046403207 0.097786084

network_body._body_endoder.seq_layers.2.weight f4 [128, 128]
00000000: e99c 88bc a1ac 573d afd8 ad3d d585 9c3d
00000010: 9bf4 7b3d b04a 20bd 457f 933d 850f 16bd
00000020: 19bf ac3c 92ff 0ebe 2801 75be dc33 29bd
00000030: 0f64 35bd d560 da3d 5db8 66bc 3c93 d13d
00000040: d14f d53d f0ed 00be c82c 76bc 9374 203e
00000050: 339b bcbd e400 56bd 2d4e ddbd 173e 9abd
00000060: 5627 1f38 b390 aabd f124 99bc 1314 cbbd
00000070: 9bd9 3ebe 5182 5fbd 4a87 f0bc 0ca6 7ebd
00000080: 55be 993d b439 383e 23fc 69bd 6c8b 81bd
00000090: bb21 83bd 3c04 0a3d 604c a23d 1ca9 37be
000000a0: e86d 03bd 3308 fbbc 9015 dbb8 22ed fbbd
000000b0: ae6f bbbb 775c 023e 32ac debc 4085 03be
000000c0: f424 7f3d 3858 d1bb 26da cb3c 52b1 d63d
000000d0: ee9e 193d ffb1 5dbd d0db c0bd ea6e fdbc
000000e0: 1211 2cbe c826 483e 0f47 15be 6644 66bc
000000f0: 6415 c9bd 7a98 bbbc 2398 b5bd d947 24be
00000100: e3c5 a5bd e427 aa3c b9e7 a5bc dfe0 453c
00000110: 8399 00be fd64 6cbd 3720 063c 8a15 b0bd
00000120: a5ee 483c 7b03 fcbd 92c7 bf3d 9146 e63c
00000130: 6630 04bd 5df1 c63b 2b31 85bd e86e 28bd
00000140: 52cf 6b3e 779e 7c3d c7b6 753d 80c0 54bc
00000150: 597a 8ebd b2ae 123e 19f6 b1bc 6f4d 7fbb
00000160: bdc0 b4bd 2f60 7a3d 92cc 5dbd 0269 0f3c
00000170: 811a 3ebc 17ae f2bd e862 6c3b 7fad 4dbc
00000180: bc15 d43c 7643 91bd 1aa8 10be 89cc 1f3d
00000190: 0bc8 8ebb 9a9a cdbc 003c 8dbc 497a 553d
000001a0: 52bd f23c 4561 053c 767e 243d 34b9 8f3d
000001b0: 3e22 02be 86d0 b6bd 04bf cc3d 1cc5 4a3e
000001c0: 8dad cebd 9989 5dbe 64ea cebd b759 1a3d
000001d0: c963 e03d 5bf9 a23d b9f5 bf3d c612 343d
000001e0: 2beb 51bd 5c41 0d3e cc59 febd e1ce 863b
000001f0: 9fd3 b9bc 6c27 b8bd 30e7 0dbd 7289 8a3d
00000200: 2218 c1bd bfbe 3a3b 1cff 91bd 47f4 d5bd
00000210: 5064 123d d085 41bd 81a9 743e 132f c5bd
00000220: d14d 0cbe 00e8 813d 5a39 30bd 837e 23be
00000230: 9b79 ac3b a21d cb3d cddf 1b3e e073 2ebd
00000240: 5fee 4bbd cf58 75be 0eb0 ad3d 89c3 89bd
00000250: b91f 35be a643 e3bd b752 a5bd ee5a f7bc
00000260: e841 01be 408b edbd 7b89 19be a6fc 6ebd
00000270: 669f 2e3d 9e53 003e 7bfc 33bd ca06 543d
00000280: 5ae0 b7bd e5c9 543d 1fe3 033d 80f0 583c
00000290: a0d8 79be 6471 09bd 001f aabd 3daf 4cbe
000002a0: aa4a cd3c d739 01be 8cdc 313c f1c8 5dbc
000002b0: 6541 f8bc 7d4c 9fbc 4506 b1bd ff29 dfbd
000002c0: 627c 37bd e417 423b 205b f83d ae4d f93c
000002d0: 2067 b3bd 44be b63c d5ee 823b 1b9f cc3b
000002e0: 2d5e 58bd c39f b93d 1571 383d 5956 823d
000002f0: 7906 a53c 19f7 c3bd bca8 e03d b38f 17be
00000300: 2836 3f3d 88c8 23be a24c dbbd 1fbb ecbd
00000310: b35a 03be 75c4 0c3d d540 14bc ad2d 013e
00000320: a4fc aabd de5d a4bd 1950 a73d 09a0 be3d
00000330: db52 62bd 9a5b 743c f015 54be 2f0d 3dbe
00000340: 215d e33c a0a7 353d b865 013d 1f1b 4a3e
00000350: 881c dc3c 1cfd 703e 8cae 213e dcbb d1bd
00000360: 2586 85bd 7cb1 a3bd f948 2cbe 12cc 873d
00000370: 9365 2f3c 0d77 843d 2a66 913d a4ee 3cbe
00000380: 9b63 90bd 8709 4ebc 510d 2bbe b671 7ebd
00000390: 8520 e4bd dea6 e23d 210d 4ebd 8bd2 00be
000003a0: ada0 32bd 8f9e ffbd 8b38 0fbd 414e 523d
000003b0: 76ae 91bd 3572 2dbe 989b bbbc d378 293e
000003c0: a1cb 1e3d a381 943c d5ab 6dbd f89c 44be
000003d0: e08e e83d b446 44bd a120 8abd 8120 d43b
000003e0: 29ba 05bd 041f 8bbd 845a 2bbe 3d13 0c3d
000003f0: 6a5b 85bd c4b3 08be cea3 4d3e ed18 7c3c
-0.016676383 0.052654866 0.08488595 0.07642714 0.06151257 -0.039133728 0.07202009 -0.036635894
0.021087216 -0.1396468 -0.23926222 -0.041309223 -0.044284876 0.106630005 -0.014082042 0.10233161
0.104156144 -0.12590766 -0.015025325 0.1566947 -0.092092894 -0.052246943 -0.108059265 -0.07531374
3.794519e-05 -0.083283804 -0.018694373 -0.09915938 -0.18637697 -0.05456764 -0.029361386 -0.062170073
0.07507006 0.17990762 -0.057125222 -0.06325421 -0.06402918 0.033695444 0.079247236 -0.17935604
-0.032087237 -0.030643558 -0.0001044675 -0.12301089 -0.0057201004 0.12730585 -0.027181718 -0.128438
0.0622911 -0.0063886903 0.024884295 0.1048304 0.037505083 -0.05412483 -0.09416926 -0.030936677
-0.16803387 0.19546044 -0.14577888 -0.014054393 -0.09818533 -0.022899855 -0.088669084 -0.16043033
-0.080943845 0.020770974 -0.020252096 0.012077539 -0.1255856 -0.057713497 0.008186392 -0.08597858
0.012263929 -0.12305351 0.09364237 0.02810982 -0.03227272 0.006071253 -0.06503519 -0.041121393
0.23028305 0.06167456 0.059988763 -0.012985349 -0.0695693 0.14324453 -0.021723794 -0.0038956066
-0.088258244 0.061126884 -0.05415017 0.008753063 -0.011602999 -0.11849611 0.0036069695 -0.012553572
0.02588927 -0.07092945 -0.14126626 0.03901342 -0.004357343 -0.025098134 -0.017240524 0.052118573
0.02963129 0.008140867 0.040159665 0.070177466 -0.12708375 -0.089264914 0.09997371 0.19801754
-0.10091696 -0.2163452 -0.101033 0.037683215 0.109565325 0.07957717 0.0937304 0.043963216
-0.051249664 0.13794464 -0.12419471 0.0041140174 -0.022683917 -0.08991894 -0.034644306 0.06764497
-0.09428431 0.0028495041 -0.071287364 -0.10446983 0.035740197 -0.047246754 0.23892786 -0.09628119
-0.1370156 0.063430786 -0.043023445 -0.15966229 0.00526352 0.099177614 0.15222092 -0.042590976
-0.049787875 -0.23959659 0.084808454 -0.067267485 -0.17687882 -0.11096887 -0.08072417 -0.030194726
-0.12622797 -0.115988255 -0.14993851 -0.058346413 0.042632483 0.12531897 -0.043941956 0.051764287
-0.089783385 0.051950354 0.03219902 0.013240933 -0.24399042 -0.033555403 -0.08306694 -0.19988723
0.025060017 -0.1261972 0.010855805 -0.013536678 -0.03030462 -0.019445652 -0.08643774 -0.10896682
-0.044796355 0.002961629 0.12126756 0.030432548 -0.08759904 0.022307523 0.003995756 0.006244553
-0.052824188 0.09063675 0.04502972 0.06364126 0.020144688 -0.095686145 0.109696835 -0.1480091
0.046682507 -0.15994465 -0.10707976 -0.11559128 -0.12827568 0.034367044 -0.00904866 0.1261508
-0.083489686 -0.08025716 0.08169574 0.09307868 -0.0552548 0.014914418 -0.20711493 -0.1846206
0.027754368 0.044349313 0.031591147 0.19736908 0.026869074 0.23534054 0.1578924 -0.102409095
-0.06519727 -0.07992837 -0.16824712 0.0663072 0.0107053695 0.0646802 0.070995644 -0.18450409
-0.07050248 -0.012575514 -0.16704299 -0.062120162 -0.11139015 0.11066984 -0.05030549 -0.12580316
-0.043610264 -0.124814145 -0.034966033 0.05134416 -0.07113354 -0.16938098 -0.022901341 0.16549997
0.038768414 0.018128222 -0.0580252 -0.19200504 0.11355376 -0.04791899 -0.06744505 0.0064736013
-0.03264824 -0.06793025 -0.16733748 0.034198035 -0.065115765 -0.13349825 0.20082018 0.015386802

network_body._body_endoder.seq_layers.2.bias f4 [128]
00000000: 3466 03be 88c7 ffbd be18 53be ab9a 063c
00000010: 3512 25bd 89cc 88bd eae6 0cbd 7e69 f43d
00000020: d640 00be 9d0e b0bd 8741 573d ea4f e73d
00000030: 57c1 99bd 791c d9bd 0dd5 40bd 4eb6 c63c
00000040: 1d6a 093e e984 ae3d 3cc7 8d3d d673 cc3d
00000050: 919b fd3d 7ca4 02be e732 0d3e 9d9b 013e
00000060: de56 c3bc dcb9 be3d d98a 873d e88a a53d
00000070: 4e11 1b3e 5f87 d93d 8e5f 8e3d 4e28 93bc
00000080: ec8a ecbd 978c 913c 6741 15be d298 233e
00000090: 2bf8 f03c 2bd8 a5bd 13a0 29bd eff0 e1bd
000000a0: 244c babd 4f6d 183d 9e37 f93d c881 8ebd
000000b0: 2021 9b3d d5ee edbd c64d dcbd fda0 aebd
000000c0: b5de b9bd eb31 463d 0648 193e ee0d 8abd
000000d0: 1035 5cbd 38ec e2bd 57d8 003e 3f17 88bd
000000e0: 1c15 efbd f162 1e3e 65a3 8dbd 3e72 82bd
000000f0: 5074 f33d a9b2 78bd 54a1 d03c 79b9 c63d
00000100: 9bec 0ebd 4710 e2bd 1b42 823d 2535 0dbd
00000110: 1df1 fd3d 2aef 83bd 1fdd 2fbd 080a e23d
00000120: 8115 ec3d 6184 c0bb 1d51 2fbd 708a a73d
00000130: 3cbd f93d 5643 f2bd c6fa 29be 3785 14be
00000140: 0392 ed3d a754 f13d 2de2 963d ee21 febd
00000150: 80a4 16bd 3c2d c8bd 609f 5ebd 92c6 f6bc
00000160: ef3c 3cbe 0b2f 053e cb44 7b3c 672a 7dbd
00000170: ccb2 c7bd a692 b13d 60e1 7abd 9ae6 d33d
00000180: 0c8c 353e c2c8 55bd 5c05 8abd c5b5 88bb
00000190: c256 53bd a9d3 febd e302 0b3d e90d 4dbe
000001a0: ccd5 b7bd 82a2 963d a1e2 babc 2607 1a3d
000001b0: f66a a5bd 4b05 093e 5417 b53d c507 c6bd
000001c0: cf3c adbd 4762 5abd d396 dc3d 118f e7bd
000001d0: ab39 aebd 37df 873d e655 c0bd c5d9 133e
000001e0: ff54 c0bd a98f 833d d169 203e 784c ffbd
000001f0: f6d8 8e3d 9fe7 62bc 6222 6dbd b1c8 54bd
-0.12831956 -0.124892294 -0.20614907 0.008215587 -0.040300567 -0.06679637 -0.034399904 0.119341835
-0.12524733 -0.08596537 0.052552726 0.11294539 -0.0750758 -0.10601134 -0.04707818 0.024256852
0.13419385 0.08521444 0.069227666 0.099830315 0.123831876 -0.12758058 0.13788949 0.12657018
-0.023845132 0.093127936 0.0661828 0.08083135 0.1514332 0.10621523 0.06951819 -0.017963555
-0.11549935 0.017767234 -0.1457573 0.15976265 0.02941521 -0.080978714 -0.041412424 -0.110322826
-0.09096554 0.03721362 0.12168811 -0.069583476 0.075746775 -0.11617819 -0.107570216 -0.085268
-0.09075681 0.04838745 0.14968881 -0.06740938 -0.05376154 -0.110802114 0.12582527 -0.06645059
-0.11673948 0.1546743 -0.06915931 -0.06369446 0.11887419 -0.06071726 0.025467552 0.09703345
-0.034893613 -0.11038261 0.06360265 -0.03447451 0.12399504 -0.06442101 -0.042935487 0.110370696
0.11527539 -0.005875156 -0.042801965 0.08180702 0.12194297 -0.118292496 -0.16599569 -0.14503942
0.11600115 0.11783724 0.07367358 -0.12408815 -0.036777973 -0.09774253 -0.05435121 -0.030123983
-0.1838262 0.13006227 0.015336226 -0.061808016 -0.097509 0.08670549 -0.06125009 0.10346718
0.17729205 -0.05219341 -0.067393035 -0.0041720592 -0.05159641 -0.12442715 0.0339383 -0.20024838
-0.089763254 0.07355215 -0.022813143 0.037604474 -0.08077042 0.13380925 0.0884234 -0.09669451
-0.08458864 -0.05331638 0.10770955 -0.113065846 -0.08507093 0.06634372 -0.09391384 0.14438541
-0.09391212 0.064238854 0.15665366 -0.12465757 0.06974976 -0.013849168 -0.057894118 -0.051949207

action_model._discrete_distribution.branches.0.weight f4 [3, 128]
00000000: 02f1 333c c6f8 6c3d e46d 1c3d 4f4d 8c3d
00000010: e0b8 013d 833d e03d 3e41 57bc 4b90 f0bd
00000020: 1063 333d 38b7 963d c17b b1bc 62be 7abc
00000030: 8067 033d aee0 323d 5854 e13c 2408 c0bc
00000040: 5083 01be b99b 84bd b2c5 40bd b522 1e3d
00000050: f959 b8bd aa6a fa3c 2d63 80bd c4ca 56bd
00000060: 5447 31bc 5e02 17bc d6d4 bdbd ed80 f1bc
00000070: 6cb1 32bd e9f1 bfbc e604 19bd 5fcd 1d3b
00000080: 14db 113d 4819 103c af8a 4d3d 2c75 79bd
00000090: fb60 973d 5786 a53d 74cb ee3c 5161 883d
000000a0: 3239 923c f664 2f3d bbc4 07bc 4316 5c3d
000000b0: dcbd 84bd d95f 463d dd8f db3b a08b bc3d
000000c0: 8fcc 8c3d 5ca4 493d 136a a5bd 72c6 7e3c
000000d0: 025c 983c 540b 8f3c 4191 29bd 8887 753d
000000e0: 128a 923d 7490 36bd cf6b 0d3d 6efa 9f3d
000000f0: 304c 91bc 34c8 8b3d 931e 50bc 1d8e 0f3c
00000100: 8ba5 563d e44a ac3c f6ee b23c 4189 1c3d
00000110: 5b76 aabc 693c b23d 30d5 7a3c 6a9b 5ebc
00000120: 4c11 03bc aad5 d0bc e417 ba3c f403 16bc
00000130: 5040 e1bc 7587 9f3b 7c5d 2a3d 42f7 243c
00000140: bd93 82bd b8bb 5b3c a913 3ebc 11ee 543d
00000150: 3d4c 7d3d da94 9f3a 9382 143c 3843 b63d
00000160: 7273 413d 60fc 2bbd 3036 7d3d 04bc 963c
00000170: 83c0 b73c 0846 e3bc 07ec c83d 17a8 bebd
00000180: 2e3a 3fbd 83f5 b63d 35ef bb3d 37ea 21bc
00000190: 8061 813a 56ae 0d3d 1837 753d e8bf 2b3d
000001a0: f3c2 b23d 761f e4bc ad9a 2fbc 3e0f afba
000001b0: e9c5 893d 034c 003c d52a eebd 87c0 ba3c
000001c0: e313 b53d 2d4f f63d 7ce7 14be b1ba 9bba
000001d0: 194e 213d 39c3 943d 5f83 8e3d 3940 e9bc
000001e0: bca1 833c 7d29 0bbd 7787 f4bc 4054 523d
000001f0: 0809 19bd 64b9 a13c 9391 113d 9570 e6bb
00000200: 6aa2 0cbd ce4d 5ebd ddec 59bd 63a6 96bb
00000210: 528c debc a296 2fbe a018 cd3c ad6f 273d
00000220: 9d8d 4bbd 56d8 cebc c3db 3e3c 9f0e 403d
00000230: 2006 48bd a3c2 f6bc 88b5 063c 5fda bd3c
00000240: c2c0 f03d f873 4f3d 21d7 733b c070 173d
00000250: 0a10 813d f28d 27bd ec5f 8d3d 9047 6e3d
00000260: 425e ab3c 46e4 cb3c 8370 d73c e55e 023d
00000270: 344e 833d cb11 813d 39fc d23c 8556 81bb
00000280: 3356 fbbc 8272 0c3c f8e8 b2bd 27fb aa3d
00000290: 11bc 113c b725 24bd b7cb 57bd c84b 08be
000002a0: b51c e83b ac7d 3fbb 9e15 743d a1df 86bc
000002b0: f739 1b3d 74e6 9cbd 2f07 4ebb d895 31be
000002c0: 4105 efbd 4f7a 6b3c 1144 813d 3b58 7dbd
000002d0: 1bc2 5cbc d091 c6bc b699 bf3d 1a32 06ba
000002e0: f7bd 1abe 087a a83d 6bca 93bd be41 e4bd
000002f0: f639 143d cbe6 82bc d345 963c 951d 483d
00000300: f4b4 f1bc b2a6 1bbd e77f 6f3c 1bd9 56bd
00000310: 9c9f 1d3d 5bc5 64bc 30d3 28bd f850 ea3c
00000320: 204f 783d 4bb1 c83c 229b 683c b1c4 273d
00000330: 4042 373d 568e a8bc 1749 9cbd 2a34 e3bb
00000340: 35f8 223d e5c1 c33c f722 1c3d 1173 86bd
00000350: d9f5 e4bb a56c 7a3b f752 99bb 3723 b53b
00000360: bd9c 8fbd 9d6c 773d ee0e aebd f7fb fcbc
00000370: a663 0bbb 59cc 4e3d d06c 18be 557c cb3c
00000380: 27fa 9b3d a73c 1ebd 3419 a9bc cde3 c33b
00000390: c1f4 85bc ae5b c6bd 4065 7a3c c6f1 8cbd
000003a0: c72b 0dbe 1323 3e3c e395 a93a b253 003d
000003b0: e4d8 e4bc 98bd 1f3d 7a76 eb3c 91d5 bdbc
000003c0: a7a6 32be b2ce 0bbe 2719 4f3d 5a18 ef3b
000003d0: 7d4f 72bc 9b59 b4bc 9b70 c5bd eec7 a43d
000003e0: 8507 22bd 92f9 0b3d 5951 ce3d f4c3 24bd
000003f0: a0f5 7f3d 15ee 66bb ac44 d1ba 1e64 73bc
0.010982754 0.057854436 0.038190737 0.06850683 0.03167045 0.109492324 -0.013138114 -0.11746272
0.043795645 0.07359165 -0.021665456 -0.01530418 0.032081127 0.043671302 0.027506039 -0.023441382
-0.12647748 -0.06475014 -0.047063537 0.038607318 -0.09001536 0.03056844 -0.06268916 -0.052439466
-0.010820229 -0.009216873 -0.09269111 -0.029480422 -0.043626234 -0.023430781 -0.037358187 0.002407871
0.03560932 0.00879509 0.050181087 -0.06090276 0.073915444 0.08082264 0.029149748 0.06659187
0.017849538 0.042820893 -0.00828665 0.053732168 -0.06481525 0.04843125 0.0067004994 0.09206319
0.06874954 0.04922901 -0.08076873 0.015550243 0.01859856 0.017461456 -0.04139829 0.059943706
0.07155241 -0.044571355 0.034526642 0.078114375 -0.017736524 0.06825295 -0.012702602 0.00876191
0.052403968 0.021031804 0.021842461 0.038216833 -0.02080839 0.087029286 0.015309617 -0.013586858
-0.007999729 -0.025492508 0.02271647 -0.009156216 -0.027496487 0.0048684427 0.04159306 0.0100687165
-0.06375835 0.013411455 -0.011601367 0.05198485 0.061840285 0.0012175099 0.009064334 0.0889954
0.047229238 -0.04198873 0.061819255 0.0184002 0.022430664 -0.027743354 0.09810644 -0.09309404
-0.046686344 0.089335464 0.091764845 -0.009882501 0.0009870976 0.034590088 0.059866995 0.041931063
0.0872859 -0.027847033 -0.01071803 -0.0013355983 0.067272015 0.007830623 -0.11629263 0.022796882
0.08841684 0.1202682 -0.1454143 -0.00118812 0.03938112 0.07263798 0.06958651 -0.028473007
0.016068332 -0.033975113 -0.02984975 0.05134988 -0.03736213 0.019741721 0.03553922 -0.007032464
-0.034334578 -0.05427342 -0.053204406 -0.0045974716 -0.02716652 -0.17147306 0.025036156 0.040877987
-0.0496956 -0.025249641 0.011649075 0.046888944 -0.048833966 -0.030122107 0.008221991 0.023175417
0.11755516 0.050647706 0.0037207084 0.03697276 0.06301887 -0.040906854 0.06903061 0.058173716
0.020918969 0.024889123 0.026298767 0.03182878 0.064114004 0.06302222 0.025755035 -0.0039470815
-0.030680751 0.008572223 -0.087358415 0.08348685 0.008894936 -0.04007503 -0.052684512 -0.13310158
0.0070835003 -0.0029219193 0.05959093 -0.016464056 0.037897076 -0.07661143 -0.0031437387 -0.17342317
-0.11670924 0.014372422 0.06311811 -0.06185172 -0.013474013 -0.02423945 0.0935549 -0.000511916
-0.15111528 0.082264006 -0.072163425 -0.11145352 0.03618809 -0.015979191 0.018343842 0.048856337
-0.02950523 -0.03800077 0.014617897 -0.05245314 0.038482293 -0.013963069 -0.04121703 0.028603062
0.060622334 0.024498602 0.014197143 0.040959064 0.044740915 -0.020575684 -0.07631128 -0.0069337087
0.03978749 0.023896167 0.038119283 -0.06564916 -0.006987315 0.003821173 -0.0046790796 0.0055278796
-0.07012317 0.060406316 -0.08498941 -0.030881865 -0.0021269112 0.05048785 -0.14885259 0.02483956
0.07616072 -0.03863206 -0.0206419 0.0059780837 -0.01635206 -0.09685455 0.015282929 -0.06882052
-0.13786231 0.011605042 0.0012938346 0.031329818 -0.027935453 0.03899917 0.028743017 -0.023173125
-0.17446385 -0.13653067 0.050561097 0.007296604 -0.014789459 -0.022015383 -0.096406184 0.08045946
-0.039557952 0.034173556 0.100741096 -0.040225938 0.062490106 -0.0035237123 -0.00159659 -0.014855413

action_model._discrete_distribution.branches.0.bias f4 [3]
00000000: 1c29 97bd 717c d33d 1b32 e4bc
-0.07380888 0.1032647 -0.027855923

onnx::Div_52 f4 [6]
00000000: 972d b43f 601f 8c3b fea8 7a3b e0fe a93c
00000010: 510d 9c3d e52c 1841
1.4076413 0.004276201 0.00382477 0.020751417 0.076197274 9.510961
