BasicAvoidance/Assets/results/BasicAvoidance1/PlayerAvoidance/PlayerAvoidance-192.onnx (onnx, 74465 bytes, 8 tensors)

network_body.observation_encoder.processors.0.normalizer.running_mean f4 [6]
000000 94 4f 44 be 6f ac fe 3e 00 00 00 00 e1 d6 5e b4
       -0.19170982 0.4974093 0.0 -2.0753534e-07
000010 82 bf cc 3e d5 a1 46 c1
       0.3998986 -12.41451

network_body._body_endoder.seq_layers.0.weight f4 [128, 6]
000000 d6 a7 aa be bd 92 79 3e 4f f5 03 bf 58 06 e7 be
       -0.33331174 0.24372382 -0.51546186 -0.45122027
000010 c6 6a fc 3e b5 ae 3e 3e 1d 64 de be 9c f0 db bd
       0.49300212 0.18621333 -0.43435755 -0.10739252
000020 65 a9 1b bd a5 ae 65 3e 50 00 c5 be 4a 1f a4 3e
       -0.038003344 0.22429903 -0.384768 0.32055122
000030 52 26 af bd fe c0 7b 3e 8c ae fa 3e 80 78 bd be
       -0.08552231 0.2458534 0.48961294 -0.37005997
000040 b0 a1 c3 3e 02 72 09 bf e9 05 37 bf 3a 8a 19 be
       0.38209295 -0.5368959 -0.71493393 -0.14994135
000050 ca fa 51 3e 78 38 8f 3e 56 a4 c7 3d 82 3b 32 3f
       0.20505825 0.2797277 0.097481415 0.6962205
000060 a3 b8 8b 3f 7c 95 b1 bd 84 95 19 bf 14 4a 3c bf
       1.0915722 -0.0867109 -0.5999377 -0.73550534
000070 a8 bb 89 bf 9e 32 9e 3e 07 c3 7e be 98 6b de be
       -1.0760393 0.30897993 -0.24879085 -0.43441463
000080 a8 8b e0 3e 99 e0 17 be e3 d8 87 3e ea d2 0c 3e
       0.4385655 -0.14831771 0.2653266 0.13752332
000090 64 88 94 3e ad c9 98 3e b5 c8 ea 3d ae eb be be
       0.29010308 0.29841366 0.11464063 -0.37289184
0000a0 7a bc 04 3f 94 95 2a 3f f0 99 a2 bd 24 e5 5a be
       0.5185009 0.6663449 -0.079395175 -0.21376473
0000b0 b4 d8 60 3e e9 50 b7 be 63 31 18 bf 92 ec 97 3f
       0.21957666 -0.35803917 -0.5945036 1.186907
0000c0 7c 19 de 3e 2d 22 b8 be 4b 71 c8 3e 41 2c 2d 3e
       0.43378818 -0.35963574 0.39148936 0.16911413
0000d0 55 ea c5 be f6 cd d9 be e5 38 19 be 38 c1 d0 3d
       -0.38655344 -0.42539948 -0.1496311 0.101931036
0000e0 7a 7f b0 be 27 54 d4 3d 1d 19 63 3e 33 ee a8 3e
       -0.34472257 0.10367613 0.22177549 0.32994232
0000f0 83 a6 c3 3d a6 5e a7 3e eb bf 2f bf 38 7e 67 3e
       0.09553244 0.326894 -0.6865222 0.22606742
000100 37 d9 03 bd b8 af e9 bd 9e 7c 0e bf 5b be 90 3e
       -0.032189574 -0.11410469 -0.556589 0.2827023
000110 5f 0a cf bd 7b 3f a3 be 36 8e 9a be cc 96 ed be
       -0.101094 -0.3188437 -0.30186623 -0.4640411
000120 43 b2 53 be 15 0c fd bd 6d d1 cc be 73 10 50 be
       -0.2067347 -0.1235582 -0.4000353 -0.20318775
000130 e2 21 46 3e 66 66 f0 be 78 e1 25 bf 2c d9 35 bd
       0.19348863 -0.46953124 -0.64797163 -0.044396564
000140 48 fb 72 3e 1c fc 4e be cd 6a 86 bd 7f ff d7 be
       0.23728669 -0.2021336 -0.065633394 -0.42187116
000150 94 61 f7 bd 71 05 99 3e ed db d2 3e 5a 28 50 bd
       -0.120791584 0.29886964 0.41183415 -0.050819732
000160 03 36 bb 3d 04 80 b6 3e d6 31 9d bf 8c b5 be be
       0.09141161 0.35644543 -1.2280834 -0.37247884
000170 40 40 16 bf 10 c1 3b 3f 88 c5 93 3e 4f bb 09 bf
       -0.5869179 0.73341465 0.28861642 -0.53801435
000180 83 8d ba be 84 5b 52 3e be 23 dd 3b 1f 60 f4 3e
       -0.3643609 0.20542723 0.0067486456 0.47729585
000190 11 c4 6e 3e 58 92 23 3f 34 e5 88 3d 65 4c 2f 3e
       0.23316981 0.6389518 0.06684342 0.17118986
0001a0 d8 ea a9 bf 28 f9 f0 3e 3e bd 0b 3f f3 46 e5 be
       -1.3274794 0.4706509 0.54585636 -0.44780692
0001b0 24 12 76 3f b2 d5 b7 bd d6 6f d6 be 86 8d 1b bf
       0.9612143 -0.08976306 -0.418822 -0.6076282
0001c0 30 37 fb 3e 77 8d 62 3e ed c4 f9 3d c9 b9 87 be
       0.49065542 0.22124277 0.12195764 -0.2650893
0001d0 73 cf d4 3a ff 54 ae 3d 14 7d 66 bd 36 be 5a be
       0.0016236141 0.085123055 -0.056271628 -0.21361622
0001e0 37 9a 43 3e 2d 8c 87 3e 5e cc 3e be 3f ce d4 bc
       0.19101797 0.26474133 -0.18632647 -0.025977252
0001f0 84 50 6c bf db c6 51 bf e9 36 0b bf 03 1d a2 3e
       -0.9231036 -0.81944054 -0.5438066 0.3166276
000200 03 80 0a 3f 67 42 f4 ba 93 af 14 3e 20 f5 eb be
       0.5410158 -0.0018635512 0.14520101 -0.46085453
000210 7c 2e a0 3e de ed 26 3e a9 62 c4 3e ea 39 c4 3e
       0.31285465 0.16301677 0.38356522 0.38325435
000220 27 05 23 3e a9 15 53 bf 4b 5e 7a 3f eb 22 0c 3f
       0.15919934 -0.82454926 0.9780013 0.5474078
000230 b1 28 a8 be 5d 92 2f be 95 a4 03 3f c6 f7 8b be
       -0.32843545 -0.17145677 0.5142301 -0.27337474
000240 9e 8e 9d be c5 76 09 3f 4f 94 f7 3d f8 40 0c 3f
       -0.3077287 0.5369685 0.120888345 0.54786634
000250 5c e1 14 3f 18 34 10 3f 06 02 4a be 8a af 6c 3e
       0.5815637 0.5632949 -0.19727334 0.23113838
000260 7d 3a 79 be c8 3e f0 be 44 df 13 3f d0 0e 91 bd
       -0.24338718 -0.46922898 0.5776255 -0.070829034
000270 18 29 e4 be ee c2 6d 3e 16 84 2c be 60 9a 12 be
       -0.44562602 0.23218891 -0.16847262 -0.14316702
000280 d1 ea fb be dd 30 40 bf 44 24 27 bd 23 c1 a5 3e
       -0.49202588 -0.7507456 -0.04080607 0.32373914
000290 21 14 cb be d2 8e 22 3d a0 da dc 3e c2 26 86 bf
       -0.39663795 0.039686985 0.43135548 -1.0480578
0002a0 e6 62 63 3d 33 4b 69 bf 4d 7c 15 3e c7 92 c2 3d
       0.05551424 -0.9113037 0.14598198 0.09500652
0002b0 96 27 a3 3e dc 2d eb 3e 99 92 d9 bd 98 d3 d7 3e
       0.3186614 0.45933425 -0.106236644 0.4215362
0002c0 f7 be 96 be 0f e3 05 3f cb 15 c5 be 4a 57 2a 3f
       -0.2944257 0.5229959 -0.3849319 0.6653944
0002d0 a7 96 f2 be 76 30 60 be 37 7c bc 3c 84 88 d3 3d
       -0.47380564 -0.21893486 0.023008449 0.10328773
0002e0 9b e7 5b 3f 7a dd a6 3e 27 2d 8d bd 2e 25 79 3e
       0.85900277 0.32590848 -0.06893378 0.24330589
0002f0 eb 36 80 3e 8b db b2 3e 62 57 0c 3f 2e 59 c5 3e
       0.250419 0.34933123 0.54820836 0.385446
000300 7a 0f e5 3e 1a da 56 3e 59 d5 3e be d0 f2 50 3f
       0.4473837 0.20981637 -0.18636073 0.816205
000310 f2 cf ca be 5d 51 c4 3c 11 28 6b 3f 32 11 75 bd
       -0.39611775 0.023964578 0.9185801 -0.05983085
000320 18 f1 f7 bd 16 fe 18 bf df d4 a6 3d 16 d7 6a 3e
       -0.12106532 -0.59762704 0.08146071 0.22933611
000330 9b e2 ee be 01 46 c8 be b0 cd 76 3e 7d d2 1f 3f
       -0.4665726 -0.3911591 0.24101901 0.62430555
000340 22 3e dd be 8e 77 98 3e 15 9b d1 3c 7c b4 71 3c
       -0.43211466 0.29778713 0.025586644 0.0147525035
000350 f4 55 08 be 90 79 e8 bd 9c 44 9e bd 31 e3 6a be
       -0.13314039 -0.11351311 -0.0772793 -0.22938229
000360 52 4c b5 bd 80 64 b9 3e 2d ae d6 3d f1 27 09 3f
       -0.088524476 0.36209488 0.1048244 0.5357657
000370 70 37 df bc a8 3d 19 be 54 02 2b 3f 55 cc 93 3e
       -0.027248114 -0.14964926 0.6680043 0.2886683
000380 3b a2 bc bd 1e 97 71 be e5 78 df 3c ee 4e 0c bf
       -0.092106305 -0.23592803 0.027279327 -0.5480794
000390 9b b9 5d be c7 84 3d 3f 1f e1 4c 3f 5a 54 06 3f
       -0.21652834 0.7403073 0.8003101 0.5247246
0003a0 0f ae 37 be 92 08 8b 3e 1c cd 01 be 4c 4a 84 be
       -0.17937492 0.27154976 -0.126759 -0.25837934
0003b0 aa 57 3d be 74 e3 a0 3e 78 1a 8c bc 0d 65 25 bd
       -0.18490472 0.31423533 -0.017102465 -0.040379573
0003c0 93 c2 1b 3d bd f7 6b bf 59 3b b7 3e 50 74 95 bb
       0.038027357 -0.92174894 0.35787466 -0.0045609847
0003d0 47 a9 ad 3e a6 3f 1c 3c ca 72 9f bd 53 48 00 3e
       0.3391821 0.009536659 -0.07785566 0.1252759
0003e0 bb 3e e2 3d 1a 23 7d 3d ed d1 37 be 05 3e 87 be
       0.11047121 0.061801054 -0.17951174 -0.26414505
0003f0 3b 31 43 3e 2a ec 89 3d b4 5b 0e bf 9d 86 16 3e
       0.19061749 0.06734498 -0.5560868 0.14699788

network_body._body_endoder.seq_layers.0.bias f4 [128]
000000 11 31 1b bb 84 9d 09 3b 18 66 0d 3b da 7f 3e 3b
       -0.002368037 0.0020998428 0.0021575745 0.0029067905
000010 cb 58 c7 3a 54 41 1f 3b f8 ab a5 bb d3 91 6e 3a
       0.0015208957 0.0024300413 -0.0050559007 0.0009100709
000020 c1 47 1b 3b 8b b1 71 3b f6 2d 43 3a a6 63 3f 3b
       0.0023693892 0.0036879505 0.00074455084 0.0029203682
000030 bc 6e f5 b9 b4 d3 e2 b8 6c d0 a7 bb 35 33 28 3b
       -0.00046812545 -0.000108159526 -0.0051212814 0.0025665287
000040 18 bb cf 38 6b 25 51 b9 92 87 d0 39 ec 3e a5 3a
       9.905378e-05 -0.00019945732 0.0003977386 0.0012607253
000050 8f ed 39 b9 70 11 e2 3a 2b 35 87 39 d0 63 61 ba
       -0.00017731472 0.0017247628 0.0002578882 -0.0008597942
000060 95 d4 7d 3b a2 31 71 bb 8d ae 45 bb 62 5e 85 3a
       0.0038731445 -0.0036803265 -0.0030163855 0.0010175223
000070 9a e1 72 bb b4 a7 2c b9 be a4 89 3b ad e7 8d 3b
       -0.0037060739 -0.00016465673 0.004200547 0.0043305964
000080 a0 92 20 bb 1b da b0 ba 1f d6 3d 3b 24 9d b2 b7
       -0.0024501458 -0.0013492735 0.0028966737 -2.1292428e-05
000090 45 1d e0 3a 5d f7 fc 3a fc d5 07 3a f2 53 6a b8
       0.0017098567 0.0019299794 0.00051817275 -5.5868128e-05
0000a0 8a e2 a4 bb 5a 46 84 b9 8d 87 b2 3a 40 a7 42 ba
       -0.0050318884 -0.00025229418 0.001362072 -0.0007425435
0000b0 f5 a9 07 bb 44 20 89 39 fd ff 9d 3a 6b 5d a2 3a
       -0.0020700668 0.00026154716 0.001205444 0.001238746
0000c0 e8 d4 d5 ba d1 03 a8 3a f1 1a 62 bb 7f e3 16 3b
       -0.0016314061 0.001281852 -0.0034500922 0.0023023782
0000d0 2a 9f c3 b9 11 b2 95 3b 10 7f 31 ba da 21 bb ba
       -0.00037311885 0.0045683463 -0.0006770948 -0.0014277056
0000e0 c7 f8 03 3a 54 69 d8 b8 ba 79 7b ba 3a de 28 ba
       0.0005034324 -0.000103193015 -0.0009593029 -0.0006441806
0000f0 ca ec 77 ba d7 33 7a bb b0 b6 b3 b9 95 cd 96 3b
       -0.00094575866 -0.0038177872 -0.00034277653 0.004602144
000100 4c 02 26 3b b2 e8 cf ba d8 15 fd 3a 9f 5a c7 3a
       0.002533096 -0.0015862195 0.0019308878 0.0015209502
000110 07 36 e1 3a 3e 49 50 34 47 51 4e 3a f5 01 19 3b
       0.0017182239 1.9398155e-07 0.00078703876 0.0023347114
000120 16 a5 21 bb a3 d4 77 ba 39 b7 d8 ba 1f 8a c2 ba
       -0.002466505 -0.00094539876 -0.0016534097 -0.0014842189
000130 95 13 ae ba e9 d4 8e ba 02 70 db 39 50 86 12 39
       -0.0013280982 -0.0010897192 0.00041854387 0.0001397368
000140 d8 b9 1c 3b ad 16 a7 ba 5e b5 1e 3b 09 0c 47 3b
       0.0023914482 -0.0012747847 0.002421699 0.0030372164
000150 a7 a0 3a 3b 68 d9 1f bb 06 31 52 3b ac 09 8f ba
       0.0028477104 -0.0024391059 0.0032072677 -0.0010912917
000160 b9 ea e2 3a 69 c4 61 bb 85 67 17 3a 08 81 3d 3b
       0.0017312384 -0.0034449345 0.00057756185 0.002891602
000170 bf b0 c3 b9 28 43 19 bb 84 48 c3 ba f9 09 c3 ba
       -0.00037324984 -0.0023385976 -0.0014898931 -0.0014880291
000180 9a f6 a7 3a 51 4e 29 bb 86 1e 16 bb 8d 5c bb ba
       0.0012814582 -0.0025834034 -0.0022906377 -0.001429455
000190 23 79 23 bb d4 d7 c8 ba 18 1e 35 bb b8 7f 2f ba
       -0.002494403 -0.0015323111 -0.0027636345 -0.0006694752
0001a0 8c 81 79 3b 99 c9 33 3b cb 4f f7 3a be 84 33 3b
       0.00380716 0.0027433394 0.0018868385 0.0027392353
0001b0 ed 00 bf 3a ec f2 11 bb b8 63 27 3b a8 f7 5b 3a
       0.001457242 -0.0022270037 0.0025541615 0.00083910907
0001c0 ab 0a 31 3b ef d7 2c bb 67 99 90 b9 83 8e 77 3b
       0.0027014415 -0.0026373824 -0.00027580114 0.0037774153
0001d0 74 e2 11 ba cb a0 64 3a 35 38 87 ba 0d 70 71 ba
       -0.0005565055 0.000872147 -0.0010316434 -0.0009210117
0001e0 44 64 dd ba de 1d 33 bb b9 11 70 bb 59 b5 43 3a
       -0.0016890843 -0.0027331035 -0.0036631657 0.00074656826
0001f0 c3 05 21 3b 5a 14 d6 3a 8b 4d 6c bb 4a 79 95 3a
       0.0024570085 0.001633297 -0.0036056961 0.0011403945

network_body._body_endoder.seq_layers.2.weight f4 [128, 128]
000000 2f 08 88 bd 0f 01 22 bd c6 33 38 bd fc a5 80 3d
       -0.06642186 -0.03955179 -0.04497125 0.06281659
000010 6c f4 4e bd f3 88 9c 3d 55 48 bd 3c 2c e5 54 3c
       -0.050526068 0.076433085 0.02310578 0.012994092
000020 a0 5f 10 be 57 37 ba 3c 35 b1 22 3d 21 a6 93 3d
       -0.14098978 0.022731466 0.03971978 0.07209421
000030 7c 35 e7 bb a4 8b 84 3b 3d aa 1d bd f8 84 8d bd
       -0.0070559364 0.004044967 -0.03849243 -0.069101274
000040 bc 64 0b bd 98 73 88 3d d5 ad 6d bc ac f8 53 be
       -0.034031615 0.06662673 -0.014506777 -0.2070033
000050 b7 a3 eb bc 2d 78 24 bd 4f 06 ad bc 9f bc c5 bd
       -0.028764589 -0.04015367 -0.021121172 -0.09655117
000060 c5 69 be bb 02 7a 45 3d 47 55 3c be a0 39 1d 3e
       -0.0058109486 0.04821206 -0.18391906 0.15354013
000070 f2 67 56 3d 64 c4 03 3d 55 ee be 3b 65 ae 02 be
       0.052345224 0.032169715 0.0058267512 -0.12761839
000080 ae b7 ab ba fe 53 8e bd f4 a5 d3 bd 31 63 d7 bd
       -0.0013101005 -0.06949614 -0.103343874 -0.10516966
000090 cc f8 5b bd c3 ae 04 3e 5d f8 fb 3d 0e 37 2e 3d
       -0.053704068 0.12957291 0.12303231 0.042532973
0000a0 4e e0 78 3c ac 49 b6 3d 8f 78 ac 3d 7a 8b 4d 3d
       0.015190197 0.089007705 0.08421432 0.050181843
0000b0 f8 89 8e 3c c8 ef a4 bd cc 7a 09 3d 9e bc 05 3e
       0.017399773 -0.08053547 0.033564374 0.13060233
0000c0 2f 7e 52 bd 92 16 d1 bd e6 bd 30 bd 1e 4a 84 3b
       -0.05138987 -0.10209383 -0.04314985 0.004037156
0000d0 85 da c0 3d 64 83 f5 bd d6 57 5c bc 3f 39 89 bd
       0.09416679 -0.119879514 -0.013448676 -0.06700372
0000e0 22 c4 27 3d 98 5e bb bd ae 8d 5d 3d 0e cd 80 3d
       0.04095853 -0.09148902 0.054090194 0.06289111
0000f0 b6 cb 1f 3d 00 35 46 bd b1 5b fb bd 0a 2e 6b bc
       0.039012633 -0.04839039 -0.12273348 -0.014354238
000100 b1 27 ca 3d 1f 7d d1 bc df 05 0e 3d 35 5a 17 be
       0.09870852 -0.025572358 0.034673568 -0.14780505
000110 73 3c d8 bd b4 38 c5 3d 43 a0 b3 3d 8f 55 8f bd
       -0.10558405 0.09629956 0.08770802 -0.06998741
000120 5e 7d 0a 3c 02 d9 09 3e 1f 5a be 3d 42 2d 8d bd
       0.008452741 0.13461688 0.09294533 -0.06893398
000130 01 ce 2a 3d 84 2f 1c bd fa 86 dd bd f3 c1 05 3e
       0.041700367 -0.038131252 -0.1081676 0.13062267
000140 1d ec e1 3d 90 99 43 3e 9d 87 cb bc 5a 1e 15 3e
       0.11031363 0.19101548 -0.024844939 0.1456236
000150 ce 76 b4 3b ad f6 3a be 55 bf 86 bb 5e 3b ac bd
       0.0055073267 -0.18258162 -0.004112164 -0.08409761
000160 fd d4 2f bd 15 3b c1 3b a6 68 70 3d 2f 55 95 bd
       -0.04292773 0.0058969357 0.05869355 -0.07291638
000170 66 27 12 bd 15 e9 88 3d f3 34 7a 3d a9 64 35 be
       -0.035682105 0.06685082 0.061085653 -0.1771418
000180 a3 02 8d 3d 99 78 33 bd 8a f0 6a bd c2 78 cc 3d
       0.068852685 -0.043816183 -0.057358302 0.0998397
000190 5a 4d 8a 3d a4 38 58 bd 41 7e 1b be 06 22 6e bd
       0.06753035 -0.05278839 -0.15184881 -0.058137916
0001a0 43 d7 ab 3d 1b 1e 05 be cc 63 17 bd 0f 45 cc 3d
       0.08390667 -0.12999766 -0.036960408 0.099741094
0001b0 e8 cb 7e 3c 06 0d 1f 3e 1f ab 13 3e 20 d0 0a be
       0.015551545 0.15532312 0.14420746 -0.13555956
0001c0 6c 2e ae bd 53 31 94 bd a1 5f ee 3d 53 15 87 3b
       -0.08504948 -0.0723597 0.116393335 0.004122415
0001d0 af 8b 2d 3e ba 6f 09 3e ba ba be 3d 74 b8 25 bd
       0.16947816 0.13421527 0.09312959 -0.04045911
0001e0 3e 45 e8 3d 7b 6e 62 bd b8 e9 e7 3c 9a e1 2a be
       0.11341332 -0.055281144 0.028309688 -0.16687623
0001f0 5b 76 0a bc 5b 09 00 3e 45 af c5 bd d0 fc 06 be
       -0.00845107 0.12503569 -0.09652571 -0.13182378
000200 42 a9 0b 3e 63 a6 99 bd a7 ed 76 3d a5 e0 73 bd
       0.13638785 -0.07502439 0.060285237 -0.05954041
000210 06 5a 2b 3d 98 a6 4c bc 7c b2 3a 3d b0 22 a2 bd
       0.0418339 -0.012490891 0.045580372 -0.07916772
000220 07 45 82 3c 2c 19 83 bd 47 bb 33 3d 8e 7f f8 3d
       0.015902055 -0.064012855 0.043879773 0.12133704
000230 6c 78 78 3d eb 84 03 bd a5 cd 6c 3d d4 3f 50 bd
       0.06066172 -0.032109182 0.057813305 -0.05084212
000240 b0 e0 48 bd 2f ab c4 bc e6 03 90 3d b0 59 1a be
       -0.049042404 -0.024007408 0.070319936 -0.15073276
000250 dc 20 44 3d b5 26 d7 bd c6 a9 0c 3e a5 00 93 3d
       0.0478829 -0.1050543 0.13736638 0.07177857
000260 91 74 a4 bd 7c 40 8e 3d 9d ba 4f bd 02 e9 7f bd
       -0.08030046 0.06945893 -0.050715078 -0.062478073
000270 5f 80 10 3d 98 71 f0 bd ea 19 d4 3c 9d 32 3a bb
       0.035278674 -0.11740416 0.025891263 -0.0028411516
000280 02 e4 d5 bc 6b 27 99 3a 4a 62 30 bd 15 67 9f bd
       -0.0261097 0.0011684721 -0.043062486 -0.07783333
000290 7c b6 2b bd ac d7 0d 3d fc 00 93 bd 1e bb 4b 3c
       -0.041922078 0.03462951 -0.07177922 0.012434749
0002a0 54 06 2e bd e4 88 a4 bd d8 16 65 3e 89 74 3a 3e
       -0.042486504 -0.08033922 0.22371995 0.18208517
0002b0 40 4e 0f 3d 9e ed 86 3d d6 d7 2c 3c c0 90 c3 3d
       0.034986734 0.06588291 0.010549506 0.09549093
0002c0 d3 b1 32 3e 0b 95 c2 3c 01 9e 81 bd 68 4b f2 3d
       0.17450647 0.02375271 -0.06328965 0.11830789
0002d0 24 38 9b 3c f7 5e 99 3d 95 d6 9b bc 9c 08 57 3d
       0.018947668 0.07488816 -0.01902322 0.052498445
0002e0 0d 29 01 bd bf c1 0d be 48 95 2a bd 25 ee 95 3c
       -0.03153329 -0.1384344 -0.041646272 0.018302033
0002f0 9a 8b e2 bd 39 aa 62 bd ac af 1b 3d 55 4e 9d 3c
       -0.11061783 -0.05533812 0.03800933 0.01920239
000300 94 7a 85 3d 2b 31 89 3d 5c 67 04 3e 57 cd 8c 3c
       0.065175205 0.06698831 0.12930053 0.017187757
000310 78 b1 c2 3d dd 2b a7 3d dd 89 4f bc e2 75 95 3d
       0.09506506 0.08162663 -0.0126671465 0.07297875
000320 78 a4 c8 bc 16 68 ca bd c7 8f d4 bb b5 aa 27 3d
       -0.024492487 -0.09883134 -0.006486866 0.040934283
000330 07 8a 8c 3c 32 49 83 3d b8 e7 c0 3c 59 24 b8 bc
       0.01715566 0.06410445 0.023547992 -0.02247827
000340 70 8b 59 3d 84 07 1e bd d1 9b 98 bd 89 02 64 bd
       0.053111494 -0.038581386 -0.074515946 -0.05566648
000350 86 c6 35 be 47 7a 81 bd 2f 78 93 bd ae 10 44 3c
       -0.17751512 -0.06322151 -0.072006576 0.011966867
000360 3a 6b b9 bd 57 73 c7 3c c5 0b 57 bd a5 6e 58 bc
       -0.09053655 0.02434699 -0.05250146 -0.013209973
000370 61 d3 7e bd 3a f3 da 3d 58 1d 22 3e d6 3f c2 3d
       -0.062213305 0.10690923 0.15831506 0.09484832
000380 b9 51 73 3c b8 d8 76 be 97 9a 0c 3e af fa d9 3d
       0.014851027 -0.24106109 0.13730846 0.10643517
000390 5c aa c0 3d 9d 1d 53 3c 5c 02 1a 3d 57 e0 39 bc
       0.094074935 0.012885478 0.037599906 -0.011344991
0003a0 c4 6c ca bd 0a ee 07 bd f8 ab 17 be 57 85 a9 3d
       -0.09884027 -0.033185996 -0.14811695 0.08277386
0003b0 7f 12 36 3c 7d 2b 18 be 97 d6 1b 3e 32 76 a3 3c
       0.011112808 -0.1486034 0.15218578 0.01995382
0003c0 c2 95 f9 3d aa 17 eb bc 4c 1c 45 3e f2 f4 44 3d
       0.12186767 -0.028697807 0.19249076 0.04808516
0003d0 e8 cb 46 be a6 be c7 3c de dd e1 3c cf 62 1c 3e
       -0.19413722 0.0243829 0.027571615 0.15272067
0003e0 04 d7 67 3e 01 64 01 bd 29 ff 8a 3c c3 8b 4f bc
       0.22640616 -0.03158951 0.016967373 -0.012667599
0003f0 d8 c4 b8 bb 8a 05 14 be ec 11 5c 3c 47 b9 96 bd
       -0.0056387 -0.14455238 0.013432007 -0.073595576

network_body._body_endoder.seq_layers.2.bias f4 [128]
000000 39 d3 9e 3a 99 e4 25 bb 04 05 34 36 ed d3 7a 39
       0.0012117393 -0.0025313257 2.682501e-06 0.00023920806
000010 85 f8 21 bb 21 a4 00 bb 94 b1 8a 3b 03 6a 21 3b
       -0.002471478 -0.0019629078 0.0042325947 0.0024629838
000020 a0 7a 42 3b c4 1f da ba 09 dc 40 3b 00 b4 50 3a
       0.002967514 -0.0016641547 0.0029428026 0.00079613924
000030 22 71 c1 38 17 a1 85 ba 6a 00 04 bb f1 34 fa 3a
       9.22403e-05 -0.0010195103 -0.0020141848 0.0019089264
000040 f7 f9 a6 ba c1 dc 18 bb 29 36 4e 3b 42 f3 88 ba
       -0.001273929 -0.002332494 0.0031465387 -0.0010448473
000050 ea 22 56 ba b2 0d a7 b8 01 0c bb 3a 39 3b 10 bb
       -0.0008168655 -7.9657315e-05 0.0014270545 -0.0022007956
000060 1a 33 d9 3a dd a7 0d 3b 2b e9 06 bb 41 4c b6 ba
       0.0016571016 0.0021614947 -0.0020585756 -0.0013908223
000070 f5 5b 2a bb 6c 68 0a 3b 3c 3f 55 3a 96 18 ba 38
       -0.0025994752 0.002111937 0.0008134728 8.8737506e-05
000080 6d 33 a8 ba 56 24 10 bb 83 c3 14 bb c8 45 29 3a
       -0.0012832709 -0.0021994314 -0.0022699542 0.00064572366
000090 f9 b8 fa 3a 87 d6 34 bb b8 b0 a0 b9 30 42 c3 ba
       0.0019128612 -0.0027593689 -0.00030649244 -0.0014897045
0000a0 36 49 04 bb 29 de 96 ba 4f d6 d8 b9 b4 05 ba ba
       -0.0020185239 -0.0011510301 -0.00041358403 -0.0014192373
0000b0 3a 96 17 3b 15 65 15 bb 43 27 2b ba e0 5b db 3a
       0.0023130313 -0.0022795845 -0.0006528983 0.0016735755
0000c0 4d eb 01 bb b2 c9 04 bb 48 e5 b8 3a 03 87 98 3a
       -0.0019824088 -0.0020261821 0.0014106417 0.0011636916
0000d0 e0 09 9a ba 1d b2 02 3b 40 f4 17 3b d6 94 36 3b
       -0.001175221 0.001994259 0.0023186356 0.002785971
0000e0 38 53 a6 3a 11 e2 c7 3a 1c 37 27 3b cc 9f 0a bb
       0.0012689596 0.0015249868 0.0025515025 -0.0021152375
0000f0 9c fc 50 bb a8 9c c7 ba 0b cc 4d bb 86 16 c3 39
       -0.0031888848 -0.0015229182 -0.0031402137 0.0003721008
000100 80 d8 2f 3b 13 12 ce ba bc a1 c7 ba 4a 73 58 ba
       0.0026831925 -0.0015721939 -0.0015230696 -0.00082569255
000110 ae 43 1f bb 7c a3 71 3b 40 ea d8 ba d3 5b 50 ba
       -0.0024301815 0.0036871126 -0.0016549304 -0.0007948253
000120 6d 82 30 3b 94 a2 13 bb a8 49 ec 3a a0 81 10 3b
       0.0026933209 -0.0022527324 0.0018027322 0.0022049919
000130 37 b1 c7 ba 24 19 9c 3a 7d 88 49 bb d3 2a d1 3a
       -0.0015235309 0.0011909348 -0.003075152 0.0015958197
000140 40 81 21 3b de 9b 2d 3b cc 8b 13 3b 9b 0d 00 bb
       0.002464369 0.002649061 0.0022513745 -0.001953936
000150 63 a4 17 bb 19 db 5a 3b 2b 49 11 3b c7 d9 20 3b
       -0.0023138754 0.0033394753 0.0022168856 0.0024543868
000160 32 c3 bc ba 0c da 01 bb b1 7f 9e b9 c6 22 e0 ba
       -0.0014401434 -0.0019813804 -0.00030231246 -0.0017100207
000170 ea 9b a0 ba 84 c9 b4 3a f7 0f 60 ba 0a 9b 63 3a
       -0.0012253497 0.0013792966 -0.0008547301 0.00086824654
000180 a5 5b 1e bb 7d 3f 7d 3a 18 02 db ba bd de 27 bb
       -0.002416351 0.00096606446 -0.0016708998 -0.002561494
000190 d4 8a 18 bb fa ae d2 3a 7d 75 0a bb 78 2c 28 38
       -0.0023276107 0.0016073876 -0.0021127157 4.0095736e-05
0001a0 4b 9f 57 38 e1 a5 b7 ba b3 52 10 3b ab 76 17 3b
       5.1408348e-05 -0.0014011228 0.0022021949 0.0023111503
0001b0 62 d2 e8 ba 53 a3 d3 3a 50 5b 17 3b 1d 77 01 3b
       -0.0017762894 0.0016146697 0.0023095198 0.0019754835
0001c0 32 4a dc 3a cf 25 07 3b 86 d4 18 bb a5 1a ea ba
       0.001680678 0.00206219 -0.0023320033 -0.0017860724
0001d0 50 99 48 3a 87 2b 0e ba c2 d5 48 3a 08 25 d2 3a
       0.000765224 -0.0005423356 0.0007661247 0.0016032765
0001e0 3f fa ba ba 95 cf 1f 3b 67 5c 2c 3b 53 c4 8f 3a
       -0.0014265253 0.0024385203 0.0026300193 0.0010968543
0001f0 f7 25 4d 3a 3e 8c 0a 3b 5a 7f 99 ba 2d 82 c7 39
       0.00078257866 0.002114072 -0.0011710927 0.00038053226

action_model._discrete_distribution.branches.0.weight f4 [3, 128]
000000 25 1c c9 3c 59 21 50 3b fb e5 44 3c c6 99 4a bc
       0.024549553 0.0031758158 0.012017722 -0.012365764
000010 8b ba 1a bc 10 72 24 bc 5d c0 77 bc 3a 25 a3 bb
       -0.009443889 -0.01003696 -0.015121547 -0.004978803
000020 d3 ad cb bb aa 0b d7 3a a4 48 a7 bb 5c d1 61 3b
       -0.00621579 0.0016406674 -0.005105095 0.0034457063
000030 90 0e c8 3b f9 b4 fe 3b 70 6c b6 bb fb 3e 29 3b
       0.0061052516 0.0077730385 -0.005567126 0.0025824893
000040 1a 89 98 3c 7f db 88 3b b9 08 69 bb 8c 88 59 bc
       0.018620063 0.0041765566 -0.0035558178 -0.013277184
000050 a9 04 2d 3c 9d f9 2d bc 98 fb 94 3b fc da 3c bb
       0.010560193 -0.0106185945 0.004546594 -0.0028817048
000060 8e aa fc 3b 1f 82 03 bb 96 1b b8 bb c5 68 98 3c
       0.0077107614 -0.0020066572 -0.005618523 0.018604646
000070 2e 59 6d 3a f3 2b 6d bc 24 6c 0d bc 09 76 8f 3c
       0.00090541213 -0.01447581 -0.00863174 0.017512338
000080 4b de 22 3c 3c b1 ff 3b 0b e0 3c 3c cf 75 5b bb
       0.009940694 0.0078031104 0.011528025 -0.0033486967
000090 4c 54 3c 3c 34 14 2f 3b 36 81 c4 ba 26 b9 e7 ba
       0.011494707 0.0026714923 -0.0014992121 -0.001767908
0000a0 6a e1 b2 bb ce 22 1d ba bd 24 9f 3b a3 97 89 bb
       -0.0054590004 -0.0005994261 0.0048566745 -0.0041989847
0000b0 04 49 03 bc ae 21 60 3b 67 34 80 3c bf 80 c2 3b
       -0.008013014 0.0034199762 0.015649987 0.005935758
0000c0 41 81 54 3b 78 ab 24 bb bb ab bd bb 91 2f 32 bc
       0.0032425674 -0.0025126617 -0.005788294 -0.0108755985
0000d0 f6 3f 56 3b d6 d5 f8 bb 16 3e 03 3c 95 f7 85 b9
       0.0032691932 -0.0075938506 0.008010408 -0.000255522
0000e0 74 9c 8c 3a d9 12 9f 3c 44 02 83 bc 64 b6 82 3b
       0.0010727779 0.019418167 -0.015992291 0.003989028
0000f0 6f 84 4c bc 20 f7 14 3c 7c a6 67 3c 54 af 20 3c
       -0.0124827465 0.009092122 0.014138814 0.0098074265
000100 1f 8c 60 bc 5e 36 5d 3c 0b c7 c8 bb c6 b5 a3 39
       -0.0137052825 0.013501732 -0.0061272434 0.00031225214
000110 e4 07 ab 38 1a c6 33 bc c8 4a 7a 3c 22 30 51 3c
       8.155385e-05 -0.010972524 0.015276618 0.012767823
000120 7f 98 44 bc 8e 15 a7 3b b6 4e b4 3b 55 19 99 3a
       -0.0119992485 0.005099005 0.005502547 0.0011680523
000130 82 10 1f 3c fd 6c 01 bc 6c 85 4f 3b 4c 55 66 bc
       0.009708526 -0.00789952 0.003166522 -0.014058422
000140 1d 9b 08 bc 85 0c 3f bc 5a 84 e0 ba 9e 31 10 3c
       -0.008337763 -0.0116607 -0.0017129288 0.008800892
000150 d7 bb 45 3b 92 07 5a bc fe 08 25 3b bb b2 3a bc
       0.0030171776 -0.013307469 0.0025182362 -0.011395152
000160 9b a0 d6 bb 5c c3 87 3b ca 4c aa 3c 89 e7 0e bc
       -0.0065499074 0.0041431617 0.020788569 -0.0087221945
000170 e4 0f 19 3c ed 55 32 bc 52 bc 77 bb 5e 56 17 3c
       0.0093421675 -0.010884744 -0.0037801457 0.0092369
000180 1d 65 40 3c 56 fe 2d 3c c4 34 a7 3c 64 b9 85 bb
       0.011742857 0.01061972 0.020410903 -0.004080938
000190 23 6b 1a bc 6b dd d6 bb 71 b0 05 3b 84 a9 55 3c
       -0.009424957 -0.006557157 0.0020399357 0.013040904
0001a0 f0 bf b3 3c 8e 1a 9d 3c a2 74 cf 3a 59 dd ff 3a
       0.021942109 0.019177701 0.0015827606 0.0019520923
0001b0 57 7d 2c 3b 79 2d 66 bc 78 d4 51 3b d9 e2 c0 3b
       0.0026319826 -0.014048927 0.003201751 0.0058864173
0001c0 33 19 8f 3c 65 1c 3a 3c 47 d4 13 3b ec df 03 b9
       0.01746807 0.011359309 0.0022556947 -0.00012576551
0001d0 0f 8c d9 3b 69 01 07 ba 89 05 58 3c b6 30 e0 bb
       0.0066390107 -0.00051500514 0.013184913 -0.0068417443
0001e0 f6 67 a1 bb f1 6b 0e 3b 57 51 0f 3c d0 c8 78 bb
       -0.004925723 0.0021731819 0.00874742 -0.003796149
0001f0 54 c2 69 3c 43 d9 2b 3a 1f 89 fb 3b 1e ae c5 bb
       0.014267523 0.0006555507 0.007676258 -0.0060327193
000200 04 ae ed 3b 38 67 3c bb 50 28 8b bb 2f fb 1e bc
       0.0072534103 -0.0028748047 -0.004246749 -0.0097034415
000210 8a 6a aa bc 00 78 a7 bb 61 c1 b5 3c 42 4b 03 3b
       -0.020802755 -0.0051107407 0.022186937 0.002003387
000220 72 c8 48 3b 00 0a e5 bb fe 76 d4 3b 1e 5b ea bb
       0.0030637053 -0.0069897175 0.0064839115 -0.0071519753
000230 08 e4 8f ba c2 f6 ce bb 60 92 03 bc ce cd 07 3c
       -0.0010977993 -0.006316037 -0.008030504 0.008288814
000240 c8 45 38 3b 3b 67 7f b9 dd 8d 4c 3c 18 6b 05 bc
       0.0028117765 -0.00024357151 0.012484995 -0.008143209
000250 73 a4 03 bc bb 26 c0 ba 00 af 11 3c 3d 0c a7 bc
       -0.008034813 -0.001465998 0.008891821 -0.020391578
000260 81 ee 66 3c 0a f7 1e 3b b1 db 07 bb cb 1f 17 3a
       0.01409495 0.0024256133 -0.0020730312 0.00057649304
000270 34 05 80 b9 15 c6 f3 3b ad 5f 86 3c 86 ad 05 3c
       -0.0002441794 0.0074393847 0.016403044 0.008159047
000280 d7 5a 4f bb a4 d4 9b bc 9a 9e 75 bb bb 3b 28 bb
       -0.0031639838 -0.019022293 -0.0037478567 -0.0025670368
000290 19 4d 44 3c 24 b1 70 3b e4 1c d4 3b 3b ba 0e bb
       0.011981272 0.0036726678 0.0064731706 -0.0021778482
0002a0 73 c4 fc bb 39 18 58 3b 8e 6c 29 3c 52 d2 0f bc
       -0.0077138483 0.0032973422 0.010340823 -0.008778172
0002b0 bf 82 b3 3b ee 77 96 bb ae 45 e4 3a 08 56 56 3c
       0.0054782326 -0.0045919335 0.0017415786 0.013082035
0002c0 e2 e7 d0 bb fb 54 15 bc 78 39 6b 3b de e6 90 3c
       -0.006375299 -0.009114499 0.0035892408 0.017688211
0002d0 ae 15 52 bc cf e2 58 3c b8 43 66 ba c5 33 26 3c
       -0.012822552 0.013237669 -0.00087838946 0.010144179
0002e0 8e 64 a7 3a 07 98 16 3c 91 3d f6 3b 1a ad 5b bc
       0.0012771056 0.00919152 0.0075146635 -0.01340797
0002f0 7b db 2c bc cc 1c 30 bc 00 76 fa bb 88 cd 9a bb
       -0.010550375 -0.010749053 -0.007643461 -0.0047242083
000300 60 7a f0 3b 16 8d b4 bb d2 b2 a9 ba 3c 86 1f bc
       0.007338807 -0.005509983 -0.0012946969 -0.009736594
000310 5c e5 f0 3a 12 4b 16 3c 16 8e 95 bb c8 9f 63 bc
       0.0018378901 0.009173172 -0.004564057 -0.013893075
000320 62 97 ce ba 1d d3 08 bc 20 78 3e 3c 5b f4 30 3c
       -0.0015761668 -0.008351115 0.01162532 0.010800446
000330 d1 28 a9 ba 33 46 18 bb e8 68 21 bc 04 9f 57 3c
       -0.0012905841 -0.0023235201 -0.009851672 0.013160471
000340 0d 28 d2 3c 70 5e 0d 3c b4 08 00 3c c4 fc 9b bb
       0.025653863 0.008628473 0.007814575 -0.0047603566
000350 9d 41 5a bb 31 e7 29 3c b8 42 2f 3a 5f 36 42 3c
       -0.0033303269 0.010370062 0.0006685662 0.011853783
000360 8f 89 fa bb 90 9f 23 bc 26 34 93 3b 3c 8e b6 bc
       -0.007645793 -0.009986773 0.0044923006 -0.02228462
000370 be 75 81 3c cc 6f a0 3b 71 6c d8 3a d7 43 86 bb
       0.015803214 0.0048961397 0.001651181 -0.0040974426
000380 96 d5 c6 bc d0 29 51 bb f1 6c 16 3c a3 31 9e bb
       -0.024271768 -0.0031915791 0.009181247 -0.0048276945
000390 59 1c 3e bc 9e ec b1 38 50 63 ac bb e0 06 d4 bb
       -0.011603438 8.484091e-05 -0.0052608624 -0.006470546
0003a0 70 8e a7 3a df ec 5a 3b 04 16 e0 3b c9 43 f8 3b
       0.0012783539 0.0033405346 0.006838562 0.00757644
0003b0 3b 47 0f bc e6 fd 9c 3a 6b 38 55 ba b8 ff 07 3c
       -0.00874501 0.0011977523 -0.0008133712 0.008300714
0003c0 86 a2 62 3b f4 e1 3d 3c 8c 52 d5 3a 4c eb 84 bc
       0.0034581735 0.011589516 0.0016275211 -0.01622548
0003d0 a7 dd 5b 3a f2 2b 4d bc 98 db cb b9 ec 15 36 bb
       0.0008387216 -0.012522684 -0.00038882787 -0.0027784063
0003e0 52 0b 1f bb 40 a4 60 3c 60 14 87 3c 3e e9 66 3b
       -0.0024268222 0.013711035 0.016489208 0.0035234238
0003f0 09 7d 40 3a 6d 9c 61 3c 86 c0 3e bc ce 44 bc bb
       0.00073428504 0.013770205 -0.011642581 -0.005745507

action_model._discrete_distribution.branches.0.bias f4 [3]
000000 bd ab 8e ba 20 4b 0d 3b db ba 06 bb
       -0.0010884922 0.002155967 -0.0020558152

onnx::Div_52 f4 [6]
000000 41 47 1b 40 b4 bb a4 3d 13 6b 93 3d 13 6b 93 3d
       2.426224 0.08043614 0.07198157 0.07198157
000010 89 40 32 3e 46 91 c7 41
       0.1740743 24.945934
