BasicAvoidance/Assets/results/BasicAvoidance1/PlayerAvoidance/PlayerAvoidance-68357.pt (torch, 442002 bytes, 41 tensors)

network_body.observation_encoder.processors.0.normalizer.running_mean f4 [6]
000000 22 e2 2b be d1 fd ff 3e 00 00 00 00 ca 72 c1 3b
       -0.16785482 0.49998334 0.0 0.0059035765
000010 c2 b0 02 3f 45 0c 35 40
       0.5105096 2.8288739

network_body.observation_encoder.processors.0.normalizer.running_variance f4 [6]
000000 0f 46 04 48 96 ff 9f 3f 00 00 80 3f c4 7d eb 41
       135448.23 1.2499874 1.0 29.436409
000010 b1 71 c6 43 02 b5 bc 4a
       396.8882 6.183553e+06

network_body.processors.0.normalizer.running_mean f4 [6]
000000 22 e2 2b be d1 fd ff 3e 00 00 00 00 ca 72 c1 3b
       -0.16785482 0.49998334 0.0 0.0059035765
000010 c2 b0 02 3f 45 0c 35 40
       0.5105096 2.8288739

network_body.processors.0.normalizer.running_variance f4 [6]
000000 0f 46 04 48 96 ff 9f 3f 00 00 80 3f c4 7d eb 41
       135448.23 1.2499874 1.0 29.436409
000010 b1 71 c6 43 02 b5 bc 4a
       396.8882 6.183553e+06

network_body._body_endoder.seq_layers.0.weight f4 [128, 6]
000000 32 f9 a2 3e 3e ff b0 be 0a 16 8f be 72 cd b2 be
       0.31830746 -0.34569734 -0.27946502 -0.34922367
000010 e5 f9 87 3e 13 b7 a1 bc 43 d8 19 bf 5f ec 1d bf
       0.26557842 -0.019740617 -0.60095614 -0.616888
000020 1e fe 73 be d4 e9 3d 3e bc 04 a9 be bf 58 a5 be
       -0.23827407 0.1854623 -0.33011425 -0.3229427
000030 4e ad a7 3e 90 33 6d 3f 05 46 1b 3e 72 7b 5c be
       0.32749408 0.92656803 0.15163429 -0.21531466
000040 24 36 3b bd 58 30 46 bd d0 9f 07 3d b5 fd cd be
       -0.04570593 -0.048385948 0.033111393 -0.40232626
000050 f6 fc d2 be 23 15 ad 3e 57 33 7f bf 31 74 cf 3c
       -0.4120862 0.3380519 -0.99687713 0.025323959
000060 1c 5f 5b 3f 63 85 e5 be d9 ef 00 bd 38 8e c9 be
       0.85692 -0.44828328 -0.031478737 -0.39366317
000070 5b f2 d2 be cd ca ba be 41 85 6e 3e 87 58 1a be
       -0.41200528 -0.3648285 0.2329302 -0.15072833
000080 24 3b ea 3e 52 8d 73 3e 2b 4f f9 3e 4b 48 97 bd
       0.45748246 0.23784378 0.48693213 -0.07386836
000090 f7 27 9f be 6e a5 04 be 91 92 5e b9 d5 1d 87 be
       -0.31085178 -0.12953731 -0.0002122617 -0.26389948
0000a0 67 ec 5c 3e 75 1a cf 3d e0 4a 38 3e d1 87 91 bb
       0.21574555 0.10112468 0.17997313 -0.0044412394
0000b0 fc a7 97 be 1c 29 07 3c ca d0 a4 be a7 79 c1 3e
       -0.2962035 0.008249547 -0.32190543 0.37788126
0000c0 59 b0 ff be 91 16 91 bf d6 ab 4a be e6 e0 56 be
       -0.4993923 -1.1335012 -0.19792113 -0.2098423
0000d0 64 b4 c7 3e 7f 6d 28 3e 08 cf db be 1b 39 eb 3d
       0.39004815 0.1644802 -0.4293139 0.114855014
0000e0 ab 1b 65 3f cd b8 89 bd bb bd 0c 3f 4f 29 70 3e
       0.8949534 -0.06724701 0.54977006 0.23453258
0000f0 1b ac 2c bd 3e 67 f2 be 2d 72 99 be 24 2f 73 3e
       -0.04215632 -0.47344393 -0.29969922 0.23748451
000100 d6 68 5d be f3 dd be 3d 67 4f 74 3f 8a af 64 3e
       -0.21622023 0.09319677 0.9543366 0.22332588
000110 9a 4b 64 be 17 43 51 3f 01 bb 9d 3e ab 7f b1 3e
       -0.22294465 0.81742996 0.30806735 0.34667715
000120 39 a4 e0 be 5e 72 c1 3e 4a 01 9b 3e 69 69 0b 3f
       -0.43875292 0.37782568 0.3027442 0.5445772
000130 92 29 64 bc 63 ad 80 3e b4 b9 28 be 22 a0 b1 3d
       -0.013925927 0.25132284 -0.1647709 0.08673121
000140 6c a9 b4 3d f3 18 b7 be 28 27 c9 be 16 64 1a 3d
       0.08821377 -0.35761222 -0.39287686 0.037693106
000150 0b 25 d1 3e ed 92 85 3d 27 a9 22 3e 1d cd fb be
       0.40848574 0.065221645 0.15884839 -0.49179927
000160 51 b0 9c be 65 13 0c be 53 f6 29 bf 89 37 ee 3e
       -0.3060327 -0.13679273 -0.66391486 0.46526745
000170 1a b8 28 3f a9 47 16 bf 39 a2 12 3f 7e 7c 0a bf
       0.65905917 -0.58703095 0.5727878 -0.5409621
000180 e4 0d 5c 3f 56 67 85 be 2f 97 70 3e c9 d8 42 bd
       0.85958695 -0.26055402 0.23495172 -0.047570024
000190 38 c8 ff bd 62 11 82 3e 92 ed e4 bb 54 11 17 be
       -0.124893606 0.25403887 -0.0069863284 -0.14752704
0001a0 11 77 1f be 5e 7d 05 3e 28 ed eb 3e 12 4a c0 3e
       -0.15572764 0.13036105 0.46079373 0.3755651
0001b0 78 35 2e 3f e5 56 80 be 50 8c c5 be 3f c5 21 3f
       0.68050337 -0.25066295 -0.38583612 0.631916
0001c0 c7 8e 84 3e 95 a5 5b 3e 57 e5 06 bf 23 b9 2c bf
       0.2589018 0.21449883 -0.52693695 -0.67469996
0001d0 49 38 c1 be ca e4 d4 3e e5 0c 9f bd 24 a0 0b 3d
       -0.37738255 0.41580802 -0.07766131 0.03408827
0001e0 0b 50 13 3f 0a 08 65 bf 66 03 c5 3e 18 b9 1a be
       0.5754401 -0.8946539 0.38479155 -0.1510967
0001f0 da 2e 2b 3f 6b 4f 9a be 41 3e 23 be ad c1 77 bd
       0.66868365 -0.30138716 -0.15941717 -0.060487438
000200 1c c4 a9 3e 38 f1 4b 3f 6d 4a 7c 3d c1 84 93 3e
       0.33157432 0.79664946 0.061594415 0.2881222
000210 8c 1e 10 be f6 07 72 be 64 61 40 bf a6 25 c0 3e
       -0.14074153 -0.2363585 -0.75148606 0.37528723
000220 25 83 e9 be e2 bc 0e 3f b5 b8 0a bf a6 b2 04 3e
       -0.45607868 0.5575696 -0.5418809 0.12958774
000230 22 46 a2 bd 0d e9 6c 3d 2d 1c 50 bf 89 2d ad be
       -0.07923533 0.057839442 -0.8129299 -0.33823803
000240 da f1 8c 3e cd d3 7a 3e e8 58 6c 3e f8 0f 17 be
       0.27528268 0.24494858 0.2308079 -0.14752185
000250 98 cf b7 be 02 6f 2b 3f 92 0c ad bd 52 5c 11 bf
       -0.3590057 0.6696626 -0.08449663 -0.56781495
000260 a1 de e4 be f7 d0 48 3d 03 e3 ed 3e 43 1d a8 3c
       -0.44701102 0.04902741 0.4646226 0.020521766
000270 7a 49 35 3e 4c be 9a bd 4c 2c 36 be 2a 67 09 bf
       0.1770381 -0.075558275 -0.17790335 -0.5367304
000280 97 be 87 be a2 6f cc be 2f a6 d0 3e b6 47 1e bf
       -0.26512596 -0.3992892 0.40751788 -0.6182817
000290 ab 13 15 bd 39 90 0b be 3b 70 39 bf 51 8a 1a be
       -0.03639571 -0.13629235 -0.72436875 -0.15091826
0002a0 43 62 7f be 6e 48 0f 3f cf f9 0d 3f 35 e4 56 3f
       -0.24939828 0.55969894 0.554593 0.83941966
0002b0 13 bd 9c 3e 65 fc 02 bf fc 5a b0 3e 88 10 84 3e
       0.30613002 -0.51166373 0.34444416 0.25793862
0002c0 71 63 da 3d 5f 6a bb 3d 63 12 88 be 71 4b 2c be
       0.10663498 0.09151148 -0.26576528 -0.16825654
0002d0 15 44 a9 be 8a fb 5e 3e eb bc 62 be ff ba bc 3e
       -0.33059755 0.21775642 -0.22142379 0.36861417
0002e0 35 f8 a2 be 73 54 2c 3e e2 cf d9 be fb 7b 31 be
       -0.31829992 0.1682909 -0.42541414 -0.17332451
0002f0 a8 fb b5 be e1 d4 81 3e cc 52 a0 bf e0 fd 69 3e
       -0.3554356 0.25357726 -1.2525268 0.22850752
000300 fd e2 b6 be 42 a3 88 be a2 9c a5 3e 48 41 06 3f
       -0.35720053 -0.26687056 0.32346064 0.5244336
000310 10 15 e3 bd 2b ab 72 be e7 d0 17 3f 80 8d fb 3e
       -0.11088002 -0.23698108 0.59303135 0.49131393
000320 af 37 e6 bc 81 a8 ef bd d1 68 e1 3d f6 67 d6 3c
       -0.028102724 -0.117020614 0.1100632 0.02617262
000330 68 41 49 be d0 a2 fd 3e b1 19 04 3f fa d3 e1 3e
       -0.19653857 0.4953828 0.516017 0.44107038
000340 0a 21 dc 3c c7 fc 11 bf 58 03 92 bd c7 21 b3 bd
       0.026871223 -0.5702633 -0.07129544 -0.08746677
000350 e2 1b 58 be 5a ed a0 3e 44 5c 63 bd c2 01 9b 3e
       -0.21104386 0.31431085 -0.055507913 0.3027478
000360 7f 5a 02 be 71 67 42 3e e3 86 52 be d1 98 ea 3e
       -0.12729834 0.18984772 -0.20559268 0.45819715
000370 9f be 1f bf 5a 63 6a bf 63 85 4c be 73 9c 02 bf
       -0.6240024 -0.9155785 -0.19972758 -0.5101997
000380 31 c3 a3 bd 4e bb 1e 3f 78 5f 07 3c 26 5b 39 3f
       -0.07996214 0.62004554 0.008262508 0.72404706
000390 e5 5b e4 be 36 f3 82 3e e4 09 9e be 38 4a 84 3e
       -0.4460136 0.2557618 -0.3086692 0.25837874
0003a0 47 58 22 3e da 33 10 bf 46 22 a4 be 7a 01 5b be
       0.15853988 -0.5632912 -0.320574 -0.21387282
0003b0 84 97 d7 be 00 34 ce be 4e b1 78 bd f8 46 5e bf
       -0.42107785 -0.40274048 -0.060715966 -0.8682704
0003c0 e3 b2 60 be 84 59 4a be c0 7d 92 be b1 24 ba be
       -0.2194324 -0.1976071 -0.28611565 -0.36356118
0003d0 df a9 a1 3c b8 80 1a 3e 41 8d ae 3e 51 57 87 3e
       0.019734321 0.15088165 0.34092143 0.26433805
0003e0 16 70 5e be ac e3 5e bd 93 f2 17 3f 60 77 e1 b8
       -0.21722445 -0.054416344 0.59354514 -0.000107510714
0003f0 6b 8f 3d be 43 93 00 bf fc 0c 63 be ce 91 4b be
       -0.18511741 -0.50224704 -0.22172922 -0.19879839

network_body._body_endoder.seq_layers.0.bias f4 [128]
000000 ba 31 2a bc d4 6c 19 bd f4 ec 40 3d c4 d4 06 3e
       -0.010387832 -0.037457302 0.047100976 0.13167101
000010 83 2a fe 3c 53 4e 82 3d d5 05 9d bd db 1a ef bc
       0.03102613 0.063625954 -0.07667128 -0.02918761
000020 7b c9 dd bd f5 63 c8 ba 20 b7 64 3b 31 a8 3d 3d
       -0.10829445 -0.0015288579 0.003489919 0.046302978
000030 29 87 c5 bc 86 04 12 be 25 86 4e bd c9 13 0a bd
       -0.024112301 -0.14259538 -0.0504209 -0.033710275
000040 62 0b 0a 3d cb 37 cb bd 4b c1 fc 3a 24 b9 47 bd
       0.03370226 -0.09922751 0.001928368 -0.04876055
000050 36 f1 94 3d 47 62 b7 bd 23 1a 8c 3c 9d 7c 0a bd
       0.0727257 -0.08954292 0.017102307 -0.033810247
000060 3b 58 87 3d 6f ed 4a bd 32 fa 8b 3d 42 7e 0e 3e
       0.066086255 -0.04954284 0.0683483 0.13915351
000070 2f 1b 44 bc f0 98 92 3d d7 23 8c bd 5e 30 09 3e
       -0.011969372 0.07158077 -0.068427734 0.13397357
000080 5e 1a 93 bc 7f bd 31 bd f0 70 37 3d f4 87 f4 bd
       -0.017956909 -0.04339361 0.04478544 -0.119399935
000090 ba 2f 0a 3e 4f c9 ce 3c 47 69 ad bd 5a a2 4d b7
       0.13494769 0.025242476 -0.08467346 -1.2256753e-05
0000a0 ba 96 89 bd ec 07 cb 3c b4 c6 c5 bd 4a fa b1 bd
       -0.06718202 0.02478405 -0.0965704 -0.08690317
0000b0 88 7e c1 3d 5b 0d b3 bc f0 c2 df 3d 6f 4a b0 3a
       0.09447962 -0.021856954 0.10925853 0.0013449917
0000c0 e8 fa c9 3b ae cd 7a 3d 3a 63 3a bb 6c 52 01 bd
       0.0061639436 0.061231308 -0.0028440491 -0.031572744
0000d0 e0 f9 2f bc 51 8f f2 3d ef 28 28 3d 6f 3b c1 bc
       -0.010740727 0.11843742 0.041054662 -0.02358791
0000e0 8b 81 b0 bd 4e 0d 01 be c1 ce e9 bb 2c b0 75 bd
       -0.08618458 -0.12602732 -0.0071352427 -0.059982464
0000f0 00 d6 5d bd af e1 92 bd 40 16 c7 3d fb 50 73 3c
       -0.054159164 -0.07171952 0.09721041 0.01485085
000100 a0 00 f0 bc 07 f8 12 be 83 42 1f 3e 5b 37 c4 3d
       -0.029297173 -0.14352427 0.15552716 0.09580871
000110 49 ae ad bd 59 62 5f bd d7 24 0c be c1 e8 84 bd
       -0.08480508 -0.05453715 -0.13685928 -0.06489707
000120 5b eb b9 bd d8 cf bc ba 98 6f 93 3c a2 a1 08 3d
       -0.090780936 -0.0014405204 0.017997548 0.03335727
000130 89 15 48 3d b1 20 64 bd fd ea 81 3d 61 3c 7c 3d
       0.048848663 -0.05569524 0.063436486 0.06158102
000140 83 c2 6f 3d 1e b9 dd bd a5 f6 48 3c 09 da 10 3e
       0.05853511 -0.10826324 0.012265836 0.14145674
000150 0b 7e 70 3b 2e 8e b5 bd 7a 6e 93 bd b4 bd ed 3d
       0.0036696221 -0.08865009 -0.07198806 0.116084486
000160 84 90 97 3c c3 48 2f bd f5 f3 1c 3c 64 67 f0 bd
       0.018501528 -0.042794 0.009579648 -0.1173847
000170 9d 7b a6 3d 25 64 6d 3d 21 2a 01 be 5a f2 cf bd
       0.08129046 0.057956833 -0.12613727 -0.10153647
000180 62 76 29 3d 1b 48 37 3d c2 62 01 3c 35 44 bf 3b
       0.041372664 0.0447465 0.007897081 0.0058369883
000190 56 36 8b 3d c4 7a 52 bd f0 29 05 3e 37 e6 d6 bd
       0.06797473 -0.05138661 0.13004279 -0.10493129
0001a0 a5 b1 e8 3c d4 18 3f bd ce 03 0c be 71 f6 05 be
       0.02840502 -0.046654537 -0.13673326 -0.13082291
0001b0 80 55 f7 3d 52 cf dd 3d 98 8c 25 bd 96 d6 0c bd
       0.12076855 0.10830559 -0.040417284 -0.034384333
0001c0 74 a4 f4 bc d6 46 1c bd 1c 5c 88 3d cb 3b ee 3d
       -0.029863574 -0.038153492 0.066581935 0.11632498
0001d0 a7 82 96 3d da b1 cf 3d 78 96 f5 3c 97 28 d9 bd
       0.07349139 0.10141344 0.029978976 -0.10603445
0001e0 2f 52 c0 3d 72 58 b6 bd 46 30 cc 3d 72 57 44 bd
       0.09390675 -0.08903588 0.09970145 -0.047934957
0001f0 8b 42 95 bc 80 9a 0e bd 4a 11 3e bd 12 44 c8 3d
       -0.018220207 -0.03481531 -0.046403207 0.097786084

network_body._body_endoder.seq_layers.2.weight f4 [128, 128]
000000 e9 9c 88 bc a1 ac 57 3d af d8 ad 3d d5 85 9c 3d
       -0.016676383 0.052654866 0.08488595 0.07642714
000010 9b f4 7b 3d b0 4a 20 bd 45 7f 93 3d 85 0f 16 bd
       0.06151257 -0.039133728 0.07202009 -0.036635894
000020 19 bf ac 3c 92 ff 0e be 28 01 75 be dc 33 29 bd
       0.021087216 -0.1396468 -0.23926222 -0.041309223
000030 0f 64 35 bd d5 60 da 3d 5d b8 66 bc 3c 93 d1 3d
       -0.044284876 0.106630005 -0.014082042 0.10233161
000040 d1 4f d5 3d f0 ed 00 be c8 2c 76 bc 93 74 20 3e
       0.104156144 -0.12590766 -0.015025325 0.1566947
000050 33 9b bc bd e4 00 56 bd 2d 4e dd bd 17 3e 9a bd
       -0.092092894 -0.052246943 -0.108059265 -0.07531374
000060 56 27 1f 38 b3 90 aa bd f1 24 99 bc 13 14 cb bd
       3.794519e-05 -0.083283804 -0.018694373 -0.09915938
000070 9b d9 3e be 51 82 5f bd 4a 87 f0 bc 0c a6 7e bd
       -0.18637697 -0.05456764 -0.029361386 -0.062170073
000080 55 be 99 3d b4 39 38 3e 23 fc 69 bd 6c 8b 81 bd
       0.07507006 0.17990762 -0.057125222 -0.06325421
000090 bb 21 83 bd 3c 04 0a 3d 60 4c a2 3d 1c a9 37 be
       -0.06402918 0.033695444 0.079247236 -0.17935604
0000a0 e8 6d 03 bd 33 08 fb bc 90 15 db b8 22 ed fb bd
       -0.032087237 -0.030643558 -0.0001044675 -0.12301089
0000b0 ae 6f bb bb 77 5c 02 3e 32 ac de bc 40 85 03 be
       -0.0057201004 0.12730585 -0.027181718 -0.128438
0000c0 f4 24 7f 3d 38 58 d1 bb 26 da cb 3c 52 b1 d6 3d
       0.0622911 -0.0063886903 0.024884295 0.1048304
0000d0 ee 9e 19 3d ff b1 5d bd d0 db c0 bd ea 6e fd bc
       0.037505083 -0.05412483 -0.09416926 -0.030936677
0000e0 12 11 2c be c8 26 48 3e 0f 47 15 be 66 44 66 bc
       -0.16803387 0.19546044 -0.14577888 -0.014054393
0000f0 64 15 c9 bd 7a 98 bb bc 23 98 b5 bd d9 47 24 be
       -0.09818533 -0.022899855 -0.088669084 -0.16043033
000100 e3 c5 a5 bd e4 27 aa 3c b9 e7 a5 bc df e0 45 3c
       -0.080943845 0.020770974 -0.020252096 0.012077539
000110 83 99 00 be fd 64 6c bd 37 20 06 3c 8a 15 b0 bd
       -0.1255856 -0.057713497 0.008186392 -0.08597858
000120 a5 ee 48 3c 7b 03 fc bd 92 c7 bf 3d 91 46 e6 3c
       0.012263929 -0.12305351 0.09364237 0.02810982
000130 66 30 04 bd 5d f1 c6 3b 2b 31 85 bd e8 6e 28 bd
       -0.03227272 0.006071253 -0.06503519 -0.041121393
000140 52 cf 6b 3e 77 9e 7c 3d c7 b6 75 3d 80 c0 54 bc
       0.23028305 0.06167456 0.059988763 -0.012985349
000150 59 7a 8e bd b2 ae 12 3e 19 f6 b1 bc 6f 4d 7f bb
       -0.0695693 0.14324453 -0.021723794 -0.0038956066
000160 bd c0 b4 bd 2f 60 7a 3d 92 cc 5d bd 02 69 0f 3c
       -0.088258244 0.061126884 -0.05415017 0.008753063
000170 81 1a 3e bc 17 ae f2 bd e8 62 6c 3b 7f ad 4d bc
       -0.011602999 -0.11849611 0.0036069695 -0.012553572
000180 bc 15 d4 3c 76 43 91 bd 1a a8 10 be 89 cc 1f 3d
       0.02588927 -0.07092945 -0.14126626 0.03901342
000190 0b c8 8e bb 9a 9a cd bc 00 3c 8d bc 49 7a 55 3d
       -0.004357343 -0.025098134 -0.017240524 0.052118573
0001a0 52 bd f2 3c 45 61 05 3c 76 7e 24 3d 34 b9 8f 3d
       0.02963129 0.008140867 0.040159665 0.070177466
0001b0 3e 22 02 be 86 d0 b6 bd 04 bf cc 3d 1c c5 4a 3e
       -0.12708375 -0.089264914 0.09997371 0.19801754
0001c0 8d ad ce bd 99 89 5d be 64 ea ce bd b7 59 1a 3d
       -0.10091696 -0.2163452 -0.101033 0.037683215
0001d0 c9 63 e0 3d 5b f9 a2 3d b9 f5 bf 3d c6 12 34 3d
       0.109565325 0.07957717 0.0937304 0.043963216
0001e0 2b eb 51 bd 5c 41 0d 3e cc 59 fe bd e1 ce 86 3b
       -0.051249664 0.13794464 -0.12419471 0.0041140174
0001f0 9f d3 b9 bc 6c 27 b8 bd 30 e7 0d bd 72 89 8a 3d
       -0.022683917 -0.08991894 -0.034644306 0.06764497
000200 22 18 c1 bd bf be 3a 3b 1c ff 91 bd 47 f4 d5 bd
       -0.09428431 0.0028495041 -0.071287364 -0.10446983
000210 50 64 12 3d d0 85 41 bd 81 a9 74 3e 13 2f c5 bd
       0.035740197 -0.047246754 0.23892786 -0.09628119
000220 d1 4d 0c be 00 e8 81 3d 5a 39 30 bd 83 7e 23 be
       -0.1370156 0.063430786 -0.043023445 -0.15966229
000230 9b 79 ac 3b a2 1d cb 3d cd df 1b 3e e0 73 2e bd
       0.00526352 0.099177614 0.15222092 -0.042590976
000240 5f ee 4b bd cf 58 75 be 0e b0 ad 3d 89 c3 89 bd
       -0.049787875 -0.23959659 0.084808454 -0.067267485
000250 b9 1f 35 be a6 43 e3 bd b7 52 a5 bd ee 5a f7 bc
       -0.17687882 -0.11096887 -0.08072417 -0.030194726
000260 e8 41 01 be 40 8b ed bd 7b 89 19 be a6 fc 6e bd
       -0.12622797 -0.115988255 -0.14993851 -0.058346413
000270 66 9f 2e 3d 9e 53 00 3e 7b fc 33 bd ca 06 54 3d
       0.042632483 0.12531897 -0.043941956 0.051764287
000280 5a e0 b7 bd e5 c9 54 3d 1f e3 03 3d 80 f0 58 3c
       -0.089783385 0.051950354 0.03219902 0.013240933
000290 a0 d8 79 be 64 71 09 bd 00 1f aa bd 3d af 4c be
       -0.24399042 -0.033555403 -0.08306694 -0.19988723
0002a0 aa 4a cd 3c d7 39 01 be 8c dc 31 3c f1 c8 5d bc
       0.025060017 -0.1261972 0.010855805 -0.013536678
0002b0 65 41 f8 bc 7d 4c 9f bc 45 06 b1 bd ff 29 df bd
       -0.03030462 -0.019445652 -0.08643774 -0.10896682
0002c0 62 7c 37 bd e4 17 42 3b 20 5b f8 3d ae 4d f9 3c
       -0.044796355 0.002961629 0.12126756 0.030432548
0002d0 20 67 b3 bd 44 be b6 3c d5 ee 82 3b 1b 9f cc 3b
       -0.08759904 0.022307523 0.003995756 0.006244553
0002e0 2d 5e 58 bd c3 9f b9 3d 15 71 38 3d 59 56 82 3d
       -0.052824188 0.09063675 0.04502972 0.06364126
0002f0 79 06 a5 3c 19 f7 c3 bd bc a8 e0 3d b3 8f 17 be
       0.020144688 -0.095686145 0.109696835 -0.1480091
000300 28 36 3f 3d 88 c8 23 be a2 4c db bd 1f bb ec bd
       0.046682507 -0.15994465 -0.10707976 -0.11559128
000310 b3 5a 03 be 75 c4 0c 3d d5 40 14 bc ad 2d 01 3e
       -0.12827568 0.034367044 -0.00904866 0.1261508
000320 a4 fc aa bd de 5d a4 bd 19 50 a7 3d 09 a0 be 3d
       -0.083489686 -0.08025716 0.08169574 0.09307868
000330 db 52 62 bd 9a 5b 74 3c f0 15 54 be 2f 0d 3d be
       -0.0552548 0.014914418 -0.20711493 -0.1846206
000340 21 5d e3 3c a0 a7 35 3d b8 65 01 3d 1f 1b 4a 3e
       0.027754368 0.044349313 0.031591147 0.19736908
000350 88 1c dc 3c 1c fd 70 3e 8c ae 21 3e dc bb d1 bd
       0.026869074 0.23534054 0.1578924 -0.102409095
000360 25 86 85 bd 7c b1 a3 bd f9 48 2c be 12 cc 87 3d
       -0.06519727 -0.07992837 -0.16824712 0.0663072
000370 93 65 2f 3c 0d 77 84 3d 2a 66 91 3d a4 ee 3c be
       0.0107053695 0.0646802 0.070995644 -0.18450409
000380 9b 63 90 bd 87 09 4e bc 51 0d 2b be b6 71 7e bd
       -0.07050248 -0.012575514 -0.16704299 -0.062120162
000390 85 20 e4 bd de a6 e2 3d 21 0d 4e bd 8b d2 00 be
       -0.11139015 0.11066984 -0.05030549 -0.12580316
0003a0 ad a0 32 bd 8f 9e ff bd 8b 38 0f bd 41 4e 52 3d
       -0.043610264 -0.124814145 -0.034966033 0.05134416
0003b0 76 ae 91 bd 35 72 2d be 98 9b bb bc d3 78 29 3e
       -0.07113354 -0.16938098 -0.022901341 0.16549997
0003c0 a1 cb 1e 3d a3 81 94 3c d5 ab 6d bd f8 9c 44 be
       0.038768414 0.018128222 -0.0580252 -0.19200504
0003d0 e0 8e e8 3d b4 46 44 bd a1 20 8a bd 81 20 d4 3b
       0.11355376 -0.04791899 -0.06744505 0.0064736013
0003e0 29 ba 05 bd 04 1f 8b bd 84 5a 2b be 3d 13 0c 3d
       -0.03264824 -0.06793025 -0.16733748 0.034198035
0003f0 6a 5b 85 bd c4 b3 08 be ce a3 4d 3e ed 18 7c 3c
       -0.065115765 -0.13349825 0.20082018 0.015386802

network_body._body_endoder.seq_layers.2.bias f4 [128]
000000 34 66 03 be 88 c7 ff bd be 18 53 be ab 9a 06 3c
       -0.12831956 -0.124892294 -0.20614907 0.008215587
000010 35 12 25 bd 89 cc 88 bd ea e6 0c bd 7e 69 f4 3d
       -0.040300567 -0.06679637 -0.034399904 0.119341835
000020 d6 40 00 be 9d 0e b0 bd 87 41 57 3d ea 4f e7 3d
       -0.12524733 -0.08596537 0.052552726 0.11294539
000030 57 c1 99 bd 79 1c d9 bd 0d d5 40 bd 4e b6 c6 3c
       -0.0750758 -0.10601134 -0.04707818 0.024256852
000040 1d 6a 09 3e e9 84 ae 3d 3c c7 8d 3d d6 73 cc 3d
       0.13419385 0.08521444 0.069227666 0.099830315
000050 91 9b fd 3d 7c a4 02 be e7 32 0d 3e 9d 9b 01 3e
       0.123831876 -0.12758058 0.13788949 0.12657018
000060 de 56 c3 bc dc b9 be 3d d9 8a 87 3d e8 8a a5 3d
       -0.023845132 0.093127936 0.0661828 0.08083135
000070 4e 11 1b 3e 5f 87 d9 3d 8e 5f 8e 3d 4e 28 93 bc
       0.1514332 0.10621523 0.06951819 -0.017963555
000080 ec 8a ec bd 97 8c 91 3c 67 41 15 be d2 98 23 3e
       -0.11549935 0.017767234 -0.1457573 0.15976265
000090 2b f8 f0 3c 2b d8 a5 bd 13 a0 29 bd ef f0 e1 bd
       0.02941521 -0.080978714 -0.041412424 -0.110322826
0000a0 24 4c ba bd 4f 6d 18 3d 9e 37 f9 3d c8 81 8e bd
       -0.09096554 0.03721362 0.12168811 -0.069583476
0000b0 20 21 9b 3d d5 ee ed bd c6 4d dc bd fd a0 ae bd
       0.075746775 -0.11617819 -0.107570216 -0.085268
0000c0 b5 de b9 bd eb 31 46 3d 06 48 19 3e ee 0d 8a bd
       -0.09075681 0.04838745 0.14968881 -0.06740938
0000d0 10 35 5c bd 38 ec e2 bd 57 d8 00 3e 3f 17 88 bd
       -0.05376154 -0.110802114 0.12582527 -0.06645059
0000e0 1c 15 ef bd f1 62 1e 3e 65 a3 8d bd 3e 72 82 bd
       -0.11673948 0.1546743 -0.06915931 -0.06369446
0000f0 50 74 f3 3d a9 b2 78 bd 54 a1 d0 3c 79 b9 c6 3d
       0.11887419 -0.06071726 0.025467552 0.09703345
000100 9b ec 0e bd 47 10 e2 bd 1b 42 82 3d 25 35 0d bd
       -0.034893613 -0.11038261 0.06360265 -0.03447451
000110 1d f1 fd 3d 2a ef 83 bd 1f dd 2f bd 08 0a e2 3d
       0.12399504 -0.06442101 -0.042935487 0.110370696
000120 81 15 ec 3d 61 84 c0 bb 1d 51 2f bd 70 8a a7 3d
       0.11527539 -0.005875156 -0.042801965 0.08180702
000130 3c bd f9 3d 56 43 f2 bd c6 fa 29 be 37 85 14 be
       0.12194297 -0.118292496 -0.16599569 -0.14503942
000140 03 92 ed 3d a7 54 f1 3d 2d e2 96 3d ee 21 fe bd
       0.11600115 0.11783724 0.07367358 -0.12408815
000150 80 a4 16 bd 3c 2d c8 bd 60 9f 5e bd 92 c6 f6 bc
       -0.036777973 -0.09774253 -0.05435121 -0.030123983
000160 ef 3c 3c be 0b 2f 05 3e cb 44 7b 3c 67 2a 7d bd
       -0.1838262 0.13006227 0.015336226 -0.061808016
000170 cc b2 c7 bd a6 92 b1 3d 60 e1 7a bd 9a e6 d3 3d
       -0.097509 0.08670549 -0.06125009 0.10346718
000180 0c 8c 35 3e c2 c8 55 bd 5c 05 8a bd c5 b5 88 bb
       0.17729205 -0.05219341 -0.067393035 -0.0041720592
000190 c2 56 53 bd a9 d3 fe bd e3 02 0b 3d e9 0d 4d be
       -0.05159641 -0.12442715 0.0339383 -0.20024838
0001a0 cc d5 b7 bd 82 a2 96 3d a1 e2 ba bc 26 07 1a 3d
       -0.089763254 0.07355215 -0.022813143 0.037604474
0001b0 f6 6a a5 bd 4b 05 09 3e 54 17 b5 3d c5 07 c6 bd
       -0.08077042 0.13380925 0.0884234 -0.09669451
0001c0 cf 3c ad bd 47 62 5a bd d3 96 dc 3d 11 8f e7 bd
       -0.08458864 -0.05331638 0.10770955 -0.113065846
0001d0 ab 39 ae bd 37 df 87 3d e6 55 c0 bd c5 d9 13 3e
       -0.08507093 0.06634372 -0.09391384 0.14438541
0001e0 ff 54 c0 bd a9 8f 83 3d d1 69 20 3e 78 4c ff bd
       -0.09391212 0.064238854 0.15665366 -0.12465757
0001f0 f6 d8 8e 3d 9f e7 62 bc 62 22 6d bd b1 c8 54 bd
       0.06974976 -0.013849168 -0.057894118 -0.051949207

action_model._discrete_distribution.branches.0.weight f4 [3, 128]
000000 02 f1 33 3c c6 f8 6c 3d e4 6d 1c 3d 4f 4d 8c 3d
       0.010982754 0.057854436 0.038190737 0.06850683
000010 e0 b8 01 3d 83 3d e0 3d 3e 41 57 bc 4b 90 f0 bd
       0.03167045 0.109492324 -0.013138114 -0.11746272
000020 10 63 33 3d 38 b7 96 3d c1 7b b1 bc 62 be 7a bc
       0.043795645 0.07359165 -0.021665456 -0.01530418
000030 80 67 03 3d ae e0 32 3d 58 54 e1 3c 24 08 c0 bc
       0.032081127 0.043671302 0.027506039 -0.023441382
000040 50 83 01 be b9 9b 84 bd b2 c5 40 bd b5 22 1e 3d
       -0.12647748 -0.06475014 -0.047063537 0.038607318
000050 f9 59 b8 bd aa 6a fa 3c 2d 63 80 bd c4 ca 56 bd
       -0.09001536 0.03056844 -0.06268916 -0.052439466
000060 54 47 31 bc 5e 02 17 bc d6 d4 bd bd ed 80 f1 bc
       -0.010820229 -0.009216873 -0.09269111 -0.029480422
000070 6c b1 32 bd e9 f1 bf bc e6 04 19 bd 5f cd 1d 3b
       -0.043626234 -0.023430781 -0.037358187 0.002407871
000080 14 db 11 3d 48 19 10 3c af 8a 4d 3d 2c 75 79 bd
       0.03560932 0.00879509 0.050181087 -0.06090276
000090 fb 60 97 3d 57 86 a5 3d 74 cb ee 3c 51 61 88 3d
       0.073915444 0.08082264 0.029149748 0.06659187
0000a0 32 39 92 3c f6 64 2f 3d bb c4 07 bc 43 16 5c 3d
       0.017849538 0.042820893 -0.00828665 0.053732168
0000b0 dc bd 84 bd d9 5f 46 3d dd 8f db 3b a0 8b bc 3d
       -0.06481525 0.04843125 0.0067004994 0.09206319
0000c0 8f cc 8c 3d 5c a4 49 3d 13 6a a5 bd 72 c6 7e 3c
       0.06874954 0.04922901 -0.08076873 0.015550243
0000d0 02 5c 98 3c 54 0b 8f 3c 41 91 29 bd 88 87 75 3d
       0.01859856 0.017461456 -0.04139829 0.059943706
0000e0 12 8a 92 3d 74 90 36 bd cf 6b 0d 3d 6e fa 9f 3d
       0.07155241 -0.044571355 0.034526642 0.078114375
0000f0 30 4c 91 bc 34 c8 8b 3d 93 1e 50 bc 1d 8e 0f 3c
       -0.017736524 0.06825295 -0.012702602 0.00876191
000100 8b a5 56 3d e4 4a ac 3c f6 ee b2 3c 41 89 1c 3d
       0.052403968 0.021031804 0.021842461 0.038216833
000110 5b 76 aa bc 69 3c b2 3d 30 d5 7a 3c 6a 9b 5e bc
       -0.02080839 0.087029286 0.015309617 -0.013586858
000120 4c 11 03 bc aa d5 d0 bc e4 17 ba 3c f4 03 16 bc
       -0.007999729 -0.025492508 0.02271647 -0.009156216
000130 50 40 e1 bc 75 87 9f 3b 7c 5d 2a 3d 42 f7 24 3c
       -0.027496487 0.0048684427 0.04159306 0.0100687165
000140 bd 93 82 bd b8 bb 5b 3c a9 13 3e bc 11 ee 54 3d
       -0.06375835 0.013411455 -0.011601367 0.05198485
000150 3d 4c 7d 3d da 94 9f 3a 93 82 14 3c 38 43 b6 3d
       0.061840285 0.0012175099 0.009064334 0.0889954
000160 72 73 41 3d 60 fc 2b bd 30 36 7d 3d 04 bc 96 3c
       0.047229238 -0.04198873 0.061819255 0.0184002
000170 83 c0 b7 3c 08 46 e3 bc 07 ec c8 3d 17 a8 be bd
       0.022430664 -0.027743354 0.09810644 -0.09309404
000180 2e 3a 3f bd 83 f5 b6 3d 35 ef bb 3d 37 ea 21 bc
       -0.046686344 0.089335464 0.091764845 -0.009882501
000190 80 61 81 3a 56 ae 0d 3d 18 37 75 3d e8 bf 2b 3d
       0.0009870976 0.034590088 0.059866995 0.041931063
0001a0 f3 c2 b2 3d 76 1f e4 bc ad 9a 2f bc 3e 0f af ba
       0.0872859 -0.027847033 -0.01071803 -0.0013355983
0001b0 e9 c5 89 3d 03 4c 00 3c d5 2a ee bd 87 c0 ba 3c
       0.067272015 0.007830623 -0.11629263 0.022796882
0001c0 e3 13 b5 3d 2d 4f f6 3d 7c e7 14 be b1 ba 9b ba
       0.08841684 0.1202682 -0.1454143 -0.00118812
0001d0 19 4e 21 3d 39 c3 94 3d 5f 83 8e 3d 39 40 e9 bc
       0.03938112 0.07263798 0.06958651 -0.028473007
0001e0 bc a1 83 3c 7d 29 0b bd 77 87 f4 bc 40 54 52 3d
       0.016068332 -0.033975113 -0.02984975 0.05134988
0001f0 08 09 19 bd 64 b9 a1 3c 93 91 11 3d 95 70 e6 bb
       -0.03736213 0.019741721 0.03553922 -0.007032464
000200 6a a2 0c bd ce 4d 5e bd dd ec 59 bd 63 a6 96 bb
       -0.034334578 -0.05427342 -0.053204406 -0.0045974716
000210 52 8c de bc a2 96 2f be a0 18 cd 3c ad 6f 27 3d
       -0.02716652 -0.17147306 0.025036156 0.040877987
000220 9d 8d 4b bd 56 d8 ce bc c3 db 3e 3c 9f 0e 40 3d
       -0.0496956 -0.025249641 0.011649075 0.046888944
000230 20 06 48 bd a3 c2 f6 bc 88 b5 06 3c 5f da bd 3c
       -0.048833966 -0.030122107 0.008221991 0.023175417
000240 c2 c0 f0 3d f8 73 4f 3d 21 d7 73 3b c0 70 17 3d
       0.11755516 0.050647706 0.0037207084 0.03697276
000250 0a 10 81 3d f2 8d 27 bd ec 5f 8d 3d 90 47 6e 3d
       0.06301887 -0.040906854 0.06903061 0.058173716
000260 42 5e ab 3c 46 e4 cb 3c 83 70 d7 3c e5 5e 02 3d
       0.020918969 0.024889123 0.026298767 0.03182878
000270 34 4e 83 3d cb 11 81 3d 39 fc d2 3c 85 56 81 bb
       0.064114004 0.06302222 0.025755035 -0.0039470815
000280 33 56 fb bc 82 72 0c 3c f8 e8 b2 bd 27 fb aa 3d
       -0.030680751 0.008572223 -0.087358415 0.08348685
000290 11 bc 11 3c b7 25 24 bd b7 cb 57 bd c8 4b 08 be
       0.008894936 -0.04007503 -0.052684512 -0.13310158
0002a0 b5 1c e8 3b ac 7d 3f bb 9e 15 74 3d a1 df 86 bc
       0.0070835003 -0.0029219193 0.05959093 -0.016464056
0002b0 f7 39 1b 3d 74 e6 9c bd 2f 07 4e bb d8 95 31 be
       0.037897076 -0.07661143 -0.0031437387 -0.17342317
0002c0 41 05 ef bd 4f 7a 6b 3c 11 44 81 3d 3b 58 7d bd
       -0.11670924 0.014372422 0.06311811 -0.06185172
0002d0 1b c2 5c bc d0 91 c6 bc b6 99 bf 3d 1a 32 06 ba
       -0.013474013 -0.02423945 0.0935549 -0.000511916
0002e0 f7 bd 1a be 08 7a a8 3d 6b ca 93 bd be 41 e4 bd
       -0.15111528 0.082264006 -0.072163425 -0.11145352
0002f0 f6 39 14 3d cb e6 82 bc d3 45 96 3c 95 1d 48 3d
       0.03618809 -0.015979191 0.018343842 0.048856337
000300 f4 b4 f1 bc b2 a6 1b bd e7 7f 6f 3c 1b d9 56 bd
       -0.02950523 -0.03800077 0.014617897 -0.05245314
000310 9c 9f 1d 3d 5b c5 64 bc 30 d3 28 bd f8 50 ea 3c
       0.038482293 -0.013963069 -0.04121703 0.028603062
000320 20 4f 78 3d 4b b1 c8 3c 22 9b 68 3c b1 c4 27 3d
       0.060622334 0.024498602 0.014197143 0.040959064
000330 40 42 37 3d 56 8e a8 bc 17 49 9c bd 2a 34 e3 bb
       0.044740915 -0.020575684 -0.07631128 -0.0069337087
000340 35 f8 22 3d e5 c1 c3 3c f7 22 1c 3d 11 73 86 bd
       0.03978749 0.023896167 0.038119283 -0.06564916
000350 d9 f5 e4 bb a5 6c 7a 3b f7 52 99 bb 37 23 b5 3b
       -0.006987315 0.003821173 -0.0046790796 0.0055278796
000360 bd 9c 8f bd 9d 6c 77 3d ee 0e ae bd f7 fb fc bc
       -0.07012317 0.060406316 -0.08498941 -0.030881865
000370 a6 63 0b bb 59 cc 4e 3d d0 6c 18 be 55 7c cb 3c
       -0.0021269112 0.05048785 -0.14885259 0.02483956
000380 27 fa 9b 3d a7 3c 1e bd 34 19 a9 bc cd e3 c3 3b
       0.07616072 -0.03863206 -0.0206419 0.0059780837
000390 c1 f4 85 bc ae 5b c6 bd 40 65 7a 3c c6 f1 8c bd
       -0.01635206 -0.09685455 0.015282929 -0.06882052
0003a0 c7 2b 0d be 13 23 3e 3c e3 95 a9 3a b2 53 00 3d
       -0.13786231 0.011605042 0.0012938346 0.031329818
0003b0 e4 d8 e4 bc 98 bd 1f 3d 7a 76 eb 3c 91 d5 bd bc
       -0.027935453 0.03899917 0.028743017 -0.023173125
0003c0 a7 a6 32 be b2 ce 0b be 27 19 4f 3d 5a 18 ef 3b
       -0.17446385 -0.13653067 0.050561097 0.007296604
0003d0 7d 4f 72 bc 9b 59 b4 bc 9b 70 c5 bd ee c7 a4 3d
       -0.014789459 -0.022015383 -0.096406184 0.08045946
0003e0 85 07 22 bd 92 f9 0b 3d 59 51 ce 3d f4 c3 24 bd
       -0.039557952 0.034173556 0.100741096 -0.040225938
0003f0 a0 f5 7f 3d 15 ee 66 bb ac 44 d1 ba 1e 64 73 bc
       0.062490106 -0.0035237123 -0.00159659 -0.014855413

action_model._discrete_distribution.branches.0.bias f4 [3]
000000 1c 29 97 bd 71 7c d3 3d 1b 32 e4 bc
       -0.07380888 0.1032647 -0.027855923

exp_avg f4 [128, 6]
000000 47 b9 2a 3a 4d 8a 38 36 00 00 00 00 11 cc b3 39
       0.0006512594 2.7498638e-06 0.0 0.00034293582
000010 3d e1 06 b8 33 d6 61 3a 97 a6 ee 39 b6 8e b4 b5
       -3.215786e-05 0.0008614987 0.00045519017 -1.3452579e-06
000020 00 00 00 00 12 e9 a2 b9 28 eb 37 b9 e5 1c e4 38
       0.0 -0.000310727 -0.00017539843 0.00010877269
000030 0d 36 95 3a 2d 76 ea 36 00 00 00 00 9c ae 92 39
       0.0011383906 6.987501e-06 0.0 0.00027977384
000040 38 0d 73 3a 5f 35 00 3b f9 03 2a ba a2 63 05 36
       0.0009271684 0.0019563062 -0.00064855773 1.9876538e-06
000050 00 00 00 00 f9 31 54 ba 7c 12 22 b8 df f7 8f 3a
       0.0 -0.0008094605 -3.8641025e-05 0.0010983906
000060 ae be c6 3a 55 be a6 36 00 00 00 00 58 be 8c 3a
       0.0015163028 4.969343e-06 0.0 0.0010737879
000070 31 89 39 3a 61 b7 26 3a 25 08 cc 3a 8e a2 07 36
       0.0007077633 0.0006359723 0.0015566392 2.0211187e-06
000080 00 00 00 00 44 91 3e 3b 67 a8 9e ba 82 b4 d7 3a
       0.0 0.0029078284 -0.0012104631 0.0016456994
000090 54 a8 63 ba a0 0e bc b6 00 00 00 00 fb 26 32 39
       -0.00086844456 -5.604539e-06 0.0 0.00016989924
0000a0 4e 75 1e ba 9e 79 32 bb f8 d8 e6 b9 da c3 ff 35
       -0.00060447014 -0.0027233134 -0.00044030673 1.9055981e-06
0000b0 00 00 00 00 96 f1 7f ba 98 47 8d 39 fe fd 3e 3a
       0.0 -0.0009763477 0.00026946957 0.00072857726
0000c0 c7 18 cb b9 2b 68 b1 b6 00 00 00 00 0f 0c 6d b8
       -0.00038737638 -5.287138e-06 0.0 -5.6516434e-05
0000d0 e1 ac 42 ba 48 c2 1a bb 0b 5d 68 38 03 51 c9 b6
       -0.00074262737 -0.0023614336 5.5399763e-05 -5.999698e-06
0000e0 00 00 00 00 80 84 91 3a 09 f3 f6 ba 9f 3b b6 ba
       0.0 0.001110211 -0.0018840741 -0.0013903267
0000f0 ee 0a ac 38 e1 d8 3e 35 00 00 00 00 1b 76 04 ba
       8.203635e-05 7.1096116e-07 0.0 -0.00050529995
000100 32 3f 95 39 6f fa 1d 3a 29 f0 79 3a a2 49 20 37
       0.0002846658 0.0006026392 0.0009534383 9.553887e-06
000110 00 00 00 00 b6 06 8a 3a 6a a6 66 3b cb db e6 3a
       0.0 0.0010530564 0.0035194405 0.0017613111
000120 76 25 12 ba 32 cb d7 b6 00 00 00 00 e9 6e 29 ba
       -0.000557504 -6.4311544e-06 0.0 -0.0006463365
000130 6e 0e a6 b9 86 db cc ba 1a 0b 0e 39 1f 07 62 b5
       -0.00031672738 -0.0015629388 0.00013546311 -8.4201923e-07
000140 00 00 00 00 4d 37 64 b9 75 99 7c b8 47 53 e0 b9
       0.0 -0.00021764376 -6.02244e-05 -0.00042786656
000150 ca b4 1a 3a f8 0e 6e 36 00 00 00 00 90 e5 26 b9
       0.00059015735 3.5473477e-06 0.0 -0.00015916512
000160 7f 38 fe 39 3d b2 0f 3a 08 1c 1a 38 c0 60 c0 b6
       0.00048488748 0.00054815767 3.6742567e-05 -5.733309e-06
000170 00 00 00 00 2d 76 45 3a 8a dd 58 bb 9f ac 92 ba
       0.0 0.0007532563 -0.0033091032 -0.0011190361
000180 7b 25 f9 39 47 14 fb 36 00 00 00 00 ee 78 99 ba
       0.00047520906 7.4827435e-06 0.0 -0.0011709013
000190 6a 1c cd 3a 44 f9 ea 3a 17 7b fe b9 90 e3 6a b6
       0.0015648727 0.001792707 -0.00048538364 -3.5001176e-06
0001a0 00 00 00 00 c2 60 a6 3a eb 9b 9e b8 24 d4 a0 ba
       0.0 0.0012693631 -7.563069e-05 -0.0012270254
0001b0 48 ac 24 3a ab 70 c0 36 00 00 00 00 ef 63 b9 3a
       0.00062817754 5.735162e-06 0.0 0.0014144162
0001c0 25 a0 0e 3b b9 c2 af 3a b4 f6 cf 39 1f dc b8 b6
       0.0021762934 0.0013409472 0.00039665925 -5.509253e-06
0001d0 00 00 00 00 d4 01 f1 b9 56 e3 64 38 b9 d0 f4 ba
       0.0 -0.00045968464 5.457116e-05 -0.0018677927
0001e0 35 e2 32 3b 6f 7e 77 36 00 00 00 00 e1 a2 2e 3b
       0.0027295474 3.6879462e-06 0.0 0.0026647376
0001f0 30 c4 8e 38 06 4c 13 3b f2 3c 49 39 a4 f2 ff b5
       6.8076304e-05 0.0022475733 0.00019191558 -1.9069598e-06
000200 00 00 00 00 91 08 08 3a 5d 1d 59 3a 4b dd 08 ba
       0.0 0.0005189265 0.00082822685 -0.00052209635
000210 92 56 65 ba 03 0d 5b b6 00 00 00 00 ac 94 f1 ba
       -0.0008748557 -3.2641117e-06 0.0 -0.0018431148
000220 00 10 53 ba fd 79 ee 38 64 1e 9c 39 a4 a2 bd b4
       -0.00080513954 0.000113714465 0.0002977728 -3.532233e-07
000230 00 00 00 00 30 46 03 b9 9d ff 5a b8 70 4d 93 39
       0.0 -0.0001251928 -5.221331e-05 0.0002809572
000240 d0 12 8f b9 64 15 4f 36 00 00 00 00 a0 da 6a ba
       -0.00027289102 3.0857855e-06 0.0 -0.0008958969
000250 d2 9c 8c 39 c7 00 9c 3a 1c 10 d9 b9 8a af 5d b6
       0.0002681972 0.0011902087 -0.00041401468 -3.3033743e-06
000260 00 00 00 00 b3 23 c8 39 53 da 86 b9 67 5a 9b ba
       0.0 0.0003817357 -0.00025721136 -0.0011852504
000270 bf 10 b5 39 88 c2 7c 35 00 00 00 00 ad 2e 9f 38
       0.00034535487 9.4160396e-07 0.0 7.590405e-05
000280 23 f9 b0 b8 23 58 9c 3a c6 51 ef 39 0d 50 8d 36
       -8.438739e-05 0.0011928122 0.00045646558 4.2114466e-06
000290 00 00 00 00 85 0b 02 39 85 ad 13 3a 17 ab b6 3a
       0.0 0.00012402057 0.00056334614 0.0013936487
0002a0 7a 1a 2b 39 3c 8f 60 b6 00 00 00 00 4a d8 5f ba
       0.00016317694 -3.3461974e-06 0.0 -0.00085390045
0002b0 8c 2b 93 ba 30 5c 86 39 19 9e af 39 00 6f 56 36
       -0.0011228188 0.00025627157 0.00033496393 3.1953095e-06
0002c0 00 00 00 00 ba 88 2a b9 01 5f 55 39 90 39 85 3a
       0.0 -0.00016263398 0.00020348655 0.001016425
0002d0 9c 76 8e 39 f2 3a 6c b6 00 00 00 00 e5 b2 42 ba
       0.00027172721 -3.520105e-06 0.0 -0.000742717
0002e0 08 ee fc b9 05 68 0f ba 20 e6 9a b9 1b 95 3f 36
       -0.00048242533 -0.0005470517 -0.00029544625 2.8548009e-06
0002f0 00 00 00 00 bf d2 83 b9 35 69 c3 38 98 0b 9b 3a
       0.0 -0.00025143285 9.317921e-05 0.0011829017
000300 96 35 61 39 7d ef 10 b6 00 00 00 00 58 f6 3a ba
       0.00021477634 -2.1597073e-06 0.0 -0.0007132045
000310 20 05 0a 38 19 78 a2 38 97 73 b0 3a 1c 6a c1 36
       3.2906537e-05 7.747132e-05 0.0013462183 5.764201e-06
000320 00 00 00 00 d8 be 60 3a c2 a8 c6 3a ea 96 23 3a
       0.0 0.000857336 0.0015156495 0.00062404445
000330 94 92 6e 39 7d 02 19 b6 00 00 00 00 df f8 14 b9
       0.00022752053 -2.2800225e-06 0.0 -0.00014207092
000340 e2 4f 5b ba 87 9b 50 3a c5 5e c0 b9 36 89 7a b6
       -0.00083660905 0.00079577457 -0.00036691703 -3.733277e-06
000350 00 00 00 00 ac 33 f0 b9 df 6c 5c 39 f4 7b 88 ba
       0.0 -0.00045814866 0.00021021393 -0.0010412917
000360 93 dc a8 b9 19 9f 19 b6 00 00 00 00 e4 b9 61 b9
       -0.00032207798 -2.2891384e-06 0.0 -0.00021526922
000370 ad ae 6d b9 9a fa 99 3a d9 5e 91 b9 af f1 33 b6
       -0.00022667153 0.0011747659 -0.00027727222 -2.6813757e-06
000380 00 00 00 00 62 be 21 ba b2 25 11 ba 23 b7 38 39
       0.0 -0.0006170032 -0.0005536928 0.00017615831
000390 56 05 94 39 03 6e 97 b5 00 00 00 00 4c 96 04 ba
       0.00028232735 -1.1282394e-06 0.0 -0.00050577964
0003a0 cc 22 32 b9 53 c7 90 b9 64 57 c6 39 00 46 c5 b5
       -0.00016988366 -0.00027614328 0.00037830614 -1.4698016e-06
0003b0 00 00 00 00 d1 10 60 39 9e 0a 3c ba af 1b 59 3a
       0.0 0.0002136857 -0.0007173213 0.0008282018
0003c0 5a 6f d4 b9 2e 04 a6 b6 00 00 00 00 a3 c2 01 b9
       -0.00040518754 -4.947672e-06 0.0 -0.00012374907
0003d0 62 bb f4 b9 0c d5 1c bb 2e 23 d2 3a 84 eb ef 36
       -0.00046678918 -0.0023930697 0.0016032213 7.1501727e-06
0003e0 00 00 00 00 4d d2 de 3a 7a fc 9b 3a 1f f5 29 3b
       0.0 0.001699993 0.0011900805 0.0025933457
0003f0 2a 63 99 36 22 ff d0 b5 00 00 00 00 34 1c bd b9
       4.5712995e-06 -1.5571461e-06 0.0 -0.00036069902

exp_avg_sq f4 [128, 6]
000000 ff 78 0a 38 68 9a 3d 30 00 00 00 00 dd 64 61 38
       3.301445e-05 6.8977224e-10 0.0 5.3738117e-05
000010 45 93 56 38 da 0a cc 37 43 7a e3 36 79 41 f8 2e
       5.115873e-05 2.4323748e-05 6.7793603e-06 1.12893646e-10
000020 00 00 00 00 31 6b c5 36 7f 3b 4f 36 ef 05 08 36
       0.0 5.8835362e-06 3.0880035e-06 2.0269033e-06
000030 e6 4b c6 38 80 4d 55 31 00 00 00 00 b9 ef 1d 39
       9.455513e-05 3.1039633e-09 0.0 0.0001506199
000040 b2 36 d3 38 88 5b e4 38 ef e9 cb 38 8c ea 7b 31
       0.00010071452 0.00010888936 9.723368e-05 3.6658632e-09
000050 00 00 00 00 8d 6e 5f 39 5d 2d a9 37 01 28 fe 38
       0.0 0.0002130812 2.0167494e-05 0.00012119115
000060 3e 84 1c 38 f9 7c 92 30 00 00 00 00 f3 be 3f 38
       3.731646e-05 1.0658417e-09 0.0 4.5715784e-05
000070 f1 67 b6 37 ee 5f f0 37 81 23 52 39 57 56 74 31
       2.1744492e-05 2.86549e-05 0.00020040387 3.5555752e-09
000080 00 00 00 00 c8 eb b9 38 df 6c e2 39 2d 52 f1 38
       0.0 8.865405e-05 0.00043187194 0.00011507082
000090 5c 0d de 38 a0 9f 4f 31 00 00 00 00 5b fe 04 39
       0.00010588273 3.02132e-09 0.0 0.00012683256
0000a0 3e d2 0f 39 e4 b1 ea 38 b4 33 95 36 c4 c1 1c 30
       0.00013715864 0.00011191124 4.446565e-06 5.7027827e-10
0000b0 00 00 00 00 b4 01 a8 37 95 b5 ef 36 72 20 02 38
       0.0 2.0027954e-05 7.143894e-06 3.1024632e-05
0000c0 61 a1 83 38 10 25 f5 30 00 00 00 00 65 e3 67 38
       6.276626e-05 1.783663e-09 0.0 5.528647e-05
0000d0 7d 75 65 38 39 22 81 38 e4 a5 3f 38 58 59 c0 30
       5.4707274e-05 6.157574e-05 4.5692446e-05 1.3995232e-09
0000e0 00 00 00 00 35 49 36 38 33 f5 06 39 e0 3b 88 38
       0.0 4.346036e-05 0.0001287058 6.496138e-05
0000f0 08 77 a2 36 5a 88 69 2f 00 00 00 00 2a 7c 17 37
       4.8418333e-06 2.1239668e-10 0.0 9.029211e-06
000100 12 90 cd 36 2d 53 10 37 28 3c 96 38 c1 74 1a 31
       6.126248e-06 8.602435e-06 7.163762e-05 2.2476316e-09
000110 00 00 00 00 f9 d7 af 38 e2 51 0e 39 18 a1 b6 38
       0.0 8.384878e-05 0.00013572679 8.708442e-05
000120 8e 37 7c 38 62 fc e4 30 00 00 00 00 52 6d 8d 38
       6.013322e-05 1.6660915e-09 0.0 6.7437664e-05
000130 88 f4 bd 38 3e 5a 83 38 9b 9e df 37 0c f7 54 30
       9.05777e-05 6.263376e-05 2.6657528e-05 7.7476225e-10
000140 00 00 00 00 e1 b5 90 38 93 9e 5e 37 2f 0b 00 38
       0.0 6.900333e-05 1.3269152e-05 3.0527994e-05
000150 84 3e a0 37 ca 67 67 30 00 00 00 00 f5 66 f4 36
       1.9102597e-05 8.4184804e-10 0.0 7.2837524e-06
000160 0b 60 cb 37 1f 0c c6 37 f0 3b 2f 38 15 b2 7f 30
       2.424421e-05 2.3609084e-05 4.1779072e-05 9.302153e-10
000170 00 00 00 00 d3 86 0d 38 4e 9e 31 39 5e 7c 04 38
       0.0 3.3742584e-05 0.00016939008 3.158708e-05
000180 06 39 03 38 5b 94 38 31 00 00 00 00 3e 3a 38 38
       3.128594e-05 2.6859854e-09 0.0 4.392326e-05
000190 aa 6f b0 38 d0 b0 01 39 77 6a 94 37 30 40 87 30
       8.413133e-05 0.00012368266 1.7692551e-05 9.840786e-10
0001a0 00 00 00 00 13 8b 53 38 ff 26 46 38 2e 7c 2c 38
       0.0 5.0435843e-05 4.7243197e-05 4.1123647e-05
0001b0 f7 ab a0 37 d9 d1 68 30 00 00 00 00 02 1a 47 38
       1.9153564e-05 8.469932e-10 0.0 4.746952e-05
0001c0 e4 72 2a 38 3d 62 20 38 b4 b0 0f 39 34 a7 3e 31
       4.063816e-05 3.8238464e-05 0.0001370337 2.7743683e-09
0001d0 00 00 00 00 b0 6f 02 39 fa ee 19 39 a0 0f c0 38
       0.0 0.00012439373 0.00014680243 9.158184e-05
0001e0 02 ad 51 39 2b 5c 83 31 00 00 00 00 0b 8b 15 39
       0.00019996244 3.82308e-09 0.0 0.00014261545
0001f0 67 82 c3 39 09 ee f2 38 ae cd 7d 37 76 08 06 30
       0.00037290456 0.00011583797 1.5127864e-05 4.876094e-10
000200 00 00 00 00 8a 0e 65 38 49 e8 3f 38 b6 57 96 37
       0.0 5.4611395e-05 4.575428e-05 1.7922237e-05
000210 91 c7 81 37 1a 3c 31 30 00 00 00 00 6e 71 62 38
       1.5470929e-05 6.4477634e-10 0.0 5.398824e-05
000220 c4 07 0a 37 60 3d fe 37 f6 41 78 37 25 c1 6d 2f
       8.227249e-06 3.030774e-05 1.479731e-05 2.1623643e-10
000230 00 00 00 00 0d 97 84 37 05 54 ac 35 e1 1c b3 36
       0.0 1.5805965e-05 1.2839452e-06 5.3379777e-06
000240 78 80 1e 37 b6 48 b3 30 00 00 00 00 e6 35 9a 37
       9.447445e-06 1.304463e-09 0.0 1.8383329e-05
000250 d0 75 94 37 cd a5 90 38 0b 88 62 37 64 0b 2d 30
       1.7697836e-05 6.897338e-05 1.3502325e-05 6.295322e-10
000260 00 00 00 00 43 b4 ee 37 35 8d 3e 38 cc 32 d1 37
       0.0 2.8455752e-05 4.543104e-05 2.4938396e-05
000270 78 4a af 38 2c 31 06 31 00 00 00 00 88 48 1b 39
       8.358521e-05 1.9527517e-09 0.0 0.00014808972
000280 e5 f6 50 37 40 87 62 38 c5 75 68 38 f8 f1 60 31
       1.2455251e-05 5.400856e-05 5.542279e-05 3.2733833e-09
000290 00 00 00 00 63 b7 ad 38 a0 58 99 37 0b 66 e1 38
       0.0 8.283441e-05 1.828029e-05 0.00010747843
0002a0 90 2a 85 37 bd 26 ab 2f 00 00 00 00 62 14 9e 37
       1.5874655e-05 3.1132244e-10 0.0 1.884456e-05
0002b0 86 c5 c3 37 23 aa f1 36 36 9e 14 38 00 90 e2 30
       2.333779e-05 7.202166e-06 3.5433295e-05 1.6484591e-09
0002c0 00 00 00 00 77 2c 3e 38 60 bd ae 37 d1 73 64 38
       0.0 4.534094e-05 2.0830601e-05 5.44673e-05
0002d0 5c 90 b3 37 26 00 db 2f 00 00 00 00 bf 6c f6 37
       2.1405685e-05 3.9835973e-10 0.0 2.9376124e-05
0002e0 3a ce a6 37 e0 1f 6c 37 a9 d6 bd 38 61 45 67 31
       1.9884774e-05 1.4074118e-05 9.052206e-05 3.3654362e-09
0002f0 00 00 00 00 e1 79 3d 39 91 39 89 37 42 02 fe 38
       0.0 0.00018069848 1.635848e-05 0.000121120844
000300 d4 9d 1f 37 bb 9b 78 2f 00 00 00 00 89 2f c4 37
       9.513886e-06 2.2610795e-10 0.0 2.3387156e-05
000310 6a 03 2d 37 5f d0 89 36 64 10 29 38 a5 a6 a5 30
       1.0312398e-05 4.1071758e-06 4.0308005e-05 1.2052693e-09
000320 00 00 00 00 85 25 ff 37 50 5b b3 38 5f a0 13 38
       0.0 3.041584e-05 8.5523934e-05 3.519689e-05
000330 3f 1d 74 38 99 cc 96 30 00 00 00 00 5f 74 cd 37
       5.820137e-05 1.0972087e-09 0.0 2.4492094e-05
000340 3e 2e e1 37 25 ad ec 37 b8 1d be 37 b0 d7 7d 30
       2.6843623e-05 2.8214019e-05 2.2663604e-05 9.2347374e-10
000350 00 00 00 00 65 7a 05 38 73 f0 47 38 b6 be 15 38
       0.0 3.182366e-05 4.7669233e-05 3.570198e-05
000360 30 c1 3c 39 aa 1e 85 31 00 00 00 00 44 d3 06 39
       0.00018001045 3.8742956e-09 0.0 0.00012857938
000370 ef 66 af 37 d9 4b db 38 98 9d a2 37 fe 88 20 30
       2.0909558e-05 0.000104568615 1.938529e-05 5.840234e-10
000380 00 00 00 00 88 92 29 38 aa 72 01 38 aa 41 04 38
       0.0 4.0429208e-05 3.0862786e-05 3.1532407e-05
000390 fa 0a ac 36 b3 e1 a1 2e 00 00 00 00 4e 3a ac 37
       5.1272773e-06 7.3615246e-11 0.0 2.0531148e-05
0003a0 ce 54 a3 36 e5 c4 d4 35 7d 8c 9c 38 72 a6 8f 30
       4.867651e-06 1.5852535e-06 7.464828e-05 1.0451926e-09
0003b0 00 00 00 00 c8 d6 7e 38 88 fc a6 37 bf 7c cc 37
       0.0 6.075835e-05 1.9906336e-05 2.4376784e-05
0003c0 90 40 28 39 9e 8d 93 31 00 00 00 00 80 53 8c 39
       0.0001604578 4.294363e-09 0.0 0.00026765093
0003d0 d1 05 d4 38 35 d9 1e 39 d8 0c 2b 39 c6 a3 87 31
       0.00010110031 0.0001514897 0.00016312615 3.947636e-09
0003e0 00 00 00 00 d0 3d 88 38 b0 20 b0 39 bc 66 19 39
       0.0 6.496499e-05 0.0003359369 0.00014629489
0003f0 fd 54 9b 38 df 8d f3 30 00 00 00 00 4d a8 0f 39
       7.406806e-05 1.7720899e-09 0.0 0.0001370024

exp_avg f4 [128]
000000 ef 16 39 3a e0 16 b5 b9 f2 28 eb 3a 75 c6 05 3a
       0.00070606073 -0.00034540053 0.001794128 0.000510312
000010 5c 3d a7 3a 3c 09 08 3a f1 9d bc ba 5b 41 00 3a
       0.0012759375 0.00051893643 -0.0014390332 0.0004892551
000020 c3 ef b1 ba 70 ec c9 ba 26 68 3f 39 52 c4 20 3b
       -0.0013575483 -0.0015405547 0.00018253978 0.0024531079
000030 f5 6f d8 ba 44 ae 62 b9 bd c4 6e 3a 51 f4 c0 ba
       -0.0016512858 -0.00021617959 0.0009108296 -0.001472125
000040 4a d3 fb 3a 48 98 6b ba 30 03 c1 3a 38 68 b9 ba
       0.0019212749 -0.000898723 0.0014725681 -0.001414544
000050 90 3b 78 3a 9e 5b 00 ba cb b5 5b ba 94 32 be b8
       0.0009469325 -0.00048964645 -0.0008381276 -9.069327e-05
000060 77 b1 4f 3a 30 5a 5e ba c1 7d 7d 39 44 ba 8d 3a
       0.00079228677 -0.0008482067 0.00024174807 0.0010812958
000070 38 3b 61 ba f2 10 57 3a cf ee 6c ba 21 25 40 3a
       -0.0008591893 0.0008204124 -0.0009038271 0.00073297514
000080 d8 5d 11 ba c3 fe c1 3a 71 78 19 ba 71 48 7b ba
       -0.0005545295 0.0014800656 -0.0005854434 -0.0009585685
000090 69 16 1a ba 9d 7d 34 ba 95 e1 97 b9 66 dd c5 b9
       -0.0005877973 -0.0006885173 -0.00028969036 -0.00037739723
0000a0 e2 81 a6 ba 52 a2 f0 3a 08 9b d1 b9 9a 7b cf ba
       -0.0012703503 0.0018358922 -0.00039979094 -0.0015829683
0000b0 04 4b 7d 3a d4 93 aa 38 da 0a df 3a 04 6c 1f ba
       0.0009662362 8.133767e-05 0.0017016784 -0.0006081464
0000c0 a6 f6 09 3b 1b da 93 ba 6b 1f 62 ba 2f b4 f3 3a
       0.0021051555 -0.001128021 -0.00086258975 0.0018593128
0000d0 ca 2e 8e ba 69 cd fe b9 3f 5a 86 ba 50 7e ab 39
       -0.0010847684 -0.00048599698 -0.0010250284 0.00032709772
0000e0 8f 90 ca ba 09 a1 9f ba 74 08 0a b9 14 19 8a ba
       -0.0015454459 -0.001217873 -0.00013163855 -0.0010536038
0000f0 e9 85 f9 ba a0 85 b7 ba b5 fa 79 3a 2b b2 82 ba
       -0.0019037101 -0.0014001615 0.00095359545 -0.0009971311
000100 a8 7e 4b ba b8 2e 83 37 28 ce 96 39 2a e4 9b b9
       -0.00077627087 1.5638172e-05 0.00028763828 -0.000297339
000110 ff d0 b6 ba 16 04 83 3a 09 a2 52 b8 f9 cd 31 ba
       -0.0013947784 0.0009995725 -5.021881e-05 -0.00067827065
000120 fe 6a 0e 3a 01 2c 2f b9 60 0d 34 38 49 2d e1 39
       0.0005432813 -0.00016705693 4.29278e-05 0.00042949084
000130 6f 89 04 b8 27 b5 bc ba ac ae c1 ba dd 48 43 3a
       -3.1599247e-05 -0.0014397249 -0.0014776788 0.0007449517
000140 6a 88 c2 39 45 d0 9e ba d7 a0 11 3a 0f 94 06 3a
       0.000371042 -0.0012116513 0.0005555278 0.0005133757
000150 4c 9c 7f 3a e0 70 80 38 08 0c 48 ba 31 d1 a2 3a
       0.0009750768 6.12454e-05 -0.00076311873 0.0012421963
000160 46 bb 3e 3a 1e 4e 7b 3a 93 6b 16 b9 ec 91 15 ba
       0.0007275831 0.00095865305 -0.00014345189 -0.0005705643
000170 81 76 af 3a 43 da e2 3a 71 9c 91 ba f1 2f a9 39
       0.0013386757 0.0017307479 -0.0011109245 0.0003226991
000180 6b b4 0b 3b 10 ee 17 3b 59 c5 e4 b9 79 2d ea 3a
       0.0021317254 0.0023182668 -0.00043634584 0.0017866335
000190 00 fd a7 3a 13 3d 7d ba c6 0e 5b b8 21 4e 09 ba
       0.0012816489 -0.0009660285 -5.2227428e-05 -0.00052377774
0001a0 69 52 9b b7 12 8d be b9 07 11 96 ba 3c 20 c9 b9
       -1.8515815e-05 -0.0003634473 -0.0011449166 -0.00038361724
0001b0 84 f4 ff b9 96 ff 08 3a 14 2f e9 b9 d4 60 5f 3a
       -0.00048819568 0.00052260736 -0.000444763 0.00085212034
0001c0 4c 1d 9a 3a 55 6a a5 3a 40 a9 ae 3a cc 5a 96 3a
       0.0011757999 0.001262019 0.0013325587 0.0011471151
0001d0 f8 17 7d 3a fc a8 b5 3a 3c 22 13 3b 4d 11 7b ba
       0.00096547557 0.0013859565 0.0022450825 -0.0009577468
0001e0 e6 ca 19 3a 0d 88 1e 38 77 6c 22 3a a1 c0 20 b9
       0.0005866721 3.7796843e-05 0.0006195972 -0.00015330549
0001f0 dd c3 d9 ba a9 e7 be ba 5e fe 59 ba 00 9d a6 ba
       -0.0016614158 -0.001456489 -0.0008315797 -0.0012711585
