BasicAvoidance/Assets/results/BasicAvoidance1/PlayerAvoidance/PlayerAvoidance-320.onnx (onnx, 74465 bytes, 8 tensors)

network_body.observation_encoder.processors.0.normalizer.running_mean f4 [6]
0.048598126 0.49844238 0.0 -1.2477983e-07 0.39898512 -8.213709
00000000: d40e 473d d733 ff3e 0000 0000 38fb 05b4
00000010: c747 cc3e 5a6b 03c1

network_body._body_endoder.seq_layers.0.weight f4 [128, 6]
0.56594086 0.51976377 0.33285564 0.25066787 -0.15212448 -0.71671516 0.2461688 -0.1166084
0.09250008 0.40498486 -0.11871739 0.5817666 -0.36221093 0.26326934 0.002814872 0.20280732
0.010164328 0.1269996 0.6788163 -0.14867629 -0.37265965 -0.05671286 0.39806578 -0.1564249
-0.11569654 -0.76608455 -0.10309671 0.46323907 -0.089596935 0.29266885 -0.35589284 -0.6779717
0.54022986 0.35023728 -0.26532915 -0.0051847724 -0.3423956 0.38839936 0.5720479 0.26639387
0.5845498 -0.526064 -0.445278 0.24467519 -0.5277385 -0.33793125 -0.14169067 -0.6489234
-0.783126 0.22593151 -0.21863352 0.18496437 0.46513146 0.17230664 -0.080785446 0.45364064
0.16153342 0.75344455 -0.6187176 0.0063184677 0.10770656 -0.06781633 -0.016455876 0.22515087
-0.104441315 -0.66783476 -0.17458475 0.61708343 -0.24959642 0.19286264 0.9487079 -0.3934894
-0.29852924 0.53342426 0.15520269 -0.11081654 -0.5713978 -0.1400507 0.6581463 1.1058859
0.19292645 0.26638445 0.81252664 -0.28875938 -0.2903646 -0.21437809 -0.4933741 0.4093409
-0.22937436 0.10045063 0.12325171 -0.13997397 0.21298906 -0.49880546 0.12548627 0.051936843
0.70028865 0.8529968 0.41605031 0.011402245 -0.002842572 -0.14912516 0.015414741 0.39698866
-0.06340106 0.059450954 -0.11683278 -0.53703874 0.34353516 0.08221044 0.56821537 -0.47362554
-0.4898246 0.16889103 0.17533118 -0.38960925 0.48831815 0.30589822 0.12810577 -0.018208303
-0.19605108 0.20847395 -0.035318412 0.12318856 -0.6584446 -0.4074146 0.4584833 0.1335988
-0.34135985 -0.061331138 0.3865596 -0.29893398 -0.23010524 0.0031983352 0.5700221 -0.010685134
0.6846025 -0.4029679 -0.07905107 -0.33941466 -0.18522172 -0.2920559 0.726702 0.30765992
0.14283092 -0.26446742 0.47642505 -0.20435283 -0.71609294 0.2825974 -0.4075785 -0.41131893
-0.01708121 -0.017136123 -0.47661248 -0.32568058 -0.69827497 -0.25454158 0.48050025 -0.32797843
0.42990613 -0.65573716 -0.16625123 -1.0310408 -0.38326788 -0.36165538 -0.11854675 0.25466335
-0.5744061 0.6322348 0.26366514 -0.08418231 0.41278633 0.029483864 0.5854642 0.828186
0.59580266 0.110221185 0.1250852 -0.7402064 0.20112003 0.3123096 0.24863482 0.20953196
-0.20684773 0.24700165 0.5548792 -0.12780876 0.16270052 0.45874122 0.31008902 0.46338862
-0.11035848 0.108533084 0.106744595 0.3334775 -0.2195125 -0.19551396 -0.23813897 0.10213845
0.07135094 1.126418 0.6251604 0.31287473 -0.110785946 0.06300613 -0.20623155 -0.219711
-0.37384135 -0.11712732 0.44202912 -0.2622833 0.38322955 -0.68649524 0.063685454 0.051272254
0.13832155 0.026525673 -0.032208588 0.30780992 0.8662764 -0.06528623 -0.8883032 0.10479626
0.4127136 0.43828657 -0.07244231 -0.06947508 -0.2711287 -0.25880915 -0.012460514 0.23084304
0.49898785 0.43345708 0.9898642 0.5744922 0.21047571 -0.33830547 0.08413788 0.9001596
-0.44188327 -0.40478435 0.65601456 -0.5396177 -0.4219354 -0.094137155 0.073083036 0.18577361
-0.5122075 -0.690773 -1.3596405 0.6442293 0.07934364 -0.72517365 0.085151136 -0.18544231
00000000: 80e1 103f 3d0f 053f 0e6c aa3e 8a57 803e
00000010: 85c6 1bbe a57a 37bf ad13 7c3e 63d0 eebd
00000020: af70 bd3d 2d5a cf3e 1a22 f3bd a8ee 143f
00000030: b673 b9be 3dcb 863e b779 383b b9ac 4f3e
00000040: 4888 263c 2f0c 023e e8c6 2d3f 993e 18be
00000050: 3fcd bebe be4b 68bd 47cf cb3e d92d 20be
00000060: 4ff2 ecbd 1e1e 44bf 5e24 d3bd ac2d ed3e
00000070: 997e b7bd b1d8 953e 9637 b6be 8e8f 2dbf
00000080: 814c 0a3f 4d52 b33e 39d9 87be 06e5 a9bb
00000090: 7a4e afbe 48dc c63e bb71 123f c764 883e
000000a0: 0ea5 153f 21ac 06bf 7afb e3be 228c 7a3e
000000b0: df19 07bf 5305 adbe 5c17 11be d81f 26bf
000000c0: f27a 48bf 975a 673e 77e1 5fbe 4d67 3d3e
000000d0: b625 ee3e 2771 303e d772 a5bd 9643 e83e
000000e0: 0469 253e bee1 403f 4764 1ebf 260b cf3b
000000f0: 4295 dc3d 4ae3 8abd 79ce 86bc f38d 663e
00000100: 54e5 d5bd 38f7 2abf 58c6 32be 2ef9 1d3f
00000110: 3496 7fbe c97d 453e 85de 723f 7177 c9be
00000120: d3d8 98be 7e8e 083f 74ed 1e3e c8f3 e2bd
00000130: 2047 12bf 7369 0fbe 477c 283f ab8d 8d3f
00000140: 838e 453e 8b63 883e bf01 503f 45d8 93be
00000150: abaa 94be ee85 5bbe 889b fcbe 2195 d13e
00000160: 1de1 6abe 0fb9 cd3d 646b fc3d 5655 0fbe
00000170: ce19 5a3e 6e63 ffbe 797f 003e babb 543d
00000180: 1e46 333f 005e 5a3f 8c04 d53e 7bd0 3a3c
00000190: 724a 3abb 44b4 18be 1c8e 7c3c 1942 cb3e
000001a0: 6ad8 81bd d882 733d 0646 efbd 5f7b 09bf
000001b0: d7e3 af3e f25d a83d 9076 113f 0c7f f2be
000001c0: 4aca fabe c5f1 2c3e 048a 333e dd7a c7be
000001d0: d604 fa3e b19e 9c3e 292e 033e 9429 95bc
000001e0: 9dc1 48be 327a 553e 0aaa 10bd 494a fc3d
000001f0: d38f 28bf a598 d0be 53be ea3e 20ce 083e
00000200: b8c6 aebe 5c36 7bbd 24eb c53e e00d 99be
00000210: b5a0 6bbe 299b 513b f8ec 113f b310 2fbc
00000220: 1c42 2f3f cf51 cebe 87e5 a1bd c2c7 adbe
00000230: c3aa 3dbe 5a88 95be 2409 3a3f 9a85 9d3e
00000240: 4542 123e 4668 87be fced f33e de41 51be
00000250: de51 37bf 9bb0 903e 21ae d0be 6598 d2be
00000260: e5ed 8bbc 0e61 8cbc 8d06 f4be 9bbf a6be
00000270: 26c2 32bf 4653 82be 2104 f63e caec a7be
00000280: a81c dc3e 64de 27bf c33d 2abe 25f9 83bf
00000290: b03b c4be e52a b9be a3c8 f2bd 3c63 823e
000002a0: 470c 13bf 24da 213f 1eff 863e c667 acbd
000002b0: bb58 d33e 2588 f13c fbe0 153f ff03 543f
000002c0: 8686 183f a5bb e13d 5616 003e 2b7e 3dbf
000002d0: 69f2 4d3e 0be7 9f3e 209a 7e3e 8c8f 563e
000002e0: e4cf 53be 00ee 7c3e 900c 0e3f 4de0 02be
000002f0: f79a 263e 21e0 ea3e fdc3 9e3e 4641 ed3e
00000300: a003 e2bd 9846 de3d e99c da3d 90bd aa3e
00000310: e3c7 60be d034 48be b4da 73be f72d d13d
00000320: 7120 923d 772e 903f 830a 203f 1e31 a03e
00000330: bee3 e2bd 5c09 813d 5d2e 53be ecfb 60be
00000340: 2268 bfbe 73e0 efbd a451 e23e ff49 86be
00000350: aa36 c43e 27be 2fbf 856d 823d db02 523d
00000360: 2aa4 0d3e 5e4c d93c 27ed 03bd 4399 9d3e
00000370: 4ac4 5d3f c9b4 85bd d767 63bf 6c9f d63d
00000380: 324f d33e 1967 e03e a25c 94bd f348 8ebd
00000390: 62d1 8abe a282 84be 2f27 4cbc 1e62 6c3e
000003a0: 567b ff3e 16ee dd3e bd67 7d3f ec11 133f
000003b0: f286 573e 6036 adbe 7b50 ac3d dc70 663f
000003c0: 863e e2be e53f cfbe 92f0 273f 6324 0abf
000003d0: eb07 d8be fbca c0bd 8fac 953d 703b 3e3e
000003e0: 0820 03bf 80d6 30bf b308 aebf 36ec 243f
000003f0: eb7e a23d fba4 39bf b863 ae3d 97e4 3dbe

network_body._body_endoder.seq_layers.0.bias f4 [128]
0.0079082465 0.0019371681 0.00664057 -0.0011706619 0.002052018 0.006028964 0.0056038336 0.0086017195
0.0009170809 -6.370409e-05 0.008082138 0.003063802 0.004359456 -0.0013469312 -0.0041288617 0.0006378278
-0.0050467 0.001940475 -0.0034465992 -0.004137697 0.008899561 -0.001117351 0.0002978625 0.0075845434
0.0017226185 -0.0042475266 0.008330827 0.004754821 -0.0028939487 0.0028743704 0.0030311735 0.0021919212
0.005341526 0.0014321072 0.0004136335 0.001778072 0.0020099105 0.00811305 0.0012387843 -0.0004751014
-0.0025069078 -0.0031416996 -0.0023920026 -0.0049633672 -0.0027373582 0.003237728 0.006569419 0.0035434314
0.0033907495 0.0026599849 -0.002656734 0.0052807173 0.004884492 0.0030693444 0.0028344684 0.003208421
0.0066329846 0.0062873377 -0.00135644 -7.095815e-05 0.0013148665 0.0052831904 -0.0018767125 -0.0031896932
0.0035391583 -0.005694292 0.0073117446 -0.007917255 0.0010874642 -0.0018372519 0.001955923 -0.003392147
0.00031079777 0.0015553501 0.0039245808 0.0070987456 0.0009344563 -0.0021281128 -0.00078494527 0.0005239029
-0.007104201 -0.0004470629 0.0064239446 0.0072366376 0.00535219 0.0082577355 -0.0056539695 -0.0006706255
-0.007081896 0.0008218401 0.003497028 -0.008676601 0.004690384 -0.0059018508 0.003394718 -0.0027302364
-0.004436671 0.0005686837 0.00030287253 0.0024761914 0.0013596098 -0.0044432348 0.011099998 0.005658848
-0.0005132998 0.0016520915 1.0970877e-05 -0.002216092 0.0017953953 0.008046435 0.004904159 0.0026047782
0.0060316618 0.0033058245 0.001687505 0.0077690957 -3.835953e-05 0.0012522101 -0.0013594438 0.0017125418
-0.0055717453 -0.008516606 0.005918499 0.0017484755 0.007924647 0.0038919519 0.004496974 0.00277467
00000000: 9791 013c 93e8 fd3a 2399 d93b e570 99ba
00000010: 267b 063b 9e8e c53b 5da0 b73b 3aee 0c3c
00000020: 4268 703a df98 85b8 f26a 043c 11ca 483b
00000030: c4d9 8e3b 838b b0ba 674b 87bb e633 273a
00000040: ca5e a5bb 8957 fe3a 57e0 61bb 8595 87bb
00000050: 77cf 113c 1474 92ba 6e2a 9c39 c387 f83b
00000060: 7cc9 e13a d62e 8bbb 057e 083c 54ce 9b3b
00000070: 67a8 3dbb ef5f 3c3b a7a6 463b 56a6 0f3b
00000080: f807 af3b 8bb5 bb3a f3dc d839 320e e93a
00000090: b4b8 033b 99ec 043c b45e a23a 0817 f9b9
000000a0: ef4a 24bb f9e4 4dbb 25c3 1cbb bea3 a2bb
000000b0: 4065 33bb 1030 543b 4844 d73b ea38 683b
000000c0: 5637 5e3b 2453 2e3b 9a1c 2ebb de09 ad3b
000000d0: 170e a03b 0e27 493b 7dc2 393b 5f44 523b
000000e0: 8259 d93b 0306 ce3b 93ca b1ba 5ecf 94b8
000000f0: 9957 ac3a 9d1e ad3b 06fc f5ba 2c0a 51bb
00000100: 39f1 673b 2f97 babb 5c97 ef3b 60b7 01bc
00000110: 3e89 8e3a f2cf f0ba f12e 003b c84e 5ebb
00000120: 92f2 a239 e4dc cb3a c599 803b 989c e83b
00000130: 4df6 743a cf77 0bbb c9c4 4dba 8756 093a
00000140: 5bca e8bb c463 eab9 f47f d23b 5121 ed3b
00000150: 6d61 af3b 744b 073c ef44 b9bb eacc 2fba
00000160: 400f e8bb c170 573a 652e 653b 4d28 0ebc
00000170: cbb1 993b 5064 c1bb eb79 5e3b c4ed 32bb
00000180: 7e61 91bb b813 153a ddca 9e39 9947 223b
00000190: ef34 b23a 8e98 91bb c4dc 353c dc6d b93b
000001a0: f78e 06ba fe8a d83a 8f0f 3837 db3b 11bb
000001b0: 7853 eb3a 32d5 033c 11b3 a03b edb4 2a3b
000001c0: 3fa5 c53b 88a6 583b 462f dd3a e693 fe3b
000001d0: 3be4 20b8 3321 a43a 5d2f b2ba 5e77 e03a
000001e0: 3093 b6bb 3c89 0bbc f8ef c13b 1a2d e53a
000001f0: 61d6 013c 1e10 7f3b 5a5b 933b 3dd7 353b

network_body._body_endoder.seq_layers.2.weight f4 [128, 128]
0.116938725 0.106236115 0.005996281 -0.023985816 -0.055116512 -0.02499949 -0.014144921 0.115937956
0.07551845 -0.111124404 -0.044522017 -0.093256675 -0.0378295 0.047130603 0.028803002 0.028975846
0.061487425 0.09278554 -0.12138178 -0.25246337 -0.0102427695 0.09488731 0.05525035 -0.29307517
-0.077588916 0.014014071 0.059698645 -0.03626226 0.020665806 0.036101267 0.043067235 -0.05208223
0.09466074 -0.0418057 0.074967735 -0.06875041 0.0073811165 0.0014289288 0.06434603 -0.086915724
0.035083834 -0.06754189 0.076217815 -0.044357732 0.03423742 0.025874218 0.11598557 0.015577843
-0.036390442 -0.013158596 -0.027598875 0.20525986 0.0773135 -0.13939363 0.062488105 0.019293267
-0.14694692 -0.109089725 -0.14316213 0.047002014 -0.019450625 0.11486005 0.052992597 0.079732716
0.10655325 -0.08384657 -0.04774673 -0.025321407 0.034393128 -0.10936569 -0.043978825 0.037846476
-0.021252578 -0.056742523 0.044096254 0.10613113 0.062367633 0.13913596 0.11555349 0.028802462
-0.14032803 0.059223328 -0.07549976 0.026193438 0.03873856 0.116674624 0.017926792 -0.11394877
-0.033257086 0.088425525 -0.1001527 0.12129443 0.01890494 -0.15326636 0.036083583 0.044670034
-0.15012191 -0.00014346359 0.1724287 0.042615257 -0.028588459 -0.011820331 0.056384668 -0.0006297296
-0.022458524 -0.07236866 -0.0044200025 -0.036210254 -0.10736082 -0.06807225 0.09094794 -0.032920226
0.1515193 -0.034269907 -0.21261868 -0.019991878 -0.07845304 -0.03690558 -0.067247145 0.10688864
-0.12550208 0.082508355 0.11684997 0.11072873 0.050537217 -0.16905396 -0.16062966 0.032307524
-0.18674408 0.10352662 -0.12893474 -0.099958435 -0.046903037 0.14522333 0.071578726 -0.120549046
0.015933815 -0.008999378 0.14762543 0.040473107 0.033971913 -0.027280042 -0.03351513 0.035033524
-0.0005481655 -0.008674763 -0.11980331 -0.04596963 0.004175796 0.035904154 0.16116598 -0.019173943
0.114635065 0.04499521 -0.047266193 0.012163679 -0.006038216 0.08755576 -0.11321122 -0.08297644
-0.21030034 -0.044211622 -0.14536647 -0.08723639 0.02951272 0.025846904 -0.022798084 -0.01487622
-0.082968414 0.013251982 0.13425791 -0.105859786 0.0413042 0.023264036 -0.087590665 0.024550835
-0.09818197 0.00079100736 0.024483703 0.02615643 0.008848181 -0.017515631 0.015009518 0.14812621
0.044147056 -0.008734622 -0.11417344 -0.0946048 -0.10934641 0.16597395 0.078021534 0.072446145
-0.14426517 -0.2526219 -0.13355115 -0.10799746 -0.026069902 0.022943567 -0.09706604 0.017559474
-0.11813944 0.03311256 0.13737915 0.10119498 0.0005658165 0.2751348 0.110639624 -0.10917648
0.0015057346 0.0961275 -0.0059898193 0.086345695 -0.03411552 0.0029477451 -0.05435704 -0.01757759
-0.10259905 0.11065625 -0.08328774 -0.093503974 0.029545408 0.01974631 0.08972162 -0.13084075
0.0676625 -0.06555725 0.064861365 -0.0861809 0.020009775 0.0995664 -0.1076044 -0.1380014
0.01749395 0.0020512575 0.01436912 0.026377056 -0.03135237 -0.07478899 -0.09536084 -0.11544857
-0.0075194375 -0.08118609 0.08149143 -0.038018417 -0.10091508 0.07097784 -0.12298514 -0.016278878
0.014174238 -0.02982614 -0.027880017 0.039367545 -0.032659397 -0.18829279 -0.09046605 -0.0074399184
00000000: 927d ef3d 5292 d93d 737c c43b e77d c4bc
00000010: dac1 61bd bbcb ccbc 19c0 67bc e170 ed3d
00000020: 6ba9 9a3d 3195 e3bd b85c 36bd 5bfd bebd
00000030: 1bf3 1abd 050c 413d 46f4 eb3c c15e ed3c
00000040: 3dda 7b3d 5806 be3d 0397 f8bd e142 81be
00000050: 4ad1 27bc 4754 c23d 314e 623d f30d 96be
00000060: f0e6 9ebd 469b 653c 9186 743d bc87 14bd
00000070: 564b a93c ecde 133d 4567 303d 2d54 55bd
00000080: 7ddd c13d 743c 2bbd af88 993d 04cd 8cbd
00000090: 4bdd f13b e54a bb3a dac7 833d df00 b2bd
000000a0: 11b4 0f3d 6753 8abd 1618 9c3d 74b0 35bd
000000b0: 893c 0c3d 2bf6 d33c d889 ed3d 363a 7f3c
000000c0: 250e 15bd 2797 57bc 0917 e2bc a42f 523e
000000d0: 8a56 9e3d 34bd 0ebe 87f3 7f3d ea0c 9e3c
000000e0: 4179 16be 6f6a dfbd 1899 12be 2f85 403d
000000f0: eb56 9fbc bf3b eb3d c40e 593d e84a a33d
00000100: 9738 da3d c0b7 abbd 1392 43bd d76e cfbc
00000110: cfdf 0c3d 1efb dfbd 2423 34bd e804 1b3d
00000120: e319 aebc d96a 68bd 469e 343d 475b d93d
00000130: 3475 7f3d a879 0e3e 4fa7 ec3d 24f3 eb3c
00000140: 27b2 0fbe 2994 723d 9e9f 9abd 9f93 d63c
00000150: 53ac 1e3d 1bf3 ee3d 35db 923c f95d e9bd
00000160: 9538 08bd 7118 b53d dc1c cdbd 3769 f83d
00000170: 88de 9a3c dbf1 1cbe 61cc 133d edf7 363d
00000180: 8fb9 19be b76e 16b9 2691 303e 568d 2e3d
00000190: 5832 eabc 10aa 41bc 9cf3 663d 7014 25ba
000001a0: f0fa b7bc 0536 94bd abd5 90bb 3451 14bd
000001b0: fddf dbbd 7769 8bbd ea42 ba3d 5cd7 06bd
000001c0: e027 1b3e 9a5e 0cbd b6b8 59be 02c6 a3bc
000001d0: fdab a0bd 4e2a 17bd dfb8 89bd 6ee8 da3d
000001e0: 9e83 00be 24fa a83d 094f ef3d bfc5 e23d
000001f0: 1d00 4f3d 7b1c 2dbe 1a7c 24be e554 043d
00000200: d739 3fbe c405 d43d 7807 04be 02b7 ccbd
00000210: 661d 40bd 6db5 143e de97 923d 6be2 f6bd
00000220: a287 823c 2172 13bc 1f2b 173e 21c7 253d
00000230: 2226 0b3d 657a dfbc 2947 09bd 507f 0f3d
00000240: c4b2 0fba 9820 0ebc 705b f5bd a74a 3cbd
00000250: 1ed5 883b 3c10 133d b208 253e ac12 9dbc
00000260: cac5 ea3d e64c 383d 329a 41bd 2b4a 473c
00000270: 3adc c5bb 6f50 b33d 49db e7bd 8def a9bd
00000280: f958 57be 3f17 35bd f3da 14be fea8 b2bd
00000290: a9c4 f13c e3bc d33c 0cc3 babc 64bb 73bc
000002a0: 58eb a9bd d71e 593c e87a 093e 04cd d8bd
000002b0: 982e 293d 3894 be3c bc62 b3bd d51e c93c
000002c0: a113 c9bd 9b5b 4f3a 0c92 c83c 0246 d63c
000002d0: f6f7 103c f17c 8fbc 7bea 753c 66ae 173e
000002e0: 8bd3 343d a91b 0fbc c4d3 e9bd 29c0 c1bd
000002f0: 03f1 dfbd 13f5 293e c1c9 9f3d a55e 943d
00000300: 40ba 13be a857 81be a2c1 08be c62d ddbd
00000310: 8c90 d5bc 26f4 bb3c 8fca c6bd e3d8 8f3c
00000320: 17f3 f1bd 09a1 073d 1fad 0c3e 503f cf3d
00000330: 4d53 143a 78de 8c3e 0797 e23d eb97 dfbd
00000340: 125c c53a 7fde c43d 3f46 c4bb 03d6 b03d
00000350: b7bc 0bbd f52e 413b 7da5 5ebd e1fe 8fbc
00000360: 731f d2bd be9f e23d c392 aabd 037f bfbd
00000370: 3609 f23c 03c3 a13c f8bf b73d 1efb 05be
00000380: a392 8a3d e142 86bd 09d6 843d 9d7f b0bd
00000390: 8aeb a33c 78e9 cb3d b25f dcbd 3d50 0dbe
000003a0: 794f 8f3c 646e 063b 756c 6b3c b214 d83c
000003b0: 586b 00bd f82a 99bd 8b4c c3bd 4d70 ecbd
000003c0: 9d65 f6bb e544 a6bd fbe4 a63d 33b9 1bbd
000003d0: 91ac cebd d45c 913d a2df fbbd 485b 85bc
000003e0: 103b 683c f355 f4bc a264 e4bc dd3f 213d
000003f0: dcc5 05bd d3cf 40be 4446 b9bd 8fca f3bb

network_body._body_endoder.seq_layers.2.bias f4 [128]
0.006213511 0.0017550378 0.0038674 0.0013211286 -0.00048941624 0.00073183974 -0.0029862742 0.0016128361
0.0024318965 -0.0011415982 0.0030150602 0.0026192055 0.0023664087 -0.0033935609 -0.0034658343 -0.0018257989
-0.0021909503 0.0022768343 0.0016805431 0.0060073757 -0.00042374377 0.00043474513 0.0032824862 0.0028319235
0.0013833311 -0.0028543586 0.008085743 0.0029083474 -0.0003242365 -0.0061798603 0.00047826365 0.0028424838
6.182178e-05 -0.0022118634 -0.00319514 0.0017610783 -0.0028052516 -0.0014973618 0.00017860389 0.00313106
-0.0035422866 -0.002697113 -0.0025362198 0.0023417857 0.0030211823 0.004322203 0.0044525582 0.002795341
-0.0030846172 0.0060059163 0.0018399076 0.0031102228 0.0028174918 0.0063111694 0.0027757233 0.0051776166
-0.0016029829 -0.00072330795 -7.335828e-05 -0.00028113418 0.0027229686 -0.00011150793 0.0034634578 0.004003386
0.0055688433 0.00045013003 -0.0024240734 0.0076822797 0.003631895 0.0018705816 0.008592028 0.0066300808
-0.0025652398 0.0037037993 -0.004312693 0.001994188 0.0001755043 0.0022346654 0.0014099767 0.002494048
0.0005954782 0.0048991437 0.003681751 -0.0023032918 0.002788091 2.4041474e-05 -0.002768867 -0.0027449303
0.008274673 0.003576312 -0.0040344936 6.113727e-05 0.0032294688 0.0029897955 0.0012306154 -0.003473459
-0.0036089716 0.0058152587 0.0024783206 -0.00044294496 0.0030870067 -0.0013482431 0.00021059874 -0.003683305
0.0028975576 -0.0018686852 -0.0022394788 -0.0018569486 -0.001806393 0.0009806667 -0.0026268708 -0.005581504
-0.0032205302 0.004681844 0.0019370583 0.0021375534 -0.0030752434 0.0032643266 0.0016299819 -0.002900865
-0.0040572993 0.0011511663 0.004738775 -0.0011085211 -0.003638106 0.006582465 0.0039968966 0.007042031
00000000: b59a cb3b 4c09 e63a 3574 7d3b b829 ad3a
00000010: 2b4c 00ba efd8 3f3a 5eb5 43bb cd65 d33a
00000020: 7460 1f3b aea1 95ba 5198 453b faa6 2b3b
00000030: c015 1b3b 8166 5ebb 0d23 63bb a54f efba
00000040: 0c96 0fbb f136 153b ab45 dc3a 85d9 c43b
00000050: ed29 deb9 81ee e339 fb1e 573b cb97 393b
00000060: e450 b53a 3110 3bbb 107a 043c f999 3e3b
00000070: 49fe a9b9 6d80 cabb 76bf fa39 f748 3a3b
00000080: 51a6 8138 e9f4 10bb 8e65 51bb fbd3 e63a
00000090: 50d8 37bb 2043 c4ba 9e47 3b39 7832 4d3b
000000a0: b525 68bb 0cc2 30bb b536 26bb a578 193b
000000b0: 07ff 453b 44a1 8d3b c4e6 913b 0a32 373b
000000c0: 4a27 4abb 47cd c43b 0e29 f13a e1d4 4b3b
000000d0: aba5 383b edcd ce3b e9e8 353b ffa8 a93b
000000e0: 2e1b d2ba 609c 3dba edd7 99b8 3165 93b9
000000f0: d573 323b 5dd9 e9b8 2efb 623b d62e 833b
00000100: d87a b63b 6eff eb39 34dd 1ebb a2bb fb3b
00000110: 1605 6e3b 4e2e f53a 94c5 0c3c 2641 d93b
00000120: 951d 28bb 71bb 723b 7e51 8dbb ecb0 023b
00000130: 9407 3839 7773 123b f8ce b83a 2f73 233b
00000140: de19 1c3a ff88 a03b 8849 713b d3f2 16bb
00000150: 68b8 363b acac c937 e175 35bb 4ae4 33bb
00000160: 7e92 073c 8f60 6a3b c933 84bb d236 8038
00000170: 7fa5 533b 72f0 433b 9a4c a13a f9a2 63bb
00000180: 7f84 6cbb ed8d be3b 526b 223b 113b e8b9
00000190: 614f 4a3b 88b7 b0ba 2bd4 5c39 9b63 71bb
000001a0: f3e4 3d3b acee f4ba 38c4 12bb db64 f3ba
000001b0: 7ec4 ecba b789 803a 9427 2cbb 0de5 b6bb
000001c0: 880f 53bb 276a 993b e4e4 fd3a 3216 0c3b
000001d0: 068a 49bb 50ee 553b 1ea5 d53a 701c 3ebb
000001e0: 18f3 84bb bbe2 963a ba47 9b3b cc4b 91ba
000001f0: 4a6d 6ebb b8b1 d73b 66f8 823b d6c0 e63b

action_model._discrete_distribution.branches.0.weight f4 [3, 128]
-0.008626831 -0.0032485449 0.012710464 0.013317089 -0.0004296505 0.0017828086 -0.016395476 0.005294759
0.0065063885 0.0010233158 0.0077044195 0.0009418405 0.008198054 -0.0004954934 0.0009680247 -0.02637832
-0.00058092945 0.023052031 -0.006092814 0.0032898744 0.0014304576 0.008354552 -0.00299033 0.010954711
0.011598663 -0.008913981 -0.007931535 0.019490095 -0.00083080295 0.00062198564 0.0123915 0.029128984
-0.0138682835 -0.0009179118 0.0049166777 0.0057995617 0.0024611538 -0.00033058302 0.00029971704 -0.0028217866
-0.0070187147 -0.008380437 -0.0059555955 0.001967485 0.008429052 -0.013801617 0.008145711 0.0053638946
-0.0052936804 0.001864766 -0.0065102894 0.002976707 0.012619877 -0.0056397393 0.013334422 0.0036942102
0.0014073005 -0.00018006515 0.0041729663 -0.007678756 0.013576606 0.008412109 -0.002459406 -0.0094739385
0.0006383172 -0.019754222 0.0033662391 -0.0015221515 0.0037759792 0.00030169715 -0.013622841 0.015472818
-0.0074851057 -0.010311902 0.00397563 0.015336759 0.004363479 0.009139479 0.009605093 0.0029503088
-0.0019571371 0.008321771 0.00016437029 -0.0049966876 -0.008027553 0.009158924 0.006491099 -0.00973507
-0.0015042119 0.0077253506 -0.005327668 -0.0065646484 0.013940252 0.018299127 0.0044829594 0.0007539957
0.00612014 0.019675832 0.0092581585 0.010961891 0.022744494 -0.012671426 -0.0175823 -0.0038624
0.004497547 -0.00037664705 0.0026365584 0.018552735 -0.015408791 0.008414793 0.005625871 -0.0035966644
0.0001877589 -0.0024232138 -0.008223326 0.0023235055 -0.0029585664 -0.009329366 0.0012331251 0.0032516923
0.0047602514 -0.0017687506 0.005009364 -0.0023428486 -0.011340245 -0.0016619839 0.00069695694 -0.014930815
-0.01637853 -0.0032069336 0.01959365 -0.0024896818 -0.003430065 0.009138019 -0.014531993 0.010968231
0.009991688 0.009159103 0.00026646085 -0.007877455 -0.011975419 0.008676024 0.019342935 0.019439334
0.006513875 -0.00132002 -0.0050977264 -0.004351146 -0.00094485725 0.0036790082 -0.013997767 -0.020881804
0.0011160015 -0.001130943 -0.005114892 -0.009081792 0.0024591866 0.0055939034 -0.005985157 0.010439654
-0.009621718 0.012170675 0.010748208 -0.0009152789 0.0056512384 0.00016052704 6.46881e-05 -0.025610091
0.00527467 0.0035805411 0.015043805 -0.008490085 -0.00915437 -0.01435508 -0.017921392 -0.0059992285
0.0059515135 -0.00704495 -0.015554925 -0.017999772 0.008490371 -0.015639622 -0.001641097 -0.0052828006
0.0067097954 0.005710464 0.0030578254 -0.007785587 0.0002970106 0.007112035 -0.010511224 -0.007573916
-0.0031285873 -0.008031879 0.009506228 -0.018854469 0.006682534 -0.0010407381 -0.0125688845 0.005149253
0.012749997 -0.027331661 -0.0035209123 0.0014353337 0.009992096 -0.005763942 -0.01109428 0.0035918958
-0.0044539045 -0.0027903055 -0.011044379 0.01478377 -0.0005571315 0.010665652 0.0072913654 0.010839473
-0.007570499 -0.016647616 0.0021954272 0.00066945684 0.00022644791 0.0053845337 -0.012611348 0.013433843
0.013365125 0.002995044 -0.0011320653 0.0031810226 -0.004518613 -0.0044796593 0.0046986346 -0.0008312403
-0.009499579 0.015601276 0.0075799897 0.017180933 0.0006859017 -0.00034910964 0.0053626103 0.007009041
0.010034071 0.0037922207 0.0007469148 -0.008982331 0.006121221 -0.0026901753 -0.0030018038 0.004359508
0.017294768 -0.008801648 -0.0040471633 0.017312255 0.0014703197 -0.007978818 -0.010801386 -0.025520535
00000000: 8d57 0dbc 8ae5 54bb 8d3f 503c eb2f 5a3c
00000010: b742 e1b9 21ad e93a ce4f 86bc a87f ad3b
00000020: 8b33 d53b c820 863a 5b75 fc3b d9e5 763a
00000030: 2151 063c 00e4 01ba 0ac3 7d3a 5917 d8bc
00000040: 8449 18ba 9dd7 bc3c 3aa6 c7bb ef9a 573b
00000050: 317e bb3a 88e1 083c 6af9 43bb 637b 333c
00000060: 5208 3e3c f20b 12bc 45f3 01bc b1a9 9f3c
00000070: 3eca 59ba c00c 233a b805 4b3c e89f ee3c
00000080: cc37 63bc 05a0 70ba 151c a13b 400a be3b
00000090: 4f4b 213b 1a52 adb9 5723 9d39 b9ed 38bb
000000a0: 3ffd e5bb 1a4e 09bc 2827 c3bb ecf0 003b
000000b0: 021a 0a3c 2d20 62bc 9775 053c 9cc3 af3b
000000c0: 9c76 adbb 2a6b f43a 4454 d5bb db14 433b
000000d0: 9ac3 4e3c 90cd b8bb 9f78 5a3c 901a 723b
000000e0: 2b75 b83a dfcf 3cb9 61bd 883b 139e fbbb
000000f0: 6a70 5e3c f1d2 093c fc2d 21bb 9438 1bbc
00000100: be54 273a 9bd3 a1bc 1f9c 5c3b ee82 c7ba
00000110: 6b76 773b 1b2d 9e39 5632 5fbc b481 7d3c
00000120: 9e45 f5bb 40f3 28bc 0046 823b 0847 7b3c
00000130: 84fb 8e3b c1bd 153c ae5e 1d3c f859 413b
00000140: 5043 00bb 0a58 083c d05a 2c39 41bb a3bb
00000150: ff85 03bc 500f 163c 49b3 d43b d87f 1fbc
00000160: fa28 c5ba f024 fd3b b893 aebb 431c d7bb
00000170: a865 643c 0de8 953c cae5 923b cba7 453a
00000180: 758b c83b 362f a13c 88af 173c 8199 333c
00000190: a952 ba3c d09b 4fbc c108 90bc 5220 7dbb
000001a0: 2960 933b b678 c5b9 1cca 2c3b e8fb 973c
000001b0: 2775 7cbc 33de 093c 3a59 b83b 04b6 6bbb
000001c0: 25e1 4439 c8ce 1ebb 21bb 06bc f445 183b
000001d0: 82e4 41bb 32da 18bc d0a0 a13a 581a 553b
000001e0: e2fb 9b3b 6cd5 e7ba 9725 a43b 7a8a 19bb
000001f0: 6fcc 39bc edd6 d9ba fdb3 363a 61a0 74bc
00000200: 442c 86bc 6b2b 52bb dd82 a03c ee29 23bb
00000210: f1ca 60bb a1b7 153c 9917 6ebc 18b4 333c
00000220: 2db4 233c 1010 163c c5b3 8b39 7110 01bc
00000230: 8c34 44bc e225 0e3c 1375 9e3c 3d3f 9f3c
00000240: 5872 d53b 8504 adba d40a a7bb 0f94 8ebb
00000250: 4cb0 77ba 841b 713b e456 65bc 5110 abbc
00000260: cc46 923a 263c 94ba d39a a7bb cccb 14bc
00000270: 4e2a 213b 104d b73b 231f c4bb 150b 2b3c
00000280: 69a4 1dbc 8367 473c 4019 303c 54ef 6fba
00000290: 062e b93b 2653 2839 29a9 8738 41cc d1bc
000002a0: 24d7 ac3b 83a7 6a3b 4b7a 763c ff19 0bbc
000002b0: 36fc 15bc 9231 6bbc e2cf 92bc 2d95 c4bb
000002c0: ea04 c33b 53d9 e6bb 16da 7ebc 4274 93bc
000002d0: 321b 0b3c aa1e 80bc 141a d7ba 581b adbb
000002e0: d8dd db3b d81e bb3b cc65 483b 3d1e ffbb
000002f0: 17b8 9b39 130c e93b 4537 2cbc 9d2e f8bb
00000300: fc08 4dbb 2498 03bc 03c0 1b3c b074 9abc
00000310: 28f9 da3b 6069 88ba b9ed 4dbc 11bb a83b
00000320: 5de5 503c a6e6 dfbc 1bbf 66bb cf21 bc3a
00000330: e3b5 233c 73df bcbb c8c4 35bc 0366 6b3b
00000340: 0ff2 91bb 8fdd 36bb 7cf3 34bc a037 723c
00000350: 760c 12ba fdbe 2e3c 68ec ee3b 0c98 313c
00000360: f311 f8bb 9560 88bc 28e1 0f3b 7d7e 2f3a
00000370: a672 6d39 be70 b03b d49f 4ebc 9f19 5c3c
00000380: 66f9 5a3c 8048 443b cf61 94ba b478 503b
00000390: e010 94bb 1bca 92bb 01f7 993b 98e7 59ba
000003a0: 1fa4 1bbc 7f9c 7f3c 9061 f83b 07bf 8c3c
000003b0: 15ce 333a b408 b7b9 d6b8 af3b 19ac e53b
000003c0: f265 243c e886 783b 9bcc 433a a02a 13bc
000003d0: 8694 c83b a74d 30bb e9b9 44bb 34da 8e3b
000003e0: c2ad 8d3c ca34 10bc 119e 84bb 6ed2 8d3c
000003f0: beb7 c03a 97b9 02bc 4cf8 30bc 7110 d1bc

action_model._discrete_distribution.branches.0.bias f4 [3]
0.0021732075 -0.0032552297 0.0024492438
00000000: 5f6c 0e3b b155 55bb 7e83 203b

onnx::Div_52 f4 [6]
2.3406482 0.06238313 0.055814557 0.055814557 0.16778369 20.33978
00000000: 2ecd 1540 7485 7f3d ce9d 643d ce9d 643d
00000010: 7dcf 2b3e dfb7 a241
