BasicAvoidance/Assets/results/BasicAvoidance1/PlayerAvoidance/PlayerAvoidance-640.pt (torch, 426578 bytes, 33 tensors)

network_body._body_endoder.seq_layers.0.weight f4 [128, 1]
000000 d5 6e b5 3e c8 30 d7 3f b3 06 3f 3f 3f 7f a7 3f
       0.3543612 1.6811762 0.746196 1.3085707
000010 31 f3 7f bf f2 ca 7a bf 50 88 ec be 79 e5 9a 3f
       -0.99980456 -0.9796592 -0.46197748 1.210128
000020 89 57 b6 3f f9 1f ee 3f c1 5a 15 3f 3a 76 ef 3e
       1.4245464 1.8603507 0.58341604 0.46769887
000030 d5 5f 54 3f cb e1 35 3f 83 e4 d6 be fc e0 f4 bf
       0.8295873 0.7104766 -0.41971216 -1.913116
000040 1f e1 e4 be a5 a2 1a c0 81 42 0d 3f 83 22 94 bb
       -0.44703004 -2.416177 0.551796 -0.0045207157
000050 88 32 09 3f 15 b3 88 be 0c 20 2e 3f 75 b2 36 bf
       0.5359273 -0.2669913 0.6801765 -0.71366054
000060 89 e2 ff be 03 bb 6e 3f 17 21 96 bf fc 5e b8 3e
       -0.4997752 0.9325411 -1.1728848 0.36009967
000070 b1 52 8b 3f e2 1b 63 3e cd 1c b1 bd 19 63 f9 be
       1.088461 0.22178605 -0.086480714 -0.48708418
000080 8a 1e 50 bb a7 39 00 3e 19 f5 95 3f 37 2d 58 3e
       -0.0031756484 0.12521993 1.1715423 0.21110998
000090 8a f4 11 3f 0e c2 9f 3f 84 b4 d0 bd e2 44 9c 3f
       0.5701376 1.2481096 -0.101906806 1.2208521
0000a0 4a 1b 14 3e ea 78 bd 3f fe 57 8a 3f b1 91 b9 bf
       0.14463535 1.4802525 1.0808103 -1.4497586
0000b0 80 f8 f6 3c 8f 0e 03 c0 a4 cb a5 3f e4 ae e7 be
       0.03014779 -2.0477636 1.2952771 -0.45250618
0000c0 b4 a9 83 bf ea 4e 62 bf 6b ba bd bf cd 6a ac 3f
       -1.0286164 -0.88401663 -1.4822515 1.3470093
0000d0 e2 fe 57 3d 40 42 e5 3d 94 e8 10 bf 41 3d cd be
       0.05273331 0.11194277 -0.56604886 -0.40085796
0000e0 f9 64 d4 bf 27 81 f7 3f f5 7f 86 3f 83 55 a6 3f
       -1.6593314 1.9336289 1.0507799 1.2994846
0000f0 9f 35 03 40 f9 54 6b 3d 82 d8 52 bf 80 2e 2d be
       2.0501478 0.057454083 -0.82361615 -0.1691227
000100 bf 9c d1 bf ef 1d d3 be 15 65 cd 3f 5e c9 ff be
       -1.637596 -0.41233775 1.6046473 -0.49958318
000110 2c e1 f8 bd 82 fc 6a 3d 51 5b f2 bd 1b bd 05 c0
       -0.12152323 0.057369716 -0.118338235 -2.089667
000120 99 e4 55 3e d0 93 be bf 8f 4a ec 3e 9b 3a 20 bf
       0.20887984 -1.4888859 0.46150634 -0.62589425
000130 af 37 cd bf 95 82 5f 3f 38 44 ab 3f 48 e3 37 bf
       -1.6032618 0.8730863 1.3380194 -0.7183118
000140 08 25 c5 bf 74 4f 00 40 0e 76 66 bf a0 94 6f 3f
       -1.5401926 2.0048494 -0.9002389 0.9358616
000150 25 21 21 3f d4 5e df be 4c d4 53 bf 91 b2 05 bf
       0.629412 -0.43627036 -0.82745814 -0.52225596
000160 25 d5 c6 3e a4 64 4a 3e ee ba a9 bf 69 d7 86 bf
       0.3883449 0.19764954 -1.3260171 -1.0534488
000170 38 b3 44 3d fe cb 4d c0 3c 34 8e bf 3d dc 10 bf
       0.04802248 -3.2155757 -1.1109691 -0.56586057
000180 6c c3 a8 bf 97 16 16 40 9e e0 3f be 35 20 71 3f
       -1.3184638 2.3451288 -0.18738028 0.9418977
000190 ab 87 3d bf c9 e6 9c bf 19 fe a3 3f 9e bf 7f bf
       -0.7403514 -1.225793 1.281192 -0.9990176
0001a0 db a8 f2 3f 5c 9d cd 3e 55 8d 27 3e 96 56 3b bd
       1.8957781 0.40159118 0.16362508 -0.04573687
0001b0 2c c4 31 bf 46 b2 86 3f 31 95 14 bf 37 58 0d c0
       -0.6943996 1.0523155 -0.5804015 -2.2085092
0001c0 44 35 17 3e b4 66 7f bf ac e2 5d 3e e4 eb 6b bf
       0.14766413 -0.9976609 0.216685 -0.92156816
0001d0 f1 d1 9d 3e e3 1f 10 40 d0 f6 9b 3e 43 9c 16 bf
       0.30824235 2.2519462 0.3046174 -0.58832186
0001e0 01 b9 71 3e 6d d3 4a 3f 9e 34 41 3d dc ba 07 bf
       0.2360573 0.7922886 0.04716932 -0.530195
0001f0 75 74 6b bf b6 50 57 bf 80 96 94 3e 6f a5 00 c0
       -0.91974574 -0.8410753 0.29021072 -2.0100973

network_body._body_endoder.seq_layers.0.bias f4 [128]
000000 38 5e 2a bb 26 22 e3 bb c5 f5 86 38 34 46 cd 3a
       -0.00259961 -0.006931561 6.435396e-05 0.0015661181
000010 b3 5e dd 39 d6 a3 09 3c d9 2b 12 bc 54 9a 9e 39
       0.0004222296 0.008400878 -0.008921587 0.00030251092
000020 61 0a 08 3a 6d f2 fc ba 61 c8 00 39 03 6a 06 3b
       0.0005189535 -0.0019298323 0.00012281678 0.0020509965
000030 02 9b e7 bb 4c b0 02 3a a7 0b b4 39 fa 57 d1 3a
       -0.007068039 0.0004985377 0.00034340957 0.0015971654
000040 20 9a 0b 3c 18 a0 f3 3b 6b 88 ac ba 5d ce 5e 3b
       0.008520633 0.007434856 -0.0013163214 0.0033997514
000050 c0 5b 31 3b d4 7d 63 ba ac 40 a5 bb e4 8c dd 3b
       0.0027062744 -0.00086781126 -0.00504311 0.0067611802
000060 35 16 48 3c 0a 19 42 3b b6 30 72 3b fc 45 30 3b
       0.012212326 0.0029616975 0.0036955304 0.0026897183
000070 a0 a1 dd bb 07 39 5a 3b d0 f7 45 3c 2c 8e 0a 3c
       -0.006763652 0.003329815 0.012083009 0.008456748
000080 d0 05 50 ba 11 8d 11 bc 18 3a 0d bb f0 7e 61 3b
       -0.00079354364 -0.0088837305 -0.002154952 0.0034407936
000090 e4 75 63 bb af 97 e9 3a 53 fd 59 3b 3e b1 8d bb
       -0.003470772 0.0017821694 0.0033262565 -0.0043241074
0000a0 bf 81 82 ba 4e ea 16 3a a7 06 63 bb ee 1f 11 3c
       -0.000995688 0.000575696 -0.0034641416 0.00885771
0000b0 51 be e8 bb 0c 89 74 39 1c 09 86 3a 84 7c b1 bb
       -0.0071027656 0.00023320707 0.0010226103 -0.0054164547
0000c0 9d 0f c8 3b 88 5f 9d 3b 9f 4e b8 ba d2 e5 86 ba
       0.006105377 0.004802648 -0.0014061517 -0.001029188
0000d0 e7 cc 9f 3b 2b cf 06 3b 04 db e5 3b 0b 85 85 3b
       0.004876721 0.002057026 0.007014634 0.004074698
0000e0 f3 e9 18 bc 77 b3 22 3a f0 36 56 bb ee d9 22 bb
       -0.009333122 0.0006206552 -0.0032686554 -0.0024849134
0000f0 43 01 82 3a 44 28 21 bc 85 c0 09 3c 84 2d 26 ba
       0.0009918589 -0.00983626 0.008407717 -0.000633918
000100 c0 9e 96 3b 17 ce 22 bc c8 e4 a7 b9 24 9d 85 bb
       0.004596561 -0.009936831 -0.00032023177 -0.0040775705
000110 1d 00 dc 3a 55 57 53 ba 57 c4 35 3a 5c a1 be 3b
       0.0016784702 -0.0008062025 0.0006933859 0.0058175754
000120 56 9e 31 3b 4a 6d 6e bb 05 23 23 b9 85 79 f4 3b
       0.0027102432 -0.003638106 -0.00015557937 0.0074607753
000130 45 5c 30 3b 77 89 1c 3b b3 e7 e5 bb 2d 0c fb bb
       0.0026910466 0.0023885646 -0.007016146 -0.0076613636
000140 ad d6 6e 3b 06 cb ca bb e4 41 15 bc 03 28 03 bb
       0.0036443875 -0.006188753 -0.009109948 -0.0020012863
000150 58 c7 6b 39 1c 01 c4 3b d7 a3 a3 bb 80 60 4e bb
       0.00022485608 0.0059815776 -0.0049938965 -0.0031490624
000160 eb d0 3a 3b 9e f3 0e 3a 12 28 90 3b 98 76 bd bb
       0.0028505872 0.0005453172 0.004399308 -0.0057819597
000170 0b 39 46 3b 67 71 a7 ba 1d 58 c3 39 d1 63 3e 3c
       0.0030246403 -0.0012774885 0.00037258948 0.011620478
000180 17 e8 9f 3b fd b3 e4 3a 44 a4 4a b9 ad 14 17 bb
       0.004879962 0.001744866 -0.00019325415 -0.0023053095
000190 e1 47 c4 3b 01 03 a1 bb a2 03 23 3b af a9 64 3c
       0.005990014 -0.004913688 0.0024873991 0.013956471
0001a0 3a 91 ef ba cb 52 b9 3a b1 3e 48 bb 04 23 11 3a
       -0.0018277534 0.0014139054 -0.0030554945 0.0005536529
0001b0 df 70 22 bb 19 b5 30 bb 0c 9f fe 3b 31 c3 b5 3b
       -0.0024786515 -0.0026963411 0.0077704247 0.0055469503
0001c0 58 70 32 bb a9 93 8e ba 22 52 80 bb 2e 78 25 3b
       -0.0027227607 -0.0010877746 -0.003916041 0.0025248635
0001d0 d2 80 86 bb 9b 15 a2 bb 93 ca 64 ba fe 7c 9e 3b
       -0.004104712 -0.004946423 -0.00087276957 0.0048366776
0001e0 5a c0 a3 39 3f fc bf bb 31 64 c0 3a 83 4d a0 3b
       0.00031233096 -0.0058589275 0.0014678297 0.0048920526
0001f0 32 03 f4 3b e9 b8 e3 3b 43 b3 71 bb 64 74 ab 3b
       0.00744667 0.0069495332 -0.003688053 0.0052323807

network_body._body_endoder.seq_layers.2.weight f4 [128, 128]
000000 92 9d 20 be c3 4a 9b 3d d7 1f 38 3d 42 78 05 be
       -0.15685108 0.07582619 0.04495224 -0.13034156
000010 28 04 65 3d 1a c9 71 3c b4 2b 54 bd a5 c7 d2 bc
       0.055912167 0.014757419 -0.05179949 -0.025729964
000020 bb e6 86 bd 4b f7 25 3d 52 c1 ed 3d 88 90 ca bd
       -0.06586977 0.04051904 0.116091385 -0.098908484
000030 4a 0a 66 3c 14 4e 83 3a 84 b7 cb bc d4 aa 90 3d
       0.014040539 0.0010017776 -0.02486778 0.07063833
000040 04 da 81 3d f8 82 99 bb 44 de 71 3c ec 6a b7 bd
       0.06340411 -0.004684802 0.014762465 -0.089559406
000050 31 47 82 bd 77 c7 91 bc 78 e5 67 bd f0 cc bd 3c
       -0.06361235 -0.017795308 -0.056615323 0.02316901
000060 71 49 25 3d 9c 7b b3 bd 05 27 cb bc 69 67 99 bc
       0.040353242 -0.08763811 -0.02479888 -0.018726068
000070 7f 5c ff 3d 6a 2c 1a 3c 90 24 c3 3d f4 1f a5 bd
       0.12468814 0.009410003 0.09528458 -0.08062735
000080 2e 90 b7 bc 81 0a 40 3d 41 b9 11 3d 1c 70 b2 bd
       -0.022407617 0.046885017 0.035577063 -0.087127894
000090 72 b4 e2 3b a5 63 9e 3b b9 5b 7a bd 16 3d 12 3e
       0.0069184834 0.004833656 -0.06112263 0.14281115
0000a0 a4 9c 22 bd 65 c5 9b 3d d7 c6 93 bc d7 1a fc 3c
       -0.039700165 0.076060094 -0.01803915 0.030774517
0000b0 25 e6 18 bd 25 e5 16 3d a7 55 07 3c 03 a9 b7 bb
       -0.037328858 0.036839623 0.008260167 -0.0056048646
0000c0 cd 8c 79 bd ea c6 a6 bd 5d e4 49 bd 1c ee 9f 3c
       -0.060925294 -0.081434086 -0.04929005 0.01952272
0000d0 db 26 3f bd a1 b3 2d be 20 6d 5e 3d 2e 1a 91 3d
       -0.046667915 -0.16963054 0.05430329 0.070850715
0000e0 35 5d 8f bd 90 67 52 bd 97 d5 56 bd bc b8 46 3e
       -0.070002 -0.051368296 -0.05244979 0.19406408
0000f0 8c db e3 3d 99 c6 3f bc ec 96 b2 3b a2 6d 89 bc
       0.111258596 -0.011705064 0.00545012 -0.01677591
000100 98 35 2c 3d 11 d7 77 3d cf ee 9c bd 22 55 9a bd
       0.0420433 0.060507838 -0.076627366 -0.07535769
000110 73 72 4b be 70 74 b7 3d bc c8 38 3e 77 d9 2a 3d
       -0.19867878 0.089577556 0.18045324 0.041711297
000120 4f b0 96 bc fc 51 21 be 02 9d 05 3e e2 6c 3f bd
       -0.018394617 -0.15753931 0.13048175 -0.046734698
000130 ec a0 f8 3c 96 7e bd 3d 65 99 1e bd b3 7f bc 3d
       0.030350171 0.0925266 -0.038720507 0.09204044
000140 55 70 0e be 38 63 95 3d 68 87 24 bb 7b bb 34 be
       -0.13910039 0.07294315 -0.0025105122 -0.17649643
000150 63 56 98 3d ef 37 99 3d 04 3c 1a bd 75 b6 de bd
       0.07438352 0.074813716 -0.03765489 -0.10874645
000160 e5 d9 c8 bc fa 39 81 bd d7 54 02 37 bc 79 b3 bd
       -0.024517963 -0.06309886 7.768357e-06 -0.08763453
000170 b4 4c e6 bc c6 81 96 bb 8d b6 0d 3d 79 7f e6 bd
       -0.028112747 -0.004593107 0.034597922 -0.11254782
000180 1f 8c aa 3c 2f 38 81 bd f2 a5 d6 bd 3b a7 59 3d
       0.020818768 -0.06309544 -0.1048087 0.053138
000190 17 c2 16 3d c5 ce 7e bd 59 95 49 be 15 5b f6 bc
       0.036806192 -0.06220891 -0.19685878 -0.030072728
0001a0 bd 81 20 3d d2 ce a5 bc f2 a7 83 3d 70 b1 06 3d
       0.039186228 -0.020240221 0.064285174 0.03288406
0001b0 22 8c e1 3d a2 8b 2d 3d 4c f0 d5 3a bc c4 e1 bc
       0.11013056 0.042369492 0.0016322224 -0.02755963
0001c0 83 b3 be bd cd eb af bb d0 00 02 3d ad fb 3b 3d
       -0.09311583 -0.005368686 0.031739056 0.045894314
0001d0 01 a5 9b bc 62 fa c2 3d 7e eb 39 bd 4d 41 f1 bd
       -0.018999578 0.09520413 -0.0453906 -0.11780033
0001e0 0e cf ac 3d fb ea 02 3d fe 25 4b bd 7c a1 2a 3d
       0.0843793 0.031962376 -0.04959678 0.04165791
0001f0 5c a5 9d 3d 5a 92 d2 bc 8e 6a 07 3e 99 7e 4b 3d
       0.076975554 -0.025704551 0.13224241 0.04968128
000200 d5 7c 63 be cd 5d cd bd c5 a8 ed bd da 64 9a 3c
       -0.22215588 -0.10027657 -0.11604456 0.018846918
000210 64 d6 93 bd 56 88 40 3c 11 51 e2 bd ef da 53 be
       -0.07218626 0.011751255 -0.110506184 -0.20688985
000220 6c f8 d6 3d 17 70 7b 3e f1 e1 d5 bd 58 6c 2b bd
       0.104966015 0.24554478 -0.104434855 -0.04185137
000230 25 7d 80 3d 93 24 1f 3d 50 5e 39 bc bc a9 e6 ba
       0.062738694 0.03885324 -0.01131399 -0.0017598192
000240 7d 41 3c 3d 3b 3c 4e 3d 15 90 36 3e 5b 9b ec 3c
       0.045960892 0.05035041 0.178284 0.028882673
000250 7c 24 27 bd e8 04 26 be b9 7a 86 3d 39 b4 f9 3d
       -0.04080628 -0.16212809 0.06566376 0.12192578
000260 08 cf ac 3b 5f 5a 8e bd ad 9f f6 3d 1a 17 aa bc
       0.0052737035 -0.06950831 0.120421745 -0.020762969
000270 b4 9a bb 3d 32 9d a9 3d 8d cd b4 3c 2c e1 7d 3d
       0.09160367 0.08281936 0.02207067 0.06198232
000280 ce 23 03 be ec ee 5b 3d fc ee 03 3e 7c c0 b9 3d
       -0.12806627 0.05369465 0.12884134 0.090699166
000290 8c e5 0a 3d 58 16 e5 bd 8b 7b c5 3c a1 93 7c bd
       0.03391032 -0.11185902 0.024106761 -0.061664227
0002a0 b5 b5 89 3b 15 2f 0c be e1 d4 25 3e a9 39 0a 3c
       0.0042025694 -0.13689835 0.16194488 0.008436599
0002b0 0d 35 2a 3e a0 3f 6c bd e3 6d 70 bd 4a 72 11 3e
       0.166218 -0.057677865 -0.058698546 0.14203754
0002c0 44 08 9b bd e8 df 2f 3b 8c 91 50 3d 05 24 fa 3d
       -0.07569936 0.002683634 0.050920054 0.122139014
0002d0 e5 89 0a bc 05 7a 12 be a9 83 94 bd 51 89 6d 3d
       -0.008455728 -0.1430436 -0.07251675 0.057992283
0002e0 8e 3a 28 be c4 44 02 3d b7 f7 d9 bc 60 2d 33 3c
       -0.16428587 0.03180386 -0.026607377 0.010936111
0002f0 74 c6 8c bd a4 72 1f bd 96 80 84 bc bd ef 06 3e
       -0.068737894 -0.03892769 -0.016174596 0.1317739
000300 ea 14 e8 3d a0 38 08 3e 45 a0 6d bd f3 f5 41 bd
       0.11332114 0.1330285 -0.058014173 -0.047353696
000310 58 9e 09 3d 68 ef b5 bd 9f 62 49 3d d9 53 e7 3c
       0.033598274 -0.08883554 0.049166318 0.028238224
000320 09 0b 83 3c e7 ea 96 bd 50 3e 0d 3d 17 43 db ba
       0.015996473 -0.07369023 0.034483254 -0.0016728368
000330 d8 47 0a bc aa e3 56 3d 90 39 aa 3c bf 91 10 bd
       -0.00843998 0.05246321 0.020779401 -0.035295244
000340 cd 51 4f 3e cb 6d e4 3d bd ed a3 3d bf 79 50 bd
       0.20246048 0.11153754 0.08004329 -0.050897356
000350 f5 f0 b9 bc 10 9c 00 3e c3 b1 2b bd 17 3b 31 be
       -0.022697905 0.12559533 -0.041917574 -0.17307697
000360 1f 3b b5 bc 13 db d4 3d e0 fb db bc 9c 29 71 bd
       -0.022122918 0.103933476 -0.026853502 -0.058877572
000370 d3 51 95 3d 1a fc 38 bc bb 40 9a bd db 83 06 bd
       0.07290997 -0.011290574 -0.075318776 -0.03284059
000380 13 58 be bd 2d 5b da ba f5 77 be bc 18 0c 51 bd
       -0.092941426 -0.0016659253 -0.02325056 -0.051036924
000390 c7 41 53 3d 9a de 58 3d a9 47 f1 3d 94 1c 6f bd
       0.051576402 0.052946664 0.11781246 -0.058376864
0003a0 6d df 35 bd d2 4c 06 3d 79 fc 26 3c 2d 8b a2 bd
       -0.04440253 0.032788105 0.01019203 -0.07936702
0003b0 ca ab 05 be 5b 37 1e bd d4 74 2e bc 00 c0 15 3d
       -0.13053814 -0.03862701 -0.010647971 0.03656006
0003c0 3b 38 dd 3c ec a2 85 bd 16 15 0e 3d 7d 52 11 3d
       0.027004352 -0.065252155 0.034688078 0.035479058
0003d0 67 96 9d 3d f2 5e 7d 3c f9 63 23 be c9 91 aa 3d
       0.076947026 0.015464531 -0.15956105 0.083285876
0003e0 2e 70 be 3c 1f 4b 5d 3d e9 72 7d bd a3 55 1c 3d
       0.02324685 0.05402672 -0.061877165 0.038167607
0003f0 01 5a cc bc 4d 7b 02 bc 88 4c c4 3d ec 4a f7 bd
       -0.024945261 -0.0079639675 0.0958491 -0.12074837

network_body._body_endoder.seq_layers.2.bias f4 [128]
000000 da 1c a4 bb a3 6b fd bb 62 99 f5 b9 41 c0 d0 3b
       -0.005008322 -0.0077337786 -0.0004684432 0.0063705747
000010 26 d0 b9 bb 35 84 48 3b 08 e6 98 3a ca e2 3c bb
       -0.005670565 0.003059638 0.0011665234 -0.00288217
000020 96 24 f4 3b d8 e7 8d 3a 32 9e 03 3a 83 25 2a 3b
       0.0074506504 0.0010826541 0.00050208264 0.00259623
000030 91 a1 49 bb 3a 79 aa ba 20 6e c3 3b ad 92 c8 bb
       -0.0030766467 -0.0013006099 0.0059640557 -0.0061210007
000040 aa 07 a9 bb 2a 0e d1 bb 54 33 6b 3a 4a d2 37 ba
       -0.0051583843 -0.0063798623 0.0008972187 -0.00070122315
000050 01 a0 f2 ba b2 52 7c 3b 10 0f ba bb 84 c2 8c 3b
       -0.001851082 0.0038501439 -0.005678065 0.004295649
000060 f5 03 9e bb 28 99 f2 bb d0 30 35 39 88 55 04 bb
       -0.004822249 -0.0074035116 0.00017279689 -0.0020192582
000070 25 c7 50 3b 6c 9b c7 bb a1 57 51 3b e2 54 86 bb
       0.003185698 -0.006091526 0.00319431 -0.0040994743
000080 5a 71 ce bb ce dd 91 3b 78 7e 9f bb a2 ed 39 3b
       -0.0063001337 0.00445149 -0.004867371 0.00283704
000090 f0 d1 86 bb d8 25 0a 3b 2d 4f fc ba 7e e3 1d 3c
       -0.004114382 0.0021079686 -0.001924967 0.009636758
0000a0 8e 01 80 ba 73 68 43 bb 8b fc 0e b9 c9 9e 6b 3b
       -0.0009766088 -0.0029816895 -0.00013636255 0.0035952798
0000b0 5e ce 67 bb 39 26 d4 ba a9 9e 41 bb fd 1d d2 3a
       -0.0035370807 -0.0016185708 -0.0029544032 0.0016030666
0000c0 42 a2 04 3b fe 1e a0 b9 68 ff 2c 3b f8 36 93 bb
       0.0020238315 -0.0003054067 0.0026397351 -0.004492637
0000d0 67 ad 90 3b b8 61 76 3b 6a 49 82 bb 62 b3 e3 3b
       0.0044152024 0.0037594866 -0.003976037 0.0069488743
0000e0 7e d2 ae 3b dd a6 e5 3b da 07 04 bb 1a a7 16 3c
       0.005335151 0.007008417 -0.0020146281 0.009195114
0000f0 46 1e ec 3b 45 90 88 b9 45 46 87 ba cd ea 38 3b
       0.0072057573 -0.0002604743 -0.0010320625 0.0028216124
000100 00 86 1f bb 43 3f df 3b ad dd 91 b9 53 bb 2b 3b
       -0.0024341345 0.0068129613 -0.00027821717 0.0026204183
000110 61 18 d6 3a 13 2c b6 3b 43 9c 8d bb ad 74 c3 3a
       0.001633417 0.0055594533 -0.0043216064 0.0014912091
000120 88 fa 18 bb 19 b9 aa 39 dd b9 1a bb 7d eb 88 3b
       -0.0023342688 0.00032562835 -0.0023609318 0.004178463
000130 e7 0d 02 b9 37 1e 83 bb 12 14 ac 3b 6c fe 07 3c
       -0.00012402945 -0.0040014046 0.005251416 0.008300405
000140 32 06 c1 3b 2b d2 28 3b 95 5c d9 3a 15 26 00 3c
       0.005890631 0.0025760035 0.0016583378 0.007821579
000150 ad e9 5c 3a bc c9 1d bb 8f ed a0 3b a7 54 68 bb
       0.00084271544 -0.0024076542 0.0049111317 -0.0035450847
000160 c5 b4 29 bb 1c 9f 14 3b ed 51 75 39 cd 5c 34 3b
       -0.00258951 0.0022677844 0.0002339554 0.0027521134
000170 02 dd 5c bb df 1b 81 bb 76 c0 94 3b 13 2c 80 38
       -0.0033701067 -0.00394009 0.0045395447 6.111725e-05
000180 2f 4e 11 bb 46 30 6a 3a b0 f9 b7 bb cf e1 c3 bb
       -0.0022171845 0.0008933585 -0.005614482 -0.005977846
000190 0d bf 2d 3b 70 0d 3f 3b 8b 4d 8f bb 64 14 81 3a
       0.002651158 0.0029152296 -0.0043732575 0.0009847996
0001a0 a5 ab d7 bb 34 a5 01 3b 8d 60 04 bc 5f 98 a2 3b
       -0.006581741 0.0019782307 -0.00807966 0.0049620117
0001b0 e3 8f b6 3b d1 aa 1d 3b 30 f9 90 ba 95 cc e2 ba
       0.005571352 0.0024058113 -0.0011060592 -0.0017303402
0001c0 76 fc 98 b9 4d 49 ec 3b 11 6b d4 ba 76 7d 20 3b
       -0.00029179797 0.0072108866 -0.0016206225 0.0024488843
0001d0 38 1c 6a bb c1 35 8f ba e1 1e 3f 3b 8d eb 15 3b
       -0.0035722386 -0.0010926054 0.0029162692 0.0022875995
0001e0 d0 c6 d2 ba 88 be 7f ba 0b 96 b0 ba 9c 6b 8f ba
       -0.0016080979 -0.00097558694 -0.0013472451 -0.0010942104
0001f0 0e 79 03 bc d7 e8 a1 3b 99 8b 36 ba 3d d6 94 bb
       -0.008024467 0.0049410868 -0.00069635507 -0.0045421408

action_model._discrete_distribution.branches.0.weight f4 [3, 128]
000000 0d ef d4 bb f8 5f 86 bb 71 12 79 bc 39 6a da 3b
       -0.0064982236 -0.004100796 -0.015202151 0.0066654948
000010 fb 04 dc 3b bd eb e7 3b 3e 20 84 bc 5f 6f 93 bc
       0.006714461 0.0070776627 -0.016128656 -0.017997442
000020 4d ab 91 3b cb 5a bf ba de 80 a9 bc 52 f3 d1 3a
       0.0044454695 -0.0014599202 -0.020691331 0.001601795
000030 a9 14 1e 3c fb 17 a4 bc 6a 24 02 bc ad 7d cb ba
       0.00964848 -0.020030966 -0.007943252 -0.0015525125
000040 28 2b f2 bb 98 e6 3f 3a d4 aa 0e bc f1 48 5a bc
       -0.0073903985 0.0007320433 -0.008707721 -0.013323055
000050 21 97 78 3b 28 09 46 bc d9 0c 1a 3c f1 94 39 3c
       0.0037931877 -0.012087144 0.009402477 0.011327014
000060 b1 0e a4 3b aa da 22 bc e2 80 48 bc a9 38 f3 bb
       0.005006634 -0.009939829 -0.012237759 -0.007422526
000070 a9 79 0b bc d0 af 2f bc 51 55 46 bb 05 6d d8 3b
       -0.008512893 -0.010723069 -0.0030263255 0.006604793
000080 d1 61 9e bb 36 53 cf 3b 09 4f 7e 3b de c4 3b 3c
       -0.004833438 0.006327058 0.0038804433 0.011460511
000090 fc 24 06 ba 20 fe 6a bb eb ee de 3c 99 0d 29 3b
       -0.00051172054 -0.0035857037 0.027213534 0.0025795458
0000a0 5b 5d 80 bb 2c f3 4e bb c8 e3 9c bc 4c 18 85 3c
       -0.003917379 -0.0031578047 -0.019151583 0.016246937
0000b0 36 6b 9f ba 09 e7 4a 3b 45 1e 45 3c 4d 41 61 3c
       -0.0012162689 0.0030960462 0.012031143 0.013748479
0000c0 6e 19 c5 bb 13 66 5d bc 2c ca bf bb 8e 6e 16 bb
       -0.0060149943 -0.013513106 -0.005852958 -0.002295408
0000d0 f0 77 29 3c f8 0b b4 ba ec 5e 51 bb 1e 4e 6a bb
       0.010343537 -0.0013736477 -0.0031947447 -0.0035752128
0000e0 5e d2 4d 3c c8 16 15 bb 65 17 37 3b 68 18 2e 3c
       0.0125623625 -0.0022749174 0.0027937528 0.010625936
0000f0 c5 0e 1a 3c e3 19 09 bc 95 90 51 3c 10 04 0f bc
       0.009402935 -0.008367988 0.012790819 -0.008728996
000100 02 8f 0e 3c 9c dc 94 3c b2 ce 96 bb 57 0c 8d bb
       0.008701088 0.018171601 -0.0046022767 -0.0043044495
000110 1b 9b 45 bc 0d e3 90 3c fd d2 b5 bb 86 63 21 3c
       -0.012060906 0.017686391 -0.0055488334 0.009850388
000120 b0 c2 e0 bb da 30 91 3c 77 64 e1 39 02 e6 96 ba
       -0.006859146 0.01772349 0.00042990196 -0.001151264
000130 99 21 9e bb 21 27 1b 3c f3 99 58 3c 32 0e 90 bb
       -0.0048257825 0.009469778 0.013220298 -0.0043962235
000140 77 e2 be 3c 14 2b 7b bb fe d1 4d bb 66 45 36 3c
       0.023301346 -0.0038325237 -0.0031405683 0.011124944
000150 2c 86 18 3b da c2 96 bb 7d 91 2f ba 18 63 e1 bb
       0.0023273332 -0.004600865 -0.00066973997 -0.006878268
000160 16 ed a0 ba 1a 44 4d bc ca 2c 2f 3c aa 6f 91 bc
       -0.0012277688 -0.012528444 0.010691831 -0.01775344
000170 52 c0 e1 3b 4a 43 ad 3b f6 c3 2b bb d5 f0 13 3c
       0.0068893814 0.0052875625 -0.002620933 0.009029587
000180 2d 68 19 3c 0b 0c 62 bb 1c 24 6a bb 26 c3 0a 3b
       0.009363216 -0.0034492041 -0.003572709 0.0021173446
000190 85 14 cb bc e2 66 bd 3b 61 d9 16 3c 16 e2 8c 3c
       -0.024790058 0.005780087 0.009207101 0.01719765
0001a0 7d f0 aa 3a ac b2 81 bc e7 cf c5 b9 31 73 91 bb
       0.0013041642 -0.015832268 -0.00037729667 -0.0044387807
0001b0 a6 55 a3 3a e2 85 61 bc 7e 27 b9 bb c5 d3 80 3c
       0.0012461438 -0.01376483 -0.00565046 0.01572598
0001c0 54 49 67 bb 4c 40 66 3c 7e 82 20 bc 32 33 80 bc
       -0.003529151 0.0140534155 -0.009796737 -0.015649412
0001d0 9c ed ae 3b 29 97 a1 bb 5b c3 91 3b 60 26 40 3a
       0.005338384 -0.00493135 0.004448337 0.0007329937
0001e0 06 91 80 bb 22 e1 67 3c f4 16 fb bb 2b 81 b3 bb
       -0.003923538 0.014152797 -0.0076626483 -0.0054780445
0001f0 9e 72 3f 3a 75 2b 26 3b ee 24 12 bc b2 3d 20 bb
       0.0007303151 0.0025355492 -0.008919938 -0.0024450836
000200 62 3f e7 3b 49 6c 01 3b 69 6a ca 3c 1e 07 f1 bc
       0.0070571164 0.001974838 0.024708943 -0.029422339
000210 60 3c a5 3c 67 c5 48 3c 14 69 83 3b fa 48 b1 3c
       0.02017039 0.012254096 0.004010329 0.021641243
000220 ff 16 76 bc 7b 50 a2 3c 7f 55 8e 3b 02 bf 78 3c
       -0.015020131 0.019813767 0.004343688 0.015182259
000230 12 8e 04 bc 62 1c c6 3b fb 7a ce bc b0 ac e8 3b
       -0.008090513 0.006045864 -0.025205126 0.007100664
000240 f6 19 b8 3c 3e 84 0d 3c d5 ec 2a 3c 33 52 c9 3c
       0.022473317 0.008637486 0.010432442 0.024575328
000250 c4 5d 53 bb 44 b0 24 3d 5c b6 8f 3c 8c 1a 78 bc
       -0.0032251934 0.040207162 0.01754301 -0.015143048
000260 62 38 81 3b e7 a2 02 bb 30 7d e6 3c e7 76 49 bb
       0.003943489 -0.0019933523 0.028135866 -0.0030741037
000270 e8 d5 5a bc e8 43 d8 ba 41 d2 44 bc 4c a2 e0 3b
       -0.013356663 -0.001649973 -0.012013019 0.006855285
000280 38 59 0b 3b 8d ac 21 bc a1 28 d2 bb c5 c0 58 bc
       0.0021262895 -0.0098677995 -0.0064135347 -0.013229554
000290 96 96 cb 3b 79 ff 28 3c b5 99 a2 3b 82 53 93 bc
       0.0062130196 0.010314816 0.004962171 -0.017984156
0002a0 d7 fb 42 3c 63 1d 27 3c ff ad 9f 3c 34 81 07 3c
       0.011900864 0.010199877 0.019492147 0.0082705505
0002b0 d8 f9 18 3c 2c 5a b7 bb 5d 48 07 3d f5 b5 37 bc
       0.009336911 -0.005595466 0.033027995 -0.0112128155
0002c0 9b 4c f0 bb 31 45 73 3c b0 33 a6 ba c3 34 5d 3c
       -0.007333351 0.0148480395 -0.0012680199 0.013501349
0002d0 ed b6 c7 ba af 39 ba bb 45 e3 41 3c 0e 3b a8 bc
       -0.0015237011 -0.005683146 0.01183397 -0.020535972
0002e0 96 76 9a bc a0 e6 a6 bc be 27 b4 3b 18 24 51 bc
       -0.018855374 -0.020373642 0.0054979017 -0.012764953
0002f0 c4 0d bb bc b6 75 a4 3b b4 28 ac bb 64 f7 41 3c
       -0.022833712 0.005018915 -0.0052538756 0.011838768
000300 c8 05 0a 3b af e5 00 bd e5 d3 c9 bb cd 88 2a 39
       0.0021060575 -0.031469043 -0.006159293 0.00016263426
000310 9b 09 f3 bb e4 97 2d bc d4 36 f4 3b a7 c5 ff 39
       -0.0074169165 -0.010595296 0.007452825 0.00048784653
000320 70 90 a0 3a b6 7f 02 3c 86 cb 21 3c ad 05 28 bc
       0.0012250077 0.007965019 0.009875184 -0.010255259
000330 df b2 cd ba b6 01 92 3a 11 c8 81 bc fd e0 cf bc
       -0.0015693567 0.0011139426 -0.01584247 -0.025375837
000340 9a e3 bf bc 4a d4 51 3b a3 4c c6 3b 8f fc 18 bd
       -0.023423959 0.0032017403 0.0060516163 -0.037350234
000350 25 f9 57 3c cf 2f 0e 3d ef 07 cd bb 9a 76 a2 3c
       0.013181959 0.034713563 -0.0062570493 0.019831944
000360 88 7e 4a 3c 68 fb 26 3c b4 18 b0 bb e1 84 15 3c
       0.012359269 0.010191776 -0.0053740386 0.009125919
000370 32 55 08 3c 4b 4f 31 3a b9 0a c8 bc 6f a4 91 bb
       0.008321093 0.000676383 -0.024419175 -0.004444651
000380 fa d5 b1 3b 04 9d 57 3c 3b f2 b4 3c 73 d6 e4 3b
       0.0054271193 0.013159994 0.02208816 0.006983572
000390 4d fb f0 3c 7c 74 8b bc eb 13 38 bb c2 bd 2c bc
       0.029416705 -0.017023318 -0.0028088044 -0.010543289
0003a0 f1 25 9e 3c 98 76 b4 3b 5e ea 92 3b 76 cc fa bb
       0.019305201 0.0055073015 0.004483505 -0.007653768
0003b0 d6 0e c8 bc e5 41 3f 3c 23 d7 ed b9 20 4e b9 ba
       -0.024421137 0.011673425 -0.00045364452 -0.0014137663
0003c0 ee cd d0 3b 2a 60 53 bc 0e 72 6f 3b 4c f9 b1 bb
       0.006372205 -0.012901345 0.0036536488 -0.00543133
0003d0 b8 84 52 bb 83 91 cc 3c cd b0 5f bb c0 7c b8 bb
       -0.0032122564 0.02497173 -0.003413248 -0.0056301057
0003e0 6c 4b 0f bc 18 44 c5 bb fd b8 9e 3c b3 5e 3e 3b
       -0.008746009 -0.0060200803 0.019375319 0.0029048144
0003f0 e0 fa 6e 3b 03 d5 20 bc a6 be 51 3b 15 07 0f 3c
       0.003646545 -0.009816411 0.0032004504 0.008729716

action_model._discrete_distribution.branches.0.bias f4 [3]
000000 a4 29 9c 3a e0 a2 c1 bb be 60 b2 3b
       0.0011914265 -0.005909309 0.0054436615

exp_avg f4 [128, 1]
000000 1c f0 c6 b8 e5 a8 91 39 a9 2e 42 39 71 11 c2 b8
       -9.4860996e-05 0.0002778239 0.00018518664 -9.2538896e-05
000010 00 94 83 39 ac 98 17 3a 1a ec ec b9 25 45 95 b9
       0.00025096536 0.0005782943 -0.00045189337 -0.0002847101
000020 d5 5e f1 38 8a 57 ad b8 81 ba e5 38 b2 03 48 b8
       0.00011509439 -8.265588e-05 0.0001095431 -4.7687157e-05
000030 42 e4 03 39 22 89 2a 38 10 81 86 39 56 3d d5 39
       0.00012578166 4.0658873e-05 0.0002565463 0.00040672225
000040 2b 4f 0f 3a 80 54 60 3a 12 e8 24 b9 d4 d7 2e 39
       0.0005466814 0.00085575134 -0.00015726712 0.00016674335
000050 c5 86 cc b8 0a ce e1 b8 14 c3 4c b6 22 99 f8 39
       -9.752581e-05 -0.00010767214 -3.051192e-06 0.0004741634
000060 be f5 0b 3a 75 f2 05 b9 48 d4 e2 39 62 08 46 b9
       0.00053390476 -0.0001277419 0.0004326424 -0.00018885874
000070 8e 58 77 39 05 3e 09 b9 55 d2 de 39 0a bb 03 3a
       0.00023588745 -0.00013088442 0.0004249985 0.00050251244
000080 40 95 82 b8 a0 30 2d b8 01 79 8d b9 05 8c ae 38
       -6.226683e-05 -4.12917e-05 -0.0002698377 8.323047e-05
000090 0c 2f db b5 f7 7c 95 b9 e5 29 0d 39 76 dd 17 b8
       -1.6330464e-06 -0.000285126 0.00013462415 -3.6207457e-05
0000a0 cf e9 fa 38 bd c8 92 38 eb 9f 45 b9 1c e9 a4 3a
       0.00011964479 6.999213e-05 -0.00018846958 0.0012581679
0000b0 2e 6a e5 36 61 36 35 39 76 98 22 b9 e9 e0 f0 b8
       6.8370928e-06 0.00017281763 -0.0001550632 -0.000114859846
0000c0 15 69 3e 3a 08 06 fb 39 45 0f cb 39 ac 5d a0 b8
       0.0007263583 0.00047878944 0.00038730554 -7.646842e-05
0000d0 aa 78 5a 39 ea bd ba 38 7e 00 1b 3a c0 66 e1 39
       0.00020835051 8.9045454e-05 0.0005912854 0.000429919
0000e0 74 a8 0e ba 9e aa 64 b9 eb bf 14 b9 2c 68 21 39
       -0.00054419716 -0.00021807334 -0.00014185875 0.00015392964
0000f0 ef 27 68 b8 b8 fb 1e b9 cb 26 50 3a 14 95 dc 37
       -5.53503e-05 -0.00015161827 0.0007940351 2.6295464e-05
000100 12 60 0a 3a 24 04 e6 b9 b4 18 2d b9 48 e8 91 b9
       0.0005278598 -0.00043872104 -0.00016507768 -0.00027829618
000110 33 c8 06 39 01 5f b4 b8 2f d2 07 39 01 eb 8f 3a
       0.00012853816 -8.600765e-05 0.00012952903 0.0010980071
000120 fd 74 47 39 35 a1 14 b9 ad be 88 b6 79 86 23 3a
       0.000190217 -0.00014174434 -4.0753134e-06 0.00062379945
000130 91 cb 2a 3a d7 11 81 b8 21 8b 8c b7 74 28 95 b9
       0.0006515319 -6.154522e-05 -1.6754087e-05 -0.00028449635
000140 37 d8 0c 3a 03 09 83 38 23 3a 23 b9 bd 18 a3 38
       0.00053727947 6.248245e-05 -0.00015566549 7.7770535e-05
000150 47 c0 7f b8 0d 1b 49 3a 96 5c 1e b9 30 8f d7 b7
       -6.097581e-05 0.00076715724 -0.00015102545 -2.5696674e-05
000160 ea 75 94 38 81 ac cd 37 24 d7 0b 3a 10 5d 91 38
       7.079153e-05 2.4518233e-05 0.00053344877 6.931473e-05
000170 e8 f6 2d b7 9b 07 b5 39 ec c7 8d 39 65 44 15 3a
       -1.0369091e-05 0.00034528677 0.0002704257 0.00056940905
000180 0c cd 00 3a 1b 21 3b b9 25 7b 77 38 cd 71 9d 38
       0.0004913367 -0.00017846042 5.9004076e-05 7.5075404e-05
000190 f9 92 0a 3a 0f 55 2c 39 7f 33 b2 38 9b 7b 55 3a
       0.0005286183 0.00016434885 8.497293e-05 0.0008143724
0001a0 80 82 a3 b9 99 7b 32 b9 99 2c b6 38 18 0f 50 39
       -0.00031187013 -0.00017021447 8.686743e-05 0.00019842049
0001b0 5e 35 c2 39 02 b1 64 b9 0d 67 c3 39 6c e7 66 3a
       0.00037042325 -0.00021809715 0.00037270077 0.0008808288
0001c0 c4 51 46 39 ca 11 5b 39 55 aa a1 b8 53 d1 e5 39
       0.00018913212 0.00020892094 -7.708805e-05 0.00043834242
0001d0 51 0a 53 38 40 c0 85 b6 2e ae 81 38 78 b8 00 3a
       5.0315928e-05 -3.9860897e-06 6.183643e-05 0.00049103005
0001e0 40 10 d0 38 41 58 e5 38 6e 6c 5b 37 eb d5 a0 38
       9.92124e-05 0.000109360095 1.3078663e-05 7.66924e-05
0001f0 b2 95 3a 3a ea 30 69 3a 0f 4b 65 b9 27 9e 31 39
       0.0007117643 0.00088955334 -0.00021867103 0.00016938952

exp_avg_sq f4 [128, 1]
000000 e7 dc ea 33 7a e3 af 34 e9 ac c0 34 d7 b7 d0 32
       1.0936656e-07 3.27618e-07 3.5888596e-07 2.4297988e-08
000010 54 3f 7c 34 31 f3 71 34 8f 07 34 34 4f 98 ce 34
       2.3492368e-07 2.2533347e-07 1.6766556e-07 3.848131e-07
000020 6b e8 b0 34 95 19 6f 34 a3 49 85 34 b5 98 c6 33
       3.295166e-07 2.2267916e-07 2.4826758e-07 9.247871e-08
000030 d3 56 aa 33 b4 61 1c 33 fa 73 f8 33 5a d2 35 34
       7.932035e-08 3.641044e-08 1.1569496e-07 1.6933464e-07
000040 df 2f c5 33 6e 64 2f 34 88 87 0b 34 03 e4 47 33
       9.182235e-08 1.6334681e-07 1.299469e-07 4.6540674e-08
000050 ef e8 17 34 3a 9c b0 32 55 05 a5 32 16 3b 8f 34
       1.4147712e-07 2.056014e-08 1.9210953e-08 2.6678816e-07
000060 38 80 a1 33 18 1a e5 33 8f 0b 52 34 da a8 a6 33
       7.5204696e-08 1.066839e-07 1.9561979e-07 7.760691e-08
000070 a9 dd 5a 34 c9 c6 97 33 9f 4d 23 34 8f 20 16 34
       2.0383472e-07 7.067644e-08 1.5208796e-07 1.3981683e-07
000080 07 f7 f1 32 66 7c b2 32 bb 23 c1 34 77 14 09 34
       2.8168428e-08 2.0778497e-08 3.597505e-07 1.2766564e-07
000090 de c9 33 34 03 61 06 35 f4 62 d9 33 18 c2 78 34
       1.6744113e-07 5.006006e-07 1.01228494e-07 2.3167411e-07
0000a0 1e 90 86 34 f7 ed 3b 34 06 84 87 34 04 e2 1b 35
       2.5064304e-07 1.7502303e-07 2.524177e-07 5.8070896e-07
0000b0 e5 36 58 33 a1 b9 09 35 15 d8 9f 34 b8 04 63 32
       5.0341345e-08 5.13066e-07 2.9773278e-07 1.3214212e-08
0000c0 45 ad 1a 35 60 c6 17 35 2b a9 63 33 f7 68 1e 34
       5.762161e-07 5.6540557e-07 5.3006413e-08 1.4753083e-07
0000d0 20 f2 1f 33 2f d5 04 34 be f0 66 34 e5 d6 63 34
       3.7240284e-08 1.2371014e-07 2.1508001e-07 2.12192e-07
0000e0 4b ba c4 34 e0 45 95 34 53 2a d0 33 fa 81 fc 33
       3.664339e-07 2.7804253e-07 9.6934535e-08 1.1758307e-07
0000f0 d8 db 98 34 e6 7d 0b 32 a3 cd 3f 34 5a 50 3b 32
       2.8472164e-07 8.119491e-09 1.7863071e-07 1.0903102e-08
000100 d6 c8 1e 34 7d 2e d5 33 0f 65 9d 34 cd 26 ff 32
       1.478796e-07 9.9270416e-08 2.931706e-07 2.9703552e-08
000110 21 75 99 34 f3 2e 92 33 75 83 7d 33 5c 83 3a 35
       2.8583693e-07 6.807195e-08 5.9025712e-08 6.948155e-07
000120 30 9c 23 34 20 7b 72 32 12 d1 85 33 b3 99 45 34
       1.5237379e-07 1.4114249e-08 6.231325e-08 1.840297e-07
000130 a4 5f 0c 35 1f da da 33 d6 30 44 34 ea 48 4b 33
       5.229324e-07 1.0191092e-07 1.8271689e-07 4.7330936e-08
000140 89 8c ec 33 bf 39 f1 33 b8 27 65 33 96 fc f8 33
       1.10151696e-07 1.1232941e-07 5.335434e-08 1.1594345e-07
000150 9e 7f 78 33 57 49 56 34 b4 bf 3a 34 47 60 0c 34
       5.7858067e-08 1.9956984e-07 1.7392341e-07 1.3073542e-07
000160 c7 33 2d 32 7f cc 0c 33 9b 31 00 34 61 13 07 32
       1.0081698e-08 3.278228e-08 1.1938975e-07 7.8624405e-09
000170 f3 5b d7 33 6d b4 96 33 a3 5a ce 33 68 3b 22 34
       1.0028443e-07 7.0177386e-08 9.609109e-08 1.5109038e-07
000180 ff f0 ea 33 66 2d 0d 35 50 1a 4e 34 a5 ed 81 32
       1.0940311e-07 5.2592657e-07 1.9194817e-07 1.5125645e-08
000190 41 71 9c 33 46 75 8c 33 35 cd fe 33 42 15 81 34
       7.284917e-08 6.54059e-08 1.18651236e-07 2.404359e-07
0001a0 1b 11 05 35 6e ef 05 34 00 3b 47 34 4a 3b 04 34
       4.957125e-07 1.2473694e-07 1.8554783e-07 1.2315027e-07
0001b0 f4 88 8d 33 1e 9c f5 33 da 52 83 33 b2 84 31 34
       6.590736e-08 1.1437099e-07 6.1152335e-08 1.6532684e-07
0001c0 d3 04 6f 33 49 7b ca 32 6e d5 a9 32 ec 7f 0e 34
       5.565091e-08 2.3571959e-08 1.9771246e-08 1.3271318e-07
0001d0 50 40 17 34 aa 57 74 33 bf c7 de 33 2a 1a a0 33
       1.4086368e-07 5.6890407e-08 1.0374014e-07 7.45534e-08
0001e0 c1 67 05 34 ed ec 41 32 41 55 c2 33 0e bc 97 33
       1.2424336e-07 1.1287949e-08 9.0493366e-08 7.0656924e-08
0001f0 a0 8c 64 34 8c bf 4d 34 d1 98 a9 34 f1 e0 a0 32
       2.1285314e-07 1.9161797e-07 3.1589892e-07 1.8728743e-08

exp_avg f4 [128]
000000 99 0b aa b8 7a 87 02 39 7a 2f 22 39 c8 05 8d b6
       -8.108392e-05 0.00012448235 0.0001546721 -4.2028005e-06
000010 b1 8e 0c b9 45 46 a8 b9 ea e1 9b 39 29 4f 53 b9
       -0.00013404597 -0.00032095812 0.00029732223 -0.00020152018
000020 b7 cb fd 38 eb b7 78 b9 2a d4 3b 39 50 b5 03 39
       0.00012101925 -0.00023719638 0.00017912747 0.00012560678
000030 8a 44 e1 b8 b6 d6 ad b8 20 3d d5 b8 11 5b 76 38
       -0.000107416025 -8.289276e-05 -0.00010168017 5.8735783e-05
000040 f7 91 61 b9 56 36 ed b8 07 7c 9f b8 4d cd 9f 38
       -0.00021512048 -0.000113111615 -7.604813e-05 7.619951e-05
000050 a6 36 0f 38 7f 73 c4 38 78 59 66 b8 a1 32 40 b9
       3.4144752e-05 9.367521e-05 -5.4919597e-05 -0.00018329408
000060 b4 25 c7 b9 e2 81 a8 b8 dd 0a 5b b9 d3 e5 9c b8
       -0.0003798433 -8.035057e-05 -0.00020889514 -7.481468e-05
000070 74 ef ec 38 53 65 be b8 d3 82 30 b9 08 60 66 b8
       0.000112979586 -9.078779e-05 -0.00016833404 -5.492571e-05
000080 da 5c 85 38 f4 c8 ef 38 b2 84 57 b8 3d 8c be 38
       6.359229e-05 0.000114338385 -5.1383577e-05 9.0860274e-05
000090 85 03 0b b8 74 22 6b b9 0c 21 91 b8 76 7f 0c 39
       -3.314346e-05 -0.00022424181 -6.920294e-05 0.00013398923
0000a0 29 bc e5 b8 1b 10 24 37 92 1d 5a b9 cb 2c d9 b9
       -0.000109546185 9.778912e-06 -0.00020801116 -0.0004142284
0000b0 52 3b 3e b8 b8 ea 8e 38 c7 45 12 38 52 db 0a 39
       -4.5354776e-05 6.8148074e-05 3.4874098e-05 0.00013242409
0000c0 30 29 c1 b9 5b e6 9f b6 7e b1 0a b9 0c 69 25 39
       -0.00036842516 -4.765386e-06 -0.00013226827 0.00015774759
0000d0 aa 60 93 36 96 e2 97 b8 5a 49 92 b9 08 65 55 b9
       4.3921946e-06 -7.242446e-05 -0.0002790194 -0.000203509
0000e0 db 90 a1 39 17 cf 42 b9 47 a4 51 b8 d6 32 22 39
       0.0003081624 -0.00018578429 -4.998248e-05 0.00015468462
0000f0 17 22 e2 b8 41 ba cf 38 15 ac 8a b9 17 65 f2 b7
       -0.000107828695 9.905222e-05 -0.00026449622 -2.8895722e-05
000100 2d 64 ca b7 af 04 29 39 6c ab 0e b9 85 43 4e 39
       -2.4126924e-05 0.0001611884 -0.00013606035 0.00019670844
000110 df 63 bc b8 9d 87 e2 38 b0 eb 29 38 9f 47 fc b9
       -8.983141e-05 0.0001080178 4.051224e-05 -0.00048118547
000120 6a 8f 92 38 8a 1b 6f 39 79 9d 95 38 f1 1f 19 b9
       6.9885355e-05 0.00022803075 7.134205e-05 -0.00014603116
000130 cb 33 35 b9 9a 8d 98 b8 3b 34 45 38 73 0e dd 38
       -0.000172808 -7.2743e-05 4.7017103e-05 0.000105407926
000140 b0 e6 72 b9 a0 d1 9b 38 6c b6 0d 39 70 07 58 38
       -0.00023164856 7.430022e-05 0.00013514765 5.150534e-05
000150 ae aa a8 b8 24 07 be b9 b7 17 3e 38 87 f7 6e 37
       -8.042656e-05 -0.00036244944 4.5321616e-05 1.4243537e-05
000160 2d 83 c9 b7 2a 0a 71 b7 f0 2f 0c b9 e6 2d 93 38
       -2.402215e-05 -1.4367086e-05 -0.00013369299 7.0180555e-05
000170 db fd 83 b8 12 85 e6 38 66 61 a5 38 02 46 81 b9
       -6.293851e-05 0.00010992041 7.885955e-05 -0.00024656957
000180 a3 dd bb b9 53 9e 30 b7 e3 ae 52 b8 02 28 cd 36
       -0.00035832552 -1.052728e-05 -5.0230778e-05 6.1141336e-06
000190 fa 89 05 b9 8e c9 a3 b8 2d dd 14 b9 c2 c9 06 ba
       -0.00012735269 -7.809988e-05 -0.00014196774 -0.00051417586
0001a0 77 73 e3 b8 da eb a6 b8 5f 0d aa 38 15 da ff 38
       -0.000108457105 -7.9594276e-05 8.108722e-05 0.000121999685
0001b0 fa ef 41 b8 76 00 9a b8 d8 b3 b2 b8 0c a8 2d b9
       -4.623828e-05 -7.343378e-05 -8.5212e-05 -0.00016561168
0001c0 a3 61 68 b7 7b c2 8c b8 e0 ba 07 b8 a3 73 bf b9
       -1.385101e-05 -6.711945e-05 -3.236055e-05 -0.00036516515
0001d0 20 02 fa 38 9d 92 16 b8 b0 72 f8 b8 0f be dd b8
       0.00011921325 -3.589933e-05 -0.00011846924 -0.000105735024
0001e0 89 13 0e b9 12 43 89 37 26 84 eb b7 2b 9e 96 37
       -0.00013549453 1.6362905e-05 -2.807572e-05 1.7955046e-05
0001f0 ec ed 39 b9 40 23 9d b9 0e 92 56 b9 ea 1a e3 36
       -0.00017731608 -0.00029971637 -0.0002046304 6.7682604e-06

exp_avg_sq f4 [128]
000000 55 f2 79 33 68 14 5a 34 81 f9 38 34 37 aa 9c 32
       5.819523e-08 2.0310256e-07 1.7227104e-07 1.8238195e-08
000010 bb 3c 6a 34 b5 82 30 34 28 e2 f6 33 c5 b5 40 34
       2.1815042e-07 1.6438828e-07 1.1496405e-07 1.7947521e-07
000020 91 c2 3d 34 c4 3d 1b 34 87 c2 29 34 3a c9 a4 33
       1.767278e-07 1.445797e-07 1.581012e-07 7.673448e-08
000030 a7 4d ca 33 50 96 54 33 6f 86 b9 33 df 59 3e 34
       9.420483e-08 4.9496805e-08 8.639187e-08 1.7727824e-07
000040 02 2c ba 33 a6 38 18 34 64 0b 96 33 cb 73 6c 33
       8.669305e-08 1.4176712e-07 6.986991e-08 5.5053345e-08
000050 ac 6e b8 33 b6 f7 3b 32 a4 ba 98 32 c2 44 7f 34
       8.588299e-08 1.09411555e-08 1.7780003e-08 2.377374e-07
000060 f1 66 3b 33 b8 e9 5f 33 68 53 4d 34 91 de 6c 33
       4.3632955e-08 5.21338e-08 1.9122456e-07 5.5150455e-08
000070 5b 83 00 34 bb e3 99 33 f2 ed e0 33 04 ff 2c 34
       1.1968716e-07 7.1660416e-08 1.0474095e-07 1.6111522e-07
000080 88 d6 00 33 e5 cf 35 32 dc 86 46 34 d0 27 da 33
       2.9997437e-08 1.0582856e-08 1.8489249e-07 1.0158658e-07
000090 91 c5 b6 33 ae 5e 80 34 e5 0f e4 33 0e 9f 56 34
       8.5109725e-08 2.3910746e-07 1.06199685e-07 1.9988167e-07
0000a0 17 d5 4f 34 48 08 cd 33 6f a5 0b 34 13 18 ef 34
       1.9355899e-07 9.547563e-08 1.3005568e-07 4.4534735e-07
0000b0 5b ec 1b 33 f3 09 c0 34 d6 aa 50 34 4e 06 bc 32
       3.6303714e-08 3.5770026e-07 1.943366e-07 2.1888948e-08
0000c0 97 8f ff 34 f7 14 f6 34 b3 99 bd 33 0f 5c 11 34
       4.7601927e-07 4.5836325e-07 8.828956e-08 1.3537668e-07
0000d0 4b a4 7b 33 b1 00 9b 33 68 94 2a 34 5f bb 3e 34
       5.8589915e-08 7.217876e-08 1.5886474e-07 1.7763294e-07
0000e0 45 32 84 34 bf a4 1f 34 9c 9b 6d 33 8d 97 ac 33
       2.4623492e-07 1.4867963e-07 5.532239e-08 8.036941e-08
0000f0 65 4c 2c 34 bf b5 25 32 24 2f 2c 34 d5 0a 88 32
       1.604654e-07 9.645588e-09 1.6035898e-07 1.583741e-08
000100 fa 62 74 34 6d 1d 8e 33 ee e2 2d 34 2e 93 61 33
       2.2760278e-07 6.617743e-08 1.6194437e-07 5.2520754e-08
000110 80 8c c8 34 d3 9c 4a 33 4f f2 23 33 98 da 16 35
       3.735513e-07 4.717442e-08 3.8171773e-08 5.619745e-07
000120 bb 5b a6 33 3e f9 11 33 bb d5 82 33 8e 52 7b 34
       7.746663e-08 3.3987128e-08 6.092474e-08 2.340623e-07
000130 cb bc f3 34 5e 0d 70 33 bc 2f f2 33 10 4b 11 33
       4.5399642e-07 5.5891512e-08 1.1277686e-07 3.3828712e-08
000140 b5 de a6 33 52 32 8f 33 5d 73 1c 33 94 0a bc 33
       7.7704875e-08 6.6681096e-08 3.6426503e-08 8.756356e-08
000150 09 24 04 33 3b 24 31 34 c5 b9 13 34 f8 1a 14 34
       3.076642e-08 1.649759e-07 1.3758024e-07 1.3793385e-07
000160 bd 0a 21 32 83 90 38 33 94 43 bd 33 8d 7d af 32
       9.373875e-09 4.297227e-08 8.813291e-08 2.0429775e-08
000170 33 4a 7b 33 ad 10 09 34 ae 24 aa 33 ff e5 0e 34
       5.8507975e-08 1.2765186e-07 7.922914e-08 1.3308453e-07
000180 f9 03 8b 33 90 21 ba 34 79 c7 5d 34 87 90 1e 32
       6.4734145e-08 3.466962e-07 2.0654797e-07 9.229672e-09
000190 e3 43 d4 33 d4 3c 4f 33 05 e5 c7 33 c0 91 1a 34
       9.884368e-08 4.8251266e-08 9.308318e-08 1.4395391e-07
0001a0 48 a5 9d 34 33 b1 9b 33 8f 9e 31 34 45 a4 86 33
       2.9363787e-07 7.249982e-08 1.6542093e-07 6.269742e-08
0001b0 73 37 9a 33 a7 cb 8d 33 14 e5 a6 33 fe e6 29 34
       7.18127e-08 6.602868e-08 7.7716464e-08 1.5823386e-07
0001c0 86 9b 48 33 ff 03 ab 32 93 5f 41 32 cd af c5 33
       4.6707576e-08 1.9908837e-08 1.125581e-08 9.205505e-08
0001d0 27 0b d7 33 79 71 33 33 29 9f 75 34 c4 b4 e2 33
       1.0013746e-07 4.1779888e-08 2.2875305e-07 1.0556826e-07
0001e0 b2 58 6c 34 5b 61 6b 32 6b 94 55 33 fc 79 ad 33
       2.201148e-07 1.3700936e-08 4.9727912e-08 8.078129e-08
0001f0 8b 72 65 34 62 11 47 34 53 dc 60 34 01 cb b1 32
       2.1368957e-07 1.8539643e-07 2.0941779e-07 2.0697827e-08

exp_avg f4 [128, 128]
000000 cb 39 36 38 8b 32 d2 39 e4 f2 04 39 29 db 95 39
       4.3446005e-05 0.0004009198 0.00012678985 0.00028582782
000010 2a 7a 32 38 c4 76 27 38 1a 5f ed b6 c3 21 86 39
       4.255228e-05 3.992651e-05 -7.0742217e-06 0.00025583626
000020 27 9a a8 39 7c 04 f0 39 0e aa b9 38 ce 85 87 38
       0.0003215831 0.00045779708 8.8531626e-05 6.462225e-05
000030 82 65 1a 39 fb 7b f7 38 e2 88 0e b7 3c eb 40 39
       0.00014724399 0.00011800971 -8.49573e-06 0.00018398179
000040 d9 08 f4 b6 c2 12 8a 39 52 b8 aa 38 8d 0c 75 b3
       -7.2727967e-06 0.00026335387 8.140564e-05 -5.7054923e-08
000050 93 aa a4 38 6e a6 32 b7 6b cd e6 38 e9 98 2d 37
       7.851901e-05 -1.0648377e-05 0.00011005517 1.0347206e-05
000060 22 4a a2 b6 ac 86 38 39 95 80 8b 38 01 4b 3c 38
       -4.8366064e-06 0.00017597777 6.651987e-05 4.4892546e-05
000070 de c7 65 39 e0 45 c7 37 20 f9 a0 b6 3c 7f b9 b6
       0.00021913598 2.3755187e-05 -4.7973735e-06 -5.5282417e-06
000080 31 43 9a b4 96 c3 37 37 6c d8 7f 39 de f1 bb 37
       -2.8733623e-07 1.0953188e-05 0.00024399318 2.2404765e-05
000090 54 a8 b2 38 ab 3d 8c 39 af 01 ce b6 67 8d 87 39
       8.519055e-05 0.00026748827 -6.1394744e-06 0.0002585456
0000a0 fe a1 66 37 81 ae b1 39 d0 b1 63 39 1f 4d e4 38
       1.3746785e-05 0.00033890086 0.00021714647 0.00010886252
0000b0 56 60 ff 35 51 ca 57 39 b2 b8 93 39 0e 9c f7 b6
       1.9027018e-06 0.00020579367 0.00028175634 -7.379341e-06
0000c0 bc 5d 42 38 a8 d4 ec 37 e0 2f ef 38 26 e6 9b 39
       4.63405e-05 2.8232418e-05 0.000114053255 0.00029735378
0000d0 6c b7 a0 36 78 42 2e 37 fa c6 a0 b5 e8 ed 15 b7
       4.7897247e-06 1.0386684e-05 -1.1978839e-06 -8.936484e-06
0000e0 fc 05 16 39 2e 3b fc 39 1b 9f 5a 39 24 3c 94 39
       0.00014307344 0.00048109278 0.00020849372 0.00028273568
0000f0 f7 b3 07 3a f8 3c 87 36 85 b5 b2 37 d0 3b 17 b7
       0.0005176658 4.030411e-06 2.130378e-05 -9.0142275e-06
000100 04 e3 11 39 3c 7c 16 b7 16 f8 c5 39 5c 5a ac b6
       0.00013912847 -8.969622e-06 0.00037759606 -5.1365187e-06
000110 43 c1 ef b6 a8 c0 9f 36 a1 14 eb b6 7c a4 5e 39
       -7.1452537e-06 4.7609974e-06 -7.0059473e-06 0.00021232845
000120 b2 0b b9 37 94 5e f2 38 01 8a 84 38 ef 8d 47 36
       2.2059165e-05 0.00011557076 6.319956e-05 2.9735927e-06
000130 22 25 0c 39 ee 91 27 39 d6 0b 9a 39 1b 63 34 37
       0.00013365273 0.00015980724 0.00029381987 1.0751911e-05
000140 e3 59 01 39 0e c3 03 3a d2 dd fc 37 eb f9 38 39
       0.00012335884 0.0005026319 3.0144034e-05 0.00017640709
000150 0a 1f cf 38 7a 6e 02 b7 8f ab b6 37 11 db 86 b6
       9.876311e-05 -7.774326e-06 2.1775979e-05 -4.019014e-06
000160 df 8f 51 38 0f ea aa 37 0b ac bb 38 0f 45 50 38
       4.9963473e-05 2.0374571e-05 8.9489e-05 4.965538e-05
000170 c1 1e 8c 36 9a 24 c7 39 6d d8 71 38 e0 44 92 b5
       4.1759054e-06 0.00037983508 5.766044e-05 -1.0897893e-06
000180 67 3b b9 38 8d a8 1f 3a a7 65 1f b7 d1 bb 3a 39
       8.832552e-05 0.00060904847 -9.500806e-06 0.0001780831
000190 03 6a 55 37 f1 f8 9b 38 5c 9e 91 39 17 f7 31 38
       1.2720472e-05 7.437345e-05 0.00027774542 4.243021e-05
0001a0 32 d6 f5 39 b9 67 5a 38 b1 ed 84 37 33 c3 51 b6
       0.0004688963 5.207185e-05 1.584631e-05 -3.1257048e-06
0001b0 f8 5e 0c 37 db 1e 5b 39 35 4e 89 b4 21 43 72 39
       8.366762e-06 0.00020896962 -2.5575142e-07 0.00023103926
0001c0 08 2a 6b 37 04 c7 30 38 3d 49 bc 37 92 c4 08 38
       1.4016878e-05 4.2147018e-05 2.244545e-05 3.2607997e-05
0001d0 17 57 16 38 9e eb 17 3a 45 30 15 38 0a b8 37 34
       3.5843896e-05 0.00057953026 3.5569323e-05 1.7110156e-07
0001e0 c5 29 d6 37 30 87 10 39 a2 7c 85 36 8f c6 5e b6
       2.5530238e-05 0.00013783271 3.978218e-06 -3.3196154e-06
0001f0 91 d1 07 38 80 5b c2 37 1e 6f 0a 38 78 4c 51 39
       3.2381682e-05 2.316921e-05 3.300525e-05 0.0001996028
000200 60 47 8b 37 70 6a 2e 39 51 04 53 38 8e 1c f5 38
       1.6603328e-05 0.00016633584 5.031034e-05 0.00011687829
000210 0c 0c d5 37 89 29 c9 37 fa ce a7 b2 17 82 da 38
       2.5397188e-05 2.3980409e-05 -1.953548e-08 0.00010419281
000220 b1 8f 0a 39 ba 50 48 39 68 6e 11 38 74 89 d1 37
       0.00013214235 0.0001910356 3.4673518e-05 2.4978748e-05
000230 88 e0 76 38 1f f6 43 38 c9 1d 82 b5 03 43 cb 38
       5.886008e-05 4.672084e-05 -9.694423e-07 9.692276e-05
000240 59 31 ce b4 e9 aa 11 39 16 5f 05 38 7a d8 6e b3
       -3.8406395e-07 0.00013891947 3.1798227e-05 -5.5610577e-08
000250 10 41 00 38 af da 42 b6 ae 75 36 38 a1 4c 19 37
       3.0578172e-05 -2.9035543e-06 4.350178e-05 9.137352e-06
000260 3e c2 87 35 96 2a 94 38 de 51 1c 38 06 91 8f 37
       1.0114816e-06 7.065122e-05 3.7269543e-05 1.711446e-05
000270 9b 3c ba 38 fb 21 14 37 01 33 dc b5 c0 b1 28 35
       8.88046e-05 8.829399e-06 -1.6406121e-06 6.284354e-07
000280 fb e0 d0 b3 80 36 87 36 70 16 d0 38 47 31 0b 37
       -9.7266785e-08 4.029658e-06 9.922392e-05 8.296519e-06
000290 96 01 0c 38 fb d4 e4 38 9c 80 08 b6 bb 06 dd 38
       3.3380078e-05 0.00010911558 -2.034044e-06 0.00010539355
0002a0 7a a4 a9 36 a9 56 12 39 54 6f b8 38 c1 a7 74 38
       5.05574e-06 0.00013955928 8.79454e-05 5.8330366e-05
0002b0 b3 47 41 35 7f 5e e3 38 67 84 f1 38 b9 af 6b b4
       7.200244e-07 0.00010841805 0.000115164374 -2.1950008e-07
0002c0 d7 2d e4 37 cf 09 98 37 e0 30 80 38 e4 6e ff 38
       2.7201064e-05 1.812438e-05 6.112619e-05 0.000121800025
0002d0 99 4c e0 35 42 b3 7b 36 94 98 4f 36 fd a3 b1 b5
       1.6711593e-06 3.7506256e-06 3.0934216e-06 -1.3235255e-06
0002e0 93 73 9f 38 f6 03 53 39 68 d1 b0 38 e2 71 f2 38
       7.603238e-05 0.00020124004 8.431339e-05 0.000115606716
0002f0 5f dc 63 39 43 24 c5 35 b7 3f 75 37 3e 61 3c b6
       0.00021730502 1.4688197e-06 1.4617973e-05 -2.8070785e-06
000300 8c 9c 9a 38 22 e7 98 b5 17 cf 23 39 aa 00 91 35
       7.3724514e-05 -1.1392151e-06 0.00015622038 1.0803535e-06
000310 2b 06 1c b6 09 e1 e2 35 a2 d2 1a b6 98 43 ea 38
       -2.3249402e-06 1.6903806e-06 -2.3070393e-06 0.0001117058
000320 f2 2d 09 37 6a f0 81 38 29 ef cc 37 6b 18 b1 36
       8.176534e-06 6.19598e-05 2.4430063e-05 5.2778537e-06
000330 8f ea 94 38 28 13 86 38 04 6d fc 38 3e 7e 1f 37
       7.10088e-05 6.393186e-05 0.00012036602 9.506532e-06
000340 44 e3 89 38 35 ef 5c 39 ae c0 a1 37 36 9c 94 38
       6.5750006e-05 0.00021069947 1.9282419e-05 7.0862865e-05
000350 08 e9 22 38 41 ff 27 b5 19 0f 7d 37 b9 72 e3 35
       3.8840837e-05 -6.258379e-07 1.508349e-05 1.6946207e-06
000360 e6 c4 a0 37 67 73 fd 36 12 f7 4b 38 6c ed f2 37
       1.9165174e-05 7.553422e-06 4.8629074e-05 2.8959206e-05
000370 c7 29 c5 35 df 1e 56 39 43 ad 09 38 61 72 4e 36
       1.4689803e-06 0.00020420131 3.2824708e-05 3.076297e-06
000380 9a d4 49 38 4a 2a 87 39 c6 8d 42 b6 00 23 96 38
       4.8120135e-05 0.00025780714 -2.8990776e-06 7.1590766e-05
000390 af 12 2d 37 76 37 2d 38 14 f2 ed 38 5c e7 d2 37
       1.0315954e-05 4.1298066e-05 0.00011346131 2.5141686e-05
0003a0 30 67 4d 39 fd ac a7 37 56 73 c4 36 b3 2f 90 b5
       0.00019588764 1.9988505e-05 5.854682e-06 -1.0742718e-06
0003b0 e1 7f 09 37 67 37 b1 38 8a b8 6e 36 cb fd fe 38
       8.1956105e-06 8.450337e-05 3.557218e-06 0.000121589364
0003c0 5b 33 ad 36 26 37 d3 37 e2 77 0c 37 dc 20 ab 37
       5.1617803e-06 2.517884e-05 8.372563e-06 2.040009e-05
0003d0 ac 29 64 37 0f 44 80 39 4e 02 62 37 42 20 80 36
       1.35995615e-05 0.0002446477 1.3471186e-05 3.8184526e-06
0003e0 5c 14 20 37 34 7d 66 38 e7 07 bd 35 38 62 00 36
       9.541483e-06 5.4952878e-05 1.4083897e-06 1.9130657e-06
0003f0 08 64 a9 37 42 ad 82 37 03 d9 51 37 9c 17 dc 38
       2.019295e-05 1.5577887e-05 1.2507898e-05 0.00010494815
