BasicAvoidance/Assets/results/BasicAvoidance1/PlayerAvoidance/PlayerAvoidance-448.onnx (onnx, 74465 bytes, 8 tensors)

network_body.observation_encoder.processors.0.normalizer.running_mean f4 [6]
00000000: ec4a 233e 0a6e ff3e 0000 0000 5ede fab3
00000010: d0f0 cb3e f61d 04c1
0.15946549 0.4988864 0.0 -1.16819805e-07 0.39832163 -8.257315

network_body._body_endoder.seq_layers.0.weight f4 [128, 6]
00000000: c5bb 16bd 4489 21be 37af 0fbe 19e0 8ebd
00000010: f5f3 87be 5c55 b4bd c491 ce3e 8c9c 9bbe
00000020: 62c7 b5be 4cfc 47bf 1924 5b3f 8a82 683f
00000030: 4df3 2abf 361f b23e 388e fabd c4c0 213e
00000040: fb7e fb3d 717b 0abe 2e0e ab3e 8a7a 0c3c
00000050: a50c 66be ac07 c0be 7646 1b3f 5644 203f
00000060: be38 75be 4d46 7c3a e598 ee3e a82e fb3e
00000070: 2557 3d3e f188 fbbe 6332 d3be 842f d5be
00000080: 557c 4cbe e870 8c3d e440 aebd 7ff3 343c
00000090: 4b5a 86bf 7a01 5cbf 277e 2abf fa2b c33e
000000a0: 7061 563e c126 e63e 1502 8fbe d9a9 703e
000000b0: 885a 84bd d1e4 8fbd 9856 9abd e6c3 c3bd
000000c0: 4e9a ef3e 7d0b 1ebf 0230 c73d 6d49 b3be
000000d0: 0204 07bf f948 02bf 9cbd 89be 4d70 1b3f
000000e0: 1624 233f b493 38bf 7b07 2f3e f9f7 70be
000000f0: 32ad 183d 0c50 0e3f f799 1d3e fd83 393e
00000100: 63ce aabe 0586 ab3e 69fe 423f 26c7 8dbd
00000110: f897 fb3d 7c2b cebe 03a1 02bf 994e d8be
00000120: cdbf bebd 181c d4bd 1950 3bbf 4fb5 093f
00000130: c412 50bd 7e74 57bf 0bd5 26be dfe0 1a3f
00000140: 1cbd 2c3f 36aa 94be 12f6 e5bd 7cdf c23e
00000150: 7fcc 483f d9dc dcbe 7ad2 023f aedf c03d
00000160: 1245 4c3e f726 ebbe 4c28 fe3d 4e9b f43e
00000170: c4fc 753f d7db 9a3e a67b 133e be0a 54bf
00000180: 4161 4ebf 28b1 1e3f 393a 8fbe 54e3 913e
00000190: e60f e03e 8c1d 0fbe f975 c6bd ea53 0a3d
000001a0: 8466 513f 7671 083e c7e6 afbe adfd 0b3e
000001b0: ef12 c63e 4b63 dbbd 7b67 eebe e935 65be
000001c0: dbf7 74be 4303 b3be 1674 ca3e 269b cf3e
000001d0: 3bda df3e d944 ad3e 89ad 18bb 10f9 01bd
000001e0: 6096 2d3e 7fef 2e3f 47ce 79be d51e bcbe
000001f0: ee14 0abf f540 dcbe c709 3abe 8be6 e3be
00000200: 95a9 b2be d93d cbbe 0cde 173d a6b9 c93e
00000210: 03b6 373d 0972 633d f6f2 84be eec0 2f3e
00000220: 10ea e43e 7ea6 6ebe 3d1f 1f3e a79b f63c
00000230: f7cc 183d 06c7 70be 6a20 463e 9369 bd3e
00000240: 2463 113f 31fe 17bf 14f1 ba3e 2e76 e0bc
00000250: d4b1 513e f9b9 9fbd 1ed9 fb3e ccc5 163f
00000260: 1a74 a5be 9e5b 18bf bb97 163f 5dba 38bf
00000270: 9b6c e8be 3692 86be bd18 afbe 7c9b a73e
00000280: 0484 323e 9f84 d5be f224 93bf b75c 45be
00000290: a3b9 023d 6f2c ecbe d422 243d 3ee1 cebe
000002a0: 8b49 30be 6882 ac3e 0aa2 e8be 9a42 9e3e
000002b0: 3805 6a3c c82a 003f aee0 ef3d 8dd6 1d3f
000002c0: e86e 8e3a 1c51 f73e c395 d93e 195c e4be
000002d0: cf08 303e e009 1e3e 5ef9 183e 064e 8e3e
000002e0: c079 d13d 5941 fd3e 266d f23e aa71 4ebe
000002f0: 45b9 353e 4794 bcbe eb85 1ebf fbe8 f93e
00000300: 7832 0cbf 2b66 3fbe 2620 ae3b c225 173f
00000310: 080a 1bbf 775a ae3e 79a4 633f 3f19 173f
00000320: 3a4f 203f 870c 08bc 0a45 3b3e 2e87 06bd
00000330: 7f80 65be 03b4 13be 660b 0dbd ad36 e5bd
00000340: 566b bebd 8573 cbbd 6952 7a3e 3c8a 913d
00000350: 8d69 91be ffec 253f 3270 0bbd fd82 933d
00000360: 124e c1be bc8e 593e ef8c 46be 062d 383f
00000370: a772 f03e bf83 1b3d 9bc7 8f3d f471 8b3e
00000380: 6cdb d2be 5416 683e bcdd 693e 436e 85be
00000390: 58a7 333f bc39 bc3e a506 a73e 84b7 4abf
000003a0: a0bc 1d3e 97bc 93be 9f63 7fbe 1bbe bd3d
000003b0: f21a 9f3d 929b 74be e092 b13f ffb9 60be
000003c0: 0d66 a33e 1aeb b03c e827 173f d407 01bd
000003d0: d755 973f 3a14 08bf 2822 44bf 419b 82be
000003e0: 0bf3 08bd 7f3a 83be 157d dbbd 136d 0bbf
000003f0: 83a7 03be ad77 ebbe be46 51be c48b 4ebe
-0.036800165 -0.15775019 -0.14031683 -0.06976337 -0.26553312 -0.088053435 0.40345585 -0.30392873
-0.3550368 -0.7811935 0.85601956 0.90824187 -0.667775 0.34789437 -0.12234157 0.1579619
0.12280079 -0.13523652 0.33409256 0.008574137 -0.22465761 -0.37505853 0.6065439 0.6260427
-0.23947427 0.0009623513 0.46601024 0.49059033 0.18490274 -0.49127916 -0.4124938 -0.41637814
-0.19969304 0.06857473 -0.08508471 0.011044382 -1.0496305 -0.85939753 -0.66598743 0.3811949
0.20935607 0.44951442 -0.27931276 0.23502292 -0.0646258 -0.07026065 -0.07536048 -0.09558849
0.46797413 -0.6173628 0.09725954 -0.35016957 -0.5274049 -0.508926 -0.26902473 0.6071823
0.6372694 -0.7210038 0.17092697 -0.23532094 0.037274547 0.5559089 0.15390764 0.18116756
-0.33360586 0.33500686 0.7616945 -0.0692275 0.12284845 -0.4026755 -0.51026934 -0.42247465
-0.09313927 -0.10356921 -0.73169094 0.5379228 -0.050799146 -0.8416213 -0.16292207 0.60499376
0.6747606 -0.2903611 -0.11228575 0.3806113 0.78437036 -0.43137243 0.5110241 0.094176635
0.19948223 -0.45928165 0.1241003 0.47774738 0.96088815 0.3024585 0.14402637 -0.8282889
-0.8061715 0.6198907 -0.27974108 0.2849375 0.4376213 -0.13976115 -0.0969047 0.033771433
0.8179705 0.13324532 -0.34355757 0.13670988 0.3868632 -0.10712298 -0.46563324 -0.22383846
-0.23922674 -0.34963426 0.39541692 0.40548056 0.43721184 0.3384159 -0.0023296794 -0.031731665
0.16951895 0.6833419 -0.24395095 -0.36742273 -0.53938186 -0.43018308 -0.18167792 -0.44511828
-0.34895006 -0.39695624 0.037076995 0.3939945 0.044851314 0.055528674 -0.25966614 0.1716344
0.44709826 -0.23305699 0.1553926 0.030103518 0.037304845 -0.23513421 0.19348302 0.3699461
0.567919 -0.5937224 0.36512053 -0.027400102 0.20477992 -0.07799143 0.49189085 0.58895564
-0.3231514 -0.59514797 0.5882527 -0.7215937 -0.4539536 -0.26283425 -0.3419856 0.32735813
0.17433172 -0.41702744 -1.149565 -0.19273649 0.03191532 -0.4612765 0.040072277 -0.4040622
-0.17215554 0.33693242 -0.45436126 0.30910188 0.014283471 0.5006528 0.11712776 0.61655504
0.0010866793 0.4830407 0.42497072 -0.44601515 0.1719086 0.15433455 0.14938876 0.27793902
0.102283 0.4946392 0.473489 -0.20160547 0.17746456 -0.36831877 -0.6192309 0.48810562
-0.5476451 -0.18691318 0.005313891 0.5904199 -0.6056218 0.34053394 0.8892284 0.590229
0.6262089 -0.008303768 0.18288055 -0.03284376 -0.22412299 -0.14424138 -0.0344347 -0.11192069
-0.092978165 -0.09934143 0.244455 0.07106444 -0.2840084 0.6481475 -0.034042545 0.072027184
-0.37754875 0.21245855 -0.193897 0.719437 0.46962473 0.03796744 0.070204936 0.27235377
-0.4118303 0.22664768 0.22838491 -0.26060686 0.7017722 0.36762798 0.32622257 -0.7918627
0.15403986 -0.2885482 -0.24940346 0.09264775 0.07768811 -0.2388747 1.3872948 -0.21945952
0.31913796 0.02159648 0.5904527 -0.031501606 1.1823071 -0.53155863 -0.7661462 -0.25509074
-0.03343491 -0.25630566 -0.10717217 -0.5446331 -0.1285687 -0.45989743 -0.20437142 -0.20170504

network_body._body_endoder.seq_layers.0.bias f4 [128]
00000000: 68f2 0d3c 9105 b03b c627 063c 07a5 3b3a
00000010: 3668 bbba 74e5 17ba c513 0b3c 9d19 c43a
00000020: f810 183b d925 f4bb 9301 953b 966c 15bb
00000030: 42c9 e93b ca5d 1d3b a98a 26bb 0a03 1e3b
00000040: 88e8 083c a69e 1a3c b528 d83b e8fa db39
00000050: 9cc1 74bb 4211 523c 6c4e ebbb 6923 bf3b
00000060: 8d94 83bb 2047 ed3b 4cc4 adbb d624 ee3b
00000070: da05 223c 6075 05bc 632f 5f3b 0371 413b
00000080: 92d4 3d3b 98da 3c3b b046 a0bb fab2 10bb
00000090: effb 533b e533 08ba 32e1 9c3b 1803 76ba
000000a0: 333e b93b 7d1c 933b 054a 413c 7574 55bb
000000b0: d69f 38bb b352 aa3b 3cdc 503b 8c2f 6e3a
000000c0: fda1 5abb adb6 8d3b 2469 f03b 6c5e ee3b
000000d0: a31f 4f3c 1c47 1b3c 29ad 07bb 8022 abbb
000000e0: 6ea4 993a acc7 4d3b 28e1 783b 5da2 3a3c
000000f0: 77a7 c9bb c472 733b 9473 673b 07e6 4d3b
00000100: 5b27 af3b d39b ea3b bd61 1d3b 14fa 8b3b
00000110: b5b1 abb9 1e5a 513b e7ed d8ba e445 97bb
00000120: 7e61 773b 4514 0f3c e9be 00ba b2ee a3ba
00000130: 2557 87ba 7511 fcb9 a4ec 0fbb 5194 1dbc
00000140: 9158 3fbb 59ca a039 dcd8 893b 1aa4 0e3b
00000150: a0e3 0739 dd70 3e3c 04bb 6f3a c11d 2a3c
00000160: d6c5 86bb 762d 093c 8fcb 643b 2627 bd3b
00000170: 3787 6db8 d6f0 b63b 8856 89bb a85a 0c3b
00000180: 10c1 043b 32f9 6c3c 60bd 883c 319d 69bc
00000190: f1e0 213c 3f31 863b 12bf 8ebb aa2c a93b
000001a0: 22a6 433c e11d 96ba 8831 38bc 680b b43b
000001b0: d0e9 023c 2294 56ba c430 003c 491d 873b
000001c0: 5a0d fc3b c762 2fbb 5ade 873a 6716 563b
000001d0: 5301 00bb 7e8c 4cba a932 753c 03c2 20bb
000001e0: 36db 0abb dcef 283c a2b6 073c 0868 393c
000001f0: 9fdb 83bb e477 24ba 0f67 23bc 9af4 5b3b
0.008663751 0.0053717573 0.008188194 0.0007158075 -0.0014298025 -0.0005794384 0.0084886 0.0014961247
0.0023203474 -0.007450801 0.004547307 -0.0022800318 0.0071345875 0.0024012201 -0.0025412238 0.0024110698
0.008356221 0.009437239 0.0065966495 0.00041957875 -0.0037346845 0.012821497 -0.0071809795 0.0058330786
-0.0040155114 0.007241145 -0.0053029414 0.007267575 0.00988909 -0.00814566 0.0034055344 0.0029516823
0.0028965813 0.0028816815 -0.004891239 -0.0022079335 0.003234621 -0.0005195721 0.0047875876 -0.0009384616
0.0056531667 0.00448948 0.011797433 -0.0032570635 -0.0028171442 0.005197847 0.0031869551 0.00090860645
-0.0033360713 0.004324755 0.0073367525 0.0072744396 0.01264182 0.009477403 -0.0020702577 -0.0052226186
0.0011721977 0.0031399531 0.0037976 0.0113912495 -0.0061539966 0.0037147263 0.0035316693 0.0031417625
0.0053452677 0.007159689 0.0024014555 0.004271755 -0.00032748064 0.0031944583 -0.0016550393 -0.004616486
0.003774732 0.00873286 -0.00049112603 -0.001250705 -0.0010325654 -0.00048078192 -0.0021961117 -0.009617881
-0.0029197077 0.0003066834 0.00420676 0.0021765293 0.000129594 0.011623588 0.0009144994 0.01038307
-0.0041129394 0.008372655 0.003491137 0.005772489 -5.6631132e-05 0.005582909 -0.0041912235 0.002141634
0.0020256676 0.01446371 0.016691864 -0.014258669 0.00988029 0.004095226 -0.0043562734 0.005162795
0.011941465 -0.0011452996 -0.011242278 0.005494524 0.007990316 -0.00081855257 0.007824127 0.004123364
0.0076920213 -0.0026761757 0.0010365949 0.0032667161 -0.001953204 -0.00078029174 0.014965692 -0.0024529702
-0.0021187789 0.010311093 0.008283289 0.011316307 -0.0040239836 -0.00062739686 -0.009973302 0.0033562542

network_body._body_endoder.seq_layers.2.weight f4 [128, 128]
00000000: f445 8ebd 2e30 aa3d ad40 6b3d 3485 f4bd
00000010: 205f 1dbe 8f6f 1e3d 13fc afbc 990f 073e
00000020: c8e8 21bd 4afe d3bd 4e62 b33c 8693 23bd
00000030: 5e0d 3e3e 813e 68bd e424 1a3d 23e8 853c
00000040: f390 483d ce14 033c 5cd7 133d 7117 e5bd
00000050: e672 ed3d 4d4b 023d ad9d 55bd 5b79 e4bd
00000060: acc2 053e c949 a33d 91e1 a0bc b61f 123e
00000070: d21f 06bd 544b a33d 2323 353e 41dc 493d
00000080: 3293 7b3d 9a8a 92bd 3611 b03d a02e f5bd
00000090: 25fb 123e c831 393e 8684 debd bbe3 3ebd
000000a0: 07fc 1abe 3199 0dbe 716f e83d fa2f d2bd
000000b0: b40c f7bb a642 67bd e600 123e e44d 633c
000000c0: 1bfd 28be fb4c c23c 61be 263e 1d9c b3bc
000000d0: db82 943d b6b3 853c d2c4 70bd 7499 173e
000000e0: b572 15bd e4ab b43c c371 f5bd 4404 2bbd
000000f0: 2a6a e63d 6e0e edbc 122e b6bd 3a0b 263b
00000100: 0a45 863d c2c0 8eba 35e0 1b3d 6c4d 1fbd
00000110: 33b1 153d 8191 823d 5dc8 d43b 25ce 05be
00000120: a7d0 c23d 4831 cc3c fcc3 ec3c f651 b6bd
00000130: a1f8 c9bd 6237 90bd de90 54bd 1f5e 0f3d
00000140: 010f 85bc e4be ef3d e01e 8f3c 1dd2 95bb
00000150: f5f3 2c3d 10f6 96bd c7da 193d 8c1f 2ebe
00000160: 58cd 59bd f904 fd3c e1cf f63d 6e55 f93c
00000170: 3873 803c 9a66 da3d b99b 0bbe 3d38 d53d
00000180: e485 9b3d 3d86 733c a83c 353e c934 1bbe
00000190: 8b9a bb3c 3a71 b83d 6eb6 e53c 01b1 823c
000001a0: d130 d4bc 4cee 9d3c 843f bd3d 3a94 4dbc
000001b0: acf3 cbbc 0de4 0cbe 82f8 1bbe f21a fe3c
000001c0: be8c 243e 76c4 e9bd 56ba c03d 8a0f 963d
000001d0: 97f8 67bd 1f5d 1b3d 928c f53d 4039 253d
000001e0: 9f40 5f3a b627 003e 238c fd3c 4274 b73d
000001f0: 1200 18bc 19d4 32bd 8097 bb3c 57fa edbc
00000200: 5b69 0cbd 41e8 fcbc 173e 7fbd 9741 13be
00000210: 5ac2 2a3d 6240 1ebb 4d18 993d 66d8 6fbc
00000220: 9501 febb d470 773d 147c ed3d 05c2 e63d
00000230: 51b9 d2bb 7254 72bd 057e 5a3d b74c cfbd
00000240: 1924 b53d a99f ca3c ba02 4a3d 342b 9ebd
00000250: 6eee 12be 17fa 39bd d4e6 b5bc c023 05be
00000260: c76a 8e3d 83d2 d63d d488 34bd 28ef 523d
00000270: f551 5bbd 2fec 64bc 0fb5 763d 6218 2b3d
00000280: e88c 993c 54e7 8a3d e2f1 bcbd bf6a 763d
00000290: d16a 923d f1df ca3d 5ecf 6abd 42cc cb3c
000002a0: 44f5 de3d 6864 f5bb 2f71 b1bb cb40 0fbe
000002b0: b91c 9f3d 72f6 62bc accd a5bd 2e4c 503e
000002c0: a47e a13d ae2b 00be 3663 65bc 556f 50bd
000002d0: d722 c23d 6fbe 5dba 84c4 773c 5ca6 cfbc
000002e0: b6bc 4b3e 16dc eebd e35b 113e 1b99 6a3b
000002f0: 1d32 72bd 730b cdbd 4253 10bc fd52 afbc
00000300: dded 12bd 8595 49bb c942 163d 3a18 99bd
00000310: dcda 833d a53c f6bc 9b5e c4bd 8a79 56bd
00000320: 2391 bf3b 98d1 833c 64d3 1d3d 9c17 7b3c
00000330: f73f 21be b36d 0f3d 5e07 983d 0862 de3c
00000340: e377 cbbd fb32 d63d 442d d03d 1517 9bbd
00000350: 8b54 093d 3082 1abe 4552 813d 47be 24be
00000360: 6fb1 2b3d c60e 363e 7d37 a0bd 83ad ccbd
00000370: 5012 37bd 6ab3 883d 9b3c a7bd d2b4 073d
00000380: d253 a73c d4f4 cb3d 0b6e fcbd 3486 a23d
00000390: 8386 15be a74e 03be 488d 09bd 61db e6bc
000003a0: c897 76bd d246 ac3c deab b63d c8dc be3c
000003b0: 3762 033e 1ed0 8bbd c6d1 03be a39d f9bd
000003c0: 2686 54bc 1b01 a13c 31b7 bbbc bcaa 47bd
000003d0: 2bbd a33d 82bd 7cbc 190a 3bbd e484 103e
000003e0: 442a 0a3e f3a9 083e 8584 21bd e98f 983b
000003f0: 3593 71bb d12b 99bd f289 bd3d 2071 743d
-0.06946936 0.08309971 0.057434727 -0.11939469 -0.15368319 0.03868061 -0.021482503 0.13189544
-0.039528638 -0.10351236 0.021897461 -0.03993561 0.18559787 -0.056700233 0.037632838 0.016346043
0.04896636 0.008000566 0.036094055 -0.11186112 0.11594181 0.031810094 -0.052152324 -0.11155959
0.13062543 0.07973058 -0.019638808 0.1426991 -0.03274519 0.07973352 0.17689185 0.049282316
0.061419673 -0.071553424 0.08597033 -0.11971784 0.14353617 0.18085396 -0.108651206 -0.0466039
-0.15135203 -0.13827969 0.11349381 -0.10263057 -0.007539356 -0.056460045 0.14258155 0.013873551
-0.16502802 0.023718348 0.16283561 -0.021925027 0.07251521 0.016321044 -0.058781452 0.14804631
-0.036486346 0.02205462 -0.11984589 -0.041752115 0.11250718 -0.028937545 -0.08895506 0.0025336281
0.06556137 -0.0010891187 0.038055617 -0.038892195 0.036545943 0.06375409 0.0064936117 -0.13066919
0.095124535 0.024925843 0.028902046 -0.089023516 -0.09861875 -0.070418134 -0.05189597 0.03500187
-0.016242506 0.11706331 0.017470777 -0.0045721666 0.042224843 -0.073711514 0.037562158 -0.17004222
-0.053174347 0.03088616 0.120513685 0.030436244 0.01567994 0.10664101 -0.13633622 0.10411117
0.07593897 0.014863548 0.1769892 -0.15156855 0.02290084 0.09005971 0.02804109 0.015953543
-0.025902184 0.019278668 0.0924063 -0.012547547 -0.024896465 -0.1375887 -0.15231517 0.031018708
0.16069314 -0.11414425 0.09410541 0.073271826 -0.056633558 0.037930604 0.11989702 0.0403378
0.0008516404 0.12515149 0.030950611 0.08957721 -0.0092773605 -0.043659303 0.02289939 -0.029050035
-0.034280162 -0.030872466 -0.062315073 -0.1438049 0.041689254 -0.0024147262 0.07475338 -0.014638996
-0.0077516534 0.060410336 0.11595932 0.11267475 -0.006430783 -0.059162565 0.053342838 -0.10122054
0.08844776 0.024734335 0.049319007 -0.07723084 -0.14348766 -0.04540452 -0.022204794 -0.13001919
0.0695396 0.10489371 -0.044075802 0.05149761 -0.053544957 -0.013972326 0.060231265 0.0417713
0.018743947 0.067824036 -0.09225823 0.060160395 0.0714928 0.09905995 -0.057326667 0.024877671
0.108866245 -0.007488776 -0.005415104 -0.1398956 0.0776915 -0.013852702 -0.080958694 0.2034156
0.07885483 -0.12516662 -0.0140007045 -0.050887424 0.094793014 -0.0008458858 0.015122537 -0.025347881
0.19896206 -0.11663072 0.14195208 0.0035796824 -0.059129823 -0.100119494 -0.008808913 -0.021401877
-0.035871375 -0.0030759287 0.036684785 -0.07475324 0.064382285 -0.030058214 -0.09588357 -0.052362002
0.005846159 0.016091153 0.038531676 0.015325453 -0.15747057 0.035016727 0.0742328 0.027146354
-0.09934976 0.104589425 0.10164884 -0.07572762 0.033527892 -0.15088725 0.0631452 -0.1608821
0.04191726 0.17779073 -0.078230835 -0.09994032 -0.0446952 0.066748455 -0.081658565 0.033131428
0.02042571 0.09958807 -0.123256765 0.079357535 -0.14602093 -0.12822972 -0.033582002 -0.02818078
-0.060203344 0.021029864 0.089195 0.023298636 0.12830435 -0.068268046 -0.12872991 -0.1218827
-0.012971437 0.019653847 -0.0229145 -0.04874681 0.07995065 -0.015426042 -0.045663927 0.14113194
0.13492686 0.1334608 -0.03943302 0.0046558273 -0.0036861424 -0.074790604 0.092548266 0.059678197

network_body._body_endoder.seq_layers.2.bias f4 [128]
00000000: 0042 fc3b 33fa fbbb b50f 2ebb ec33 d4ba
00000010: a812 c53b 9b54 a73b 1ebc 1ebb 9d50 3a3b
00000020: 0053 963b 8963 9cbb 81e3 073b a547 cc3a
00000030: cbe7 863b 66be f9ba 37dd 45bb 7459 9239
00000040: 035a 1c3c fd4a 0fbb 9120 953b f0d3 a0ba
00000050: 3cdc 51bb b01d 2a3b eef4 d93b 1809 943b
00000060: 554e b239 1a60 013b bb84 df3b dec2 163b
00000070: a956 143b f1e0 0ebb 623f 693b 0b94 103c
00000080: 1bf8 0c3c 61ed 663b 95a0 833b 6215 173b
00000090: 74f7 c2ba 4dbb a03b 251f 38ba b02a 583c
000000a0: 32d0 213b f9a4 3cb9 41c7 d03a 222c ca3b
000000b0: e20c 80b8 4e55 00ba 777a c63b f573 9c3b
000000c0: e778 1a3b 4c4e 273b 3f8c c4ba ece9 893a
000000d0: ccfc c03a 996e aa3b 0c22 dfba b8d6 df39
000000e0: 77fe 163a 364f 3ebb 0aef ca3a e834 dd3a
000000f0: 4ba6 083b 0cec 843b a8fc 783b 44c1 ae3b
00000100: fd77 2f3c 2f79 b539 ace5 433b e940 4bbb
00000110: e028 8c3b c434 303b 64fd 613b b842 673b
00000120: 1191 b5b9 0e04 2e39 a8b0 9e3b a605 c03b
00000130: d5ad a1bb 2d63 b23a 99fb 4d3b aa18 edba
00000140: 0998 143b 9d93 703b 04f0 853b 0289 753b
00000150: d194 a43b 6134 b13b 00d6 833b 4a78 b7bb
00000160: f4eb 183b 2685 4e3b 086d c93a c384 953b
00000170: 1ce7 5d3b c450 f33b 7482 a8ba 15b8 2c3c
00000180: d2a9 953b 68e2 063c 639d 313b d45a 003c
00000190: e041 6bbb 35f2 6bba 9896 7039 ef39 213c
000001a0: ecb5 c53a cee6 583a 0d36 80bb 7ae9 c4ba
000001b0: 8e0d df3a bea8 5ebb 496e 2c39 3479 083c
000001c0: fc30 7dba f6ac 1a3b ac8d 4f3b 6ea9 d3ba
000001d0: 1ea7 4c3b b638 3a3b 6649 91ba 7e55 5f3b
000001e0: 8340 1a3a af40 893b c4e8 353b 5b46 963b
000001f0: c6ae 96ba fd3e 2d3b 9cd5 df3b 5b63 0cbb
0.0076982975 -0.007689738 -0.0026559655 -0.001618979 0.006014187 0.0051065213 -0.0024221013 0.0028429397
0.004587531 -0.0047726077 0.0020734968 0.0015585317 0.0041169873 -0.0019053936 -0.0030191669 0.00027913938
0.009542945 -0.0021864765 0.0045510014 -0.0012270194 -0.003202214 0.0025957637 0.0066515123 0.0045176856
0.00034009168 0.001974112 0.0068212426 0.0023004333 0.0022634661 -0.0021801556 0.0035590758 0.008824359
0.008604075 0.0035236704 0.0040169456 0.0023053517 -0.0014874772 0.0049051405 -0.0007023684 0.013193771
0.0024690744 -0.00017990534 0.0015928523 0.006169812 -6.105915e-05 -0.0004895524 0.0060570794 0.0047745653
0.0023570599 0.0025528846 -0.001499541 0.0010521985 0.0014723777 0.0052011725 -0.0017023697 0.00042693852
0.0005759964 -0.0029038913 0.0015482616 0.0016876729 0.0020851071 0.0040564593 0.0037992392 0.0053330977
0.01070976 0.000346133 0.0029891534 -0.0031014031 0.0042773336 0.002688692 0.0034483308 0.003528757
-0.00034631093 0.00016595444 0.0048428364 0.0058600483 -0.0049340525 0.0013609879 0.0031430481 -0.0018089016
0.0022673628 0.0036709078 0.00408745 0.0037465696 0.005022623 0.0054078554 0.0040233135 -0.0055990564
0.0023333998 0.0031512468 0.0015367577 0.0045629456 0.0033859676 0.0074253995 -0.0012856261 0.010541935
0.0045673633 0.00823269 0.0027101866 0.007834155 -0.003589742 -0.000900063 0.00022944284 0.009840473
0.0015084124 0.00082741387 -0.0039126934 -0.0015023195 0.0017017589 -0.003397509 0.00016444283 0.008329678
-0.00096584833 0.0023601628 0.0031670136 -0.0016148516 0.003122754 0.002841515 -0.0011084497 0.0034078057
0.0005884247 0.004188619 0.0027757147 0.0045860237 -0.0011496178 0.002643525 0.006830884 -0.0021421525

action_model._discrete_distribution.branches.0.weight f4 [3, 128]
00000000: e54b 7b3c 75cb b6bb 4e57 e23a f999 363c
00000010: b67d c1ba c73a d7bb adfa 9a3b e989 a7bc
00000020: 0473 f239 d844 45bc dc51 133d 03b5 d4bb
00000030: e624 88bb 13bd ef3b 7c2e 66ba 2459 cf3b
00000040: 3ca0 1f3c bb39 143c 63eb 913a 934a f43c
00000050: a674 b43a 4dcf 31bc 1a4f 983c c3d5 3e3a
00000060: f010 f1ba 5da8 1cbc e411 ef3b 199d 453c
00000070: b992 873c bc08 c03b f8e8 4c3c ac5c c83c
00000080: 2713 f53c 4055 2abc 8e69 443c 7c21 afba
00000090: 351b bf3c c219 323a 7624 0dbb ffb6 5b3c
000000a0: 94c1 a2bc bde9 11bc a244 70bc 82a5 c23b
000000b0: d42d eebb 5007 6b3c deed 3b3b 835b c73c
000000c0: a1bc 92bc c0ac 0dbd c960 fa3b fd0e 893b
000000d0: 81cd fdbb 0aca 48bc e19e 06bc b7c2 b1bc
000000e0: c1c7 003c ccd2 e3bb 057e 0abc 83cc 89bc
000000f0: cbc7 583c 47aa 80bc d0f7 4a3c 9c8f c83c
00000100: 8d5f b53c fbb3 4cba a385 7f3c f778 c93b
00000110: e456 fe3b c12f 793c 08d7 e23c 7804 b43c
00000120: efb5 3abc b2ec b4bb 252e 253c e03e 653c
00000130: 5854 0d3a b634 21bc e2c2 b33b 2747 fb3b
00000140: 7e9f 9b3c 2e7e 453c 1e37 463c ed29 afba
00000150: 019a 7e3c ee3f c4ba b21b b3bc a91c f9bb
00000160: f747 7bbc 068a 55bc 5514 18bb 65c0 7cbb
00000170: e779 f3bc 10ea cd3c 0e2b 48bc 5405 273c
00000180: 049a 423b 140e 133c d14e 0a3c affe b23c
00000190: 9c90 983c 07f3 16bb 46bd 323c 7738 b73c
000001a0: 96eb 28bc 675c 54bc ebd4 6ebb c384 8fbc
000001b0: 9309 ccbc 5617 8eb9 5803 cfbc 7da1 6b3c
000001c0: d290 cfba e41b cfbc 7934 3abc 7187 86bb
000001d0: af82 f7bb d018 e8bc 900a 3b3b 2ec5 44bb
000001e0: 4524 27bb fcb3 ecbb fded dcbc 4123 583c
000001f0: 45b1 c93b 0ca4 aabb 09aa 273c 3ef5 c73b
00000200: fd97 14bd be99 263b f548 6b3c d43d bdbb
00000210: c8e1 91bb 8f7f 5fbc a6c3 bb3b 5437 023c
00000220: f0c8 8ebc fe9a 153b 8ee5 16bc e8a8 04bc
00000230: 20dc 76bc 513f 64bb c742 4c3c e3f4 5bbc
00000240: 6146 9dbc 4524 c63b 7b81 57bc e1b3 183c
00000250: b31a 523c 7396 e3bb 4d89 b6bc a92c acbc
00000260: 2d5b 863c 4445 d53a a4a4 82bc 54f2 1ebc
00000270: 1e2c 49bc 1ac9 12bb 2f15 68bc 83cb 0dbd
00000280: 25da 63bc 72ab 84bc 0ca2 1a3c 9a99 b5bb
00000290: 78de e63a 069f 22bc e3fb ca3b 5ecf 57bc
000002a0: 6393 853c a9f4 a63b 777f da3b ae10 89bc
000002b0: da3e 4c3c c1d2 4fbc a65f 42bc 4abc 093c
000002c0: c2e0 133a 3fdb 593c 088a d83b b9e6 53bc
000002d0: baf5 5a3c f9be b63c 3dca 653c 365d e63c
000002e0: cc10 6bbc 8410 323b d2cf d93b bdff e33b
000002f0: 9244 22bc c522 0ebb a9e4 233c c2b7 a5bb
00000300: 0114 8fbc 937d a43c 05bd 2abc dbee e33a
00000310: 8f5f 31bc 9420 03bc 4e9e 33ba 74e4 aebb
00000320: 0a63 c23b 076c 713b 2bcf 48bb dccc 3cbc
00000330: 0bd7 6e3c 5636 5a3b 1cf7 01bc 09c1 52bb
00000340: 3e0e 3fb9 09ce 813a 8c9e d2bb 7f46 b2bb
00000350: c597 d9bc 659e 09bc bdd1 993c 1250 bbba
00000360: 00cc 11bc 6eb2 06bb 142c 373c 4236 8cbb
00000370: 432b d83b 6d18 2fbc 6a09 653c 60c9 b5bc
00000380: 945f 46bc 62d9 bebc eb1d c8bb a2f9 4bbb
00000390: eff2 773c d402 08bc 5548 63bb eb2e 91bc
000003a0: c5dc 2c3b 3748 23bc 9ae2 723c 19b2 ab39
000003b0: d539 80b8 aa4c 5d3c ff05 683c ac8f 43bc
000003c0: 2ada e5bb deab c1ba 988d 0fbc 1d9f 93bc
000003d0: f57a 1cbb cc21 10bb 621e 9b3b 0c5c eabb
000003e0: 6285 a2bc b07e 45bb 9792 883c f67a 0fbc
000003f0: 6cf6 5dbb fabc ff3b 3561 febc 4c90 bebb
0.015337919 -0.005578453 0.001726845 0.011145108 -0.0014762196 -0.006568286 0.00472959 -0.020451503
0.0004624353 -0.012040339 0.03596674 -0.006491305 -0.0041547893 0.0073162406 -0.00087807304 0.006327765
0.009742793 0.009046967 0.0011132773 0.029820716 0.0013767674 -0.010852647 0.018592406 0.0007279778
-0.0018391889 -0.009561625 0.007295834 0.012061381 0.016549455 0.005860416 0.012506716 0.024458252
0.02991636 -0.010396302 0.011988057 -0.001336142 0.023328403 0.00067939993 -0.0021536625 0.013410329
-0.019867696 -0.008905825 -0.014664801 0.00594014 -0.0072686467 0.014345005 0.0028675715 0.024335628
-0.01791221 -0.034588575 0.007640932 0.004182695 -0.0077454452 -0.012255201 -0.008216591 -0.021699293
0.007860125 -0.006952619 -0.008452897 -0.016821152 0.013231228 -0.015706195 0.012388185 0.02448254
0.022140289 -0.00078088016 0.015595826 0.0061484533 0.007761823 0.015209139 0.027690426 0.021974787
-0.011395915 -0.0055213803 0.0100818025 0.013992041 0.00053912913 -0.009839227 0.0054858783 0.007668394
0.01899695 0.012054009 0.012098102 -0.0013363935 0.015539647 -0.0014972666 -0.021863792 -0.0076022935
-0.015336982 -0.013033396 -0.0023205478 -0.0038566825 -0.029721214 0.025136024 -0.012217296 0.010194141
0.0029693851 0.008975524 0.008441643 0.021849958 0.018623643 -0.002303304 0.010909384 0.022365792
-0.010310074 -0.012961484 -0.0036442827 -0.01751936 -0.02490691 -0.00027101737 -0.02527015 0.0143817635
-0.0015836006 -0.025281854 -0.0113650495 -0.0041055013 -0.0075534205 -0.028332144 0.0028540231 -0.0030024755
-0.0025503796 -0.0072236042 -0.02696895 0.013191999 0.0061551654 -0.005207544 0.010233411 0.006102233
-0.03627776 0.0025421227 0.014360656 -0.0057751928 -0.004451964 -0.013641252 0.00573011 0.007947762
-0.017429799 0.0022827978 -0.009210004 -0.008096911 -0.01506713 -0.0034827779 0.012467093 -0.013425085
-0.019198598 0.006046804 -0.013153429 0.00932023 0.012823748 -0.006945425 -0.022282267 -0.02101739
0.016400898 0.0016271253 -0.015947647 -0.00970133 -0.012278585 -0.0022397698 -0.014165207 -0.034617912
-0.01390699 -0.016195033 0.009438049 -0.0055419924 0.0017613908 -0.009925609 0.006194578 -0.013171999
0.016305631 0.0050950837 0.006668027 -0.016731586 0.012466157 -0.012684525 -0.011863625 0.008406708
0.00056410965 0.013296901 0.0066082515 -0.012933427 0.01336425 0.02230786 0.014025268 0.028120618
-0.014347266 0.0027170489 0.0066470886 0.0069579766 -0.009904044 -0.0021688205 0.010003247 -0.005057306
-0.017465593 0.02007941 -0.010421042 0.001738991 -0.010826006 -0.008003373 -0.00068518973 -0.0053372923
0.0059322165 0.003683807 -0.003064106 -0.011523452 0.014577637 0.0033296547 -0.007932451 -0.0032158515
-0.00018220485 0.0009903322 -0.0064275917 -0.0054405327 -0.026561627 -0.008399581 0.018776769 -0.0014290831
-0.008898735 -0.002055313 0.011179943 -0.004278929 0.006596954 -0.010686976 0.013979295 -0.02219075
-0.012107749 -0.023297016 -0.006107082 -0.0031124135 0.0151336035 -0.0083014555 -0.0034680564 -0.017722568
0.0026376706 -0.009965948 0.014824534 0.00032748355 -6.114288e-05 0.013507048 0.014161586 -0.0119361095
-0.0070145326 -0.0014775952 -0.008761786 -0.018020207 -0.0023877 -0.00219928 0.0047338465 -0.007152086
-0.019838993 -0.0030135326 0.016671462 -0.0087573435 -0.0033868803 0.00780451 -0.031052211 -0.0058155414

action_model._discrete_distribution.branches.0.bias f4 [3]
00000000: a0ef 9eb8 1348 87bb b567 5c3b
-7.578661e-05 -0.004128465 0.003363115

onnx::Div_52 f4 [6]
00000000: 1543 1540 fe11 583d 5d4d 413d 5d4d 413d
00000010: 17e2 293e d0c7 a241
2.3322194 0.052751534 0.04719292 0.04719292 0.16590153 20.347565
