BasicAvoidance/Assets/results/BasicAvoidance1/PlayerAvoidance/PlayerAvoidance-128.onnx (onnx, 74465 bytes, 8 tensors)

network_body.observation_encoder.processors.0.normalizer.running_mean f4 [6]
-0.060465068 0.49612403 0.0 -1.0349953e-07 0.39771956 -7.9860477
00000000: 38aa 77bd f803 fe3e 0000 0000 7843 deb3
00000010: e6a1 cb3e b48d ffc0

network_body._body_endoder.seq_layers.0.weight f4 [128, 6]
-0.16878407 0.09474963 0.055473387 0.24844521 0.09201224 0.5914306 -0.6255217 0.06809002
0.08673091 0.7594602 -0.54935557 0.23257524 0.5184593 0.20283078 -0.40752986 0.32464296
0.4297548 -0.29859152 -0.003764348 0.4001616 0.3684183 -0.60592496 0.1145156 0.20943266
-0.2621054 0.0016514591 0.5129112 0.0022188274 0.2007334 -0.035322495 -0.18148689 0.5592677
0.31528017 0.3417598 0.7797152 0.050118722 0.45174688 -0.40062642 -0.44354233 0.19045196
-0.39320225 0.08130532 1.0299731 0.6691417 0.93040484 0.43684208 -0.8243284 0.07303088
-0.38300768 0.105889075 0.09757512 -0.026010484 -0.19092916 0.108271 0.25680944 0.065818466
-0.22735006 0.30561033 0.34803054 0.6711152 -0.82938164 -0.5505367 -0.66132814 -0.5784951
-0.11487971 -0.014541884 -0.4884528 -0.7743388 0.08610508 0.05435074 -0.36931047 -0.5881133
-0.3513945 -0.8273347 -0.7080779 -1.0546967 -0.5940918 0.61507165 -0.026735542 -0.18416758
-0.2630113 -0.48958758 -0.12900971 -0.3245086 -0.025142292 -0.07510401 0.09303633 0.55704224
0.35105354 -0.089543015 -0.27719587 -0.18799141 0.3069598 0.23198086 0.57032186 0.36758837
0.015227856 0.14040455 -0.6796201 -0.621004 0.6175921 0.4915798 -0.14856932 0.2389274
-0.5102149 0.7376844 -0.586823 0.72305995 0.61881584 -0.36236522 0.1458488 -0.19693577
-0.14612342 -0.14370744 0.24662931 -0.4064286 -0.07938659 -0.34118393 -0.2578157 0.15276732
0.23416306 0.13916267 -0.91934973 -0.26913697 -0.031591278 0.6285317 -0.11018858 0.11445715
-0.4720227 0.5439556 0.2866163 -0.5996884 -0.29499197 -1.0664066 -0.26359993 -0.4222722
-0.41291147 0.20816574 -0.22365771 0.13210537 0.3595383 0.12070134 0.38482693 -0.13596612
-0.6385968 -0.41483012 0.25563166 -0.23617497 -0.029486869 -0.5953484 -0.21063448 -0.054359272
-0.3294558 0.14539061 0.35213423 0.17962474 -0.36498627 0.70290977 0.05943289 -0.23123118
-0.563341 0.23971711 0.43076232 -0.47394162 -0.15307419 -0.14348324 -0.3294062 -0.24522825
0.80412805 -0.60968566 0.42255202 0.505359 -0.18437016 -0.6227874 0.2312226 0.3045176
0.4290451 0.236676 0.56649494 -0.38431427 0.917748 -0.11458931 -0.15237378 -0.64798486
-0.30707887 -0.42023793 -1.0131847 0.349386 -0.034281123 0.35694736 0.04704529 0.037284907
-0.3305988 -0.47726333 0.15332481 0.37271613 0.408708 0.38081294 0.06550472 -0.8388554
-0.024356501 0.3410892 0.32649556 -0.37708592 0.014300095 0.760019 -0.23164658 0.63793707
-0.55139697 -0.45638075 0.24950875 -0.5100152 -0.5221578 -0.17904827 -0.8646291 0.13324217
0.33460408 0.32297933 0.6830446 -0.029854827 -0.538833 -0.3570833 0.11935846 0.6911148
-0.17951685 -0.0802521 -0.5163974 0.1705438 -0.36783266 -0.20707637 0.020133149 -0.09489438
-0.2641336 0.68147165 0.03453509 -0.22812134 0.38209665 0.7530838 0.048426338 0.07867361
-0.15564787 -0.25854746 0.0032214615 -0.8020356 0.37564784 -0.38618433 -0.010244073 0.33181563
0.17257398 0.1795083 0.17034553 0.032592237 -0.3428629 1.0634301 0.30252612 0.28924838
00000000: bbd5 2cbe 180c c23d 1038 633d 6c68 7e3e
00000010: ea70 bc3d ff67 173f 3122 20bf c872 8b3d
00000020: fa9f b13d fc6b 423f 91a2 0cbf 3428 6e3e
00000030: c0b9 043f dfb2 4f3e c1a7 d0be 9a37 a63e
00000040: d208 dc3e fde0 98be 48b3 76bb fbe1 cc3e
00000050: 53a1 bc3e e61d 1bbf 2887 ea3d 8475 563e
00000060: ae32 86be c675 d83a 264e 033f bf69 113b
00000070: 0e8d 4d3e 52ae 10bd b3d7 39be 2b2c 0f3f
00000080: 676c a13e 24fb ae3e 6a9b 473f 4a49 4d3d
00000090: 5e4b e73e e81e cdbe fb17 e3be d705 433e
000000a0: ce51 c9be 6783 a63d 29d6 833f df4c 2b3f
000000b0: 032f 6e3f c4a9 df3e 3007 53bf 3791 953d
000000c0: 9519 c4be 5fdc d83d 77d5 c73d f013 d5bc
000000d0: ef82 43be 30bd dd3d 877c 833e d5cb 863d
000000e0: 74ce 68be f578 9c3e 0f31 b23e 35ce 2b3f
000000f0: 5b52 54bf f9ef 0cbf cd4c 29bf 4118 14bf
00000100: 0e46 ebbd 1541 6ebc 7c16 fabe 113b 46bf
00000110: dc57 b03d e29e 5e3d 4316 bdbe 988e 16bf
00000120: fbe9 b3be 35cc 53bf 9844 35bf 4d00 87bf
00000130: 6616 18bf 5675 1d3f 7f04 dbbc 6d96 3cbe
00000140: 6ba9 86be 39ab fabe 1f1b 04be fe25 a6be
00000150: 35f7 cdbc 22d0 99bd d589 be3d 529a 0e3f
00000160: 4abd b33e 5462 b7bd 9eec 8dbe d280 40be
00000170: d629 9d3e 648c 6d3e 9d00 123f 8b34 bc3e
00000180: 427e 793c 36c6 0f3e 95fb 2dbf 1efa 1ebf
00000190: 841a 1e3f 59b0 fb3e 8e22 18be 62a9 743e
000001a0: 729d 02bf e3d8 3c3f 083a 16bf 751a 393f
000001b0: b76a 1e3f ef87 b9be 6359 153e 88a9 49be
000001c0: 61a1 15be 0b28 13be 658c 7c3e 6917 d0be
000001d0: 7095 a2bd a9af aebe 6b00 84be 096f 1c3e
000001e0: 71c8 6f3e a980 0e3e 815a 6bbf 52cc 89be
000001f0: db65 01bd 74e7 203f 8daa e1bd 8368 ea3d
00000200: f6ac f1be ad40 0b3f 5fbf 923e 2e85 19bf
00000210: 3009 97be 0380 88bf 92f6 86be 1034 d8be
00000220: 2269 d3be 6629 553e 8706 65be a146 073e
00000230: 6715 b83e 4432 f73d 0908 c53e b43a 0bbe
00000240: 147b 23bf 9d64 d4be 27e2 823e dad7 71be
00000250: 728e f1bc c168 18bf 91b0 57be d4a7 5ebd
00000260: 6eae a8be 47e1 143e f04a b43e 8cef 373e
00000270: 7bdf babe e5f1 333f e76f 733d dec7 6cbe
00000280: 1e37 10bf 6778 753e e18c dc3e 7aa8 f2be
00000290: 7bbf 1cbe 45ed 12be eea7 a8be 1d1d 7bbe
000002a0: 56db 4d3f 5c14 1cbf bd58 d83e 355f 013f
000002b0: 88cb 3cbe ff6e 1fbf 9ec5 6c3e bbe9 9b3e
000002c0: cdab db3e 315b 723e d005 113f d7c4 c4be
000002d0: 88f1 6a3f cdad eabd df07 1cbe 56e2 25bf
000002e0: 7139 9dbe 6d29 d7be 09b0 81bf b9e2 b23e
000002f0: 5d6a 0cbd cec1 b63e 90b2 403d 0fb8 183d
00000300: 3f44 a9be dc5b f4be 2e01 1d3e a6d4 be3e
00000310: 2d42 d13e eaf9 c23e 5727 863d 3abf 56bf
00000320: 4987 c7bc 3ea3 ae3e 6d2a a73e 6811 c1be
00000330: f24a 6a3c 9b90 423f c334 6dbe d84f 233f
00000340: 5a28 0dbf bdaa e9be 397f 7f3e 5b90 02bf
00000350: 22ac 05bf 6e58 37be 5558 5dbf a370 083e
00000360: 3a51 ab3e 8c5d a53e 03dc 2e3f 1c92 f4bc
00000370: f6f0 09bf 9fd3 b6be 3572 f43d e6ec 303f
00000380: 44d3 37be 375b a4bd 9f32 04bf 09a3 2e3e
00000390: 9054 bcbe d40b 54be 46ee a43c fc57 c2bd
000003a0: 853c 87be ed74 2e3f ab74 0d3d a498 69be
000003b0: 2ca2 c33e 1aca 403f b25a 463d a11f a13d
000003c0: 2862 1fbe 5560 84be 281f 533b 3552 4dbf
000003d0: ea54 c03e f4b9 c5be c2d6 27bc bde3 a93e
000003e0: 3cb7 303e 06d1 373e 0f6f 2e3e 707f 053d
000003f0: ba8b afbe 7a1e 883f b4e4 9a3e 5d18 943e

network_body._body_endoder.seq_layers.0.bias f4 [128]
0.0027702285 0.004186714 0.0040328903 0.003205587 -0.0033005765 0.0038367005 0.001978679 0.0028543735
0.00403792 0.0015224057 0.0025971683 -0.001091301 0.0036246835 -0.0014292869 0.002674706 0.004210405
0.0041329637 -0.0054486897 -0.0067372518 0.0015295987 -0.0020053661 -0.003408011 0.0023157417 0.0036443376
0.0012599444 0.0065001803 -0.0042343093 -0.0004029662 -0.0021896213 -0.0037114515 0.0036143088 -0.0043770154
-0.0050925035 0.00283674 0.00011949002 -0.0038584394 -0.002218698 0.0004147789 0.0063082683 0.0018098276
0.0031784144 0.0027796694 0.004352501 0.0013054085 0.0022178704 0.0008353177 -0.006368748 -0.0021128869
-0.0036230949 -0.0039005647 0.0034643516 -0.003561926 0.0016042604 -0.0028906479 0.0009178443 0.0053574187
0.0014397632 -0.0059131747 -0.0038792358 0.0029541876 0.0059929974 0.00014367799 -0.0056450265 -0.0008543175
0.0035351804 -0.00016163274 0.0050563132 0.0029203212 -0.0011933446 -0.0015845617 0.0019510912 0.0026477792
0.0022118099 -0.0024498259 -0.003801232 0.0026381765 0.001624516 -0.0048258095 -0.003692067 6.223198e-05
0.0030698946 -0.000109290326 -0.0025241335 -0.0055418494 -0.0040084855 0.0027692658 0.0021116876 0.0039166133
-0.0009694856 0.0015165652 -0.0026351518 0.0031066418 -0.0011764549 -0.0014422737 -0.0010829092 0.0010254466
-0.004510096 -0.00023420366 0.0015452069 -0.0051239007 0.004393712 -0.006111195 -0.0042424155 -0.0017009041
-0.0017976491 0.0029658794 0.0025977874 -0.0022776441 0.00029013114 -0.001076493 0.0037544256 0.003233646
0.0017856929 0.0013562071 0.002692373 -0.003610686 0.0057382146 0.00075716595 0.003510331 -0.00044792457
0.00031151428 -0.002049232 -0.00086195883 -0.005444767 0.0026144688 -0.00613407 0.004934925 0.000999429
00000000: b98c 353b b430 893b 5626 843b d314 523b
00000010: 7c4e 58bb 2771 7b3b baac 013b 7110 3b3b
00000020: 8750 843b 758b c73a 4135 2a3b fc09 8fba
00000030: 198c 6d3b e956 bbba 1f4a 2f3b 70f7 893b
00000040: d06d 873b ec8a b2bb 2ac4 dcbb d17c c83a
00000050: 766c 03bb f058 5fbb b3c3 173b d7d5 6e3b
00000060: b824 a53a 77ff d43b f6bf 8abb 3545 d3b9
00000070: c07f 0fbb d33b 73bb 0ade 6c3b 116d 8fbb
00000080: 04df a6bb 9ae8 393b b796 fa38 dfdd 7cbb
00000090: 9367 11bb ae76 d939 97b5 ce3b bd37 ed3a
000000a0: f24c 503b 1d2b 363b 6d9f 8e3b 3e1a ab3a
000000b0: b159 113b 39f9 5a3a eeb0 d0bb 5c78 0abb
000000c0: 7271 6dbb 9ea0 7fbb 2d0a 633b 346f 69bb
000000d0: 0c46 d23a 0671 3dbb 7d9b 703a 498d af3b
000000e0: 70b6 bc3a 4ec3 c1bb c73a 7ebb 0b9b 413b
000000f0: e860 c43b 44a8 1639 eaf9 b8bb 47f4 5fba
00000100: 7cae 673b f57b 29b9 6eaf a53b dc62 3f3b
00000110: 006a 9cba 11b1 cfba c2bb ff3a 5d86 2d3b
00000120: 03f4 103b 428d 20bb 171e 79bb 42e5 2c3b
00000130: b6ed d43a d321 9ebb 9bf6 71bb 8a82 8238
00000140: 4930 493b cc32 e5b8 ef6b 25bb 6798 b5bb
00000150: 9d59 83bb 927c 353b 3d64 0a3b ef56 803b
00000160: 1425 7eba 7cc7 c63a 83b2 2cbb cd98 4b3b
00000170: 4733 9aba ad0a bdba 67f0 8dba 4768 863a
00000180: 6dc9 93bb 9194 75b9 8a88 ca3a 65e6 a7bb
00000190: 21f9 8f3b 6b40 c8bb f603 8bbb dff0 deba
000001a0: 189f ebba 335f 423b a43f 2a3b 8744 15bb
000001b0: be1c 9839 1c19 8dba cf0c 763b 94eb 533b
000001c0: e90d ea3a c2c2 b13a 8672 303b 42a1 6cbb
000001d0: a207 bc3b 8c7c 463a 950d 663b 6bd7 eab9
000001e0: bd52 a339 684c 06bb 14f5 61ba 046a b2bb
000001f0: 8257 2b3b 4f00 c9bb 27b5 a13b 46ff 823a

network_body._body_endoder.seq_layers.2.weight f4 [128, 128]
-0.08657402 -0.05013431 0.034862597 -0.065568954 0.09686394 0.26341972 0.009078871 -0.055925086
0.19718339 -0.1344244 -0.014359064 -0.068969205 -0.015357491 -0.14120845 0.029434163 -0.04239165
0.011186008 -0.13447265 -0.08478108 0.104318306 0.106419146 0.052756995 0.02209866 -0.15252538
0.013448653 0.026046794 0.18718909 -0.045045022 0.028842298 0.012655998 0.0349321 0.035795417
0.027679285 0.009206841 -0.055937354 0.07665102 0.04317425 0.01887338 0.010485741 -0.14860769
-0.00440274 0.14909245 0.036049828 -0.11537971 -0.040129263 0.091062516 0.03224104 0.030212523
0.054347366 0.11360522 0.15197006 -0.08666525 0.022813736 -0.059744168 -0.0753591 -0.075860664
0.17896841 -0.0298364 -0.12422716 -0.054168865 0.12017215 0.05445659 0.060598306 -0.06538027
0.13118945 0.22821224 0.028405814 0.064042725 0.022250513 -0.025751686 -0.02514852 -0.049358793
-0.038325865 -0.093545765 0.032464053 0.09839661 0.15833834 -0.1336471 0.00071856304 -0.14490835
0.097347505 -0.0045063044 0.1314522 0.08215991 0.004971886 -0.05278951 -0.06314591 0.0095250085
0.04962269 0.13201588 -0.10111293 0.104831316 -0.06724929 -0.031080745 -0.09888733 0.04121238
-0.066761374 -0.054063417 -0.018220572 -0.12768619 -0.024087356 0.15886207 -0.071107075 -0.031639162
-0.004050167 -0.011391108 -0.11588921 -0.10154455 0.091071 0.12673984 -0.09463306 -0.06297454
0.046982933 0.03920128 0.055779353 0.032514583 0.05417384 0.05908265 0.08408703 0.023359392
-0.08770291 0.066969685 -0.1836668 0.015481743 0.08241071 -0.09558393 0.014430952 0.0072783004
0.1859306 0.07735765 -0.038592562 -0.1205185 0.021187486 -0.0046448065 -0.06357185 0.05449132
0.010597191 -0.01583581 -0.02700216 -0.0139815025 -0.011663417 0.14909811 -0.016361825 0.041623853
-0.06943903 0.014288919 0.0010194086 0.08016103 -0.017359406 -0.037822694 0.18129598 -0.13133073
-0.0013861627 -0.058233082 0.05768611 0.21989112 -0.18259297 -0.086552516 -0.003753443 -0.12564829
-0.04361079 0.05514355 0.02872194 0.18801236 0.08948715 -0.025601335 -0.083154626 -0.020413661
0.1241857 0.018922508 0.021798799 -0.06517843 0.14864872 -0.029414795 -0.06597882 -0.047316477
0.010418831 0.01070704 -0.12022715 -0.08958189 0.000281271 -0.20598145 0.14360428 0.023194587
-0.059463046 -0.008097418 0.03416956 0.0015315798 -0.0968377 -0.08958343 0.1967541 -0.045616906
-0.02658039 0.100641795 -0.07046731 -0.13321415 -0.014418175 0.05982475 -0.015880926 -0.038555015
0.044558268 -0.11677462 0.019499205 0.0067799827 0.111971766 0.027815057 -0.05093004 -0.12478034
-0.06699367 -0.07068791 0.042229723 -0.009233273 -0.08531364 -0.016268808 0.15634514 -0.045964085
-0.117603526 0.041715864 -0.05361609 0.016303618 -0.042699095 0.09654303 0.0035075597 -0.06682101
0.0075736614 0.12869558 -0.03680384 -0.07990302 0.18307684 0.11945457 0.06743855 -0.11551953
-0.096359156 0.18515636 -0.080793716 -0.016191315 -0.12708753 0.0182657 0.0874677 -0.0119350795
0.031588905 -0.069001816 0.0798636 0.06216216 0.004609066 0.030241733 -0.086047575 -0.177277
0.001732475 -0.0075789336 0.044577543 -0.1066664 0.078840025 0.113879785 0.059841633 0.11948056
00000000: b84d b1bd a259 4dbd 15cc 0e3d 0449 86bd
00000010: 9a60 c63d f3de 863e 8cbf 143c b411 65bd
00000020: 71ea 493e 8da6 09be 4842 6bbc ba3f 8dbd
00000030: fc9d 7bbc f398 10be ea1f f13c dea2 2dbd
00000040: 8545 373c 33b3 09be b4a1 adbd d6a4 d53d
00000050: 48f2 d93d b817 583d 4008 b53c 9d2f 1cbe
00000060: bd57 5c3c 1660 d53c 7fae 3f3e 2181 38bd
00000070: af46 ec3c 1a5b 4f3c f614 0f3d 379e 123d
00000080: abbf e23c 4ad8 163c 911e 65bd 36fb 9c3d
00000090: 7bd7 303d 599c 9a3c 63cc 2b3c 9d2c 18be
000000a0: dc44 90bb b1ab 183e fca8 133d 334c ecbd
000000b0: 955e 24bd fc7e ba3d 2e0f 043d 4180 f73c
000000c0: 589b 5e3d dba9 e83d 0a9e 1b3e 8d7d b1bd
000000d0: dfe3 ba3c 4db6 74bd df55 9abd d65c 9bbd
000000e0: 7f43 373e 776b f4bc cf6a febd 2ce0 5dbd
000000f0: d11c f63d e00d 5f3d ee35 783d 17e6 85bd
00000100: 8756 063e 78b0 693e 4fb3 e83c d528 833d
00000110: b546 b63c 33f5 d2bc 4504 cebc 722c 4abd
00000120: 95fb 1cbd ec94 bfbd 07f9 043d 2984 c93d
00000130: 7223 223e c9da 08be f35d 3c3a db62 14be
00000140: 215e c73d 9fa9 93bb 689b 063e 7443 a83d
00000150: 34eb a23b d039 58bd a552 81bd c80e 1c3c
00000160: 2941 4b3d 2c2f 073e 4c14 cfbd cdb1 d63d
00000170: ffb9 89bd 0c9d febc 7185 cabd 50ce 283d
00000180: 30ba 88bd 9a71 5dbd 4f43 95bc 2bc0 02be
00000190: d952 c5bc bdac 223e 96a0 91bd 1198 01bd
000001a0: 43b7 84bb c5a1 3abc 5257 edbd 97f6 cfbd
000001b0: 6f83 ba3d 17c8 013e face c1bd ccf8 80bd
000001c0: 2d71 403d 8591 203d e478 643d 032e 053d
000001d0: 63e5 5d3d a600 723d d235 ac3d 325c bf3c
000001e0: 959d b3bd 6727 893d 2613 3cbe 23a7 7d3c
000001f0: f2c6 a83d 82c1 c3bd cd6f 6c3c cf7e ee3b
00000200: 9764 3e3e b06d 9e3d 3c13 1ebd 67d2 f6bd
00000210: 6191 ad3c 7633 98bb f531 82bd 4a32 5f3d
00000220: d79f 2d3c 1aba 81bc a233 ddbc ac12 65bc
00000230: eb17 3fbc 2dad 183e 3c09 86bc c67d 2a3d
00000240: 0d36 8ebd 121c 6a3c ad9d 853a 772b a43d
00000250: 5035 8ebc f8eb 1abd a7a5 393e 907b 06be
00000260: e7af b5ba d085 6ebd 4548 6c3d 232b 613e
00000270: a7f9 3abe 7242 b1bd 53fc 75bb f2a9 00be
00000280: 3aa1 32bd 34de 613d 464a eb3c 5086 403e
00000290: 0a45 b73d e4b9 d1bc f94c aabd 8d3a a7bc
000002a0: 1355 fe3d 6003 9b3c 6593 b23c 457c 85bd
000002b0: 5f37 183e 4cf7 f0bc e71f 87bd ecce 41bd
000002c0: bfb3 2a3c 956c 2f3c a739 f6bd b676 b7bd
000002d0: 8e77 9339 cdec 52be 000d 133e 9302 be3c
000002e0: 868f 73bd 08ab 04bc 61f5 0b3d 4abf c83a
000002f0: d852 c6bd 8477 b7bd e879 493e cbd8 3abd
00000300: 1ebf d9bc 491d ce3d 2a51 90bd 4a69 08be
00000310: 363a 6cbc cc0a 753d b718 82bc ddeb 1dbd
00000320: bb82 363d 8827 efbd ccbc 9f3c 9e2a de3b
00000330: 7451 e53d 67dc e33c 059c 50bd d68c ffbd
00000340: fa33 89bd d3c4 90bd 13f9 2c3d 2747 17bc
00000350: ebb8 aebd 2a46 85bc f118 203e d644 3cbd
00000360: 1eda f0bd 41de 2a3d 8c9c 5bbd 2a8f 853c
00000370: 3fe5 2ebd 5ab8 c53d 16df 653b 74d9 88bd
00000380: 7a2c f83b c6c8 033e a0bf 16bd 32a4 a3bd
00000390: 7f78 3b3e 99a4 f43d 391d 8a3d 8195 ecbd
000003a0: f357 c5bd a199 3d3e 2d77 a5bd a6a3 84bc
000003b0: 3c23 02be f3a1 953c 4422 b33d 5a8b 43bc
000003c0: 5e63 013d d350 8dbd 878f a33d c09d 7e3d
000003d0: a607 973b 83bd f73c b639 b0bd 1a88 35be
000003e0: 3714 e33a b458 f8bb f196 363d ea73 dabd
000003f0: e176 a13d ce39 e93d 801c 753d 39b2 f43d

network_body._body_endoder.seq_layers.2.bias f4 [128]
0.006100812 -0.0011458003 -0.0037115286 0.0007967951 0.0062913354 -0.0029525445 0.0011981511 -0.00030990774
-0.0022213738 0.0060713105 0.004592295 -0.00065326423 0.0024998907 -0.005043634 -0.0029967176 -0.00038016806
0.0027326976 0.00077556045 0.0057209805 0.0014040652 -0.0006436102 -0.0018583933 0.000187879 -0.0042658704
0.003558234 -0.003434133 8.729553e-05 -0.00590454 -3.925884e-05 -0.0016799384 -0.0034856617 0.00017398034
0.0017989436 -0.00674477 0.006060558 -0.00023872394 0.0019124469 -0.0053448374 -0.00096850394 -0.0057807514
0.001238326 -0.0014744943 0.00394501 0.0058212103 0.005981007 0.0050624716 0.002574584 -0.001963044
0.003423525 0.0006642589 -0.00049565604 0.00508958 -0.0010765946 -0.0021072244 -0.0027204289 -0.0035289207
-0.0047726813 0.003837435 0.00051374006 -0.002195441 -0.001985878 -0.0011802089 -0.0012784753 -0.0048360904
-0.00029286617 0.0055616563 -0.0032702114 0.00076413393 -0.0025425013 0.0038726695 -0.0037888584 -0.0031108544
0.0014092972 0.0022366582 0.0022687397 -0.0026861085 0.004938015 -0.0033770944 0.0036177516 0.0057907132
-0.003371853 9.140646e-05 0.0039126948 -0.003167343 -0.001828431 -0.0055168015 -0.0026024939 -0.0036095607
-0.0013810114 0.0006207461 0.0044157035 -0.0039526606 0.004063004 -0.002619994 0.0059828674 -0.0038159997
-0.0016466774 0.0017044024 0.0027132211 0.00053548947 0.003500221 -0.002716928 -0.0038829974 0.004302742
0.005452618 0.006140672 0.002974404 -0.002593401 -0.00038464429 -0.005646067 -0.0028379308 0.0025566195
0.002424066 -0.0012072725 -0.00086628424 0.0027544901 0.0053333337 0.0011214358 0.002084282 -0.0022235701
-0.0025562933 -0.0012865261 -0.0039011608 -0.0010925884 0.002895938 -0.0020117452 0.0029344603 -0.0045975368
00000000: 52e9 c73b ae2e 96ba 1e3d 73bb 04e0 503a
00000010: 8c27 ce3b 7a7f 41bb 480b 9d3a 1d7b a2b9
00000020: 7894 11bb d8f1 c63b f67a 963b d23f 2bba
00000030: 35d5 233b 1245 a5bb 9464 44bb 4b51 c7b9
00000040: 0f17 333b fb4e 4b3a 1077 bb3b 9c08 b83a
00000050: f3b7 28ba 5595 f3ba 6301 4539 b7c8 8bbb
00000060: 4331 693b 310f 61bb 6e12 b738 df7a c1bb
00000070: dca9 24b8 6131 dcba b36f 64bb 7e6e 3639
00000080: 88ca eb3a 3b03 ddbb a597 c63b f851 7ab9
00000090: 12ab fa3a bf23 afbb 33e3 7dba 756c bdbb
000000a0: 534f a23a d243 c1ba 2445 813b dabf be3b
000000b0: 53fc c33b 17e3 a53b 5aba 283b 6aa6 00bb
000000c0: 385d 603b a921 2e3a eaee 01ba 7ec6 a63b
000000d0: 851c 8dba 5c19 0abb 3949 32bb 7745 67bb
000000e0: 2764 9cbb 7a7d 7b3b 83ac 063a 63e1 0fbb
000000f0: 8125 02bb 3db1 9aba 8392 a7ba 1178 9ebb
00000100: d58b 99b9 8e3e b63b 0b51 56bb 2950 483a
00000110: 18a0 26bb 9dcc 7d3b 7f4e 78bb 7adf 4bbb
00000120: 2bb8 b83a e694 123b 23af 143b 6c09 30bb
00000130: 12cf a13b 3e52 5dbb cd17 6d3b 06c0 bd3b
00000140: 4efa 5cbb 78b1 bf38 1036 803b 3393 4fbb
00000150: f7a7 efba 49c6 b4bb 9a8e 2abb 618e 6cbb
00000160: 0e03 b5ba 91b9 223a 9bb1 903b 5285 81bb
00000170: f322 853b 35b4 2bbb ee0b c43b da15 7abb
00000180: 53d5 d7ba 4166 df3a 4cd0 313b 1760 0c3a
00000190: f763 653b 7d0e 32bb e379 7ebb 04fe 8c3b
000001a0: e0ab b23b b137 c93b 38ee 423b 0cf6 29bb
000001b0: 15aa c9b9 a502 b9bb 94fc 39bb f58c 273b
000001c0: 14dd 1e3b 583d 9eba 5a17 63ba ad84 343b
000001d0: 3fc3 ae3b 24fd 923a 7398 083b 51b9 11bb
000001e0: 7c87 27bb a7a0 a8ba 9eaa 7fbb 2f35 8fba
000001f0: c7c9 3d3b 7cd7 03bb 1350 403b efa6 96bb

action_model._discrete_distribution.branches.0.weight f4 [3, 128]
-0.0045675705 0.0013290878 -0.00010125443 0.013715747 -0.010350407 -0.0100539895 -0.011525235 0.018022068
-0.0081572775 -0.0106811095 -0.0053751892 0.0035030604 -0.00093811855 -0.0134921735 0.00087009365 0.0067703007
0.0024064681 -0.0034650755 -0.011043384 -0.01955488 -0.0024912565 0.004207653 -0.016703086 0.0060291076
-0.0029600724 0.0053818272 0.0009659122 0.0104341665 0.019077117 -0.0019852 -0.007251192 0.018504275
-0.0068275565 0.009653273 -0.04193356 0.019043295 -0.005425155 0.0020710444 0.0063172393 0.013070481
0.0064093634 0.00045993886 -0.0060006813 -0.014959132 -0.028828697 -0.0016163635 -0.0061289524 0.017988514
-0.007507242 -0.012598982 0.0069776727 0.0017157232 0.003916251 -0.0064691855 -0.0026659735 0.015968462
0.011647658 -0.010473127 0.0016678796 0.0009598345 0.0035013042 0.0059023183 0.004339224 0.00997266
0.013697558 -0.002691773 0.0103985 0.004233125 0.022117808 -0.017678462 0.0074329656 0.013809346
-0.0051245154 -0.0033651993 0.004699833 0.018145325 -0.0024708598 0.017352547 -0.01875891 -0.017852064
0.0095194 -0.006161782 0.0075314753 0.006688248 0.0047673956 0.014498673 0.01351112 0.01641224
0.009332572 0.003630151 -0.003371722 0.008920226 -0.012603016 0.0075326515 -0.013408848 0.0065064332
0.001337975 0.002942836 -0.00721581 -0.016217835 -0.007883879 0.007802688 0.00841479 -0.024232585
-0.00667686 -0.016183788 -0.005974697 0.005028527 0.0055990736 0.015007871 0.006911202 0.0019693975
-0.00075367664 0.005638606 0.006277517 -0.013625608 -0.0124859465 0.0012671954 0.006164147 -0.002142514
0.0031893204 0.0032797272 0.017177401 -0.003043009 -0.011363422 0.0061234967 0.0003412489 0.008061009
0.02755732 -0.0013288568 0.0016668525 0.010345553 0.008910661 -0.011609264 -0.0032303124 -0.00012739732
-0.01622873 0.0043527284 0.005454916 0.008547036 0.010450474 -0.021515662 -0.015402367 0.011850695
0.013793387 -0.00123972 0.009549373 -0.00137907 -0.00042327913 -0.0039846636 -0.0070612975 -0.012534707
0.021303857 0.004622983 0.0010130778 -0.011782039 0.01136655 -0.0037352857 -0.012158606 0.0019730516
-0.0012862526 0.00080582965 -8.15303e-05 0.00012093009 0.0042011887 -0.0011957159 0.007602487 -0.008209808
0.006930548 0.0019865916 0.00452463 0.002872217 0.003832645 0.009325487 0.0006476085 -0.0018825469
-0.0024350376 -0.0051503773 0.007378496 0.02402914 0.0012287342 -0.0047466797 -0.009065146 -0.014687045
-0.008156225 -0.0049925167 0.005453656 -0.01107765 -0.0028192953 0.0026394138 -0.002029879 -0.0070227794
0.0071414807 0.008859676 -0.005103551 0.0056572314 0.007674789 0.0058679725 0.0020688353 0.0011691212
0.00085098983 0.011276983 0.012488589 -0.0055370606 0.012047082 -0.0138807595 0.010606815 0.009886192
0.0011978393 -0.005744439 0.0129343085 -0.003772741 -0.006023086 -0.008592464 -0.01534777 -0.0037192472
-0.00036496742 -0.007129838 0.0029123584 0.00030110654 0.0074900496 -0.010591108 0.008760395 -0.013068512
0.002145074 -0.0045233984 0.011339147 -0.0040814616 0.002744147 -0.008627503 -0.007852604 -0.0040182536
0.008334564 0.013457548 0.01096046 -0.004644267 0.009686434 -0.010775083 -0.0032274614 0.009170167
0.019692076 -0.0066888314 0.012415016 0.011255419 0.0044131833 0.002921038 0.009318108 -0.013975198
-0.0043939683 0.0051345695 -0.012826911 -0.001937266 -0.0006930453 -0.0062829857 0.0031144302 -0.0076451683
00000000: 8fab 95bb c934 ae3a 8f58 d4b8 03b8 603c
00000010: c194 29bc 7db9 24bc 57d4 3cbc 04a3 933c
00000020: 1aa6 05bc d2ff 2ebc 5b22 b0bb 9a93 653b
00000030: 12ec 75ba 470e 5dbc ff16 643a 66d9 dd3b
00000040: d6b5 1d3b 5216 63bb 4fef 34bc 8e31 a0bc
00000050: 5944 23bb 5ae0 893b e9d4 88bc d28f c53b
00000060: c6fd 41bb 0a5a b03b 4535 7d3a 11f4 2a3c
00000070: 9d47 9c3c 211a 02bb 689b edbb 4796 973c
00000080: b2b9 dfbb c328 1e3c 86c2 2bbd af00 9c3c
00000090: 80c5 b1bb 5cba 073b d800 cf3b 9225 563c
000000a0: a305 d23b f323 f139 5da1 c4bb 2617 75bc
000000b0: 292a ecbc 29dc d3ba 61d5 c8bb a65c 933c
000000c0: 4fff f5bb f66b 4ebc f6a4 e43b 1ee2 e03a
000000d0: e553 803b 76fb d3bb 9db7 2ebb 4bd0 823c
000000e0: d2d5 3e3c 7a97 2bbc c19c da3a 679d 7b3a
000000f0: 2376 653b 3c68 c13b 0d30 8e3b 5e64 233c
00000100: b96b 603c 7568 30bb 785e 2a3c 07b6 8a3b
00000110: 6830 b53c 6cd2 90bc 3c90 f33b 9840 623c
00000120: 8deb a7bb ad8a 5cbb 0f01 9a3b 81a5 943c
00000130: 26ee 21bb ee26 8e3c 49ac 99bc 7e3e 92bc
00000140: 42f7 1b3c c6e8 c9bb 98ca f63b 1729 db3b
00000150: d037 9c3b d88b 6d3c bf5d 5d3c f672 863c
00000160: a5e7 183c d4e7 6d3b 1cf8 5cbb 2426 123c
00000170: e17c 4ebc 76d4 f63b c9b0 5bbc eb33 d53b
00000180: fe5e af3a 98dc 403b 9a72 ecbb 44db 84bc
00000190: 632b 01bc b1ad ff3b 30de 093c 6a83 c6bc
000001a0: 90c9 dabb dd93 84bc 64c7 c3bb 58c6 a43b
000001b0: 6f78 b73b 93e3 753c 5d77 e23b 0211 013b
000001c0: 6292 45ba 0ec4 b83b a1b3 cd3b f13d 5fbc
000001d0: db91 4cbc 0618 a63a 9dfc c93b 6c69 0cbb
000001e0: eb03 513b b1f0 563b 9fb7 8c3c 386d 47bb
000001f0: a52d 3abc 9da7 c83b a7e9 b239 5312 043c
00000200: e4bf e13c 092d aeba 4a7a da3a 6580 293c
00000210: 05fe 113c c834 3ebc a6b3 53bb f595 05b9
00000220: 1df2 84bc 55a1 8e3b 27bf b23b de08 0c3c
00000230: 7738 2b3c 9d41 b0bc 365a 7cbc 6b29 423c
00000240: a9fd 613c 1a7e a2ba f974 1c3c e9c1 b4ba
00000250: 90eb ddb9 c891 82bb 7562 e7bb 5f5e 4dbc
00000260: 6d85 ae3c 647c 973b 40c9 843a 7409 41bc
00000270: c43a 3a3c b2cb 74bb e434 47bc 504e 013b
00000280: 7a97 a8ba 503e 533a 3ffb aab8 d99b fd38
00000290: 20aa 893b 91b9 9cba 491e f93b 6e82 06bc
000002a0: a719 e33b 7a31 023b 5943 943b ce3b 3c3b
000002b0: 1d2d 7b3b edc9 183c 45c4 293a cbbf f6ba
000002c0: 2795 1fbb 7fc4 a8bb 50c7 f13b c2d8 c43c
000002d0: 7a0d a13a 098a 9bbb fa85 14bc eea1 70bc
000002e0: b0a1 05bc 4498 a3bb 95b4 b23b 087f 35bc
000002f0: edc3 38bb 04fa 2c3b b807 05bb 581f e6bb
00000300: 1503 ea3b 2d28 113c b03b a7bb 4c60 b93b
00000310: cc7c fb3b 1f48 c03b 4c95 073b 333d 993a
00000320: f614 5f3a 18c3 383c f09c 4c3c 3b70 b5bb
00000330: 2061 453c 206c 63bc 35c8 2d3c b2f9 213c
00000340: d100 9d3a d93b bcbb 6cea 533c 1740 77bb
00000350: 4f5d c5bb 68c7 0cbc 3775 7bbc 9dbe 73bb
00000360: 1959 bfb9 6ba1 e9bb 44dd 3e3b d6dd 9d39
00000370: 176f f53b 5486 2dbc c387 0f3c 501d 56bc
00000380: 5f94 0c3b 0439 94bb d4c7 393c c8bd 85bb
00000390: 26d7 333b 5f5a 0dbc 35a8 00bc 8eab 83bb
000003a0: b28d 083c 0c7d 5c3c 8093 333c ef2e 98bb
000003b0: d9b3 1e3c f989 30bc d183 53bb 783e 163c
000003c0: 4751 a13c fc2d dbbb 5a68 4b3c a668 383c
000003d0: 779c 903b e36e 3f3b faaa 183c 3bf8 64bc
000003e0: 47fb 8fbb e43f a83b f727 52bc dceb fdba
000003f0: 7cad 35ba 81e1 cdbb 781b 4c3b 5284 fabb

action_model._discrete_distribution.branches.0.bias f4 [3]
-0.0043411427 0.0035878455 -0.0009859364
00000000: 2540 8ebb 0f22 6b3b 893a 81ba

onnx::Div_52 f4 [6]
2.4290366 0.09836107 0.08804509 0.08804509 0.18265027 20.297564
00000000: 5675 1b40 8771 c93d fc50 b43d fc50 b43d
00000010: ac08 3b3e 6961 a241
