BasicAvoidance/Assets/results/BasicAvoidance1/PlayerAvoidance/PlayerAvoidance-640.onnx (onnx, 71865 bytes, 6 tensors)

network_body._body_endoder.seq_layers.0.weight f4 [128, 1]
000000 d5 6e b5 3e c8 30 d7 3f b3 06 3f 3f 3f 7f a7 3f
       0.3543612 1.6811762 0.746196 1.3085707
000010 31 f3 7f bf f2 ca 7a bf 50 88 ec be 79 e5 9a 3f
       -0.99980456 -0.9796592 -0.46197748 1.210128
000020 89 57 b6 3f f9 1f ee 3f c1 5a 15 3f 3a 76 ef 3e
       1.4245464 1.8603507 0.58341604 0.46769887
000030 d5 5f 54 3f cb e1 35 3f 83 e4 d6 be fc e0 f4 bf
       0.8295873 0.7104766 -0.41971216 -1.913116
000040 1f e1 e4 be a5 a2 1a c0 81 42 0d 3f 83 22 94 bb
       -0.44703004 -2.416177 0.551796 -0.0045207157
000050 88 32 09 3f 15 b3 88 be 0c 20 2e 3f 75 b2 36 bf
       0.5359273 -0.2669913 0.6801765 -0.71366054
000060 89 e2 ff be 03 bb 6e 3f 17 21 96 bf fc 5e b8 3e
       -0.4997752 0.9325411 -1.1728848 0.36009967
000070 b1 52 8b 3f e2 1b 63 3e cd 1c b1 bd 19 63 f9 be
       1.088461 0.22178605 -0.086480714 -0.48708418
000080 8a 1e 50 bb a7 39 00 3e 19 f5 95 3f 37 2d 58 3e
       -0.0031756484 0.12521993 1.1715423 0.21110998
000090 8a f4 11 3f 0e c2 9f 3f 84 b4 d0 bd e2 44 9c 3f
       0.5701376 1.2481096 -0.101906806 1.2208521
0000a0 4a 1b 14 3e ea 78 bd 3f fe 57 8a 3f b1 91 b9 bf
       0.14463535 1.4802525 1.0808103 -1.4497586
0000b0 80 f8 f6 3c 8f 0e 03 c0 a4 cb a5 3f e4 ae e7 be
       0.03014779 -2.0477636 1.2952771 -0.45250618
0000c0 b4 a9 83 bf ea 4e 62 bf 6b ba bd bf cd 6a ac 3f
       -1.0286164 -0.88401663 -1.4822515 1.3470093
0000d0 e2 fe 57 3d 40 42 e5 3d 94 e8 10 bf 41 3d cd be
       0.05273331 0.11194277 -0.56604886 -0.40085796
0000e0 f9 64 d4 bf 27 81 f7 3f f5 7f 86 3f 83 55 a6 3f
       -1.6593314 1.9336289 1.0507799 1.2994846
0000f0 9f 35 03 40 f9 54 6b 3d 82 d8 52 bf 80 2e 2d be
       2.0501478 0.057454083 -0.82361615 -0.1691227
000100 bf 9c d1 bf ef 1d d3 be 15 65 cd 3f 5e c9 ff be
       -1.637596 -0.41233775 1.6046473 -0.49958318
000110 2c e1 f8 bd 82 fc 6a 3d 51 5b f2 bd 1b bd 05 c0
       -0.12152323 0.057369716 -0.118338235 -2.089667
000120 99 e4 55 3e d0 93 be bf 8f 4a ec 3e 9b 3a 20 bf
       0.20887984 -1.4888859 0.46150634 -0.62589425
000130 af 37 cd bf 95 82 5f 3f 38 44 ab 3f 48 e3 37 bf
       -1.6032618 0.8730863 1.3380194 -0.7183118
000140 08 25 c5 bf 74 4f 00 40 0e 76 66 bf a0 94 6f 3f
       -1.5401926 2.0048494 -0.9002389 0.9358616
000150 25 21 21 3f d4 5e df be 4c d4 53 bf 91 b2 05 bf
       0.629412 -0.43627036 -0.82745814 -0.52225596
000160 25 d5 c6 3e a4 64 4a 3e ee ba a9 bf 69 d7 86 bf
       0.3883449 0.19764954 -1.3260171 -1.0534488
000170 38 b3 44 3d fe cb 4d c0 3c 34 8e bf 3d dc 10 bf
       0.04802248 -3.2155757 -1.1109691 -0.56586057
000180 6c c3 a8 bf 97 16 16 40 9e e0 3f be 35 20 71 3f
       -1.3184638 2.3451288 -0.18738028 0.9418977
000190 ab 87 3d bf c9 e6 9c bf 19 fe a3 3f 9e bf 7f bf
       -0.7403514 -1.225793 1.281192 -0.9990176
0001a0 db a8 f2 3f 5c 9d cd 3e 55 8d 27 3e 96 56 3b bd
       1.8957781 0.40159118 0.16362508 -0.04573687
0001b0 2c c4 31 bf 46 b2 86 3f 31 95 14 bf 37 58 0d c0
       -0.6943996 1.0523155 -0.5804015 -2.2085092
0001c0 44 35 17 3e b4 66 7f bf ac e2 5d 3e e4 eb 6b bf
       0.14766413 -0.9976609 0.216685 -0.92156816
0001d0 f1 d1 9d 3e e3 1f 10 40 d0 f6 9b 3e 43 9c 16 bf
       0.30824235 2.2519462 0.3046174 -0.58832186
0001e0 01 b9 71 3e 6d d3 4a 3f 9e 34 41 3d dc ba 07 bf
       0.2360573 0.7922886 0.04716932 -0.530195
0001f0 75 74 6b bf b6 50 57 bf 80 96 94 3e 6f a5 00 c0
       -0.91974574 -0.8410753 0.29021072 -2.0100973

network_body._body_endoder.seq_layers.0.bias f4 [128]
000000 38 5e 2a bb 26 22 e3 bb c5 f5 86 38 34 46 cd 3a
       -0.00259961 -0.006931561 6.435396e-05 0.0015661181
000010 b3 5e dd 39 d6 a3 09 3c d9 2b 12 bc 54 9a 9e 39
       0.0004222296 0.008400878 -0.008921587 0.00030251092
000020 61 0a 08 3a 6d f2 fc ba 61 c8 00 39 03 6a 06 3b
       0.0005189535 -0.0019298323 0.00012281678 0.0020509965
000030 02 9b e7 bb 4c b0 02 3a a7 0b b4 39 fa 57 d1 3a
       -0.007068039 0.0004985377 0.00034340957 0.0015971654
000040 20 9a 0b 3c 18 a0 f3 3b 6b 88 ac ba 5d ce 5e 3b
       0.008520633 0.007434856 -0.0013163214 0.0033997514
000050 c0 5b 31 3b d4 7d 63 ba ac 40 a5 bb e4 8c dd 3b
       0.0027062744 -0.00086781126 -0.00504311 0.0067611802
000060 35 16 48 3c 0a 19 42 3b b6 30 72 3b fc 45 30 3b
       0.012212326 0.0029616975 0.0036955304 0.0026897183
000070 a0 a1 dd bb 07 39 5a 3b d0 f7 45 3c 2c 8e 0a 3c
       -0.006763652 0.003329815 0.012083009 0.008456748
000080 d0 05 50 ba 11 8d 11 bc 18 3a 0d bb f0 7e 61 3b
       -0.00079354364 -0.0088837305 -0.002154952 0.0034407936
000090 e4 75 63 bb af 97 e9 3a 53 fd 59 3b 3e b1 8d bb
       -0.003470772 0.0017821694 0.0033262565 -0.0043241074
0000a0 bf 81 82 ba 4e ea 16 3a a7 06 63 bb ee 1f 11 3c
       -0.000995688 0.000575696 -0.0034641416 0.00885771
0000b0 51 be e8 bb 0c 89 74 39 1c 09 86 3a 84 7c b1 bb
       -0.0071027656 0.00023320707 0.0010226103 -0.0054164547
0000c0 9d 0f c8 3b 88 5f 9d 3b 9f 4e b8 ba d2 e5 86 ba
       0.006105377 0.004802648 -0.0014061517 -0.001029188
0000d0 e7 cc 9f 3b 2b cf 06 3b 04 db e5 3b 0b 85 85 3b
       0.004876721 0.002057026 0.007014634 0.004074698
0000e0 f3 e9 18 bc 77 b3 22 3a f0 36 56 bb ee d9 22 bb
       -0.009333122 0.0006206552 -0.0032686554 -0.0024849134
0000f0 43 01 82 3a 44 28 21 bc 85 c0 09 3c 84 2d 26 ba
       0.0009918589 -0.00983626 0.008407717 -0.000633918
000100 c0 9e 96 3b 17 ce 22 bc c8 e4 a7 b9 24 9d 85 bb
       0.004596561 -0.009936831 -0.00032023177 -0.0040775705
000110 1d 00 dc 3a 55 57 53 ba 57 c4 35 3a 5c a1 be 3b
       0.0016784702 -0.0008062025 0.0006933859 0.0058175754
000120 56 9e 31 3b 4a 6d 6e bb 05 23 23 b9 85 79 f4 3b
       0.0027102432 -0.003638106 -0.00015557937 0.0074607753
000130 45 5c 30 3b 77 89 1c 3b b3 e7 e5 bb 2d 0c fb bb
       0.0026910466 0.0023885646 -0.007016146 -0.0076613636
000140 ad d6 6e 3b 06 cb ca bb e4 41 15 bc 03 28 03 bb
       0.0036443875 -0.006188753 -0.009109948 -0.0020012863
000150 58 c7 6b 39 1c 01 c4 3b d7 a3 a3 bb 80 60 4e bb
       0.00022485608 0.0059815776 -0.0049938965 -0.0031490624
000160 eb d0 3a 3b 9e f3 0e 3a 12 28 90 3b 98 76 bd bb
       0.0028505872 0.0005453172 0.004399308 -0.0057819597
000170 0b 39 46 3b 67 71 a7 ba 1d 58 c3 39 d1 63 3e 3c
       0.0030246403 -0.0012774885 0.00037258948 0.011620478
000180 17 e8 9f 3b fd b3 e4 3a 44 a4 4a b9 ad 14 17 bb
       0.004879962 0.001744866 -0.00019325415 -0.0023053095
000190 e1 47 c4 3b 01 03 a1 bb a2 03 23 3b af a9 64 3c
       0.005990014 -0.004913688 0.0024873991 0.013956471
0001a0 3a 91 ef ba cb 52 b9 3a b1 3e 48 bb 04 23 11 3a
       -0.0018277534 0.0014139054 -0.0030554945 0.0005536529
0001b0 df 70 22 bb 19 b5 30 bb 0c 9f fe 3b 31 c3 b5 3b
       -0.0024786515 -0.0026963411 0.0077704247 0.0055469503
0001c0 58 70 32 bb a9 93 8e ba 22 52 80 bb 2e 78 25 3b
       -0.0027227607 -0.0010877746 -0.003916041 0.0025248635
0001d0 d2 80 86 bb 9b 15 a2 bb 93 ca 64 ba fe 7c 9e 3b
       -0.004104712 -0.004946423 -0.00087276957 0.0048366776
0001e0 5a c0 a3 39 3f fc bf bb 31 64 c0 3a 83 4d a0 3b
       0.00031233096 -0.0058589275 0.0014678297 0.0048920526
0001f0 32 03 f4 3b e9 b8 e3 3b 43 b3 71 bb 64 74 ab 3b
       0.00744667 0.0069495332 -0.003688053 0.0052323807

network_body._body_endoder.seq_layers.2.weight f4 [128, 128]
000000 92 9d 20 be c3 4a 9b 3d d7 1f 38 3d 42 78 05 be
       -0.15685108 0.07582619 0.04495224 -0.13034156
000010 28 04 65 3d 1a c9 71 3c b4 2b 54 bd a5 c7 d2 bc
       0.055912167 0.014757419 -0.05179949 -0.025729964
000020 bb e6 86 bd 4b f7 25 3d 52 c1 ed 3d 88 90 ca bd
       -0.06586977 0.04051904 0.116091385 -0.098908484
000030 4a 0a 66 3c 14 4e 83 3a 84 b7 cb bc d4 aa 90 3d
       0.014040539 0.0010017776 -0.02486778 0.07063833
000040 04 da 81 3d f8 82 99 bb 44 de 71 3c ec 6a b7 bd
       0.06340411 -0.004684802 0.014762465 -0.089559406
000050 31 47 82 bd 77 c7 91 bc 78 e5 67 bd f0 cc bd 3c
       -0.06361235 -0.017795308 -0.056615323 0.02316901
000060 71 49 25 3d 9c 7b b3 bd 05 27 cb bc 69 67 99 bc
       0.040353242 -0.08763811 -0.02479888 -0.018726068
000070 7f 5c ff 3d 6a 2c 1a 3c 90 24 c3 3d f4 1f a5 bd
       0.12468814 0.009410003 0.09528458 -0.08062735
000080 2e 90 b7 bc 81 0a 40 3d 41 b9 11 3d 1c 70 b2 bd
       -0.022407617 0.046885017 0.035577063 -0.087127894
000090 72 b4 e2 3b a5 63 9e 3b b9 5b 7a bd 16 3d 12 3e
       0.0069184834 0.004833656 -0.06112263 0.14281115
0000a0 a4 9c 22 bd 65 c5 9b 3d d7 c6 93 bc d7 1a fc 3c
       -0.039700165 0.076060094 -0.01803915 0.030774517
0000b0 25 e6 18 bd 25 e5 16 3d a7 55 07 3c 03 a9 b7 bb
       -0.037328858 0.036839623 0.008260167 -0.0056048646
0000c0 cd 8c 79 bd ea c6 a6 bd 5d e4 49 bd 1c ee 9f 3c
       -0.060925294 -0.081434086 -0.04929005 0.01952272
0000d0 db 26 3f bd a1 b3 2d be 20 6d 5e 3d 2e 1a 91 3d
       -0.046667915 -0.16963054 0.05430329 0.070850715
0000e0 35 5d 8f bd 90 67 52 bd 97 d5 56 bd bc b8 46 3e
       -0.070002 -0.051368296 -0.05244979 0.19406408
0000f0 8c db e3 3d 99 c6 3f bc ec 96 b2 3b a2 6d 89 bc
       0.111258596 -0.011705064 0.00545012 -0.01677591
000100 98 35 2c 3d 11 d7 77 3d cf ee 9c bd 22 55 9a bd
       0.0420433 0.060507838 -0.076627366 -0.07535769
000110 73 72 4b be 70 74 b7 3d bc c8 38 3e 77 d9 2a 3d
       -0.19867878 0.089577556 0.18045324 0.041711297
000120 4f b0 96 bc fc 51 21 be 02 9d 05 3e e2 6c 3f bd
       -0.018394617 -0.15753931 0.13048175 -0.046734698
000130 ec a0 f8 3c 96 7e bd 3d 65 99 1e bd b3 7f bc 3d
       0.030350171 0.0925266 -0.038720507 0.09204044
000140 55 70 0e be 38 63 95 3d 68 87 24 bb 7b bb 34 be
       -0.13910039 0.07294315 -0.0025105122 -0.17649643
000150 63 56 98 3d ef 37 99 3d 04 3c 1a bd 75 b6 de bd
       0.07438352 0.074813716 -0.03765489 -0.10874645
000160 e5 d9 c8 bc fa 39 81 bd d7 54 02 37 bc 79 b3 bd
       -0.024517963 -0.06309886 7.768357e-06 -0.08763453
000170 b4 4c e6 bc c6 81 96 bb 8d b6 0d 3d 79 7f e6 bd
       -0.028112747 -0.004593107 0.034597922 -0.11254782
000180 1f 8c aa 3c 2f 38 81 bd f2 a5 d6 bd 3b a7 59 3d
       0.020818768 -0.06309544 -0.1048087 0.053138
000190 17 c2 16 3d c5 ce 7e bd 59 95 49 be 15 5b f6 bc
       0.036806192 -0.06220891 -0.19685878 -0.030072728
0001a0 bd 81 20 3d d2 ce a5 bc f2 a7 83 3d 70 b1 06 3d
       0.039186228 -0.020240221 0.064285174 0.03288406
0001b0 22 8c e1 3d a2 8b 2d 3d 4c f0 d5 3a bc c4 e1 bc
       0.11013056 0.042369492 0.0016322224 -0.02755963
0001c0 83 b3 be bd cd eb af bb d0 00 02 3d ad fb 3b 3d
       -0.09311583 -0.005368686 0.031739056 0.045894314
0001d0 01 a5 9b bc 62 fa c2 3d 7e eb 39 bd 4d 41 f1 bd
       -0.018999578 0.09520413 -0.0453906 -0.11780033
0001e0 0e cf ac 3d fb ea 02 3d fe 25 4b bd 7c a1 2a 3d
       0.0843793 0.031962376 -0.04959678 0.04165791
0001f0 5c a5 9d 3d 5a 92 d2 bc 8e 6a 07 3e 99 7e 4b 3d
       0.076975554 -0.025704551 0.13224241 0.04968128
000200 d5 7c 63 be cd 5d cd bd c5 a8 ed bd da 64 9a 3c
       -0.22215588 -0.10027657 -0.11604456 0.018846918
000210 64 d6 93 bd 56 88 40 3c 11 51 e2 bd ef da 53 be
       -0.07218626 0.011751255 -0.110506184 -0.20688985
000220 6c f8 d6 3d 17 70 7b 3e f1 e1 d5 bd 58 6c 2b bd
       0.104966015 0.24554478 -0.104434855 -0.04185137
000230 25 7d 80 3d 93 24 1f 3d 50 5e 39 bc bc a9 e6 ba
       0.062738694 0.03885324 -0.01131399 -0.0017598192
000240 7d 41 3c 3d 3b 3c 4e 3d 15 90 36 3e 5b 9b ec 3c
       0.045960892 0.05035041 0.178284 0.028882673
000250 7c 24 27 bd e8 04 26 be b9 7a 86 3d 39 b4 f9 3d
       -0.04080628 -0.16212809 0.06566376 0.12192578
000260 08 cf ac 3b 5f 5a 8e bd ad 9f f6 3d 1a 17 aa bc
       0.0052737035 -0.06950831 0.120421745 -0.020762969
000270 b4 9a bb 3d 32 9d a9 3d 8d cd b4 3c 2c e1 7d 3d
       0.09160367 0.08281936 0.02207067 0.06198232
000280 ce 23 03 be ec ee 5b 3d fc ee 03 3e 7c c0 b9 3d
       -0.12806627 0.05369465 0.12884134 0.090699166
000290 8c e5 0a 3d 58 16 e5 bd 8b 7b c5 3c a1 93 7c bd
       0.03391032 -0.11185902 0.024106761 -0.061664227
0002a0 b5 b5 89 3b 15 2f 0c be e1 d4 25 3e a9 39 0a 3c
       0.0042025694 -0.13689835 0.16194488 0.008436599
0002b0 0d 35 2a 3e a0 3f 6c bd e3 6d 70 bd 4a 72 11 3e
       0.166218 -0.057677865 -0.058698546 0.14203754
0002c0 44 08 9b bd e8 df 2f 3b 8c 91 50 3d 05 24 fa 3d
       -0.07569936 0.002683634 0.050920054 0.122139014
0002d0 e5 89 0a bc 05 7a 12 be a9 83 94 bd 51 89 6d 3d
       -0.008455728 -0.1430436 -0.07251675 0.057992283
0002e0 8e 3a 28 be c4 44 02 3d b7 f7 d9 bc 60 2d 33 3c
       -0.16428587 0.03180386 -0.026607377 0.010936111
0002f0 74 c6 8c bd a4 72 1f bd 96 80 84 bc bd ef 06 3e
       -0.068737894 -0.03892769 -0.016174596 0.1317739
000300 ea 14 e8 3d a0 38 08 3e 45 a0 6d bd f3 f5 41 bd
       0.11332114 0.1330285 -0.058014173 -0.047353696
000310 58 9e 09 3d 68 ef b5 bd 9f 62 49 3d d9 53 e7 3c
       0.033598274 -0.08883554 0.049166318 0.028238224
000320 09 0b 83 3c e7 ea 96 bd 50 3e 0d 3d 17 43 db ba
       0.015996473 -0.07369023 0.034483254 -0.0016728368
000330 d8 47 0a bc aa e3 56 3d 90 39 aa 3c bf 91 10 bd
       -0.00843998 0.05246321 0.020779401 -0.035295244
000340 cd 51 4f 3e cb 6d e4 3d bd ed a3 3d bf 79 50 bd
       0.20246048 0.11153754 0.08004329 -0.050897356
000350 f5 f0 b9 bc 10 9c 00 3e c3 b1 2b bd 17 3b 31 be
       -0.022697905 0.12559533 -0.041917574 -0.17307697
000360 1f 3b b5 bc 13 db d4 3d e0 fb db bc 9c 29 71 bd
       -0.022122918 0.103933476 -0.026853502 -0.058877572
000370 d3 51 95 3d 1a fc 38 bc bb 40 9a bd db 83 06 bd
       0.07290997 -0.011290574 -0.075318776 -0.03284059
000380 13 58 be bd 2d 5b da ba f5 77 be bc 18 0c 51 bd
       -0.092941426 -0.0016659253 -0.02325056 -0.051036924
000390 c7 41 53 3d 9a de 58 3d a9 47 f1 3d 94 1c 6f bd
       0.051576402 0.052946664 0.11781246 -0.058376864
0003a0 6d df 35 bd d2 4c 06 3d 79 fc 26 3c 2d 8b a2 bd
       -0.04440253 0.032788105 0.01019203 -0.07936702
0003b0 ca ab 05 be 5b 37 1e bd d4 74 2e bc 00 c0 15 3d
       -0.13053814 -0.03862701 -0.010647971 0.03656006
0003c0 3b 38 dd 3c ec a2 85 bd 16 15 0e 3d 7d 52 11 3d
       0.027004352 -0.065252155 0.034688078 0.035479058
0003d0 67 96 9d 3d f2 5e 7d 3c f9 63 23 be c9 91 aa 3d
       0.076947026 0.015464531 -0.15956105 0.083285876
0003e0 2e 70 be 3c 1f 4b 5d 3d e9 72 7d bd a3 55 1c 3d
       0.02324685 0.05402672 -0.061877165 0.038167607
0003f0 01 5a cc bc 4d 7b 02 bc 88 4c c4 3d ec 4a f7 bd
       -0.024945261 -0.0079639675 0.0958491 -0.12074837

network_body._body_endoder.seq_layers.2.bias f4 [128]
000000 da 1c a4 bb a3 6b fd bb 62 99 f5 b9 41 c0 d0 3b
       -0.005008322 -0.0077337786 -0.0004684432 0.0063705747
000010 26 d0 b9 bb 35 84 48 3b 08 e6 98 3a ca e2 3c bb
       -0.005670565 0.003059638 0.0011665234 -0.00288217
000020 96 24 f4 3b d8 e7 8d 3a 32 9e 03 3a 83 25 2a 3b
       0.0074506504 0.0010826541 0.00050208264 0.00259623
000030 91 a1 49 bb 3a 79 aa ba 20 6e c3 3b ad 92 c8 bb
       -0.0030766467 -0.0013006099 0.0059640557 -0.0061210007
000040 aa 07 a9 bb 2a 0e d1 bb 54 33 6b 3a 4a d2 37 ba
       -0.0051583843 -0.0063798623 0.0008972187 -0.00070122315
000050 01 a0 f2 ba b2 52 7c 3b 10 0f ba bb 84 c2 8c 3b
       -0.001851082 0.0038501439 -0.005678065 0.004295649
000060 f5 03 9e bb 28 99 f2 bb d0 30 35 39 88 55 04 bb
       -0.004822249 -0.0074035116 0.00017279689 -0.0020192582
000070 25 c7 50 3b 6c 9b c7 bb a1 57 51 3b e2 54 86 bb
       0.003185698 -0.006091526 0.00319431 -0.0040994743
000080 5a 71 ce bb ce dd 91 3b 78 7e 9f bb a2 ed 39 3b
       -0.0063001337 0.00445149 -0.004867371 0.00283704
000090 f0 d1 86 bb d8 25 0a 3b 2d 4f fc ba 7e e3 1d 3c
       -0.004114382 0.0021079686 -0.001924967 0.009636758
0000a0 8e 01 80 ba 73 68 43 bb 8b fc 0e b9 c9 9e 6b 3b
       -0.0009766088 -0.0029816895 -0.00013636255 0.0035952798
0000b0 5e ce 67 bb 39 26 d4 ba a9 9e 41 bb fd 1d d2 3a
       -0.0035370807 -0.0016185708 -0.0029544032 0.0016030666
0000c0 42 a2 04 3b fe 1e a0 b9 68 ff 2c 3b f8 36 93 bb
       0.0020238315 -0.0003054067 0.0026397351 -0.004492637
0000d0 67 ad 90 3b b8 61 76 3b 6a 49 82 bb 62 b3 e3 3b
       0.0044152024 0.0037594866 -0.003976037 0.0069488743
0000e0 7e d2 ae 3b dd a6 e5 3b da 07 04 bb 1a a7 16 3c
       0.005335151 0.007008417 -0.0020146281 0.009195114
0000f0 46 1e ec 3b 45 90 88 b9 45 46 87 ba cd ea 38 3b
       0.0072057573 -0.0002604743 -0.0010320625 0.0028216124
000100 00 86 1f bb 43 3f df 3b ad dd 91 b9 53 bb 2b 3b
       -0.0024341345 0.0068129613 -0.00027821717 0.0026204183
000110 61 18 d6 3a 13 2c b6 3b 43 9c 8d bb ad 74 c3 3a
       0.001633417 0.0055594533 -0.0043216064 0.0014912091
000120 88 fa 18 bb 19 b9 aa 39 dd b9 1a bb 7d eb 88 3b
       -0.0023342688 0.00032562835 -0.0023609318 0.004178463
000130 e7 0d 02 b9 37 1e 83 bb 12 14 ac 3b 6c fe 07 3c
       -0.00012402945 -0.0040014046 0.005251416 0.008300405
000140 32 06 c1 3b 2b d2 28 3b 95 5c d9 3a 15 26 00 3c
       0.005890631 0.0025760035 0.0016583378 0.007821579
000150 ad e9 5c 3a bc c9 1d bb 8f ed a0 3b a7 54 68 bb
       0.00084271544 -0.0024076542 0.0049111317 -0.0035450847
000160 c5 b4 29 bb 1c 9f 14 3b ed 51 75 39 cd 5c 34 3b
       -0.00258951 0.0022677844 0.0002339554 0.0027521134
000170 02 dd 5c bb df 1b 81 bb 76 c0 94 3b 13 2c 80 38
       -0.0033701067 -0.00394009 0.0045395447 6.111725e-05
000180 2f 4e 11 bb 46 30 6a 3a b0 f9 b7 bb cf e1 c3 bb
       -0.0022171845 0.0008933585 -0.005614482 -0.005977846
000190 0d bf 2d 3b 70 0d 3f 3b 8b 4d 8f bb 64 14 81 3a
       0.002651158 0.0029152296 -0.0043732575 0.0009847996
0001a0 a5 ab d7 bb 34 a5 01 3b 8d 60 04 bc 5f 98 a2 3b
       -0.006581741 0.0019782307 -0.00807966 0.0049620117
0001b0 e3 8f b6 3b d1 aa 1d 3b 30 f9 90 ba 95 cc e2 ba
       0.005571352 0.0024058113 -0.0011060592 -0.0017303402
0001c0 76 fc 98 b9 4d 49 ec 3b 11 6b d4 ba 76 7d 20 3b
       -0.00029179797 0.0072108866 -0.0016206225 0.0024488843
0001d0 38 1c 6a bb c1 35 8f ba e1 1e 3f 3b 8d eb 15 3b
       -0.0035722386 -0.0010926054 0.0029162692 0.0022875995
0001e0 d0 c6 d2 ba 88 be 7f ba 0b 96 b0 ba 9c 6b 8f ba
       -0.0016080979 -0.00097558694 -0.0013472451 -0.0010942104
0001f0 0e 79 03 bc d7 e8 a1 3b 99 8b 36 ba 3d d6 94 bb
       -0.008024467 0.0049410868 -0.00069635507 -0.0045421408

action_model._discrete_distribution.branches.0.weight f4 [3, 128]
000000 0d ef d4 bb f8 5f 86 bb 71 12 79 bc 39 6a da 3b
       -0.0064982236 -0.004100796 -0.015202151 0.0066654948
000010 fb 04 dc 3b bd eb e7 3b 3e 20 84 bc 5f 6f 93 bc
       0.006714461 0.0070776627 -0.016128656 -0.017997442
000020 4d ab 91 3b cb 5a bf ba de 80 a9 bc 52 f3 d1 3a
       0.0044454695 -0.0014599202 -0.020691331 0.001601795
000030 a9 14 1e 3c fb 17 a4 bc 6a 24 02 bc ad 7d cb ba
       0.00964848 -0.020030966 -0.007943252 -0.0015525125
000040 28 2b f2 bb 98 e6 3f 3a d4 aa 0e bc f1 48 5a bc
       -0.0073903985 0.0007320433 -0.008707721 -0.013323055
000050 21 97 78 3b 28 09 46 bc d9 0c 1a 3c f1 94 39 3c
       0.0037931877 -0.012087144 0.009402477 0.011327014
000060 b1 0e a4 3b aa da 22 bc e2 80 48 bc a9 38 f3 bb
       0.005006634 -0.009939829 -0.012237759 -0.007422526
000070 a9 79 0b bc d0 af 2f bc 51 55 46 bb 05 6d d8 3b
       -0.008512893 -0.010723069 -0.0030263255 0.006604793
000080 d1 61 9e bb 36 53 cf 3b 09 4f 7e 3b de c4 3b 3c
       -0.004833438 0.006327058 0.0038804433 0.011460511
000090 fc 24 06 ba 20 fe 6a bb eb ee de 3c 99 0d 29 3b
       -0.00051172054 -0.0035857037 0.027213534 0.0025795458
0000a0 5b 5d 80 bb 2c f3 4e bb c8 e3 9c bc 4c 18 85 3c
       -0.003917379 -0.0031578047 -0.019151583 0.016246937
0000b0 36 6b 9f ba 09 e7 4a 3b 45 1e 45 3c 4d 41 61 3c
       -0.0012162689 0.0030960462 0.012031143 0.013748479
0000c0 6e 19 c5 bb 13 66 5d bc 2c ca bf bb 8e 6e 16 bb
       -0.0060149943 -0.013513106 -0.005852958 -0.002295408
0000d0 f0 77 29 3c f8 0b b4 ba ec 5e 51 bb 1e 4e 6a bb
       0.010343537 -0.0013736477 -0.0031947447 -0.0035752128
0000e0 5e d2 4d 3c c8 16 15 bb 65 17 37 3b 68 18 2e 3c
       0.0125623625 -0.0022749174 0.0027937528 0.010625936
0000f0 c5 0e 1a 3c e3 19 09 bc 95 90 51 3c 10 04 0f bc
       0.009402935 -0.008367988 0.012790819 -0.008728996
000100 02 8f 0e 3c 9c dc 94 3c b2 ce 96 bb 57 0c 8d bb
       0.008701088 0.018171601 -0.0046022767 -0.0043044495
000110 1b 9b 45 bc 0d e3 90 3c fd d2 b5 bb 86 63 21 3c
       -0.012060906 0.017686391 -0.0055488334 0.009850388
000120 b0 c2 e0 bb da 30 91 3c 77 64 e1 39 02 e6 96 ba
       -0.006859146 0.01772349 0.00042990196 -0.001151264
000130 99 21 9e bb 21 27 1b 3c f3 99 58 3c 32 0e 90 bb
       -0.0048257825 0.009469778 0.013220298 -0.0043962235
000140 77 e2 be 3c 14 2b 7b bb fe d1 4d bb 66 45 36 3c
       0.023301346 -0.0038325237 -0.0031405683 0.011124944
000150 2c 86 18 3b da c2 96 bb 7d 91 2f ba 18 63 e1 bb
       0.0023273332 -0.004600865 -0.00066973997 -0.006878268
000160 16 ed a0 ba 1a 44 4d bc ca 2c 2f 3c aa 6f 91 bc
       -0.0012277688 -0.012528444 0.010691831 -0.01775344
000170 52 c0 e1 3b 4a 43 ad 3b f6 c3 2b bb d5 f0 13 3c
       0.0068893814 0.0052875625 -0.002620933 0.009029587
000180 2d 68 19 3c 0b 0c 62 bb 1c 24 6a bb 26 c3 0a 3b
       0.009363216 -0.0034492041 -0.003572709 0.0021173446
000190 85 14 cb bc e2 66 bd 3b 61 d9 16 3c 16 e2 8c 3c
       -0.024790058 0.005780087 0.009207101 0.01719765
0001a0 7d f0 aa 3a ac b2 81 bc e7 cf c5 b9 31 73 91 bb
       0.0013041642 -0.015832268 -0.00037729667 -0.0044387807
0001b0 a6 55 a3 3a e2 85 61 bc 7e 27 b9 bb c5 d3 80 3c
       0.0012461438 -0.01376483 -0.00565046 0.01572598
0001c0 54 49 67 bb 4c 40 66 3c 7e 82 20 bc 32 33 80 bc
       -0.003529151 0.0140534155 -0.009796737 -0.015649412
0001d0 9c ed ae 3b 29 97 a1 bb 5b c3 91 3b 60 26 40 3a
       0.005338384 -0.00493135 0.004448337 0.0007329937
0001e0 06 91 80 bb 22 e1 67 3c f4 16 fb bb 2b 81 b3 bb
       -0.003923538 0.014152797 -0.0076626483 -0.0054780445
0001f0 9e 72 3f 3a 75 2b 26 3b ee 24 12 bc b2 3d 20 bb
       0.0007303151 0.0025355492 -0.008919938 -0.0024450836
000200 62 3f e7 3b 49 6c 01 3b 69 6a ca 3c 1e 07 f1 bc
       0.0070571164 0.001974838 0.024708943 -0.029422339
000210 60 3c a5 3c 67 c5 48 3c 14 69 83 3b fa 48 b1 3c
       0.02017039 0.012254096 0.004010329 0.021641243
000220 ff 16 76 bc 7b 50 a2 3c 7f 55 8e 3b 02 bf 78 3c
       -0.015020131 0.019813767 0.004343688 0.015182259
000230 12 8e 04 bc 62 1c c6 3b fb 7a ce bc b0 ac e8 3b
       -0.008090513 0.006045864 -0.025205126 0.007100664
000240 f6 19 b8 3c 3e 84 0d 3c d5 ec 2a 3c 33 52 c9 3c
       0.022473317 0.008637486 0.010432442 0.024575328
000250 c4 5d 53 bb 44 b0 24 3d 5c b6 8f 3c 8c 1a 78 bc
       -0.0032251934 0.040207162 0.01754301 -0.015143048
000260 62 38 81 3b e7 a2 02 bb 30 7d e6 3c e7 76 49 bb
       0.003943489 -0.0019933523 0.028135866 -0.0030741037
000270 e8 d5 5a bc e8 43 d8 ba 41 d2 44 bc 4c a2 e0 3b
       -0.013356663 -0.001649973 -0.012013019 0.006855285
000280 38 59 0b 3b 8d ac 21 bc a1 28 d2 bb c5 c0 58 bc
       0.0021262895 -0.0098677995 -0.0064135347 -0.013229554
000290 96 96 cb 3b 79 ff 28 3c b5 99 a2 3b 82 53 93 bc
       0.0062130196 0.010314816 0.004962171 -0.017984156
0002a0 d7 fb 42 3c 63 1d 27 3c ff ad 9f 3c 34 81 07 3c
       0.011900864 0.010199877 0.019492147 0.0082705505
0002b0 d8 f9 18 3c 2c 5a b7 bb 5d 48 07 3d f5 b5 37 bc
       0.009336911 -0.005595466 0.033027995 -0.0112128155
0002c0 9b 4c f0 bb 31 45 73 3c b0 33 a6 ba c3 34 5d 3c
       -0.007333351 0.0148480395 -0.0012680199 0.013501349
0002d0 ed b6 c7 ba af 39 ba bb 45 e3 41 3c 0e 3b a8 bc
       -0.0015237011 -0.005683146 0.01183397 -0.020535972
0002e0 96 76 9a bc a0 e6 a6 bc be 27 b4 3b 18 24 51 bc
       -0.018855374 -0.020373642 0.0054979017 -0.012764953
0002f0 c4 0d bb bc b6 75 a4 3b b4 28 ac bb 64 f7 41 3c
       -0.022833712 0.005018915 -0.0052538756 0.011838768
000300 c8 05 0a 3b af e5 00 bd e5 d3 c9 bb cd 88 2a 39
       0.0021060575 -0.031469043 -0.006159293 0.00016263426
000310 9b 09 f3 bb e4 97 2d bc d4 36 f4 3b a7 c5 ff 39
       -0.0074169165 -0.010595296 0.007452825 0.00048784653
000320 70 90 a0 3a b6 7f 02 3c 86 cb 21 3c ad 05 28 bc
       0.0012250077 0.007965019 0.009875184 -0.010255259
000330 df b2 cd ba b6 01 92 3a 11 c8 81 bc fd e0 cf bc
       -0.0015693567 0.0011139426 -0.01584247 -0.025375837
000340 9a e3 bf bc 4a d4 51 3b a3 4c c6 3b 8f fc 18 bd
       -0.023423959 0.0032017403 0.0060516163 -0.037350234
000350 25 f9 57 3c cf 2f 0e 3d ef 07 cd bb 9a 76 a2 3c
       0.013181959 0.034713563 -0.0062570493 0.019831944
000360 88 7e 4a 3c 68 fb 26 3c b4 18 b0 bb e1 84 15 3c
       0.012359269 0.010191776 -0.0053740386 0.009125919
000370 32 55 08 3c 4b 4f 31 3a b9 0a c8 bc 6f a4 91 bb
       0.008321093 0.000676383 -0.024419175 -0.004444651
000380 fa d5 b1 3b 04 9d 57 3c 3b f2 b4 3c 73 d6 e4 3b
       0.0054271193 0.013159994 0.02208816 0.006983572
000390 4d fb f0 3c 7c 74 8b bc eb 13 38 bb c2 bd 2c bc
       0.029416705 -0.017023318 -0.0028088044 -0.010543289
0003a0 f1 25 9e 3c 98 76 b4 3b 5e ea 92 3b 76 cc fa bb
       0.019305201 0.0055073015 0.004483505 -0.007653768
0003b0 d6 0e c8 bc e5 41 3f 3c 23 d7 ed b9 20 4e b9 ba
       -0.024421137 0.011673425 -0.00045364452 -0.0014137663
0003c0 ee cd d0 3b 2a 60 53 bc 0e 72 6f 3b 4c f9 b1 bb
       0.006372205 -0.012901345 0.0036536488 -0.00543133
0003d0 b8 84 52 bb 83 91 cc 3c cd b0 5f bb c0 7c b8 bb
       -0.0032122564 0.02497173 -0.003413248 -0.0056301057
0003e0 6c 4b 0f bc 18 44 c5 bb fd b8 9e 3c b3 5e 3e 3b
       -0.008746009 -0.0060200803 0.019375319 0.0029048144
0003f0 e0 fa 6e 3b 03 d5 20 bc a6 be 51 3b 15 07 0f 3c
       0.003646545 -0.009816411 0.0032004504 0.008729716

action_model._discrete_distribution.branches.0.bias f4 [3]
000000 a4 29 9c 3a e0 a2 c1 bb be 60 b2 3b
       0.0011914265 -0.005909309 0.0054436615
