BasicAvoidance/Assets/results/BasicAvoidance1/PlayerAvoidance/PlayerAvoidance-1444.pt (torch, 442002 bytes, 41 tensors)

network_body.observation_encoder.processors.0.normalizer.running_mean f4 [6]
0	0xbda73dd3	-0.08166089
1	0x3effd2a5	0.49965397
2	0x00000000	0.0
3	0x3bc742c6	0.006080958
4	0x3f051303	0.51982135
5	0x413f4440	11.954163

network_body.observation_encoder.processors.0.normalizer.running_variance f4 [6]
0	0x45db766b	7022.8022
1	0x3f9ffa55	1.249827
2	0x3f800000	1.0
3	0x3fbb4270	1.462965
4	0x4058dd77	3.3885171
5	0x43181242	152.07132

network_body.processors.0.normalizer.running_mean f4 [6]
0	0xbda73dd3	-0.08166089
1	0x3effd2a5	0.49965397
2	0x00000000	0.0
3	0x3bc742c6	0.006080958
4	0x3f051303	0.51982135
5	0x413f4440	11.954163

network_body.processors.0.normalizer.running_variance f4 [6]
0	0x45db766b	7022.8022
1	0x3f9ffa55	1.249827
2	0x3f800000	1.0
3	0x3fbb4270	1.462965
4	0x4058dd77	3.3885171
5	0x43181242	152.07132

network_body._body_endoder.seq_layers.0.weight f4 [128, 6]
0	0x3e54ad16	0.20769152
1	0xbf72eb10	-0.94889927
2	0xbf3f6cd8	-0.7477546
3	0xbea0be22	-0.3139506
4	0xbf09c861	-0.5382138
5	0xbe921cbd	-0.2853755
6	0xbf0f9a91	-0.56095225
7	0xbea11632	-0.31462246
8	0x3f196c09	0.59930474
9	0x3e48f406	0.19624338
10	0x3eb29144	0.34876454
11	0xbe6f471a	-0.23366967
12	0x3e6a7f2a	0.22900072
13	0xbe79b78b	-0.24386422
14	0xbf3e2cab	-0.7428691
15	0xbe1d2263	-0.15345149
16	0xbe2a182f	-0.16610788
17	0xbd02ce96	-0.031935297
18	0xbe50c523	-0.20387702
19	0xbd91ec72	-0.071251765
20	0x3e6f33a3	0.23359542
21	0x3d46710d	0.048447657
22	0xbeaa819e	-0.33302015
23	0x3ee8e3d9	0.45486334
24	0xbe8ef9a0	-0.27924824
25	0x3da94426	0.082649514
26	0x3eb08d8e	0.34482998
27	0x3f1c5f15	0.61082584
28	0x3e2830f1	0.1642492
29	0x3e0c6f42	0.13714316
30	0xbe9764c7	-0.29569075
31	0xbf4653dd	-0.77471715
32	0xbef92440	-0.4866047
33	0x3eb36ea4	0.3504535
34	0x3c99448c	0.018709444
35	0xbf326e1c	-0.69699264
36	0xbf44adad	-0.7682751
37	0x3f0c8b6a	0.5490023
38	0x3ef87975	0.48530164
39	0x3ed778ca	0.42084342
40	0xbd9789c6	-0.07399325
41	0x3e260136	0.162114
42	0xbda47c0a	-0.08031471
43	0x3f067ae9	0.52531296
44	0xbea1449c	-0.31497657
45	0xbf10ddcc	-0.56588435
46	0x3f12e315	0.5737775
47	0x3e81e610	0.25370836
48	0x3d927b83	0.07152464
49	0xbf15ffe2	-0.5859357
50	0x3f287fb4	0.6581986
51	0xbee101b0	-0.439466
52	0x3deaf5c7	0.114726596
53	0xbeeea092	-0.4660688
54	0xbec926a6	-0.392873
55	0x3e065562	0.13118508
56	0xbea22334	-0.31667483
57	0xbe8e36d2	-0.277762
58	0x3eb436ca	0.3519805
59	0x3eac7f54	0.33690894
60	0xbe3e211f	-0.18567322
61	0xbf356614	-0.70858884
62	0xbe6b0d79	-0.22954358
63	0x3eb1d2bb	0.34731087
64	0x3f18fd2c	0.5976131
65	0xbe624663	-0.22097163
66	0x3e6272d9	0.22114123
67	0xbf675ab7	-0.90372795
68	0x3f7c0826	0.98449934
69	0x3e4c0262	0.19922784
70	0x3df9c510	0.1219579
71	0xbe9cebd8	-0.30648685
72	0x3f4fe198	0.81203604
73	0x3d0aefc3	0.03392006
74	0x3ebada12	0.364945
75	0x3f1d4460	0.61432457
76	0xbd65f152	-0.056138344
77	0x3ebaeb09	0.36507443
78	0x3eb004e4	0.3437873
79	0xbd80d4f0	-0.062906146
80	0xbe3075c3	-0.17232423
81	0x3eb23914	0.34809172
82	0x3f0d43d6	0.55181634
83	0x3efc5bbd	0.4928874
84	0xbe2e663e	-0.1703119
85	0x3ee975c0	0.4559765
86	0xbb765740	-0.0037588626
87	0xbf4eda04	-0.80801415
88	0x3ec9d482	0.39419943
89	0x3f665ddd	0.89986974
90	0xbe63531d	-0.22199674
91	0xbebaf6a2	-0.3651629
92	0xbf5798c7	-0.84217495
93	0x3ecc141e	0.39859098
94	0x3efb2ab8	0.4905603
95	0x3d36414f	0.044495877
96	0x3e9bc8fc	0.30426776
97	0xbe9ee1d4	-0.31031668
98	0x3d9d3940	0.07676935
99	0x3dc6b75d	0.097029425
100	0x3ee0cc28	0.4390576
101	0xbe528c3a	-0.20561305
102	0xbf0e1f26	-0.5551628
103	0x3ea992b8	0.3311975
104	0xbe8ba234	-0.2727219
105	0xbf57dddb	-0.843229
106	0xbd20d99a	-0.03927002
107	0x3e26d55e	0.1629233
108	0x3d1f6162	0.03891123
109	0x3ef9214a	0.4865821
110	0x3cdd14bd	0.026987428
111	0x3cdd452c	0.027010523
112	0xbf0511fa	-0.51980555
113	0xbea6384e	-0.32464832
114	0x3ee7dd4b	0.4528602
115	0x3d1b62d2	0.03793604
116	0x3f6ebaa2	0.9325353
117	0xbe9b9c35	-0.30392614
118	0x3eb1d576	0.3473317
119	0xbd653359	-0.055957172
120	0xbdcbf33b	-0.09958502
121	0x3ee4b95f	0.44672677
122	0xbe8755b0	-0.26432562
123	0xbe99c486	-0.30032748
124	0x3d69204f	0.056915578
125	0xbe22a070	-0.15881515
126	0x3e8029db	0.25031933
127	0xbe0da3f6	-0.13832077
128	0x3f66e751	0.9019671
129	0xbcdcb9ee	-0.026944127
130	0xbe177bbe	-0.14793298
131	0x3e7407d6	0.23831114
132	0x3d28f609	0.041250262
133	0xbf23f2e1	-0.6404248
134	0x3e9a9f51	0.30199674
135	0x3f429897	0.76014084
136	0xbe12aa28	-0.14322722
137	0x3fb57120	1.4175148
138	0x3e929d8a	0.28635818
139	0x3ce5201d	0.027969414
140	0xbe6dc5d9	-0.23220004
141	0x3f31bbb2	0.69427025
142	0xbed32dc4	-0.41245854
143	0x3e960c3d	0.29306212
144	0xbdd01587	-0.10160356
145	0xbf2a4e90	-0.66526127
146	0x3b3b8380	0.0028612316
147	0xbf34b867	-0.70593876
148	0xbf04c3b4	-0.5186112
149	0xbe692943	-0.22769646
150	0x3d121852	0.035667725
151	0x3e659d7a	0.22423354
152	0x3f2ca1bb	0.6743428
153	0x3d18c72e	0.037299328
154	0xbc76f1c7	-0.015072293
155	0x3e1d7cd0	0.15379643
156	0x3df37df0	0.11889255
157	0x3dd42a88	0.10359675
158	0xbe1b72a2	-0.15180448
159	0xbf0f6b13	-0.5602276
160	0x3e31275f	0.17300175
161	0x3f29dab7	0.6634936
162	0xbe0adfa5	-0.13561876
163	0xbce8db17	-0.028424783
164	0x3f155e9a	0.58347476
165	0x3e289491	0.16462924
166	0x3f8698c1	1.0515367
167	0xbd9bd8ba	-0.07609697
168	0x3e8b6880	0.27228165
169	0x3ec0f33f	0.37685582
170	0xbd35b43c	-0.044361338
171	0x3daf4c2a	0.08559449
172	0x3f0818c5	0.53162795
173	0xbdc2c86f	-0.09510886
174	0xbe84cd7a	-0.25938016
175	0xbf64e163	-0.8940641
176	0xbe2fa30e	-0.17152044
177	0x3e335736	0.17513737
178	0xbd832a86	-0.06404595
179	0xbf0379f5	-0.51357967
180	0xbe8e0516	-0.27738255
181	0x3e4fbd2a	0.20287004
182	0x3e375b29	0.17905869
183	0x3f19bc59	0.6005302
184	0x3e747916	0.23874316
185	0xbd893940	-0.06700373
186	0x3e05d62a	0.13069978
187	0xbe097a5e	-0.13425586
188	0xbee3bf74	-0.44482005
189	0xbe1bd12a	-0.15216509
190	0x3e0a820d	0.13526173
191	0xbdbc47c7	-0.09193378
192	0xbebfde95	-0.37474504
193	0xbec8bc25	-0.39206043
194	0x3e7da9ff	0.2477188
195	0xbf0361ae	-0.5132092
196	0xbf31896b	-0.6935031
197	0xbf507e3f	-0.81442636
198	0xbf01c8da	-0.506971
199	0x3e9cd4ea	0.3063119
200	0xbcdc7117	-0.026909394
201	0x3dd2af95	0.10287396
202	0xbd1a6364	-0.037692443
203	0x3f0025cf	0.5005769
204	0x3e21b9fb	0.15793602
205	0x3da7b75d	0.08189271
206	0xbf1cb7fc	-0.6121824
207	0x3e000dc5	0.12505253
208	0xbe146573	-0.14491825
209	0x3f060987	0.5235829
210	0xbea60c40	-0.3243122
211	0xbea8ec3e	-0.32992738
212	0xbeda6ca4	-0.4266101
213	0x3eaa9f6d	0.33324757
214	0xbe9ed87b	-0.31024536
215	0x3f82b16b	1.0210394
216	0xbe09ab59	-0.1344427
217	0x3f377c79	0.71674305
218	0xbd0b3ab5	-0.033991534
219	0xbd9cb6fe	-0.076520905
220	0xbe9a41e5	-0.301284
221	0xbd8ca64b	-0.06867655
222	0xbf0b5162	-0.54421055
223	0x3d1973d1	0.037463967
224	0xbba6a137	-0.0050851363
225	0x3f249fe2	0.6430646
226	0xbf1b85a9	-0.60750824
227	0x3e6b5654	0.2298215
228	0xb9937e82	-0.0002813228
229	0x3e89c823	0.26910505
230	0x3f5f809d	0.87305623
231	0x3e8c94c7	0.27457258
232	0x3d348bc0	0.04407859
233	0xbe09b0d6	-0.13446364
234	0xbf32d151	-0.6985064
235	0xbee79a14	-0.4523474
236	0x3ea33080	0.3187294
237	0x3e11d6a3	0.14242034
238	0xbea1b5fd	-0.3158416
239	0x3f02a524	0.51033235
240	0xbf11584f	-0.56775373
241	0xbe24f832	-0.16110304
242	0x3d9830d5	0.07431189
243	0xbfa7d40d	-1.3111588
244	0x3f00f7b6	0.50377977
245	0xbe988cef	-0.29795024
246	0xbe2863a0	-0.16444254
247	0x3d79552e	0.06087225
248	0xbf09aedb	-0.53782433
249	0x3ef1c3eb	0.47219786
250	0x3e10e6df	0.1415057
251	0xbc7e73c5	-0.015530531
252	0x3eab0939	0.33405474
253	0x3e183bd4	0.14866573
254	0x3e8c6090	0.2741742
255	0x3e9ff834	0.3124405

network_body._body_endoder.seq_layers.0.bias f4 [128]
0	0xbc7423bc	-0.014901098
1	0x3c66aeaf	0.014079734
2	0xbc16e33e	-0.009209452
3	0xbc1d556e	-0.009602888
4	0xb9d3f480	-0.00040427223
5	0x382d3a86	4.130092e-05
6	0x3c92db38	0.017926797
7	0xbc303de8	-0.010756947
8	0xbcae99c6	-0.02131356
9	0x3bf2abbc	0.0074057262
10	0x3c221f85	0.00989521
11	0xbc80ac11	-0.015707048
12	0xbc61596c	-0.01375423
13	0xbb80be5b	-0.003928942
14	0x3c21d9c8	0.009878583
15	0x3c2cbe31	0.010543392
16	0xbc33bdfe	-0.010970591
17	0xbbb4bfb2	-0.005516016
18	0x3c005c84	0.007834557
19	0xbc9cdad0	-0.019147307
20	0xbc8d56bb	-0.01725327
21	0xbc4697b3	-0.012121129
22	0x3cae69d2	0.021290693
23	0xbc5612d1	-0.01306601
24	0xbc9f79fb	-0.019467345
25	0xbc840ca9	-0.016119318
26	0xbb92f09b	-0.004484249
27	0xbb8a4cf9	-0.0042206016
28	0xbb398dbc	-0.002831324
29	0x3c96e0d5	0.018417755
30	0x3c877fe9	0.016540485
31	0xbca7d377	-0.020486576
32	0xbc06de15	-0.008231659
33	0x3c81a927	0.015827728
34	0x3c261c5f	0.0101386
35	0x3c00b71e	0.007856159
36	0x3cd7c78c	0.026340269
37	0x3cd83288	0.026391283
38	0xbc127ea0	-0.008941323
39	0x3c8e7c89	0.017393367
40	0x3b87f576	0.0041491343
41	0x3b5c6f89	0.0033635816
42	0xba6bc1a2	-0.0008993392
43	0xbc58d21d	-0.013233689
44	0x3c890155	0.016724268
45	0x3bf2ab7d	0.007405697
46	0xbbb2221a	-0.005436194
47	0x3b6ef10f	0.00364596
48	0xbc16dacd	-0.00920744
49	0xbcef1db2	-0.029188965
50	0x3c861262	0.016366187
51	0xbc8baadd	-0.017049247
52	0xbc0213ac	-0.00793926
53	0x3ce7afd1	0.028282078
54	0x3c1165e2	0.008874388
55	0xbc93d7c7	-0.018047227
56	0xbc8aae3c	-0.016928785
57	0x3cf8d30e	0.030374076
58	0xbae2d3ce	-0.0017305554
59	0x3bf5b20d	0.007498032
60	0xbc979299	-0.01850252
61	0xbc72d596	-0.014821431
62	0x3c1ed7df	0.009695022
63	0xbc35441f	-0.011063605
64	0xbbe86567	-0.007092166
65	0x3ccb154d	0.02479043
66	0x3ba5685e	0.005047842
67	0xbbce04fa	-0.0062872143
68	0x3c706b10	0.014673963
69	0x3bb79a72	0.005603128
70	0x3cc294bb	0.02375256
71	0x3c392535	0.011300375
72	0xbc5a524b	-0.013325284
73	0x3a033f8e	0.0005006724
74	0xbc63787b	-0.013883705
75	0x3cd76ee7	0.026298
76	0xba86ce13	-0.0010284804
77	0xbb77a77e	-0.0037789042
78	0xbc9b844c	-0.018983983
79	0x3c2d9789	0.010595211
80	0x3cd6a676	0.026202422
81	0xbc8066ff	-0.015674112
82	0xbc5d2f49	-0.013500043
83	0xbc40b2d8	-0.01176139
84	0xb9751536	-0.00023372922
85	0x3c2d83eb	0.010590534
86	0x3b6283a2	0.0034563323
87	0xbc2c7165	-0.010525082
88	0x3c939b76	0.018018465
89	0x3c789149	0.015171357
90	0x3c9b58c6	0.018963229
91	0xb919193a	-0.00014600615
92	0xbbb6bb25	-0.0055765086
93	0xbc46a949	-0.012125322
94	0x3caf4169	0.021393495
95	0xbcdaa3ab	-0.026689371
96	0x3cdcbcf3	0.026945567
97	0x3c60ee88	0.013728745
98	0xbb046595	-0.002020215
99	0xbb849d9a	-0.004047108
100	0x3c5e5987	0.01357115
101	0xbbfe3162	-0.0077573517
102	0x3bb0cdf4	0.0053956453
103	0x3c9ae1cd	0.018906498
104	0xbc8b5b84	-0.017011411
105	0xbc75c96c	-0.015001636
106	0x3a7df468	0.00096876035
107	0xbc10d98b	-0.008840929
108	0xbc10684b	-0.008813928
109	0x3cd3af3b	0.025840392
110	0x3bf8fd87	0.007598582
111	0x3b545abc	0.0032402715
112	0xbc686fba	-0.014186794
113	0x3c5162ff	0.01277995
114	0xb964bc95	-0.00021814027
115	0x3cd75238	0.026284322
116	0x3b1db3b9	0.0024063422
117	0x3c97675c	0.018481903
118	0xbc1bbfea	-0.009506205
119	0x3c65e428	0.0140314475
120	0xbc7cb3d0	-0.01542373
121	0x3c5c2050	0.013435438
122	0xbc471dd8	-0.012153111
123	0x3a5d6b52	0.0008446473
124	0xbabf04f0	-0.0014573615
125	0x3c931a74	0.01795695
126	0xbabd129c	-0.0014425102
127	0x3ba83dd6	0.0051343245

network_body._body_endoder.seq_layers.2.weight f4 [128, 128]
0	0x3d0422a7	0.03225961
1	0xbd33daef	-0.043909963
2	0xbcc7512c	-0.024330698
3	0xbe272fe9	-0.1632687
4	0xbdc9c39b	-0.09851762
5	0xbd97598b	-0.07390126
6	0x3ced1cce	0.0289444
7	0x3e409bd8	0.1880945
8	0xbcef0780	-0.029178381
9	0xbbec712b	-0.007215639
10	0x3a06ac08	0.0005137329
11	0xbe0b86e3	-0.13625674
12	0xbd4488fd	-0.047982205
13	0x3bcad4c0	0.0061899126
14	0xbd28420c	-0.041078612
15	0xbd2ffbb5	-0.042964656
16	0xbdbdd5e4	-0.09269312
17	0xbdda4c76	-0.10659115
18	0xbd84d9b7	-0.06486838
19	0xbdf2e5f4	-0.11860266
20	0xbe897849	-0.26849583
21	0x3d002bf9	0.031291936
22	0xbce97a2c	-0.028500639
23	0xbd8638ee	-0.06553827
24	0x3cdc9fdf	0.026931701
25	0xbda49c82	-0.08037664
26	0xbda7feaa	-0.0820287
27	0xbda6fef7	-0.081540994
28	0xbd92ccd9	-0.07167978
29	0x3d6c08cc	0.057625577
30	0x3da57a1d	0.08079932
31	0x3e03274a	0.12807956
32	0xbd25ec69	-0.04050866
33	0x3b99b9fb	0.00469136
34	0xbce3659a	-0.027758408
35	0x3d32f238	0.04368803
36	0xbdb038e4	-0.08604601
37	0xbdc013de	-0.09378789
38	0x3c881ba1	0.016614737
39	0xbda8d5eb	-0.082439266
40	0x3d9f8b40	0.07790232
41	0x3da2332f	0.07919919
42	0x3ce45481	0.027872326
43	0x3dde440d	0.108528234
44	0x3df1ab0f	0.11800205
45	0x3dc6a1f4	0.09698859
46	0xbe422e2d	-0.18962927
47	0x3cfcd2d3	0.030862248
48	0xbda81a91	-0.08208192
49	0xbd8d6507	-0.06904035
50	0x3d081855	0.03322633
51	0xbc49dbf6	-0.012320509
52	0xbd86143b	-0.065468274
53	0xbd3b099f	-0.045663472
54	0xbdcac0a6	-0.09900026
55	0xbdab945d	-0.083779074
56	0xbdd41ebc	-0.103574246
57	0xbd7d9a58	-0.06191477
58	0xbba6ba20	-0.005088106
59	0x3d2b6fd2	0.041854687
60	0x3df1b203	0.11801531
61	0xbd4f0bdf	-0.05054843
62	0xbe26e9a7	-0.16300069
63	0x3dda1828	0.10649139
64	0xbe0f1584	-0.13973051
65	0xbd25b383	-0.0404544
66	0x3d236a80	0.03989649
67	0x3dc8b120	0.09799409
68	0xbd935f0f	-0.07195865
69	0xbde9dc8f	-0.11419021
70	0x3c9eb412	0.019372974
71	0x3db1fba3	0.08690574
72	0xbb63840c	-0.0034716157
73	0x3d7ae567	0.06125393
74	0xbdbb1451	-0.091347344
75	0xbd9b5535	-0.07584611
76	0x3de541fc	0.11194226
77	0x3d8b5a46	0.06804328
78	0x3d972ad5	0.073812164
79	0xbd5043b6	-0.050845824
80	0x3cc44ee2	0.023963396
81	0xbc5cc312	-0.013474243
82	0x3daf84c1	0.08570243
83	0x3c042511	0.008065478
84	0xbb113592	-0.0022157175
85	0x3cf3bb29	0.02975233
86	0xbd4c37c5	-0.049857873
87	0xbdab1298	-0.08353156
88	0x3d06b9ac	0.032891914
89	0xbd15bb2e	-0.03655546
90	0xbcd4ab38	-0.02596055
91	0x3c5389dc	0.012911286
92	0xbe368c2e	-0.17826912
93	0x3d8d01d1	0.06885112
94	0x3ceefe7f	0.029174088
95	0x3cf49eee	0.02986094
96	0x3dd9f5a4	0.10642555
97	0xbd817fdb	-0.063232146
98	0x3d28a0a2	0.041168816
99	0xbd09c715	-0.033637125
100	0xbd820d7f	-0.063502304
101	0xbd591a8d	-0.053003836
102	0x3d83a326	0.064276025
103	0xbd01e87e	-0.031715862
104	0x3c97af3c	0.018516175
105	0xbdde7b8d	-0.10863409
106	0xbd014943	-0.03156401
107	0x3d9c1c05	0.07622532
108	0xbddcdfec	-0.10784897
109	0x3d539ce1	0.051663283
110	0x3dff3099	0.12460441
111	0x3d930a13	0.07179656
112	0x3dc1b4d3	0.094583176
113	0x3dac52f6	0.08414261
114	0x3c82ed11	0.015982183
115	0xbe2b2700	-0.16714096
116	0x3d447ccb	0.047970574
117	0x3a311dbb	0.00067564443
118	0xbd8b9a17	-0.068165
119	0x3d7392a6	0.059466027
120	0xbd853053	-0.06503358
121	0x3e606228	0.21912444
122	0xbdf1f68e	-0.11814605
123	0x3e24a5b3	0.16078834
124	0x3e073a9a	0.13205948
125	0xbbbd58c5	-0.0057784044
126	0x3c066775	0.008203377
127	0x3cf553a0	0.029947102
128	0x3db0ee64	0.086392194
129	0x3d1954c9	0.037434373
130	0x3de58d04	0.11208537
131	0xbd461f6f	-0.04836982
132	0xbc1a89e2	-0.009432288
133	0xbe73ffd2	-0.23828056
134	0xbdcd40f0	-0.100221515
135	0x3d0e4585	0.034734268
136	0x3d27893a	0.040902354
137	0x3e426b69	0.18986286
138	0x3c552631	0.013009594
139	0xbde2d421	-0.11075617
140	0x3dcb226b	0.09918674
141	0x3e35c97b	0.1775264
142	0xbd058d27	-0.032605316
143	0xbd949656	-0.07255237
144	0x3b9c5a20	0.004771486
145	0xbcd79e0d	-0.026320482
146	0xbd54dea6	-0.051970147
147	0x3d22ae39	0.039716933
148	0x3d2b4fa4	0.041823998
149	0xbdf565a2	-0.119822755
150	0x3dc57b33	0.09642639
151	0x3db53b5d	0.08849213
152	0xbd37fcf7	-0.04491898
153	0x3e000138	0.12500465
154	0x3dcd83db	0.10034915
155	0xbd027412	-0.031848975
156	0xbdbfd645	-0.093670405
157	0x3c0eb074	0.008709062
158	0xbe42999a	-0.19003907
159	0xbc8c210e	-0.017105605
160	0x3e3bf3cc	0.1835472
161	0xbc826ea2	-0.015921894
162	0xbda9edcc	-0.08297309
163	0xbe53fe02	-0.20702365
164	0xbcb29813	-0.02180103
165	0xbe03bc82	-0.12864879
166	0x3da67cb5	0.08129255
167	0x3dd682c2	0.10474159
168	0x3d157a58	0.03649363
169	0x3cc6ecf7	0.024282916
170	0x3d010fc5	0.03150918
171	0x3dd5cd42	0.104395404
172	0xbdfe1ce0	-0.12407851
173	0x3cf79ba9	0.030225592
174	0xbdbe0fe0	-0.09280372
175	0xbde5e80a	-0.112258986
176	0xbd06ab52	-0.032878228
177	0x3df8ae4c	0.121426195
178	0x3d3077c4	0.043082967
179	0x3dcd9216	0.10037629
180	0xbdbe8398	-0.09302443
181	0x3c73056c	0.014832836
182	0x3d95b787	0.07310396
183	0x3d1b2dae	0.03788536
184	0x3d048b6f	0.032359537
185	0xbd552884	-0.05204059
186	0xbe910b92	-0.2832914
187	0xbe005c25	-0.1253515
188	0xbcb945ee	-0.022616353
189	0x3d6ce23a	0.057832934
190	0x3d122e85	0.035688896
191	0x3dbe951a	0.093057826
192	0x3e0170f3	0.12640743
193	0x3e376ab2	0.17911795
194	0x3b8329ac	0.0040027704
195	0x3c804b1b	0.015660813
196	0xbdb5776b	-0.08860668
197	0x3d488327	0.0489532
198	0xbe5b46a1	-0.21413662
199	0x3e161d27	0.14659558
200	0xbd5bc143	-0.053651106
201	0xbe0e25f8	-0.13881671
202	0xbd726617	-0.05917939
203	0xbb47b75b	-0.0030474279
204	0xbbadfcb2	-0.0053096646
205	0xbd9f9f26	-0.07794027
206	0x3e380a83	0.1797276
207	0x3d18f8c5	0.03734662
208	0xbe2df5d9	-0.16988315
209	0xbd9f3390	-0.07773507
210	0xbd5cb89b	-0.05388699
211	0x3da7b294	0.08188358
212	0xbdc888f6	-0.09791748
213	0x3df55a62	0.1198013
214	0xbdbf7bd8	-0.09349793
215	0x3b938248	0.0045016147
216	0x3da4f856	0.08055179
217	0x3da806a3	0.08204391
218	0xbdd0bb17	-0.101919346
219	0xbda7def6	-0.08196823
220	0x3d80ed81	0.062953
221	0xbd9dbbbd	-0.07701824
222	0x3c53f42a	0.012936631
223	0xbda22116	-0.07916467
224	0xbd8c104b	-0.06839045
225	0x3e26d6a5	0.16292818
226	0x3dc1fd87	0.09472185
227	0xbd1635c0	-0.036672354
228	0x3d8e4437	0.06946605
229	0x3ca15c26	0.01969726
230	0xbc7d5efa	-0.015464539
231	0x3c83f6ad	0.016108835
232	0x3d532cf6	0.05155655
233	0x3c97a586	0.018511545
234	0x3c876c24	0.016531058
235	0xbd86ce73	-0.06582346
236	0xbda4d416	-0.08048265
237	0xbd29e9bc	-0.041482672
238	0x3d41411c	0.047181234
239	0xbcf53151	-0.029930742
240	0xbd5ae86b	-0.053444307
241	0x3be16e8d	0.0068796338
242	0xbd26d709	-0.040732417
243	0xbdb84507	-0.08997541
244	0x3c5dad3d	0.013530073
245	0xbe0526c6	-0.13003072
246	0x3dbe0c31	0.09279669
247	0x3dc627ea	0.09675582
248	0xbe18c455	-0.14918645
249	0xbdca8c82	-0.09890081
250	0xbd5f6f22	-0.054549344
251	0xbdf31774	-0.11869708
252	0xbca46313	-0.020066774
253	0xbd882bdf	-0.06648993
254	0x3dc6ab85	0.097006835
255	0x3d52d461	0.05147207

network_body._body_endoder.seq_layers.2.bias f4 [128]
0	0x3c870e32	0.016486261
1	0xbcbce1c7	-0.023056878
2	0xbc90cf17	-0.017676873
3	0x3c8dddbc	0.017317645
4	0xbb2d069e	-0.002640165
5	0x3ccd61af	0.025070993
6	0xbc999f83	-0.018752819
7	0xbb28d600	-0.002576232
8	0x3c46ac62	0.01212606
9	0xbc4eb445	-0.012616222
10	0x3c9959f5	0.018719653
11	0x3ca853c7	0.02054776
12	0x3c24721c	0.010036971
13	0xbc590edd	-0.013248173
14	0x3cc14ee7	0.023597194
15	0xbc78fa98	-0.015196465
16	0x3cd73a11	0.026272805
17	0x3c404bef	0.011736854
18	0x3c802959	0.015644716
19	0xbc8b9d84	-0.017042883
20	0xbc927d14	-0.017881908
21	0xbc422dd1	-0.011851744
22	0x3c47168e	0.012151374
23	0xbc32f8f5	-0.010923614
24	0xbc14eb3e	-0.009089289
25	0xbbe64341	-0.0070270603
26	0xbc453475	-0.0120364325
27	0x3c2eb337	0.010662845
28	0x3c4de992	0.0125678945
29	0x3c4bee99	0.012447023
30	0x3c88e226	0.016709398
31	0xbb0a56bf	-0.0021108834
32	0x3cb18a56	0.021672409
33	0xbb7e4165	-0.0038796302
34	0xbc5621c5	-0.013069575
35	0x3c33dbf5	0.010977735
36	0xbb85b316	-0.0040801866
37	0xbcbdd3c7	-0.023172272
38	0xbba545db	-0.005043728
39	0xbc9d2c56	-0.01918618
40	0xbc8b80bd	-0.01702916
41	0xbc55381f	-0.013013869
42	0xbbabbea2	-0.005241231
43	0xbc5e6ed9	-0.013576233
44	0x3bf3f582	0.0074450383
45	0xbc4a35e3	-0.012341949
46	0xbb57dece	-0.0032939198
47	0xbc9d2f33	-0.019187545
48	0xbc9d1fcb	-0.0191802
49	0x3cecc71b	0.028903535
50	0xbc7d6880	-0.015466809
51	0xbc03ee23	-0.008052382
52	0xbc851b74	-0.016248442
53	0xbc647f7f	-0.013946413
54	0xbc74a78f	-0.014932527
55	0x3cab406a	0.020904738
56	0xbc43c633	-0.01194911
57	0xbc8429d1	-0.01613322
58	0x3c9f23c1	0.019426228
59	0xba2fda46	-0.00067082455
60	0xbc0e2cb5	-0.008677651
61	0x3c3b1029	0.011417427
62	0xbbdc0cef	-0.006715409
63	0xbc598f1a	-0.013278747
64	0xbc49a2e2	-0.012306901
65	0xbc836804	-0.01604081
66	0xbc63898b	-0.013887773
67	0xbc9870af	-0.01860842
68	0xbc8189b9	-0.015812742
69	0xbc944797	-0.018100543
70	0x3c2b166a	0.010442356
71	0xbbc1e94a	-0.005917703
72	0x3ba35539	0.0049845246
73	0xbc448753	-0.011995154
74	0x3c799909	0.01523424
75	0x3c1c2892	0.009531157
76	0x3a9a662e	0.001177972
77	0xbc79a37a	-0.01523673
78	0xbbf545dd	-0.007485135
79	0x3cb21384	0.021737821
80	0xbae76230	-0.0017653164
81	0xbc79971c	-0.015233781
82	0xbc94e1fd	-0.018174166
83	0x3c8ebe8a	0.01742484
84	0xbc6f57a5	-0.014608298
85	0xbc8c0486	-0.017092
86	0xbbcebe5b	-0.0063093132
87	0xbc78cb6c	-0.015185218
88	0xbc8b8145	-0.017029414
89	0xbc83f858	-0.01610963
90	0xba1687aa	-0.00057422614
91	0xbc515bc9	-0.012778231
92	0x3c48dfb4	0.012260366
93	0xbca66051	-0.0203096
94	0xbc761431	-0.015019462
95	0x3c900670	0.017581195
96	0xbc82e1b6	-0.015976768
97	0xbc446cdc	-0.011988845
98	0xbc30f02b	-0.010799448
99	0x3c44f9df	0.012022465
100	0x3be7c3ed	0.0070729167
101	0x3b708954	0.0036702948
102	0x3c043716	0.008069774
103	0xbc860b65	-0.016362855
104	0x3cc30991	0.023808273
105	0x3c8cc9ef	0.017186133
106	0xbbebfa69	-0.007201482
107	0xbc9be29d	-0.019028956
108	0xbc982f44	-0.018577226
109	0x3c897a4a	0.016781945
110	0xbce61a87	-0.028088821
111	0xbc4430f2	-0.01197456
112	0x3cb1bf43	0.021697646
113	0xbc5caeef	-0.013469442
114	0xbc97fb2d	-0.018552387
115	0x3b801a79	0.003909406
116	0xbc13a2f4	-0.009011019
117	0xbca95a3c	-0.02067291
118	0xbc2d1f9e	-0.01056662
119	0xbbceb7d9	-0.0063085374
120	0xbc4fd853	-0.012685853
121	0xbc603214	-0.013683815
122	0xbb08d098	-0.0020876285
123	0xbae7b658	-0.0017678244
124	0xbc118c82	-0.008883597
125	0x3c450305	0.012024646
126	0x3afc9c59	0.001927267
127	0xbc399195	-0.011326213

action_model._discrete_distribution.branches.0.weight f4 [3, 128]
0	0xbadea6db	-0.0016986983
1	0x3b24e41e	0.0025160383
2	0xbbbb8d2b	-0.0057236156
3	0xbcbb2319	-0.022843884
4	0xbc2314f2	-0.009953724
5	0x3aa4cc93	0.0012573175
6	0x3c1b943f	0.009495794
7	0xbc7833da	-0.015149081
8	0xbadb3a4d	-0.0016725749
9	0x3c287012	0.010280626
10	0xbc8b8cf4	-0.017034985
11	0xbc0c1bed	-0.00855158
12	0xbb8f0516	-0.00436462
13	0x3a425190	0.00074126665
14	0xbc98030d	-0.018556142
15	0x3ce68d4e	0.028143551
16	0xbc10009a	-0.008789206
17	0xbbc6e069	-0.0060692322
18	0x3bb66907	0.0055667195
19	0x3c06dd02	0.008231403
20	0x3c571058	0.013126455
21	0x3caa6805	0.020801554
22	0x3c8b0b7f	0.016973255
23	0x3c9ea60f	0.019366292
24	0xbbb4c765	-0.0055169337
25	0x3bc41839	0.005984333
26	0x3cbe5531	0.023233982
27	0xbc504ee4	-0.0127141215
28	0xbc695bae	-0.01424305
29	0xbd16620e	-0.036714606
30	0xbc8ea754	-0.017413773
31	0x3c061017	0.008182547
32	0xbce2f265	-0.027703473
33	0xbad79183	-0.0016446564
34	0xbb642d3c	-0.0034817
35	0xbc8f18c8	-0.017467871
36	0xbc1e02c4	-0.009644214
37	0xbb123cbe	-0.0022314037
38	0x3cda0e97	0.026618285
39	0x3c333baa	0.010939518
40	0xbbbc6eea	-0.0057505267
41	0xba2da324	-0.0006623736
42	0x3b292aab	0.0025812786
43	0x3ca5b589	0.020228164
44	0xbc438a69	-0.011934855
45	0xbbbc5e76	-0.0057485653
46	0x3cbd1e75	0.023085812
47	0x3be09a81	0.006854356
48	0xbb038cf8	-0.0020073038
49	0xbc1ca91e	-0.009561805
50	0x3c5e455d	0.013566342
51	0xba58eb26	-0.0008274786
52	0xbc4d5f50	-0.012534931
53	0xba4b5377	-0.00077562727
54	0x3c653969	0.013990738
55	0xbca7a4ba	-0.02046429
56	0x3c90719d	0.0176323
57	0x3b7c038c	0.0038454263
58	0xbc606666	-0.013696289
59	0xbb58273b	-0.0032982368
60	0x3c122281	0.008919359
61	0x39bb9927	0.00035781527
62	0xbad04212	-0.0015888831
63	0x3c8e29d7	0.017353935
64	0x3b96029c	0.004577948
65	0x3c32f414	0.010922451
66	0x3c8b2acd	0.016988182
67	0x3bf84954	0.007577101
68	0x3c903bcc	0.017606638
69	0x3c2ed9bc	0.010672029
70	0xbbc8650c	-0.0061155614
71	0x3c549ab3	0.012976336
72	0xbcb254db	-0.021768978
73	0xbbe2357f	-0.00690335
74	0xbc3ee398	-0.011650942
75	0xbc0d257e	-0.008614896
76	0xbba569f2	-0.00504803
77	0x3b0b6b54	0.002127369
78	0xbb38518f	-0.0028124785
79	0xbca53e33	-0.02017126
80	0xbcd5c4af	-0.026094763
81	0x3ae76003	0.0017652515
82	0x3ba6dad4	0.0050920043
83	0xbc00c5c7	-0.007859654
84	0xbb599238	-0.0033198725
85	0xbb0573f3	-0.00203633
86	0xbc0d6aa4	-0.008631382
87	0x3cfa6899	0.030567454
88	0x3bdbc6d0	0.00670705
89	0x3b5d6950	0.0033784695
90	0x3c1e98ec	0.009680014
91	0x3b49ecd5	0.003081133
92	0xbc81482c	-0.015781485
93	0x3b03b6e7	0.0020098032
94	0x3c9fb7b8	0.019496784
95	0xba119c05	-0.000555456
96	0x3cb83f15	0.022491017
97	0x3c89f5ea	0.016840894
98	0xbb869f89	-0.0041083735
99	0xbb7a503e	-0.00381948
100	0x3afcade3	0.0019277896
101	0xbb89633d	-0.0041927383
102	0xbbe6e4bc	-0.00704631
103	0x3c42c5f9	0.011888021
104	0xbbf58ecb	-0.007493829
105	0xbb8b4592	-0.004250237
106	0xbbedabb0	-0.0072531328
107	0xb9f8c688	-0.00047450163
108	0x3bcd96ad	0.0062740655
109	0xbb74e3ed	-0.00373673
110	0x3c00d7fa	0.007863993
111	0xbb322b4f	-0.0027186458
112	0xbbbac1fe	-0.005699395
113	0x3c2601f5	0.0101323025
114	0x3a65cd5f	0.00087662594
115	0x3a01447d	0.0004931165
116	0x3b825b0e	0.0039781397
117	0x3b12756b	0.0022347819
118	0xbc26871d	-0.010164049
119	0xb9795621	-0.00023778576
120	0x3b20af0c	0.0024518399
121	0x3c8e93c3	0.017404443
122	0x3bbe51e8	0.005808104
123	0xbbd5d0ae	-0.0065251207
124	0xbbd45288	-0.006479565
125	0xbcc31d1a	-0.023817588
126	0xbab62e70	-0.0013899338
127	0x39b543e1	0.00034573584
128	0x3c17db1a	0.0092685465
129	0xbb56ee8a	-0.003279599
130	0xbca8c5d4	-0.020602144
131	0x3c1356d8	0.008992873
132	0x39cbee79	0.00038896853
133	0x3c990f72	0.018684123
134	0x3c6635c4	0.014050905
135	0x3addc646	0.0016920052
136	0x3cad1ecc	0.02113285
137	0xbc33cf24	-0.010974679
138	0x3c970eb1	0.018439623
139	0x3c950fc1	0.018195989
140	0xb9a15d25	-0.0003077771
141	0xbc2dae08	-0.010600574
142	0x3ca89ee4	0.020583577
143	0xbbe70b8b	-0.0070509366
144	0x3cb5facc	0.022214316
145	0x3c839eb8	0.016066894
146	0x3bac188d	0.00525195
147	0xbc8ed0fd	-0.017433638
148	0xbc4d1e1f	-0.012519388
149	0xbcd2e9cd	-0.02574625
150	0x3c6ca0ba	0.014442617
151	0x3b4a1fd6	0.003084173
152	0xbb97317b	-0.004614053
153	0x3c2b4ba0	0.010455042
154	0xbc38b938	-0.011274628
155	0x3ba952fc	0.005167363
156	0x3c9bf889	0.01903941
157	0x3c11af96	0.008891961
158	0x3c598dd3	0.013278442
159	0x39f1be08	0.00046108686
160	0x3c8e4219	0.017365502
161	0x3c589fe7	0.013221717
162	0xbbba38c6	-0.0056830375
163	0x3c902a41	0.017598273
164	0xbb3127ae	-0.0027031708
165	0xbb0d7a69	-0.0021587855
166	0xbaf8e1a0	-0.001898814
167	0x3c1e4a37	0.009661249
168	0xbca4c6a8	-0.020114258
169	0xbc4b151f	-0.012395172
170	0x3a9b47f0	0.0011847
171	0xbc83a737	-0.016070945
172	0x3ba84c16	0.0051360233
173	0xbc3c4832	-0.011491822
174	0x3cb703c1	0.022340657
175	0xbcbc14bc	-0.022959106
176	0xbc5324f0	-0.012887225
177	0x3cc26d95	0.023733893
178	0xbca43321	-0.020043911
179	0xbbd3ae6c	-0.0064600017
180	0xbcc73325	-0.02431638
181	0xbc9975a1	-0.018732848
182	0xbbfc1334	-0.007692719
183	0x3ba1aea1	0.0049341475
184	0x3bd6d9bb	0.006556717
185	0xbb85185d	-0.004061742
186	0x3c195844	0.009359423
187	0x3c4eff76	0.012634149
188	0xbb786ec6	-0.0037907823
189	0x3c7e9d2c	0.015540402
190	0xbcb71812	-0.022350345
191	0xbcda0117	-0.026611848
192	0x3c17f290	0.00927414
193	0xbc951da5	-0.018202612
194	0xbc8c13f9	-0.017099367
195	0xbcae7973	-0.021298146
196	0xbc209343	-0.009800735
197	0xbc6a8ac9	-0.0143153155
198	0x3c06e11d	0.008232382
199	0xbc17a0ea	-0.0092546735
200	0xbb0c2836	-0.0021386272
201	0xbc33f188	-0.0109828785
202	0x3c76c9a7	0.015062726
203	0x3c19a9b2	0.009378837
204	0x3bbc7f7d	0.0057525025
205	0xbd24446d	-0.04010432
206	0xbc262808	-0.01014138
207	0x3cb95790	0.02262476
208	0xbc971997	-0.01844482
209	0xbcd91011	-0.026496919
210	0xbb951f39	-0.004550841
211	0x3caafac0	0.02087152
212	0xbcb36b7f	-0.021901844
213	0xbb651a81	-0.0034958425
214	0xbb6820a2	-0.0035419841
215	0xbc264ab9	-0.010149651
216	0xbd0a0698	-0.033697695
217	0xbc8cd4cc	-0.017191313
218	0xbba696c8	-0.0050838925
219	0xbc801abb	-0.015637746
220	0x3c830b56	0.015996616
221	0xbcf63f1a	-0.030059386
222	0xbcd44f93	-0.02591685
223	0x3c01f299	0.007931375
224	0xbc6f4be0	-0.014605492
225	0xbb3b0816	-0.0028538755
226	0xbc5274ba	-0.012845213
227	0x3c2e0a69	0.010622599
228	0x3c4f3e88	0.012649186
229	0x3c765552	0.01503499
230	0x3cb011c3	0.021492844
231	0xbc8b3c7e	-0.016996618
232	0x3d0c0442	0.034183748
233	0x3c9284b2	0.01788554
234	0xbc809020	-0.015693724
235	0xbca6270a	-0.020282287
236	0xbc15569a	-0.009114886
237	0x3c5b31df	0.013378589
238	0x3be7046b	0.007050087
239	0x3bbc1a22	0.00574042
240	0x3cc5ea74	0.024159648
241	0xbc4ab163	-0.012371394
242	0xbcb0afd7	-0.021568222
243	0x3bf58b65	0.0074934238
244	0xbb4b4cf4	-0.003102121
245	0xbc83fe02	-0.016112331
246	0xbc1b1498	-0.009465359
247	0x3aec9b69	0.0018051687
248	0xbc2572a2	-0.010098131
249	0xbc207575	-0.009793629
250	0x3c146f98	0.009059809
251	0xbb070309	-0.0020601174
252	0xba6d1f1e	-0.00090454693
253	0x3c96aacb	0.018391987
254	0x3c2e1e1a	0.010627294
255	0xbb6f6124	-0.0036526406

action_model._discrete_distribution.branches.0.bias f4 [3]
0	0xbbce5695	-0.0062969425
1	0x3c80bd0c	0.015715145
2	0xbc1b5d18	-0.0094826445

exp_avg f4 [128, 6]
0	0x37eeb206	2.845471e-05
1	0x3452adc3	1.9620988e-07
2	0x00000000	0.0
3	0x3609f215	2.05555e-06
4	0xb7625978	-1.3491481e-05
5	0x361e534c	2.359232e-06
6	0xb9c3d672	-0.00037353073
7	0x36d73136	6.413228e-06
8	0x00000000	0.0
9	0x3a854e6f	0.001017047
10	0x3a2d308f	0.0006606662
11	0xb98d0dc5	-0.00026903875
12	0x3940f4ce	0.00018401744
13	0x35abaaaa	1.2790163e-06
14	0x00000000	0.0
15	0x374cfb1f	1.2217816e-05
16	0xb955df37	-0.00020396417
17	0x38149034	3.542025e-05
18	0x393035c0	0.00016804691
19	0x363e2332	2.8332693e-06
20	0x00000000	0.0
21	0x3907950c	0.00012930128
22	0xb993a47a	-0.0002816057
23	0x37ff22d3	3.0414585e-05
24	0xb8f14c74	-0.00011506016
25	0x35700987	8.942083e-07
26	0x00000000	0.0
27	0x3926b9f6	0.0001590027
28	0x38e9caf4	0.00011148109
29	0xb837f823	-4.3861695e-05
30	0xb495bc99	-2.7890636e-07
31	0x359d0023	1.1697451e-06
32	0x00000000	0.0
33	0x38035f07	3.1321335e-05
34	0x3938a8b2	0.00017610451
35	0xb808d2b5	-3.2621163e-05
36	0xb9d5aa42	-0.00040753378
37	0x36ef550a	7.132655e-06
38	0x00000000	0.0
39	0x3a7dd1a8	0.00096824253
40	0x3a7584d9	0.0009365804
41	0xb9a1f5eb	-0.00030891536
42	0x38975713	7.21646e-05
43	0xb65439b3	-3.1624047e-06
44	0x00000000	0.0
45	0xb8720c6f	-5.7708876e-05
46	0xba372dd6	-0.0006987726
47	0x38f7e093	0.00011819708
48	0x39a5084f	0.00031477443
49	0xb5ca3b47	-1.5067425e-06
50	0x00000000	0.0
51	0xb9a12e2d	-0.00030742717
52	0xba639cbd	-0.00086827186
53	0x39492c7f	0.0001918543
54	0xb91aa995	-0.00014749759
55	0xb5900d5f	-1.0732728e-06
56	0x00000000	0.0
57	0x3992fc19	0.00028035117
58	0xb9467baf	-0.00018928827
59	0xb7a3edea	-1.9541902e-05
60	0xb9016b8c	-0.00012342463
61	0xb611e8c5	-2.1742173e-06
62	0x00000000	0.0
63	0x383bc358	4.4766202e-05
64	0xb98a1cfb	-0.00026343003
65	0x380c2c69	3.341996e-05
66	0x38a7a72e	7.99432e-05
67	0xb6105d77	-2.1512076e-06
68	0x00000000	0.0
69	0xb9c5cdd4	-0.00037728122
70	0xb8b8c7f3	-8.811047e-05
71	0x389be5e8	7.433799e-05
72	0x398d5c47	0.00026962368
73	0xb6270525	-2.4887934e-06
74	0x00000000	0.0
75	0xb9e6451e	-0.00043920515
76	0xb9df056d	-0.00042537917
77	0x39120067	0.00013923795
78	0x38b53aae	8.6416825e-05
79	0xb64c52e3	-3.0446615e-06
80	0x00000000	0.0
81	0xb9d92db0	-0.00041423505
82	0xb8b0db3a	-8.433168e-05
83	0x389c72c5	7.460037e-05
84	0x39028862	0.00012448573
85	0xb5e1ad1f	-1.6814191e-06
86	0x00000000	0.0
87	0x38d4174a	0.00010113286
88	0xb8f8757f	-0.00011847447
89	0x35d8aa9e	1.614291e-06
90	0xb98c2192	-0.00026727893
91	0x3617bfa0	2.2612294e-06
92	0x00000000	0.0
93	0x3a2783eb	0.0006390202
94	0x38c85e6f	9.554333e-05
95	0xb8fbe087	-0.00012010434
96	0x38f20afb	0.000115415045
97	0x355b716a	8.1748897e-07
98	0x00000000	0.0
99	0x37fd1795	3.0170931e-05
100	0xb9d76a60	-0.0004108725
101	0x38883a51	6.4958476e-05
102	0x3815210a	3.555514e-05
103	0x3544990d	7.323841e-07
104	0x00000000	0.0
105	0xb6b75b55	-5.4644574e-06
106	0x35f3840c	1.8143342e-06
107	0x35fab531	1.8679185e-06
108	0xb982373d	-0.00024836688
109	0xb6110b3f	-2.161323e-06
110	0x00000000	0.0
111	0xb7132489	-8.770389e-06
112	0x399d28a5	0.00029975656
113	0xb85e4f71	-5.300291e-05
114	0x39ebb3cf	0.0004495666
115	0xb54069df	-7.1679636e-07
116	0x00000000	0.0
117	0xb96adfcb	-0.00022399348
118	0xba92387b	-0.0011155749
119	0x396844a1	0.0002215081
120	0x398f98dc	0.00027388975
121	0x350709f6	5.0305914e-07
122	0x00000000	0.0
123	0xb5b1eb10	-1.325594e-06
124	0xba08df1a	-0.0005221233
125	0x38bc9af0	8.993398e-05
126	0xb8a2f140	-7.769698e-05
127	0xb5a42a12	-1.2231196e-06
128	0x00000000	0.0
129	0xb8dcf3c7	-0.000105358245
130	0x38ba0d05	8.871596e-05
131	0xb41f59c8	-1.4840691e-07
132	0xba7584ed	-0.0009365816
133	0x361a81c7	2.3023329e-06
134	0x00000000	0.0
135	0x3a82a3d1	0.0009967034
136	0x3aab1f56	0.0013055603
137	0xb9c9be69	-0.00038479574
138	0xb7df34e9	-2.660831e-05
139	0x3529007a	6.29581e-07
140	0x00000000	0.0
141	0x38a27b2f	7.747707e-05
142	0x381f613d	3.7999114e-05
143	0xb792e230	-1.7509883e-05
144	0x39cb45e5	0.00038771253
145	0x36789a2a	3.7044615e-06
146	0x00000000	0.0
147	0x384ac101	4.8340302e-05
148	0xb83e0c17	-4.531079e-05
149	0x372b534c	1.0211788e-05
150	0xb7da8791	-2.6050753e-05
151	0x35167785	5.605328e-07
152	0x00000000	0.0
153	0x36fb4f70	7.4896307e-06
154	0x3944ce74	0.00018768926
155	0xb7f8a667	-2.9641391e-05
156	0x3908c0ef	0.00013041844
157	0x353a17e0	6.932514e-07
158	0x00000000	0.0
159	0x380d3219	3.3663677e-05
160	0xb87c8477	-6.020485e-05
161	0x36d21733	6.2611884e-06
162	0xb8d19949	-9.994448e-05
163	0xb6d99214	-6.4841097e-06
164	0x00000000	0.0
165	0xb9471e6c	-0.00018989452
166	0xba685786	-0.00088631397
167	0x3929d5b3	0.00016196705
168	0x38f4b9c7	0.000116694304
169	0x352853d2	6.270685e-07
170	0x00000000	0.0
171	0xb6976e28	-4.5129746e-06
172	0xb9b59f1b	-0.00034641553
173	0x38797460	5.947461e-05
174	0xb98acbb1	-0.00026473173
175	0x36326acd	2.6586233e-06
176	0x00000000	0.0
177	0x39da7f03	0.0004167483
178	0x3a402c69	0.00073308364
179	0xb94428c5	-0.00018707204
180	0xba2e5172	-0.00066497095
181	0x3729b7bf	1.0115967e-05
182	0x00000000	0.0
183	0x3aca392c	0.0015428415
184	0x3a955515	0.0011393154
185	0xb9e33059	-0.00043332836
186	0x39169e9e	0.00014364204
187	0xb5ce7704	-1.5382834e-06
188	0x00000000	0.0
189	0xb9821d1b	-0.00024817217
190	0xb9bd6ac5	-0.0003612844
191	0x38cd3362	9.7847325e-05
192	0xb8abbb2a	-8.1887774e-05
193	0xb4f6b8c8	-4.5955517e-07
194	0x00000000	0.0
195	0xb81f8aa2	-3.8037666e-05
196	0x382dd085	4.1440613e-05
197	0xb5a56c19	-1.2324919e-06
198	0xb989a007	-0.00026249906
199	0x367962f4	3.716149e-06
200	0x00000000	0.0
201	0x3a279ece	0.0006394208
202	0x3996e7ef	0.00028783033
203	0xb92006fe	-0.00015261394
204	0xb9905286	-0.00027527305
205	0x352f7553	6.536331e-07
206	0x00000000	0.0
207	0x3984899e	0.00025279535
208	0x3a07588e	0.0005163037
209	0xb9059bad	-0.00012741862
210	0xb9bde6d0	-0.00036220858
211	0xb6287004	-2.5099152e-06
212	0x00000000	0.0
213	0xb8c2267f	-9.257811e-05
214	0x39341d6c	0.00017177098
215	0xb79a94c5	-1.8427507e-05
216	0xb9e948be	-0.0004449542
217	0xb5452e40	-7.345552e-07
218	0x00000000	0.0
219	0x3922fa03	0.0001554266
220	0x3a1aa12b	0.00058986497
221	0xb904b6a0	-0.00012656534
222	0xba23b3f5	-0.0006244772
223	0x36906754	4.3035634e-06
224	0x00000000	0.0
225	0x3a6ab012	0.0008952628
226	0x3a272a6b	0.0006376865
227	0xb984dd1d	-0.00025341744
228	0x3901c14d	0.00012374409
229	0xb641457c	-2.8799686e-06
230	0x00000000	0.0
231	0xb9c01708	-0.00036638253
232	0xb992b7a8	-0.00027984125
233	0x38d8e366	0.00010342039
234	0xb956029b	-0.00020409601
235	0x364f63b8	3.0903448e-06
236	0x00000000	0.0
237	0x3a0dd406	0.0005410317
238	0x39925a52	0.00027914584
239	0xb90dd263	-0.00013525183
240	0x389e352b	7.5439304e-05
241	0x33304799	4.104331e-08
242	0x00000000	0.0
243	0x3900e385	0.00012291789
244	0x3801059f	3.076123e-05
245	0xb7d80b05	-2.5754338e-05
246	0x38bcdcb2	9.005646e-05
247	0xb5669e83	-8.591234e-07
248	0x00000000	0.0
249	0xb9a04783	-0.00030570859
250	0x398b415b	0.0002656084
251	0x36c33a02	5.818206e-06
252	0xb8a55be1	-7.884927e-05
253	0xb43db627	-1.7668263e-07
254	0x00000000	0.0
255	0x38072769	3.222321e-05

exp_avg_sq f4 [128, 6]
0	0x338c6968	6.538431e-08
1	0x2dbb19f1	2.1270959e-11
2	0x00000000	0.0
3	0x311afe1a	2.255439e-09
4	0x3196cb8e	4.388716e-09
5	0x2fd62021	3.8949202e-10
6	0x364a5f17	3.0155695e-06
7	0x2fea29c0	4.2594017e-10
8	0x00000000	0.0
9	0x35c292e5	1.4496878e-06
10	0x369b9a5c	4.6373298e-06
11	0x3482f3e3	2.4391838e-07
12	0x3478afcc	2.3160754e-07
13	0x2eb6c8ea	8.312091e-11
14	0x00000000	0.0
15	0x3315aca4	3.484878e-08
16	0x33c5d27c	9.211814e-08
17	0x31c288dd	5.6617027e-09
18	0x34644355	2.125865e-07
19	0x2e813241	5.875168e-11
20	0x00000000	0.0
21	0x32ff17df	2.9696762e-08
22	0x333c700b	4.3874063e-08
23	0x3148ea05	2.9236855e-09
24	0x34a1d48a	3.014323e-07
25	0x2e9768ff	6.885336e-11
26	0x00000000	0.0
27	0x3485942b	2.4880987e-07
28	0x34c79be9	3.7180078e-07
29	0x32cdcd35	2.3958458e-08
30	0x345837da	2.0136886e-07
31	0x2e1aeb5a	3.522458e-11
32	0x00000000	0.0
33	0x33cce3fb	9.54096e-08
34	0x34a677b9	3.100702e-07
35	0x329822a1	1.7710876e-08
36	0x362cd06c	2.5751315e-06
37	0x2fc960cc	3.6630465e-10
38	0x00000000	0.0
39	0x35b7a41d	1.3682326e-06
40	0x361d91d1	2.34797e-06
41	0x3422c2c7	1.5158285e-07
42	0x3487e330	2.531101e-07
43	0x2eab4dea	7.79002e-11
44	0x00000000	0.0
45	0x333ce1e6	4.3977614e-08
46	0x34a80fef	3.1304032e-07
47	0x3268ec02	1.3557839e-08
48	0x35bf1c3b	1.4238825e-06
49	0x2fa1d362	2.9435926e-10
50	0x00000000	0.0
51	0x344bad61	1.8968923e-07
52	0x360eaf00	2.1261512e-06
53	0x33cd5a2c	9.5624586e-08
54	0x34ec64d5	4.403179e-07
55	0x2ef79343	1.12584185e-10
56	0x00000000	0.0
57	0x33c3144b	9.0840864e-08
58	0x34ad2d96	3.225693e-07
59	0x3286964c	1.5668e-08
60	0x34bdbabb	3.5339858e-07
61	0x2ee94218	1.0607354e-10
62	0x00000000	0.0
63	0x3457819e	2.007059e-07
64	0x35302b75	6.562835e-07
65	0x32fc452a	2.9368113e-08
66	0x3443bd63	1.8229689e-07
67	0x2e24727d	3.739097e-11
68	0x00000000	0.0
69	0x342d49a9	1.6138678e-07
70	0x34b04641	3.283367e-07
71	0x32b6968b	2.1256048e-08
72	0x36061891	1.9981856e-06
73	0x30179d98	5.5157434e-10
74	0x00000000	0.0
75	0x35834a1e	9.781832e-07
76	0x361184ff	2.1684098e-06
77	0x33db13d9	1.02015925e-07
78	0x3501611c	4.819756e-07
79	0x2ee710a2	1.05076184e-10
80	0x00000000	0.0
81	0x348b9606	2.5999924e-07
82	0x359c69a0	1.1653647e-06
83	0x3380de85	6.0009405e-08
84	0x352390c0	6.093287e-07
85	0x2f3c0770	1.7101143e-10
86	0x00000000	0.0
87	0x328f08e6	1.6651438e-08
88	0x35c2f8a8	1.4526495e-06
89	0x3383f3bf	6.1445e-08
90	0x358c1c9e	1.0439142e-06
91	0x2f24ca38	1.4987556e-10
92	0x00000000	0.0
93	0x35526313	7.837527e-07
94	0x35ff4d0d	1.9021405e-06
95	0x33e0e04b	1.04716115e-07
96	0x34a1a439	3.0108075e-07
97	0x2ec550fb	8.972908e-11
98	0x00000000	0.0
99	0x342916ad	1.5747601e-07
100	0x34a5215a	3.075791e-07
101	0x32939b1b	1.7183586e-08
102	0x33a8f9d3	7.8685524e-08
103	0x2e2cc806	3.928593e-11
104	0x00000000	0.0
105	0x30ea7503	1.7058998e-09
106	0x33038a53	3.062662e-08
107	0x30be8af8	1.3863817e-09
108	0x33ca15f7	9.4103534e-08
109	0x2dd11fe5	2.3774713e-11
110	0x00000000	0.0
111	0x327bde80	1.46607135e-08
112	0x32944ddf	1.726488e-08
113	0x30a5944a	1.2047476e-09
114	0x358aa270	1.0329077e-06
115	0x2f5260ad	1.9133735e-10
116	0x00000000	0.0
117	0x342126fe	1.5008479e-07
118	0x35a638c1	1.2384481e-06
119	0x33863aea	6.250578e-08
120	0x349095aa	2.6930985e-07
121	0x2e75999b	5.584298e-11
122	0x00000000	0.0
123	0x331f6343	3.711035e-08
124	0x34572621	2.0037307e-07
125	0x323b214e	1.0892405e-08
126	0x34e1e573	4.2076462e-07
127	0x2f187aaf	1.3867905e-10
128	0x00000000	0.0
129	0x33f61ab2	1.14601235e-07
130	0x3467774a	2.1556949e-07
131	0x3238412c	1.0725028e-08
132	0x361dd1f1	2.3517025e-06
133	0x2fdeba6c	4.0514025e-10
134	0x00000000	0.0
135	0x35b71a1e	1.3642164e-06
136	0x35d60e02	1.5948319e-06
137	0x340a6651	1.2889474e-07
138	0x34f5208d	4.565849e-07
139	0x2f2d1bc1	1.5744119e-10
140	0x00000000	0.0
141	0x34485ca5	1.8660155e-07
142	0x34a21d34	3.01961e-07
143	0x328bf10c	1.6291345e-08
144	0x36162d29	2.2378028e-06
145	0x301377eb	5.36487e-10
146	0x00000000	0.0
147	0x338fdf9d	6.6996314e-08
148	0x3488aa07	2.5455685e-07
149	0x329bbf67	1.8131415e-08
150	0x3409a9e6	1.2820928e-07
151	0x2dbffb2e	2.1825732e-11
152	0x00000000	0.0
153	0x331e1383	3.6804988e-08
154	0x34161a90	1.3979502e-07
155	0x31d9bb28	6.3368084e-09
156	0x34097283	1.2800778e-07
157	0x2e88fcc8	6.229467e-11
158	0x00000000	0.0
159	0x31d151b2	6.0919882e-09
160	0x340af36e	1.2940811e-07
161	0x319ac8ce	4.5048187e-09
162	0x34865209	2.5019133e-07
163	0x2eb8149f	8.371014e-11
164	0x00000000	0.0
165	0x340d6138	1.3167016e-07
166	0x35308574	6.575931e-07
167	0x330562f8	3.1056487e-08
168	0x348189fe	2.4128525e-07
169	0x2ee59c24	1.04414505e-10
170	0x00000000	0.0
171	0x3403f3cc	1.2289019e-07
172	0x344c74fb	1.9041538e-07
173	0x3237a803	1.0690203e-08
174	0x354e755d	7.6911766e-07
175	0x2f7347f1	2.212628e-10
176	0x00000000	0.0
177	0x34c739b0	3.7108612e-07
178	0x35a5f371	1.2364309e-06
179	0x3388b6d8	6.3662526e-08
180	0x36b45301	5.374081e-06
181	0x303a22f0	6.7716055e-10
182	0x00000000	0.0
183	0x36879714	4.0409013e-06
184	0x36be838f	5.6777567e-06
185	0x34d0887c	3.8842325e-07
186	0x34ce0443	3.837359e-07
187	0x2ea21074	7.36983e-11
188	0x00000000	0.0
189	0x33ca0d53	9.408782e-08
190	0x35252a98	6.152927e-07
191	0x32f3c051	2.8376379e-08
192	0x333aea1b	4.3519417e-08
193	0x2dd52ae5	2.4234345e-11
194	0x00000000	0.0
195	0x30e61a15	1.6742115e-09
196	0x31bcedc9	5.498553e-09
197	0x2fe45409	4.153267e-10
198	0x35e4c8b9	1.7045742e-06
199	0x2f6afff3	2.1373107e-10
200	0x00000000	0.0
201	0x352210a8	6.037394e-07
202	0x3584e5f9	9.901697e-07
203	0x33853935	6.203701e-08
204	0x34ac54aa	3.2099098e-07
205	0x2e9e7594	7.205894e-11
206	0x00000000	0.0
207	0x33b3f6d3	8.380234e-08
208	0x342ece72	1.6280117e-07
209	0x32180f8a	8.851098e-09
210	0x352179a5	6.015419e-07
211	0x2f0e5be6	1.2947474e-10
212	0x00000000	0.0
213	0x3408e62a	1.274972e-07
214	0x341f628b	1.4843879e-07
215	0x3239c033	1.0812118e-08
216	0x3539a79f	6.916179e-07
217	0x2f514e30	1.9036217e-10
218	0x00000000	0.0
219	0x33cf7948	9.6612496e-08
220	0x3432747c	1.6619919e-07
221	0x323d8714	1.1031961e-08
222	0x3643e275	2.918908e-06
223	0x2ff833f2	4.5147847e-10
224	0x00000000	0.0
225	0x35b365cc	1.3366166e-06
226	0x35ca707f	1.5082913e-06
227	0x3406539e	1.2510142e-07
228	0x3452f8a9	1.9648236e-07
229	0x2e3cbfec	4.2916712e-11
230	0x00000000	0.0
231	0x34162682	1.3983848e-07
232	0x34940c3e	2.7576056e-07
233	0x32833f0c	1.5279078e-08
234	0x35a1311b	1.2009726e-06
235	0x2f714bdb	2.1945772e-10
236	0x00000000	0.0
237	0x34d02696	3.8771094e-07
238	0x3512d56a	5.4699797e-07
239	0x3328233e	3.91476e-08
240	0x34dbe7fc	4.096072e-07
241	0x2e9acf4d	7.039933e-11
242	0x00000000	0.0
243	0x329b5d4f	1.8086807e-08
244	0x35743a8b	9.0982275e-07
245	0x332175ac	3.7592756e-08
246	0x345444ad	1.9769023e-07
247	0x2e23c187	3.7233796e-11
248	0x00000000	0.0
249	0x34265b85	1.549325e-07
250	0x34f7a1ce	4.6125064e-07
251	0x32ed5920	2.763096e-08
252	0x34113141	1.3522096e-07
253	0x2e2de8b4	3.9542328e-11
254	0x00000000	0.0
255	0x33a41885	7.641305e-08

exp_avg f4 [128]
0	0x37836be6	1.5666661e-05
1	0x3a0a7cac	0.000528286
2	0x38db9a3f	0.00010471464
3	0x39737217	0.00023216788
4	0x3899faad	7.3423005e-05
5	0x38c912b8	9.5879135e-05
6	0x3a19a1c6	0.0005860593
7	0xb98870da	-0.00026024022
8	0xb904409d	-0.00012612571
9	0xb8b6f4a7	-8.724006e-05
10	0xb93a264c	-0.00017752609
11	0xb9397d03	-0.00017689545
12	0xb9573919	-0.00020525268
13	0xb983a76e	-0.00025111012
14	0xb90eba89	-0.00013611665
15	0x3943c458	0.00018669793
16	0x388c3978	6.6864246e-05
17	0x387af06b	5.982855e-05
18	0xb939a92d	-0.00017705998
19	0xb87c9e75	-6.0229057e-05
20	0x382c4b2d	4.107801e-05
21	0xb8d3c70f	-0.000100983416
22	0x394770d1	0.00019020146
23	0x38570d3f	5.127233e-05
24	0x399defa9	0.00030123934
25	0x38424178	4.6314177e-05
26	0x386eef08	5.6966237e-05
27	0xba0bbf94	-0.00053309766
28	0x385792ae	5.13966e-05
29	0x39663b22	0.00021956538
30	0x3a59c845	0.00083077356
31	0xb905b81b	-0.00012752453
32	0xb81e70c1	-3.7775146e-05
33	0x39a02a1a	0.00030548946
34	0x3864c1e2	5.4540003e-05
35	0xb95790be	-0.00020557918
36	0xb8774b4d	-5.895952e-05
37	0x39b97649	0.0003537408
38	0xb97809bc	-0.0002365475
39	0x398536f0	0.00025408668
40	0x369616d8	4.4730077e-06
41	0xb8949ccc	-7.0863956e-05
42	0xb76c8f72	-1.4100095e-05
43	0xb83388b2	-4.2804233e-05
44	0x389265fa	6.980817e-05
45	0x3905bf27	0.00012755078
46	0xb90473e7	-0.00012631678
47	0x38208378	3.8269412e-05
48	0x38bcaf77	8.9972214e-05
49	0xb8232653	-3.889792e-05
50	0xb8cf7bba	-9.893575e-05
51	0xb9a108e9	-0.00030714952
52	0xba162d9e	-0.00057288434
53	0x39a5198a	0.0003149028
54	0x39c33f8f	0.00037240653
55	0x391ea463	0.00015129293
56	0x39137fca	0.00014066618
57	0xb868e4c3	-5.552616e-05
58	0x34a889c6	3.1392682e-07
59	0xb763b315	-1.357195e-05
60	0x3822c7b5	3.88098e-05
61	0xb71f7890	-9.505209e-06
62	0xb861a564	-5.3798212e-05
63	0xb543b37e	-7.2904356e-07
64	0xb91609b4	-0.0001430873
65	0x3985cafa	0.00025518966
66	0xb6c4acf0	-5.8613878e-06
67	0xb8c7170e	-9.493354e-05
68	0x39540009	0.00020217909
69	0x3a6f27e4	0.00091230706
70	0x39b11a6d	0.0003377976
71	0x39507848	0.00019881234
72	0xba4ed23e	-0.0007889605
73	0x381778f1	3.611384e-05
74	0xba3500fe	-0.000690475
75	0x3901c5db	0.00012376106
76	0xb906fbaa	-0.00012872988
77	0x376afed1	1.4006816e-05
78	0x3995dfc7	0.00028586222
79	0xb9f55369	-0.00046792187
80	0x39125e03	0.00013958667
81	0x3702621e	7.7714485e-06
82	0xba50f9bd	-0.0007971784
83	0xba0060a0	-0.0004897211
84	0xb884e8b1	-6.337593e-05
85	0x39542d33	0.00020234734
86	0x385a2a4b	5.201464e-05
87	0xba4a70d6	-0.00077225023
88	0x39dc784a	0.00042051292
89	0x3a1e0128	0.0006027394
90	0x38c81c8a	9.542059e-05
91	0xb8b9e34a	-8.863823e-05
92	0xb6da069f	-6.497677e-06
93	0xb8508140	-4.9711438e-05
94	0x3a4e1074	0.0007860728
95	0x36bd6061	5.643859e-06
96	0x3aac0621	0.0013124385
97	0xb97fbba0	-0.00024388591
98	0xb98a3d02	-0.00026366865
99	0xb88a9050	-6.607233e-05
100	0xb77595a9	-1.4637983e-05
101	0xb978f148	-0.00023741007
102	0x3881af45	6.183846e-05
103	0x39375a7d	0.0001748595
104	0xb93f7989	-0.00018260455
105	0xba9b0d00	-0.0011829436
106	0xb9da5358	-0.00041642296
107	0xb9a22f95	-0.000309345
108	0x38b41fb2	8.5889726e-05
109	0x38f810b0	0.0001182867
110	0xb9178cc2	-0.00014452919
111	0x36c38f5f	5.8281435e-06
112	0x38cd107c	9.778232e-05
113	0xb7074cf8	-8.064548e-06
114	0xb8bd43f2	-9.024878e-05
115	0x39bf7674	0.00036518613
116	0xb98eee0d	-0.00027261712
117	0xb987103a	-0.00025761296
118	0xb95dc4a4	-0.00021149457
119	0x39e386c4	0.00043397222
120	0xb9c7cff6	-0.0003811118
121	0x391920df	0.00014603462
122	0xb97f5832	-0.0002435155
123	0xb917481b	-0.00014427344
124	0xb9bde669	-0.00036220558
125	0xb9ed081d	-0.00045210207
126	0x39bb037f	0.00035670024
127	0xb97660e7	-0.00023496487

exp_avg_sq f4 [128]
0	0x3387ec74	6.329438e-08
1	0x36078257	2.0192435e-06
2	0x3473189c	2.2640091e-07
3	0x342dbcf8	1.6180627e-07
4	0x3465d273	2.1403848e-07
5	0x3415ad0e	1.3939663e-07
6	0x35f99833	1.8596241e-06
7	0x34880319	2.5334228e-07
8	0x35ba5fb2	1.3885931e-06
9	0x34bdd764	3.536071e-07
10	0x349d38f8	2.928498e-07
11	0x343937f4	1.7249823e-07
12	0x35dea149	1.6587229e-06
13	0x34e35bf7	4.2348958e-07
14	0x352ac87b	6.362167e-07
15	0x3532ea83	6.6651427e-07
16	0x348b206e	2.5914363e-07
17	0x3399243c	7.131209e-08
18	0x33b9a5b9	8.6448786e-08
19	0x357a9930	9.3355175e-07
20	0x348c2552	2.6104186e-07
21	0x34bca211	3.5135648e-07
22	0x360ddb2c	2.1138212e-06
23	0x34b93dee	3.4503995e-07
24	0x360b9e01	2.0804584e-06
25	0x33bc5a57	8.770865e-08
26	0x34107d01	1.3456521e-07
27	0x34999f2f	2.8614292e-07
28	0x34572a22	2.0038763e-07
29	0x35634696	8.4666806e-07
30	0x365cddad	3.2911587e-06
31	0x34c93d3e	3.7483727e-07
32	0x33209986	3.739253e-08
33	0x358829a0	1.0144904e-06
34	0x349bf059	2.9045876e-07
35	0x3502be21	4.870545e-07
36	0x355b046b	8.1590287e-07
37	0x36154b0d	2.2246415e-06
38	0x3412ee6f	1.3684051e-07
39	0x35601c9b	8.348813e-07
40	0x349d5128	2.9302578e-07
41	0x3439eeb4	1.7316307e-07
42	0x33e18ee9	1.0503374e-07
43	0x34750b6a	2.2821555e-07
44	0x34b296c8	3.3264791e-07
45	0x350e1093	5.292324e-07
46	0x34c01f2e	3.5785473e-07
47	0x33fdfbcb	1.18270314e-07
48	0x34bba051	3.494811e-07
49	0x342713fa	1.5560354e-07
50	0x34695286	2.1729838e-07
51	0x34a767e7	3.1181773e-07
52	0x35c0a6f6	1.4353707e-06
53	0x35620c7f	8.4209745e-07
54	0x35c1ac3e	1.442975e-06
55	0x341c2162	1.4540777e-07
56	0x33a74d15	7.7905646e-08
57	0x358916b0	1.0213898e-06
58	0x334655aa	4.617838e-08
59	0x34f577dc	4.5722015e-07
60	0x352160b4	6.0117895e-07
61	0x356cad9b	8.816948e-07
62	0x34056d4f	1.2426356e-07
63	0x35136484	5.4908037e-07
64	0x35b63e10	1.3578119e-06
65	0x35858cac	9.950213e-07
66	0x33dbb1f6	1.0230353e-07
67	0x34ef29c6	4.4547613e-07
68	0x34c1ba55	3.6084626e-07
69	0x369c8571	4.664697e-06
70	0x35bfff0f	1.4304841e-06
71	0x34d2528f	3.9175617e-07
72	0x36491c07	2.9967648e-06
73	0x348fa506	2.6755896e-07
74	0x359c471b	1.16436e-06
75	0x35c80906	1.4903787e-06
76	0x344f0af4	1.9282362e-07
77	0x3409eb50	1.2844725e-07
78	0x34c34c5f	3.6377148e-07
79	0x3508e4a5	5.099667e-07
80	0x35732be3	9.058842e-07
81	0x34473f56	1.8556361e-07
82	0x35f4a9ca	1.8228832e-06
83	0x362da1df	2.587323e-06
84	0x340558ed	1.2418941e-07
85	0x34dd3550	4.1203248e-07
86	0x34078a5c	1.262319e-07
87	0x35d9e84c	1.6235367e-06
88	0x35e895cc	1.7328944e-06
89	0x3613234a	2.1925248e-06
90	0x346a721a	2.1834458e-07
91	0x348bb3f6	2.6021706e-07
92	0x335f9375	5.2055345e-08
93	0x342bc45a	1.5997048e-07
94	0x36b5dea5	5.4201396e-06
95	0x341ec1fe	1.478547e-07
96	0x3704cf6e	7.916109e-06
97	0x34e8ccb8	4.336232e-07
98	0x33c70113	9.266855e-08
99	0x33a62447	7.736576e-08
100	0x33016c84	3.0133847e-08
101	0x33f03221	1.1184989e-07
102	0x33b4984b	8.409605e-08
103	0x3542cd63	7.256951e-07
104	0x345852fc	2.0146757e-07
105	0x3632e7db	2.6659025e-06
106	0x348091d4	2.3947962e-07
107	0x3562c21b	8.447402e-07
108	0x33cd1ed5	9.551665e-08
109	0x364ef30d	3.0837866e-06
110	0x332e039f	4.0515825e-08
111	0x330e11f8	3.3078294e-08
112	0x3384d15c	6.184811e-08
113	0x33b305f6	8.336421e-08
114	0x34a05d03	2.9869997e-07
115	0x35dafea5	1.6316377e-06
116	0x34221165	1.5093754e-07
117	0x349e2d70	2.9462853e-07
118	0x354254de	7.239413e-07
119	0x362b35ec	2.5512372e-06
120	0x35084ccd	5.077571e-07
121	0x35377cb7	6.8354296e-07
122	0x33eebe5f	1.1117367e-07
123	0x34cb9670	3.7921154e-07
124	0x3498f202	2.848829e-07
125	0x355d4df4	8.244235e-07
126	0x357fb3af	9.5256377e-07
127	0x34bb3e0f	3.4876618e-07
