BasicAvoidance/Assets/results/BasicAvoidance1/PlayerAvoidance/PlayerAvoidance-23696.onnx (onnx, 74465 bytes, 8 tensors)

network_body.observation_encoder.processors.0.normalizer.running_mean f4 [6]
00000000: 7e70 653d defc ff3e 0000 0000 6ff0 c2b9
00000010: 832a ee3e 6432 b2c0
0.056015484 0.4999761 0.0 -0.000371817 0.4651681 -5.568651

network_body._body_endoder.seq_layers.0.weight f4 [128, 6]
00000000: bbd0 87bd 5f3a 0c3f eaa5 44be d2b7 bf3e
00000010: 9ff1 d93d 290f 2cbe e19a 89be 9f6e 263f
00000020: caed 51bc e7ef b53e 3d52 823e b989 4f3e
00000030: d628 3f3e 4fe7 633f b9d5 81bf 7ff0 4bbd
00000040: a3be 253f 0095 87bf a7f0 c8be 6b32 a6be
00000050: 72bc 86be 39a9 2c3f f5dd c1be 4b47 b53e
00000060: 19fa 893e 7b38 853e 9160 183e b73b 2d3d
00000070: 774a 6f3e c130 9cbd 4be5 5a3e 4f49 e9be
00000080: cf66 f23e 9ff9 93be 3d16 ba3c 120a ac3c
00000090: dbfc c3be 1bec 003e 0e1d e2bd aaf8 a7be
000000a0: f8a1 f43d ae3b f63e 0ded eb3d cddd cabe
000000b0: 4a5a aabe f6f1 9dbe 9c9c ff3c 0aee 0bbb
000000c0: 4e3d f2bd 82a7 823e 0dd3 423e dff3 eebd
000000d0: f3e7 803f d8c6 06be ea19 89be e253 b5be
000000e0: 14ee 253f 76c6 a13c 9724 0ebe 953b 51bd
000000f0: cb42 b03e 8a8d 903d bc7f 9f3e 0782 673e
00000100: b853 dbbd 3939 853d 53ab 13bf 31dc 143e
00000110: 22cf 01bf 7f8e b13e ccbf 3b3e 2893 19bf
00000120: 65bc 05bf 8b58 d0be 3495 05be cd9f b3be
00000130: 7cda 36bf 5872 133f ed0e 52bf e43c 1b3e
00000140: 0632 693e 8ad3 dbbe 4812 9f3e 85f2 9b3d
00000150: ac51 953d 952f d33e a74b 463e f8bb 07bf
00000160: 78f4 893d e5b7 01bf f957 cf3d b03d e03e
00000170: 1b72 12bf 2a0e 4bbe 9cf6 293d 7e27 653e
00000180: f863 b9bb 7371 dd3e 3fbb b4bd 5dcf 10bf
00000190: 238a 0fbf f71e afbe 4045 933e 950e d9be
000001a0: 93c0 ccbe 1995 4d3e 0907 71be 47b7 3a3c
000001b0: 6d72 c9be 23f6 d93b b155 c73b 78c7 f5be
000001c0: 29df ab3d 49d7 4abe 8b01 3cbf e87a 0fbe
000001d0: 2151 8d3e a4a6 c6be f21d 1a3d f953 f23d
000001e0: cb39 763e a691 853e d980 743d 708c 213e
000001f0: 91dd 25be 559a c4bc b2f1 573c edfd d6be
00000200: 3fa4 d5be c370 14be 9565 03be 4e49 dd3e
00000210: 7e82 a03e c9b9 66bf d46b d73e 0480 7e3e
00000220: 0b5e 843f 7537 183f 1d66 38bf 59bc 5c3f
00000230: 4c78 14bf 70c6 f13e dbed af3d e3e0 413e
00000240: c901 0fbf c382 773d 0884 313e aecb 0cbf
00000250: f30e 5f3d 1c45 153e 9681 d7be dbf6 e1bc
00000260: ac6a cd3d 35a4 cf3d de76 733d 1eb8 bdbe
00000270: 17f2 f8be e721 25bf 8dbe 843d bbef 333e
00000280: d2a5 573e 2ad3 373c c32a a4be 9143 44bd
00000290: d0b8 153f 924c 923e 89b3 9a3c 8a8e 6d3f
000002a0: 9aa6 913e 86ba e9bd 1738 9d3d 8f5f 1cbe
000002b0: 1a10 283e 0b5b 57be bd95 a2bd c7b7 c93e
000002c0: b666 7bbe 7ce6 d03d 0490 d9be 10a1 87bd
000002d0: c12f 1a3e e031 88be e21f 01bf 1a27 573f
000002e0: 9c6e 8fbe d1f5 49be fd79 4c3f 6cc6 a9be
000002f0: f1ea 043d 3207 12bf 3d6d b93e ab9f d8be
00000300: f8a5 dd3e 4647 ef3e aedf 5ebe f5fa 8f3e
00000310: 86c4 013f ee73 a23c b364 333f cb08 fdbe
00000320: 556e 63be adad 17bf 50d1 9d3a b999 203c
00000330: fab6 babe 299a 5c3e e617 92be 08a0 8c3f
00000340: 14fd c6bd 50db 7ebe 854e 2e3e 950d 6abe
00000350: c48f cfbc 1283 7c3e c05a 0ebe ea78 a7be
00000360: ff56 3d3e bfbc 7bbe a7cc 0bbf 40ea febe
00000370: 516f 00bf 4e08 073f 4756 c93e 98f1 bc3e
00000380: 9392 c5be 117f 9dbc 5c49 1ebf 6a30 b03d
00000390: 80a4 61be 1a00 4dbf 1ac8 2abe 51c4 30bf
000003a0: 6a63 6dbd 2c97 f13d 188a b3be 1ae4 373d
000003b0: 44ee 8dbe 5abd 053f 7969 cc3e 6cce e03e
000003c0: ef2c b03e bc5a d73d c269 923e dc03 e33d
000003d0: a2e0 10bf 4851 093f 1dff 8dbe 0a39 79be
000003e0: efcd 573f 2538 30bf ab9a f6be cc50 5abf
000003f0: 8325 9b3e 8d66 65bc c785 b8bd 5401 b7be
-0.06631609 0.5477657 -0.19203916 0.3744493 0.10641789 -0.16802658 -0.26875976 0.65012544
-0.012813041 0.35534593 0.25453368 0.20267381 0.18667921 0.89024824 -1.0143348 -0.0497899
0.64744014 -1.0592346 -0.39246103 -0.3246034 -0.26315647 0.67445713 -0.37864652 0.35405955
0.26948622 0.26019654 0.14880587 0.042293277 0.2336825 -0.076264866 0.21376531 -0.45563743
0.47344062 -0.28901383 0.022715682 0.021000896 -0.3827885 0.12590067 -0.11040698 -0.32806903
0.119449556 0.48092407 0.11519823 -0.39622346 -0.3327201 -0.30848664 0.031202607 -0.00213516
-0.11828099 0.25518423 0.19025822 -0.116676085 1.0070785 -0.1316179 -0.26777583 -0.3541556
0.64816403 0.019747954 -0.13881145 -0.051082212 0.3442596 0.070582464 0.3115214 0.22608195
-0.107093275 0.06505055 -0.57683295 0.14537121 -0.50706685 0.34679028 0.18334883 -0.5999017
-0.5224059 -0.40692553 -0.13045198 -0.35082856 -0.7142713 0.5759635 -0.82054025 0.15159947
0.22772989 -0.4293483 0.31068635 0.07614616 0.07290968 0.4124724 0.19364797 -0.5302119
0.06736082 -0.50671226 0.10124201 0.43797064 -0.5720536 -0.19829622 0.04149495 0.22378346
-0.005657669 0.43250617 -0.08824777 -0.5656641 -0.56070155 -0.34203312 0.2876377 -0.42393938
-0.39990672 0.20076407 -0.2353784 0.011396236 -0.39345112 0.0066516562 0.0060832133 -0.48003745
0.08392174 -0.19808687 -0.73439854 -0.14011729 0.2760096 -0.38799012 0.037626214 0.11832423
0.24045484 0.26087683 0.05969319 0.15776229 -0.16197802 -0.023999372 0.013180183 -0.41990605
-0.41726872 -0.1449614 -0.12831719 0.4321999 0.31349558 -0.90127236 0.42074454 0.24853522
1.03412 0.5945962 -0.7203081 0.86224896 -0.5799606 0.47221708 0.08590289 0.18933444
-0.558621 0.06042744 0.17335522 -0.5499829 0.054457616 0.14577144 -0.42091054 -0.02758353
0.10030112 0.10138742 0.059439532 -0.37054533 -0.486222 -0.64504856 0.06481657 0.17571919
0.21059349 0.011219779 -0.32063875 -0.047916 0.58485126 0.28574044 0.018884437 0.9279562
0.2844742 -0.1141253 0.07676714 -0.15270828 0.16412392 -0.21030824 -0.079387166 0.39398023
-0.245509 0.102002114 -0.42492688 -0.06622517 0.15057279 -0.26600552 -0.50439274 0.8404404
-0.28014076 -0.19722678 0.7987364 -0.33159196 0.03245062 -0.5704223 0.36216155 -0.42309317
0.43290687 0.46734065 -0.21765015 0.28121153 0.50690496 0.01983067 0.7007553 -0.4942077
-0.22210057 -0.59249383 0.0012040529 0.009802275 -0.36467725 0.21543182 -0.28533858 1.0986338
-0.097162396 -0.24888349 0.1702214 -0.22856744 -0.025337107 0.24659374 -0.13901806 -0.32709438
0.18490218 -0.2458372 -0.5460915 -0.49788094 -0.50169855 0.52747047 0.39323637 0.3690307
-0.3858839 -0.019225629 -0.6183069 0.08602984 -0.22035408 -0.8007828 -0.16677895 -0.69049555
-0.057956137 0.11796412 -0.35066295 0.04489527 -0.27720845 0.5224205 0.3992422 0.43907487
0.34409282 0.10515353 0.28596312 0.110847205 -0.5659276 0.5363965 -0.27733698 -0.24338165
0.84298605 -0.6883567 -0.48164877 -0.85279536 0.30302057 -0.014001501 -0.09009891 -0.357432

network_body._body_endoder.seq_layers.0.bias f4 [128]
00000000: e705 573c 1ac7 4ebc b888 9ebb d959 33bb
00000010: 73f7 51bb 9beb 05bc 5461 6b3c 88f8 02bc
00000020: b37b dabc da5a a6bc 20de 3c3c 00b3 bdbb
00000030: 69c5 983b 55dd 73bd 568b 51bb 85c8 c93b
00000040: 5c75 eebc d1e1 aabc c2ba f0bc 268a c8bb
00000050: d416 42bc 001a 08bc 988d 82bc e7d0 f73b
00000060: ed10 72bc 2706 d9bc 2f1c 97bb b51b 90bc
00000070: a836 a53a 9ec1 edbc 75e4 07bd 21c9 5c3c
00000080: 83fd 103c 7ac3 fb3a 375f 3bbd d4eb 093c
00000090: 93b9 97bc 9884 a2bc 94a2 9ebb 91e3 48bc
000000a0: 1b76 a8bc 4ca7 bcbc ee49 ec3b 577e bfbc
000000b0: 8673 373b e3cb 38bc 289b d73b 4ed5 c3bc
000000c0: bb38 d2bc 3804 cb37 838c 82b9 f857 13b9
000000d0: 356d 563c d08d fbbc dc8e e13a 91c8 c5bc
000000e0: 875e 99bc 2750 f7bc c197 a0bc 8434 14bb
000000f0: 1b88 bdbc a1df 06bc e0dc 8bbc 3be0 61bc
00000100: 0c4f 093d f6c6 8cbc 394a 97b8 e115 a7bc
00000110: 94b7 f9bc dc98 5d3b cd9e 653c 6947 c8bb
00000120: 10a9 40bc b79d a7bb ea55 92bc 0492 00bd
00000130: 6771 85b7 178e b3bc eefa 9fbc 20c7 bc3b
00000140: 8280 e0bc 358f 2a3c 0e06 9e3b 3a06 68ba
00000150: ebfa a2bc 1291 02bd f6f9 da3b 363a 07bc
00000160: d680 b8bc 41bf b83c f9b5 e1bb 0bf6 a8bc
00000170: 5a98 b1bc 9a11 f6bb 4f46 afb9 413e e93a
00000180: 064b 01bc 38c7 ddba 6fb6 ca3c af2e 2dbd
00000190: f214 83bc 8b2e 323c 87c7 dd3b 4e73 913b
000001a0: aba8 8fba 9e6b 3c3c fc20 f63a 887f ff3a
000001b0: ae4a 28bd e461 dbbc 5962 253c 6759 12bd
000001c0: 81ab a03c c40e 273c 38b1 e23b 4c14 253c
000001d0: 0e81 093d 5416 3dbc f003 303a a12e 2bbb
000001e0: a22c 65bc dd33 08bc 1cc2 4c3c 44dc c9bc
000001f0: 7414 723c 295d 81bc 3500 e23c 7e61 6c3c
0.013123966 -0.012620712 -0.0048380755 -0.0027366786 -0.003203836 -0.0081738485 0.014366467 -0.007993825
-0.026670313 -0.020306993 0.011527568 -0.0057891607 0.004662205 -0.05953725 -0.003197392 0.006157937
-0.029108696 -0.02085963 -0.029385928 -0.006119984 -0.011846263 -0.00830698 -0.015936658 0.007562745
-0.014774543 -0.026492191 -0.004611514 -0.017591337 0.001260479 -0.029022988 -0.033176858 0.013475687
0.008849504 0.0019208037 -0.0457451 0.008418042 -0.018521106 -0.019838616 -0.004841158 -0.012261287
-0.02056413 -0.023028992 0.0072109615 -0.023375673 0.0027992441 -0.011279079 0.0065797754 -0.023905423
-0.025661817 2.420145e-05 -0.00024900222 -0.00014051783 0.01308756 -0.03070727 0.0017208713 -0.02414349
-0.018721832 -0.030189587 -0.019603612 -0.002261431 -0.02313619 -0.008232028 -0.017073095 -0.013786371
0.03352265 -0.017184716 -7.214066e-05 -0.020396175 -0.030483045 0.0033813035 0.014014912 -0.0061120284
-0.011759058 -0.0051152366 -0.017863233 -0.03138925 -1.5907643e-05 -0.02191834 -0.019528832 0.0057610422
-0.027405027 0.01041012 0.004822499 -0.00088510255 -0.019895038 -0.03187663 0.0066826297 -0.008253625
-0.022522371 0.022552134 -0.006888148 -0.020625135 -0.021679092 -0.0075094225 -0.00033430985 0.0017795042
-0.007891422 -0.0016920334 0.024745194 -0.04228085 -0.016001198 0.0108753545 0.0067681703 0.004438794
-0.0010960301 0.011500267 0.0018778141 0.0019492963 -0.041086845 -0.026780076 0.010094249 -0.035729792
0.01961303 0.0101963915 0.006918099 0.01007564 0.03357034 -0.011540968 0.0006714454 -0.0026120322
-0.013987692 -0.008313146 0.012497451 -0.024641164 0.014775384 -0.015791493 0.02758799 0.014427541

network_body._body_endoder.seq_layers.2.weight f4 [128, 128]
00000000: 7713 d53c d1d3 2dbe 717a 253c 2e94 f93d
00000010: efaa 003e 4762 473a d73a 333d 6ec3 0c3e
00000020: 7f61 8b3e 3a88 a2bd ca46 b4bd 305c 473d
00000030: 0e58 77bd 46b1 24be 90db 063d a6bd 33bd
00000040: db7d 233c e24e bbbc 9cee f2bc 04f1 e9bc
00000050: 05d3 e03d b637 b73d 4ea6 5ebd b6ca 13be
00000060: ed0d 59bc 9398 423e 354b 3ebe b93a a5bd
00000070: 71a6 6a3d a7b6 14be b312 ab3d 6952 5d38
00000080: fb3c 213e 8b57 f93d 63ac e8bc f1c9 fdbd
00000090: 399d e73d 74be bcbd 164c 1e3e 33b4 033c
000000a0: 5303 93bc 0ecd 713e 31c9 c43d 0d77 923d
000000b0: 89f1 46be f78a 763c 1d8b 2dbd cf39 493d
000000c0: 8460 593d 8208 c23d 0d4c 29bd 9162 043e
000000d0: df85 0a3e 8ee6 4fbd 8aad 953d f1bc c03d
000000e0: 048a 26bd 2e78 73bd 1674 0dbe 9c04 e9ba
000000f0: 2da7 cc3b 46b9 533d ac2a 1bbc 170c f7bd
00000100: f87d 153e ac52 09be 4a57 4cbe 0d2c 28be
00000110: bc1c 4a3c 6099 e83d 7fa4 8f3c b411 2bbd
00000120: bd3b 8cbd 436d 843d e8fc 843d 7729 613d
00000130: 3edb 38be c757 183c 20a3 2abe b6c9 04be
00000140: f9cf 0dbe 0d1e bc3c 0a87 023e 8b92 4abd
00000150: 6e9a 48bd ee59 a6bc 06b5 c6bd f68d f2bd
00000160: 9925 b8bd 1092 983d 4c1e 503c 6895 12be
00000170: e231 cfbd 1e86 ee3c 3e64 15be 5a09 fdbd
00000180: c2d3 d33d 9fe6 a03d d6fd 58bd 423b 89bd
00000190: 1c94 21bd ffc4 ad3c cb10 bfbc 292f a23d
000001a0: a805 413e f345 b03c 8e5e 8fbd 3239 983e
000001b0: ee31 0fbe 30fc 183d 8491 513e 9086 15bd
000001c0: bc69 733e 2625 b33c 4ba6 f43d 225f ca3d
000001d0: 5e6b 2a3e 49b6 32be 9ae0 183d 8404 f03d
000001e0: be96 12bd 759b bebd ff4c b73c 76e0 3ebc
000001f0: 760f 57be 1c47 0cbe 35aa 6e3d c9f3 bf3d
00000200: 9b91 0dbe ebd3 543a a1d9 0a3e 85a4 203d
00000210: 41bb 843c 7a01 96bc 208e 863c 259e 6abd
00000220: dc09 c0bd e5f3 123d 1a60 c9bd 8c64 edbd
00000230: cd69 343d 4aac 14be 888b 943d 7981 623e
00000240: 68ea 3fbe b3b8 0c3d 0f5d ca3d 10e1 623d
00000250: a863 5cbd 367c 0cbe 36c0 b4bd 92fc ad3d
00000260: ad01 b83c b362 01bd fd63 813d 6a10 113e
00000270: 495a 613d a78b 853c 9daa 6e3d 5240 043e
00000280: d69c a93d 8b09 57bd 47fa 2cbd d513 97bb
00000290: a535 1b3c fd21 2dbc b4f4 133c d6fe 41bd
000002a0: 6089 18be 4855 063b 2d9d 6ebd 51cf 36be
000002b0: 28a7 e5bb 6e98 213e 8eb1 43bd 60c2 2ebe
000002c0: b9fb 6fbd 3711 f13b 4574 a2bc 7e94 35bd
000002d0: b245 063e 6449 153e 2e11 883d 64b9 5dbd
000002e0: 1a4e babd 68d6 6ebd f05d a33d 26ee 8d3d
000002f0: 4794 eb3b 126a 073c c554 2dbe caa9 2bbd
00000300: 9819 233d e066 3cbe 1efa 423e 0f42 cd3c
00000310: e890 fe3d d946 d1bd cad6 043c f7e3 eebc
00000320: 9e38 223d 67c1 d33c cc3a bdbd 857e 89bd
00000330: fbb2 103e 361c c7bd d39f 0dbe 769c 543e
00000340: 9b89 bbbe 3289 0dbe 2e6d 893d 588d a43c
00000350: 05a9 c43d 6cc9 d6bd 1430 0d3e 4c4e f83d
00000360: 3e14 603e c921 1cbe 6541 2a3d 49b8 1e3d
00000370: 03c4 5fbd 3033 003c def9 a53d 9fac dc3c
00000380: 01d5 8a3c 86ce 0c3d c2f1 9c3d f777 4cbe
00000390: 0819 5cbd 7882 e5bd 6805 a3bb baa0 7e3c
000003a0: 244a fa3d 0433 eebd de62 b3bd 1e1b 2a3d
000003b0: 15e8 b03d db73 3e3d ad70 95bd c3c6 ef3c
000003c0: 7c5a 52bc ee30 8c3a 8e8d 6b3d efb0 32be
000003d0: 8c79 a3bd ec2f ba3d f9ce 28bd 50eb b5bc
000003e0: 6812 6ebc b736 0a3e fd21 9cbc 8191 f4bc
000003f0: ec5b 8dbd 480c 96bd 1bdb 99bd ad63 3ebb
0.026010258 -0.16975333 0.010099993 0.12186466 0.12565206 0.0007605892 0.043757286 0.13746426
0.2722282 -0.079361394 -0.088025644 0.0486719 -0.06038671 -0.1608325 0.032924235 -0.043882035
0.009978737 -0.022864763 -0.029654793 -0.028557308 0.10977749 0.08946173 -0.05435782 -0.14432797
-0.013247949 0.19003515 -0.18583377 -0.08067841 0.057287637 -0.14522801 0.08353176 5.2767256e-05
0.15745918 0.121749006 -0.028402513 -0.12392033 0.11309285 -0.092160136 0.15458712 0.008038568
-0.017945921 0.23613378 0.09608687 0.071516134 -0.19428076 0.01504778 -0.042368997 0.049127396
0.05307056 0.09474279 -0.041332293 0.12928225 0.1352763 -0.050756983 0.073084906 0.09411038
-0.040658966 -0.059440784 -0.13813815 -0.0017777863 0.006245515 0.051690362 -0.009470623 -0.12062853
0.14598835 -0.13410443 -0.19955173 -0.16423054 0.012335952 0.11357379 0.017534493 -0.04176493
-0.06847332 0.064661525 0.064935505 0.054971185 -0.18052384 0.0092982715 -0.1666379 -0.12967572
-0.13848867 0.022963548 0.12746826 -0.04945616 -0.0489754 -0.020306554 -0.09702496 -0.11843483
-0.08991546 0.07449734 0.012702536 -0.14314806 -0.10116936 0.029116686 -0.1458902 -0.12355299
0.10343124 0.078564875 -0.05297645 -0.06700756 -0.03944789 0.0212121 -0.023323437 0.07919151
0.18849814 0.02151773 -0.07000457 0.29731137 -0.1398389 0.03734988 0.20465666 -0.036505282
0.23770803 0.0218683 0.1194578 0.098814264 0.1664252 -0.17452349 0.03732357 0.11719611
-0.03578829 -0.09306995 0.022375582 -0.011650195 -0.21001992 -0.13699001 0.05826779 0.0937267
-0.13825075 0.00081187364 0.13559581 0.039219398 0.01620257 -0.018311251 0.016425192 -0.057279725
-0.093768805 0.035877127 -0.09832783 -0.115914434 0.044046212 -0.14518848 0.07253176 0.22119702
-0.18741763 0.03435583 0.09881031 0.055390418 -0.053805977 -0.13719258 -0.08825724 0.084954396
0.022461737 -0.031588268 0.063178994 0.14166418 0.055017743 0.016301943 0.05826818 0.12915161
0.08281867 -0.052499335 -0.04223087 -0.0046105185 0.009473239 -0.0105671855 0.00903051 -0.04736217
-0.14896154 0.002049761 -0.058255363 -0.17852522 -0.007008452 0.15780804 -0.04777675 -0.17066336
-0.05858967 0.0073567885 -0.019830832 -0.044331066 0.13112524 0.14578778 0.06643902 -0.05413188
-0.09096928 -0.058309942 0.079769015 0.06930189 0.007189307 0.008265035 -0.16926868 -0.04190997
0.03981933 -0.18398619 0.19040725 0.025055913 0.124299824 -0.10218591 0.00810785 -0.029161436
0.039604776 0.025849057 -0.0923973 -0.06713585 0.14130776 -0.09722178 -0.138305 0.2076281
-0.36628422 -0.13821867 0.067102775 0.02008693 0.096025504 -0.10487637 0.13787872 0.12124309
0.21882722 -0.15247263 0.04156627 0.038749967 -0.05463029 0.007824704 0.08104299 0.02693778
0.016947271 0.034376644 0.07663299 -0.19967638 -0.05373481 -0.112065256 -0.0049750097 0.01554125
0.122211725 -0.11630824 -0.08759092 0.041529767 0.08638016 0.046497207 -0.07296882 0.029269582
-0.012838956 0.0010695735 0.057508044 -0.17450307 -0.079821676 0.090911716 -0.04121301 -0.022206932
-0.014530756 0.13497435 -0.019059176 -0.029854538 -0.06902298 -0.07326561 -0.07512494 -0.002905111

network_body._body_endoder.seq_layers.2.bias f4 [128]
00000000: ff6a c63a 0482 ad3c 615d e4bc 95d7 dd3b
00000010: 2ad5 a7bc 6776 dc3c 2d3f 47bc c906 af3c
00000020: c407 20bd a984 8cbb 1063 bcbc cafb 253b
00000030: 595a 263c 9072 5ebb 109d 253b a6e2 8e3a
00000040: a53e 9c3c c6e0 ad3c 0d4f 323d a114 483c
00000050: d752 fa3c 5100 9a3c 2ffc bc3b a5d7 413c
00000060: b8aa 8d3c 4629 3f3d c68c 2abc 767b f5bc
00000070: 3f06 c8bc f25e 42bc c48e 21bb 3af6 21ba
00000080: ca41 27bc 61e9 52bd 97b7 a03c 191a 69bb
00000090: 7a5b 8ebb 3170 08bc a0ab d6ba 1997 913c
000000a0: ecb2 c6bc aa61 16bd 0e9c ffbc f976 53bd
000000b0: 3b9a a13c d07c 2cbc 3dcf c9bc f809 ffbb
000000c0: b499 cbbc 5be3 b03b 5beb 973b 1af9 11ba
000000d0: dab3 ae3a 85b7 723d d843 06bc b943 b5bb
000000e0: fc64 8d3c b8e8 cdba abab 0a3b 73eb f13b
000000f0: 9085 73bb 0bcd 62b9 fabd 0c3b 2d0d 123c
00000100: 275c a5b9 01cf 80bc fe8e 093d 866c 91bb
00000110: 3884 be3c f5bc 26ba 2330 5cbc 69c8 283b
00000120: cdf6 423c e8de 7739 b30c adbc 3aa8 d0bc
00000130: c7a3 153b 4d1b 7ebc 9b19 e4bb 661d ddbb
00000140: 5608 bebc 53da 603c 305f f53b cd91 963c
00000150: a96f 20bd 1e6e 553a 4705 07bc 2081 88bc
00000160: 84c8 cebb 5952 003c 82b7 93bc c1c8 ffbb
00000170: 1df5 3bbc 5ab4 b83b ca78 64bc 71d0 93bb
00000180: 1e1d 41bd 493b 7d3a 9050 f63c 45f5 8eb9
00000190: bcf1 833c 5fe2 383c 8099 97bc 754a fabb
000001a0: 1439 39bd 3df1 69bc 4bd9 84b9 3507 10bd
000001b0: 348f 9f3b db32 0fbd 2077 f5ba 5ad0 b6bb
000001c0: 58a8 e03c 3f2b c5bb 33f1 acbc 0a6f 7d3b
000001d0: 6881 d73a 51bd 3f3c 1c20 fc3c 68e8 37bc
000001e0: 27bd 833c db60 8f39 0432 443d cce5 613c
000001f0: 3c35 ebbb a526 a3bb 4a19 b8bc dcbb f83b
0.0015138088 0.02118016 -0.027876558 0.006770084 -0.020487387 0.026911927 -0.012161058 0.02136554
-0.039069906 -0.0042882753 -0.022996455 0.002532708 0.0101533765 -0.0033942796 0.0025270618 0.0010901287
0.01907284 0.021225344 0.04353242 0.01221195 0.03055708 0.018798979 0.0057673673 0.011831199
0.01729332 0.04667022 -0.01040954 -0.029966097 -0.02441704 -0.011863457 -0.0024651745 -0.0006178353
-0.010208556 -0.0514921 0.019618792 -0.0035568534 -0.004344401 -0.00832753 -0.0016378053 0.017772244
-0.024255238 -0.036714233 -0.031202342 -0.051627133 0.019726863 -0.0105278045 -0.024634952 -0.007783171
-0.024853565 0.0053981966 0.004636211 -0.000556843 0.0013328746 0.05925705 -0.008194886 -0.005531755
0.017260067 -0.0015709614 0.002115945 0.007382804 -0.0037158467 -0.00021629424 0.002147554 0.008914274
-0.0003153991 -0.015723707 0.033583634 -0.004437986 0.023256406 -0.0006360554 -0.013439211 0.002575422
0.011899662 0.00023638795 -0.02112422 -0.025470842 0.0022833215 -0.015509439 -0.00696106 -0.0067478893
-0.023197334 0.013723928 0.007488154 0.01838007 -0.039168987 0.0008141714 -0.008241004 -0.016663134
-0.0063105244 0.007832133 -0.01803184 -0.007805914 -0.011472014 0.005636734 -0.013944814 -0.004510932
-0.04714691 0.0009660018 0.030067712 -0.0002726709 0.016106479 0.01128444 -0.018505812 -0.0076382705
-0.04522045 -0.014278707 -0.00025338898 -0.035163123 0.004869366 -0.03496061 -0.0018727519 -0.0055790367
0.027424023 -0.006017118 -0.021111107 0.003867092 0.0016441764 0.011702851 0.03077703 -0.011224844
0.016081406 0.00027347248 0.04789926 0.013787698 -0.007177977 -0.004978972 -0.022472996 0.007590754

action_model._discrete_distribution.branches.0.weight f4 [3, 128]
00000000: 4947 253d ead8 3bbd 428e fa3a c3a7 7ebb
00000010: 30d6 563b ac89 0cbd 56bd 563c 0b68 85bd
00000020: 7c63 023d 65ec e43c 8916 a2bb bc6d eebc
00000030: 9a39 47bd c23e 393c 1b57 77bc ffc1 15bd
00000040: edeb 10bd ce19 483d 0899 24bd 4c45 25bd
00000050: 0dd0 7dbc 43b3 cfbb 407a 8cbb 9554 b3bc
00000060: 5794 48bd 6218 1dbd 031d 59bb ad15 d53c
00000070: 22cb 883b 20e8 67bb 095b 363d 9296 88bc
00000080: c3be fabc 2640 0c3c 6a9c bb3b 383f cbbc
00000090: 8b9b 243d 71f6 f53c b9c3 353c cbe4 52bc
000000a0: 93fd b23c 8c19 16ba 90f4 b23b d126 023c
000000b0: a0e3 5fbd 2fee 813b cbb0 f639 b7a1 2e3d
000000c0: 0146 b83c c99a d9ba 0ed8 e83c a0d1 09bd
000000d0: 7629 dfbc d7cb 5abd b751 72bc fd4f 8bbc
000000e0: 8a4c 5ebd c1e1 c5bc 0d5d 8dbc 2018 ca3b
000000f0: e996 393c 3feb 5bbc db14 aabc 5dce 2cbd
00000100: 1e41 133d 2dc6 09bc 9818 2dbd 811d cfbc
00000110: 7b1c 85bc 93c8 09bd 68eb 193c e9c2 9ebc
00000120: f1ad ffbb a1b8 5fbc da80 073d ab67 2b3c
00000130: 2747 36bc 12c9 1b3c 4fab 903c e7fb bbbb
00000140: 4202 c03c 5d52 793d f222 8cbc 11b1 48bd
00000150: 2758 803c 321e 79bc 0598 e1bc a6dc 0fbd
00000160: 8605 56bc 43e1 1ebd 8ee8 4e3d 432a b73c
00000170: ad43 ccbc 9fb2 06bd eabe 62bc cd0b c9bc
00000180: 7036 4e3c ddbb fc3c fd65 5dbc 46ba 98bc
00000190: 8f75 543d 1223 573d e3bd a03c d416 4f3d
000001a0: 194c 493c 8f78 803c 40c9 773c bc38 6b3b
000001b0: f68e 49bd 7b7e 4737 c616 ed3b 9955 01bd
000001c0: e521 9ebc 2593 91bc 39cb 733c e7e0 a2bc
000001d0: 826c 143d 70cd aabc bc9d e43c 1b01 3c3c
000001e0: 60ee f03c cde6 58bb f635 86bd 0e88 7f3b
000001f0: e7f8 0abc 8e84 b13b 8675 893c 7d3c 063d
00000200: 6b39 be3c dac8 4f3c e077 0dbc dfb3 72bb
00000210: b391 28bc 80a8 c43c 354b e8bc dfa9 873c
00000220: dd4a dfbc ea6a 9abc 1aff a5bb c2c1 033d
00000230: 0188 fe3c 6b19 853c 3b65 d8bc a6d3 e0b9
00000240: 3fde 78bb 1043 823c 1224 893c 261f 68bc
00000250: 9d24 2b3d cd69 c73c b28f c53c 8e94 b73c
00000260: 4643 2b3d f33a 203d 3759 a7bb 1f91 6dbc
00000270: 9921 f0bc fa00 bbbc c346 51bd b7fe 4a3c
00000280: d931 95bb 9cee 0ebb 2d03 36bc dffc ab3c
00000290: ee49 113c 90c6 013c cb69 aabc 2dcc 2abd
000002a0: 5ff8 09bc fdf6 c0bb 9c59 c1bb 7372 c9bb
000002b0: 48d6 d83c 4ea2 a8bb a9af 6bbc 4cbf 253c
000002c0: 5144 203c d86d eabb 4a69 9c3b 996e d13c
000002d0: 7b7a 183c ea6f de3c ba17 1fbc 9587 e63a
000002e0: 694b a53c 0da7 ec3c 7ed0 e43c 43e6 47bb
000002f0: 44f4 24bd ef3e 18bd 1b0d 503c ebea 4ebb
00000300: ec40 05bc a2f8 5a3c 4c75 a13c bddd 53bb
00000310: 1a1a 613c 2899 e73c 794a 9c3c 27a8 97bc
00000320: 1943 d9bc 635d 5ebc 35b4 52bc 0b71 8ebc
00000330: 57ec d1bc 5fa3 90bb 4258 c9bc 6749 43bb
00000340: bc7b 1ebc 59a9 523c 86f5 833c df34 063d
00000350: 2574 c1bc 436e adbc ef65 f63c 0820 0cbc
00000360: 77a7 863c 5843 423d aaa2 2cbd 9f42 7d3b
00000370: 2032 083d 860c 06bd 90d5 123c 89ff 73bc
00000380: 51ce 30bc dd90 283c e940 a03c a016 5c3c
00000390: edc2 353c 2191 0f3c d8e4 52bc c68f 46bd
000003a0: 348d 83bb 2920 223c 8f13 b63c eaf8 86bb
000003b0: 102e f13c 7cf3 323c f241 01bd 544c cd3b
000003c0: fe03 273c 09da ed3c 89bf e3bc fd35 f93c
000003d0: fcb0 20bd 4f7b 0d3d 91e8 043d 84ef b6bc
000003e0: 7995 2a3c a707 f4bc ccdc ec3c e2f2 25bd
000003f0: 7662 dc3c fd60 aebb 9e2c 8bbb 33e9 ee3b
0.040351186 -0.045861162 0.0019115882 -0.0038857318 0.0032781474 -0.03431098 0.013106665 -0.06513985
0.031833157 0.027944753 -0.004946534 -0.02910506 -0.048638918 0.011306467 -0.015096451 -0.036561962
-0.035381246 0.048852734 -0.040185004 -0.04034929 -0.015491498 -0.0063385083 -0.0042870343 -0.021890918
-0.048969593 -0.03835333 -0.0033128865 0.026011312 0.004174606 -0.003538616 0.04452041 -0.01667336
-0.03060854 0.008560216 0.005725433 -0.024810418 0.0401874 0.030024739 0.011094027 -0.012871931
0.02184943 -0.00057258527 0.005461283 0.007943825 -0.05466044 0.0039651613 0.00047052497 0.042634692
0.022494318 -0.0016601916 0.028423335 -0.03364718 -0.02724145 -0.053417053 -0.01478999 -0.017005915
-0.054272212 -0.0241555 -0.017256284 0.0061674267 0.011327484 -0.013422786 -0.020761898 -0.04218899
0.035950772 -0.008409065 -0.042259783 -0.025282623 -0.016248932 -0.033638548 0.009394504 -0.01938005
-0.007802718 -0.013654859 0.033081867 0.010461728 -0.0111253625 0.009508388 0.017659811 -0.005736816
0.023438577 0.060869563 -0.017106507 -0.04899699 0.015667034 -0.015204953 -0.027538309 -0.035122536
-0.01306284 -0.038789045 0.05051475 0.02235902 -0.024934614 -0.03288519 -0.013839463 -0.02454176
0.012586221 0.030851299 -0.013513085 -0.01864351 0.051869925 0.05252368 0.019621795 0.05055888
0.0122862095 0.015682487 0.015123665 0.003589197 -0.049208604 1.1890773e-05 0.007235381 -0.031575773
-0.019303272 -0.01777036 0.014879995 -0.019882632 0.036236294 -0.020849913 0.027907245 0.011474873
0.029410541 -0.0033096552 -0.06553261 0.0038991007 -0.0084821945 0.005417413 0.016779672 0.03277253
0.023220738 0.012682164 -0.008634537 -0.003703348 -0.010288644 0.024006128 -0.028356174 0.016560493
-0.027257377 -0.018849809 -0.005065811 0.032167204 0.031070711 0.016247472 -0.026415458 -0.000428823
-0.0037974266 0.015901119 0.016740832 -0.014167583 0.041782964 0.024342442 0.02411637 0.022409704
0.041812204 0.03911872 -0.005107071 -0.014499932 -0.029312896 -0.022827614 -0.051092874 0.01238983
-0.0045530614 -0.0021809703 -0.011109156 0.020994602 0.008867724 0.007920876 -0.0208024 -0.041698623
-0.008421033 -0.0058888183 -0.005900575 -0.0061476766 0.026469365 -0.0051463014 -0.014385142 0.0101164095
0.009781913 -0.0071542077 0.0047732936 0.025565432 0.009306545 0.027152974 -0.009710247 0.0017588014
0.02017756 0.02888825 0.027931448 -0.0030502237 -0.040272012 -0.037169393 0.012698437 -0.0031573127
-0.008133154 0.013364943 0.019709252 -0.0032328211 0.013739133 0.028271273 0.01907848 -0.018512798
-0.026521252 -0.01357207 -0.0128603475 -0.017387887 -0.025625391 -0.0044140066 -0.024578217 -0.002979839
-0.009673055 0.012857758 0.016108286 0.032765266 -0.023614952 -0.021170741 0.030077903 -0.008552559
0.016437275 0.047427505 -0.042147316 0.0038644446 0.033250928 -0.032726787 0.00896205 -0.014892467
-0.010791377 0.010288444 0.019562202 0.013433129 0.011093837 0.008762629 -0.012871943 -0.048476957
-0.0040146355 0.009895363 0.022226123 -0.0041190283 0.02944091 0.010922309 -0.03155703 0.0062652025
0.010193823 0.029034631 -0.027801292 0.030421251 -0.039231285 0.034541424 0.032448355 -0.022331007
0.010411614 -0.029788805 0.028913878 -0.040514834 0.026902419 -0.0053216205 -0.004247262 0.007290983

action_model._discrete_distribution.branches.0.bias f4 [3]
00000000: d539 6a3b 6392 d53b fc3b 1abc
0.0035740037 0.006517695 -0.009413715

onnx::Div_52 f4 [6]
00000000: 4e01 1440 12fd ed3b 50dd d43b 0c64 0e3c
00000010: 9233 de3d 0369 9e41
2.3125796 0.0072628343 0.006496109 0.008690845 0.1084968 19.801275
