BasicAvoidance/Assets/results/BasicAvoidance1/PlayerAvoidance/PlayerAvoidance-512.pt (torch, 441938 bytes, 41 tensors)

network_body.observation_encoder.processors.0.normalizer.running_mean f4 [6]
-0.62846005 0.49902534 0.0 -1.9891449e-07 0.41164163 1.0409338
00000000: c2e2 20bf 4080 ff3e 0000 0000 3395 55b4
00000010: b1c2 d23e 523d 853f

network_body.observation_encoder.processors.0.normalizer.running_variance f4 [6]
3737.1052 1.2495127 1.0 1.0 15.537412 35433.14
00000000: af91 6945 08f0 9f3f 0000 803f 0000 803f
00000010: 3d99 7841 2469 0a47

network_body.processors.0.normalizer.running_mean f4 [6]
-0.62846005 0.49902534 0.0 -1.9891449e-07 0.41164163 1.0409338
00000000: c2e2 20bf 4080 ff3e 0000 0000 3395 55b4
00000010: b1c2 d23e 523d 853f

network_body.processors.0.normalizer.running_variance f4 [6]
3737.1052 1.2495127 1.0 1.0 15.537412 35433.14
00000000: af91 6945 08f0 9f3f 0000 803f 0000 803f
00000010: 3d99 7841 2469 0a47

network_body._body_endoder.seq_layers.0.weight f4 [128, 6]
0.18293868 -0.7145183 0.6247415 0.51885575 -0.2144128 -0.2975697 0.45318002 -0.3647889
-0.27398404 -0.20516118 0.36902398 -0.5321039 0.27949843 -0.027015137 -0.16787085 -1.0451039
0.20910451 -0.22274716 0.080182225 0.19297676 0.50416124 0.08047927 -0.6074693 0.17012396
-0.17035687 -0.034807052 0.56838113 -0.25464332 0.039653827 -0.0692596 -0.7202275 -0.23086861
0.9522384 0.5092196 0.6643686 0.055658698 -0.36805993 -0.08331026 0.26243836 -0.088476986
0.0765928 0.24882081 -0.515726 0.069447346 0.16101849 -0.1684539 0.33198568 0.063891366
0.22255014 -0.761752 0.38782677 -0.090349354 -0.0016551118 -0.37227872 0.15578888 0.028040376
0.7152726 0.0015939433 0.6233397 0.6908316 -0.06345238 -0.25572097 -0.2234192 0.12536202
-0.39858052 0.54268086 -0.26037645 -1.0122173 -0.1168332 -0.36384597 -0.124033764 0.063759014
-0.021343596 0.13664609 0.730986 -0.072525725 0.7133958 -0.40991953 -0.06616508 -0.5777684
-0.40182498 0.015223676 0.31385887 -0.15284161 0.06584228 0.61404693 0.37082666 -0.07079909
-0.4242413 -0.064364634 0.23439348 -0.034225043 -0.15092255 -0.6284902 -0.48638391 0.2851622
-0.7102412 0.24355291 -1.0253547 -0.63970447 -1.0564127 0.34552637 0.344479 0.07758001
-0.22118519 -0.08383829 0.77506465 0.3957392 0.41527528 0.07725302 -0.105256796 -0.11602
-0.73936796 -0.25960603 -0.28939456 0.3652253 0.12701581 -0.07389101 -0.27895325 0.28722057
-0.04941262 -0.40426305 -0.28132167 0.49220377 0.08414431 -0.7356766 0.52427804 -0.010043945
0.77687603 -0.141554 0.10327989 -0.12343196 -0.35933876 -0.23155794 -0.5737906 -0.51428366
-0.3698589 0.18974999 -0.5508798 -0.33817053 0.20017043 0.41265553 0.96072435 0.419983
0.13349235 -0.2636188 -0.10883976 -0.039171953 -0.9046336 0.2558275 0.27192476 0.20936678
-0.15453236 0.32774377 -0.14312644 -0.08202785 0.3390577 -0.46340606 0.30811822 0.008500301
0.48978114 -0.30522126 0.09790004 0.75668263 1.0972624 0.007501555 -0.1895796 -0.44150344
0.7222027 0.4156862 0.00996907 0.08020476 -0.2416048 0.3025087 -0.8129915 0.16206564
0.17623979 -0.20430645 0.19145295 0.04041481 0.11325544 -0.1335293 0.027927997 0.9405298
-0.30628538 0.9711074 -0.4683927 0.106724694 0.31085864 0.21262726 0.07637329 -0.3140352
-0.12029847 0.73743653 -0.056078926 0.10827314 -0.33874986 -0.07758704 -0.7308374 0.2638673
-0.13949564 0.16410707 0.12487541 -0.63873327 -0.01419863 -0.16232942 -0.55323046 -0.0466458
0.6374033 0.111282386 0.17939283 -0.2663791 0.67533666 -0.09757863 -1.1357919 0.36737636
-0.1091141 0.4484515 -0.49995705 -0.4364842 -0.45846725 0.1293888 0.6767777 0.11076511
0.43344486 0.8477646 -0.40835705 0.23310708 -0.4545222 0.14332005 -0.44645655 -0.26890528
-0.30793777 0.14167692 0.13827395 -0.09354866 -0.36172664 0.7094109 -0.18170616 0.4397989
-0.30335504 -0.32833576 -0.39157912 -0.21014722 -0.017165449 0.3227832 -0.84339035 0.096311346
-0.3323731 0.10800648 0.19500056 -0.4531874 0.18709765 -0.547574 -0.18289052 -0.082264915
00000000: 4754 3b3e acea 36bf 0fef 1f3f bbd3 043f
00000010: 078f 5bbe 0e5b 98be 3607 e83e 9cc5 babe
00000020: a347 8cbe c615 52be b6f0 bc3e f637 08bf
00000030: 6b1a 8f3e d94e ddbc 56e6 2bbe f7c5 85bf
00000040: 7e1f 563e d517 64be 9436 a43d b39b 453e
00000050: b610 013f 51d2 a43d 1c83 1bbf fa34 2e3e
00000060: 0872 2ebe d791 0ebd 6d81 113f 9c60 82be
00000070: 0d6c 223d fad7 8dbd d460 38bf d268 6cbe
00000080: e5c5 733f 375c 023f 1014 2a3f 60fa 633d
00000090: 5a72 bcbe 929e aabd 525e 863e 6c33 b5bd
000000a0: b0dc 9c3d e2ca 7e3e 9e06 04bf 693a 8e3d
000000b0: 08e2 243e 2e7f 2cbe 07fa a93e 7ad9 823d
000000c0: 2fe4 633e 2e02 43bf 3b91 c63e 1509 b9bd
000000d0: 56f0 d8ba 519b bebe 1f87 1f3e eeb4 e53c
000000e0: 1b1c 373f ddeb d03a 3193 1f3f 57da 303f
000000f0: 52f3 81bd dced 82be 01c8 64be e75e 003e
00000100: bf12 ccbe 22ed 0a3f 1050 85be 5690 81bf
00000110: 3f46 efbd 054a babe 6a05 febd 1694 823d
00000120: c4d8 aebc f4ec 0b3e e621 3b3f 5e88 94bd
00000130: 1ba1 363f f9e0 d1be 8f81 87bd a1e8 13bf
00000140: 01bc cdbe ba6c 793c 1cb2 a03e 8382 1cbe
00000150: 51d8 863d 2e32 1d3f fedc bd3e 1dff 90bd
00000160: 2836 d9be 9bd1 83bd d804 703e 8f2f 0cbd
00000170: 718b 1abe bce4 20bf 5007 f9be c800 923e
00000180: 5ed2 35bf ef65 793e d33e 83bf acc3 23bf
00000190: 8838 87bf d5e8 b03e 8d5f b03e 45e2 9e3d
000001a0: 5f7e 62be 69b3 abbd a36a 463f 549e ca3e
000001b0: f69e d43e d536 9e3d e090 d7bd e59b edbd
000001c0: 3847 3dbf 15eb 84be 862b 94be cffe ba3e
000001d0: 6f10 023e 2b54 97bd f6d2 8ebe 930e 933e
000001e0: e364 4abd 91fb cebe 6509 90be 2202 fc3e
000001f0: da53 ac3d 4d55 3cbf 1637 063f 5c8f 24bc
00000200: 59e1 463f 88f3 10be 6884 d33d e5c9 fcbd
00000210: 40fb b7be 861d 6dbe f1e3 12bf 18a8 03bf
00000220: 255e bdbe d24d 423e 7506 0dbf b024 adbe
00000230: 7af9 4c3e 9647 d33e 08f2 753f 0308 d73e
00000240: 38b2 083e 0bf9 86be 61e7 debd c572 20bd
00000250: 1196 67bf d2fb 823e b939 8b3e 3f64 563e
00000260: bb3d 1ebe 08ce a73e bd8f 12be 38fe a7bd
00000270: f998 ad3e 8f43 edbe acc1 9d3e d944 0b3c
00000280: 98c4 fa3e f645 9cbe d17f c83d f4b5 413f
00000290: 1873 8c3f 9bcf f53b 2821 42be bd0c e2be
000002a0: 47e2 383f d2d4 d43e 4f55 233c 6542 a43d
000002b0: 4067 77be 6ce2 9a3e 3620 50bf 89f4 253e
000002c0: 3478 343e b635 51be 3e0c 443e 008a 253d
000002d0: 78f2 e73d e8bb 08be 41c9 e43c 90c6 703f
000002e0: 70d1 9cbe 7f9a 783f 2bd1 efbe 7a92 da3d
000002f0: dd28 9f3e f6ba 593e 9969 9c3d 39c9 a0be
00000300: 0b5f f6bd a4c8 3c3f 04b3 65bd 4fbe dd3d
00000310: 9f70 adbe f4e5 9ebd 2918 3bbf 9d19 873e
00000320: f2d7 0ebe af0b 283e aebe ff3d 0684 23bf
00000330: 5fa1 68bc af39 26be 83a0 0dbf ab0f 3fbd
00000340: dd2c 233f 05e8 e33d c1b2 373e d762 88be
00000350: dde2 2c3f 4ed7 c7bd a161 91bf c118 bc3e
00000360: 3777 dfbd 6f9b e53e 5ffa ffbe db7a dfbe
00000370: 38bc eabe 7f7e 043e 4e41 2d3f d1d8 e23d
00000380: 7cec dd3e 1a07 593f 2d14 d1be 9fb3 6e3e
00000390: 22b7 e8be 7ec2 123e f495 e4be f4ad 89be
000003a0: 05aa 9dbe c113 113e b097 0d3e 7196 bfbd
000003b0: 3c34 b9be f49b 353f 2e11 3abe 522d e13e
000003c0: 5a51 9bbe a01b a8be 0f7d c8be d530 57be
000003d0: 8e9e 8cbc d743 a53e 6ee8 57bf e23e c53d
000003e0: cf2c aabe 8032 dd3d 3aae 473e 2e08 e8be
000003f0: 8796 3f3e cf2d 0cbf a747 3bbe 827a a8bd

network_body._body_endoder.seq_layers.0.bias f4 [128]
0.0046702535 0.009473905 -0.00564433 -0.0045448067 -0.00630544 -0.0064511085 0.003181217 0.00550358
-0.0071475175 -0.0010912245 -0.0054809484 -0.0049263528 -0.0067361942 0.008742171 0.004117759 0.00015738537
0.00546203 -0.00043181411 -0.00802847 -0.0041091633 -0.0051952116 0.009375318 0.007636111 0.0036932384
0.004154854 0.0037796493 9.415332e-05 -0.001925359 0.00879903 0.004804979 -0.0065035126 -0.00852088
-0.0007712011 0.0045270855 0.0074662897 -0.009174228 -0.0038386353 0.0037498013 0.00906257 0.011955876
-0.008100226 0.0048506046 0.008026081 -0.006084663 0.009847717 0.004190592 -0.0023027263 -0.000839057
-0.00059559214 0.002217957 0.0020406481 0.007821446 0.002889299 0.0064851404 0.0026420227 0.0068961936
0.0073431823 0.0007607057 0.0029033676 0.0004377233 0.0053861667 -0.0051580635 -0.0057667606 0.006428924
0.0020782477 -0.008596272 -5.6370307e-05 0.0045111864 0.008103835 -0.0046810242 -0.008915081 0.010670939
0.0014845339 0.0051294025 0.010765801 -0.0005434118 0.009816353 -0.007496413 0.009337126 0.005730916
0.006658766 0.00013962567 0.0035732442 -0.0066735256 0.00798037 0.0056850505 0.0013016491 0.001065184
0.011675798 0.00531976 -0.004070239 0.0003200723 -0.005034387 0.0017054976 0.007471709 -0.004080628
0.008998943 -0.0028419218 -0.0040285885 -0.0056778314 -0.00742149 0.0015665756 0.0022896482 -0.006461799
-0.0050779623 0.008026137 0.0037672976 0.005339321 0.00024626177 0.0032941562 -0.0023068509 0.012539355
-0.0009085076 -0.00093560707 0.0055353832 -0.006417541 0.0048083346 -8.0060645e-06 -0.0044398066 0.0031054257
0.006326954 -0.0025641837 0.0087795295 0.0019488253 -0.007234116 -0.0041653104 -0.0057832994 0.0008462099
00000000: ed08 993b 7038 1b3c 12f4 b8bb 9aec 94bb
00000010: dd9d cebb d263 d3bb f77b 503b 6057 b43b
00000020: b935 eabb 6b07 8fba 8799 b3bb 3e6d a1bb
00000030: 4bbb dcbb 533b 0f3c 44ee 863b d007 2539
00000040: d4fa b23b 1c65 e2b9 d889 03bc 29a6 86bb
00000050: 983c aabb ef9a 193c 5838 fa3b 420a 723b
00000060: 7125 883b feb3 773b 2e74 c538 545c fcba
00000070: cf29 103c 1673 9d3b 6b1b d5bb 299b 0bbc
00000080: 6e2a 4aba f257 943b c7a7 f43b 804f 16bc
00000090: 9d91 7bbb 3abf 753b 2c7b 143c 94e2 433c
000000a0: cfb6 04bc d2f1 9e3b d37f 033c da61 c7bb
000000b0: 5258 213c 3c51 893b 56e9 16bb 29f4 5bba
000000c0: 8321 1cba 255b 113b 65bc 053b 8625 003c
000000d0: 655a 3d3b 4d81 d43b c925 2d3b 77f9 e13b
000000e0: 149f f03b 186a 473a 6d46 3e3b 3a7e e539
000000f0: 717e b03b f904 a9bb 18f7 bcbb b9a9 d23b
00000100: 3633 083b 61d7 0cbc 286f 6cb8 93d2 933b
00000110: f3c5 043c 4763 99bb 8f10 12bc 2ad5 2e3c
00000120: b194 c23a 8c14 a83b 0b63 303c c073 0eba
00000130: c5d4 203c 78a4 f5bb bffa 183c 68ca bb3b
00000140: c731 da3b 7b68 1239 172d 6a3b 97ad dabb
00000150: 19c0 023c a949 ba3b 199c aa3a a59d 8b3a
00000160: d94b 3f3c 6251 ae3b a45f 85bb 60cf a739
00000170: 80f7 a4bb 018b df3a 3dd5 f43b cab6 85bb
00000180: 4d70 133c 893f 3abb 4002 84bb 1a0d babb
00000190: f82f f3bb 8e55 cd3a ec0d 163b 80bd d3bb
000001a0: 0965 a6bb 0f80 033c c4e4 763b 79f5 ae3b
000001b0: b21c 8139 c5e2 573b 892e 17bb de71 4d3c
000001c0: ea28 6eba 8743 75ba 2962 b53b 3c4a d2bb
000001d0: 3c8f 9d3b c951 06b7 cc7b 91bb 6684 4b3b
000001e0: 5652 cf3b dd0b 28bb 04d8 0f3c ba6f ff3a
000001f0: 2a0c edbb 287d 88bb d581 bdbb 2fd4 5d3a

network_body._body_endoder.seq_layers.2.weight f4 [128, 128]
0.008561568 -0.04484017 0.10665156 -0.1407584 0.0922787 0.05367178 0.022779264 0.019364966
-0.03113112 0.049010642 0.009094257 0.11932491 0.028405463 -0.06260904 -0.041640695 0.056389764
0.0762021 0.075701244 0.020100709 0.033483524 -0.12637244 -0.09531318 -0.07345228 -0.062324975
0.007965133 0.11575909 -0.009981115 0.14545757 0.010325604 -0.07749106 -0.12788332 0.13170604
0.0019446089 0.046617806 0.07094441 0.0067873807 0.029709239 0.06921892 0.117324725 0.0811521
-0.042422142 0.04322464 -0.02826561 -0.020382887 0.014402833 -0.07365011 0.06412644 -0.0818177
-0.060651626 0.009068367 -0.10521301 0.18163033 0.05083719 0.009502721 -0.029300429 -0.08568885
-0.045867283 -0.089362755 0.017382586 0.026357623 0.01389446 -0.08109576 0.0146118915 -0.05529684
-0.22828938 0.03141311 -0.14808771 0.13581204 0.017103573 -0.0022491266 0.020716412 -0.10921432
0.05688279 -0.06037926 -0.053493023 -0.16088499 -0.13058357 0.20817998 0.16361043 0.027754601
0.10810982 0.0012540095 0.15756428 0.1499907 -0.22479197 -0.03076989 0.158019 -0.07267427
-0.15830657 -0.008988137 -0.035453174 -0.11862553 -0.045488838 -0.09861186 -0.011134493 -0.14684778
0.057618335 0.015902685 0.06480815 -0.03941858 0.28469408 -0.036068868 0.08730805 -0.079794936
0.050962217 -0.01131824 0.09236369 -0.23436016 0.085133195 -0.08381448 0.069509245 0.040104482
-0.08869615 -0.1533108 0.044523012 -0.080078416 0.024613814 0.06813649 -0.009966181 -0.13427043
0.18564768 0.024866967 -0.043270245 0.044791915 0.06365731 -0.02021931 -0.098555535 0.11665378
-0.1023375 0.0704191 0.0029975607 -0.089602664 0.15894116 -0.075368024 -0.044629365 -0.10117625
0.06623925 -0.12633212 -0.10439134 -0.121957816 0.13064088 0.0879948 0.1870312 0.028829709
0.05572183 0.14057986 -0.02975997 0.13109626 0.035441723 0.0017462047 0.07552586 -0.117135175
0.014707739 -0.090699546 -0.014903323 -0.063724324 0.0722185 -0.049976137 -0.029935533 0.1838746
-0.04019159 -0.039759595 -0.057289824 0.1344175 -0.06826786 -0.015658671 0.020554015 -0.01260928
0.011538769 -0.111841366 0.042262726 0.0012312137 -0.080652736 -0.02100706 -0.0399484 -0.07256044
0.07853924 -0.013366988 0.020519068 -0.040216416 -0.07095235 0.15823252 0.004524107 0.046524897
-0.004396248 0.05792921 -0.032799337 -0.1309357 0.03623312 -0.07157825 0.0964231 -0.16052803
-0.096201114 0.02014909 0.12478393 -0.16136774 0.036004264 0.12073439 0.17126651 -0.010503547
-0.0072672195 0.07825252 0.08553981 0.11713508 2.0334617e-06 -0.09059637 -0.05399908 -0.054420166
0.114379466 -0.118876114 0.06618664 -0.12755138 -0.073006585 -0.07289551 -0.15137309 0.08662805
0.12151735 0.015788864 -0.0020761653 0.1702841 0.21752436 -0.0872194 -0.056294035 -0.05982933
-0.013946709 -0.15137 -0.045984372 0.106149785 0.022255633 -0.08995237 -0.04811776 0.0027632273
-0.09972261 0.027566025 0.06680293 -0.10703132 -0.08167234 -0.033953566 -0.16033955 -0.109410055
-0.15807131 0.05454445 -0.053245977 0.062345978 0.082512826 -0.0013800212 0.117633685 -0.0038653857
-0.025195679 0.02393754 -0.0010561298 0.047874633 -0.06612954 0.12215238 0.0782099 -0.11364184
00000000: d245 0c3c 53aa 37bd 226c da3d f822 10be
00000010: 9dfc bc3d f1d6 5b3d 949b ba3c 47a3 9e3c
00000020: b106 ffbc 62bf 483d 1400 153c 9e60 f43d
00000030: 93b2 e83c 2b39 80bd 6f8f 2abd f4f8 663d
00000040: d90f 9c3d 4109 9b3d 3eaa a43c 0526 093d
00000050: c767 01be 8e33 c3bd 266e 96bd 7948 7fbd
00000060: 3080 023c 1a13 ed3d d587 23bc d4f2 143e
00000070: b92c 293c a2b3 9ebd d8f3 02be f3dd 063e
00000080: 3fe2 fe3a 50f2 3e3d 4e4b 913d ad68 de3b
00000090: ca60 f33c a6c2 8d3d f247 f03d 1233 a63d
000000a0: d7c2 2dbd 520c 313d 488d e7bc 03fa a6bc
000000b0: dcf9 6b3c ded5 96bd b954 833d 0a90 a7bd
000000c0: d76d 78bd 7d93 143c eb79 d7bd 4dfd 393e
000000d0: a83a 503d 4db1 1b3c 7407 f0bc a37d afbd
000000e0: 55df 3bbd d203 b7bd ed65 8e3c f1eb d73c
000000f0: 97a5 633c 8915 a6bd b766 6f3c f07e 62bd
00000100: b1c4 69be 09ab 003d 4ea4 17be 5012 0b3e
00000110: cb1c 8c3c 1566 13bb 77b5 a93c c2ab dfbd
00000120: eefd 683d 3e50 77bd 801b 5bbd 09bf 24be
00000130: b3b7 05be 222d 553e 7e89 273e 9e5d e33c
00000140: ae68 dd3d 945d a43a 8858 213e 2997 193e
00000150: de2f 66be 2311 fcbc bccf 213e 3fd6 94bd
00000160: 1e1b 22be fb42 13bc 5937 11bd f1f1 f2bd
00000170: 8152 3abd 04f5 c9bd 736d 36bc 445f 16be
00000180: 3401 6c3d 5946 823c 23ba 843d 6075 21bd
00000190: 6cc3 913e f3bc 13bd 90ce b23d 876b a3bd
000001a0: c2bd 503d 2470 39bc 2d29 bd3d 1cfc 6fbe
000001b0: 505a ae3d eda6 abbd dd5a 8e3d 9944 243d
000001c0: 54a6 b5bd 82fd 1cbe c35d 363d 2700 a4bd
000001d0: e9a2 c93c 258b 8b3d 3149 23bc 307e 09be
000001e0: 6d1a 3e3e cfb5 cb3c 243c 31bd ba77 373d
000001f0: c45e 823d f7a2 a5bc 7cd7 c9bd 2de8 ee3d
00000200: 5396 d1bd e437 903d b972 443b 9a81 b7bd
00000210: 79c1 223e 8d5a 9abd 48cd 36bd 7e35 cfbd
00000220: 72a8 873d 355d 01be 20cb d5bd 05c5 f9bd
00000230: b9c6 053e 9e36 b43d 1b85 3f3e 482c ec3c
00000240: 933c 643d 2bf4 0f3e 2ecb f3bc 193e 063e
00000250: 572b 113d e8e0 e43a 4dad 9a3d 91e4 efbd
00000260: bbf8 703c afc0 b9bd 112d 74bc e681 82bd
00000270: 4be7 933d c7b3 4cbd 5d3b f5bc a049 3c3e
00000280: f09f 24bd f5da 22bd bca8 6abd bea4 093e
00000290: 05d0 8bbd 9d46 80bc e560 a83c 2797 4ebc
000002a0: 1b0d 3d3c 160d e5bd ae1b 2d3d ad60 a13a
000002b0: 432d a5bd ff16 acbc efa0 23bd 919a 94bd
000002c0: 2ed9 a03d 3601 5bbc 9b17 a83c f8b9 24bd
000002d0: 774f 91bd b507 223e f63e 943b e490 3e3d
000002e0: 670e 90bb 2e47 6d3d 9958 06bd 0214 06be
000002f0: 2e69 143d 9e97 92bd 7979 c53d 7661 24be
00000300: 1705 c5bd b40f a53c b88e ff3d 963d 25be
00000310: 3579 133d 9843 f73d 7d60 2f3e 1217 2cbc
00000320: db21 eebb db42 a03d 7f2f af3d 84e4 ef3d
00000330: 9b76 0836 978a b9bd 242e 5dbd aee7 5ebd
00000340: c83f ea3d 5275 f3bd dc8c 873d d49c 02be
00000350: 7a84 95bd 3e4a 95bd 8c01 1bbe 0c6a b13d
00000360: 17de f83d a657 813c 4610 08bb f55e 2e3e
00000370: b5be 5e3e 16a0 b2bd 9394 66bd 990f 75bd
00000380: bd80 64bc bd00 1bbe 1c5a 3cbd 0f65 d93d
00000390: 7251 b63c f338 b8bd 2117 45bd 4317 353b
000003a0: 5e3b ccbd 25d2 e13c f9cf 883d 3d33 dbbd
000003b0: d443 a7bd e512 0bbd 0d30 24be 6112 e0bd
000003c0: 72dd 21be 006a 5f3d 7418 5abd 7f5e 7f3d
000003d0: 7cfc a83d d4e1 b4ba eee9 f03d 6952 7dbb
000003e0: 2b67 cebc a918 c43c d66d 8aba 3118 443d
000003f0: ed6e 87bd 072b fa3d 832c a03d 0ebd e8bd

network_body._body_endoder.seq_layers.2.bias f4 [128]
-0.0058920104 -0.0024934264 0.0077643115 0.0012475788 -0.0048431065 -0.0015566697 0.008168666 0.008737703
0.0084031485 0.0047667273 0.008708645 0.006043423 -0.004301796 0.0050483514 0.00822126 -0.006522498
0.00013020365 0.0063860537 -0.0024143928 0.008347204 -0.0026090504 -0.0071891993 -0.007489009 0.006396385
0.0031266054 0.0082103405 0.010122375 -0.0042664157 -0.0073586325 0.008715689 0.0059469445 0.0027401315
-0.0050535887 0.005773024 0.007287401 -0.006975676 -0.0007432603 0.007876855 0.0054922686 -0.006470633
-0.0052347197 -0.0071452213 0.009397566 -0.007324149 0.008024116 -0.007114446 0.005267031 -0.0076256064
-0.00034232993 0.0074491724 0.0023151478 -0.003917441 0.003552954 -0.002976733 0.0025000512 0.006826135
0.0033301453 0.0011123575 0.007893226 0.011025802 -0.0072233756 6.679806e-05 9.450125e-05 0.005603833
0.0040631564 -0.0029637103 -0.005175062 0.007285822 0.006306546 -0.005966398 0.009874786 0.007834618
-0.007695167 -0.0071444986 0.007680376 0.0081215305 0.003262544 0.00432266 -0.0030935141 -0.0075975736
-0.0011714719 -0.007608294 -0.002055628 0.0062557124 0.0033922847 -0.005395809 -0.00019550516 -0.0073273876
0.0031986057 -0.0019264886 -0.0084312605 -0.0038245565 -0.0032029415 0.0030390415 -0.0075855507 -0.0056785354
0.005283671 0.0057295077 0.002427282 -0.006030122 -0.008327288 -0.0025689818 -0.007328662 0.006826349
0.002947894 -0.008825156 0.0087998165 -0.006041675 -0.0077735092 -0.006056701 0.0008488096 -0.0032130044
-0.0037804607 0.012514449 0.004551363 -0.007057677 0.005931535 -0.0037714236 -0.0034465736 -0.0070235743
0.009498371 0.009464313 -0.00036384643 0.003518915 -0.0073790536 -0.0037709775 0.003686007 -0.004886699
00000000: c411 c1bb c168 23bb c46b fe3b cc85 a33a
00000010: ecb2 9ebb 2b09 ccba ded5 053c 9528 0f3c
00000020: 5cad 093c 3532 9c3b b4ae 0e3c e807 c63b
00000030: 15f6 8cbb a46c a53b 77b2 063c aeba d5bb
00000040: 4787 0839 1a42 d13b ca3a 1ebb b6c2 083c
00000050: 9afc 2abb 6093 ebbb 5c66 f5bb c498 d13b
00000060: bce7 4c3b aa84 063c 51d8 253c 4acd 8bbb
00000070: af20 f1bb 40cc 0e3c 96de c23b c793 333b
00000080: 9398 a5bb a32b bd3b 26cb ee3b 3694 e4bb
00000090: 5bd7 42ba ed0d 013c 7df8 b33b 9b07 d4bb
000000a0: 0388 abbb 7622 eabb 40f8 193c 6aff efbb
000000b0: 9577 033c 4c20 e9bb 0f97 ac3b 39e0 f9bb
000000c0: bf7a b3b9 3018 f43b bcb9 173b e05d 80bb
000000d0: add8 683b 4b15 43bb e6d7 233b c5ad df3b
000000e0: 913e 5a3b 86cc 913a 9752 013c 91a5 343c
000000f0: 11b2 ecbb ef15 8c38 f92e c638 5ca0 b73b
00000100: 3a24 853b cf3a 42bb 9193 a9bb e8bd ee3b
00000110: 24a7 ce3b c681 c3bb dbc9 213c c55c 003c
00000120: bd27 fcbb 661c eabb aaab fb3b 2b10 053c
00000130: 68d0 553b 1aa5 8d3b 8ebc 4abb 11f5 f8bb
00000140: 138c 99ba ff4e f9bb b7b7 06bb b8fc cc3b
00000150: 1851 5e3b 54cf b0bb 8400 4db9 951a f0bb
00000160: b39f 513b 3b82 fcba 4523 0abc 69a5 7abb
00000170: 71e8 51bb a82a 473b 3690 f8bb 0213 babb
00000180: a522 ad3b 98be bb3b 0913 1f3b 5498 c5bb
00000190: 2d6f 08bc 5d5c 28bb 4625 f0bb 91af df3b
000001a0: 7431 413b 6397 10bc 1b2d 103c 3ef9 c5bb
000001b0: ecb8 febb 4a77 c6bb a682 5e3a 4591 52bb
000001c0: 9bc1 77bb 6709 4d3c 9a23 953b 1644 e7bb
000001d0: 525d c23b fd29 77bb e9df 61bb 0326 e6bb
000001e0: 0e9f 1b3c 3510 1b3c a4c2 beb9 999d 663b
000001f0: fdcb f1bb 8122 77bb f090 713b 9a20 a0bb

action_model._discrete_distribution.branches.0.weight f4 [3, 128]
-0.0033024522 0.005693374 -0.00965758 0.012072905 -0.021487173 0.0056258705 -0.021708928 -0.021078696
-0.005241172 0.014437611 -0.0007706974 -0.010773193 0.008124382 0.00813476 0.006821218 0.006428039
-0.0010119481 -0.002591221 -0.007871291 -0.023520216 -0.011995656 -0.0030895045 0.013301723 0.0020377615
-0.03022445 -0.004011897 0.0070813093 -0.01981909 0.008359501 -0.0077555436 -0.02432591 0.014842895
-0.012618541 0.019396013 0.009253468 0.0041658245 -0.015185186 -0.014777084 0.0006998212 -0.0047359834
-0.0016872005 0.0050521954 0.010910565 0.004646926 -0.0066858716 0.004451041 -0.018766195 -0.00042235144
0.010034204 0.006798231 0.00599441 0.01646213 0.0031711753 0.0075410362 0.007412028 0.005609187
-0.0016518253 -0.0293863 -0.007933073 0.016467221 -0.007203148 -0.0014904202 0.014075458 0.017925985
-0.00377176 -0.010513913 0.004304509 -0.0020736575 0.010767638 0.011754969 0.011121676 0.017716583
-1.8213002e-05 0.00816276 0.01749312 -0.0036880672 -0.002681274 0.0037414397 -0.0013611931 -0.008290415
-0.013250393 0.0010951781 0.0116489185 0.004468526 -0.00822271 0.004834921 0.0026835524 0.0068592937
-0.0073652966 0.008169842 -0.0020231362 0.0030349344 0.008001825 0.020380437 -0.013603281 0.008167813
0.0075434097 -0.0040390827 0.00607327 0.016094198 0.005792515 0.0238855 -0.006795239 -0.0056691645
-0.008229527 0.008234065 0.022773752 0.004992076 -0.01246589 -1.6108863e-05 0.0029562088 0.008948757
-0.0024463031 0.007210704 0.008603928 0.0021589443 0.009875887 0.0066750324 -0.00043170975 -0.01170067
-0.00096721743 -0.015634757 0.0055900537 0.029425574 -0.016803566 -0.008842443 0.005064876 -0.010159718
0.0032062551 0.0031680455 0.007296257 -0.01244007 -0.00941682 -0.019153105 0.014199025 0.018930154
0.015222323 0.0065565985 -0.0029428047 0.020596862 0.0066388953 0.012345107 0.0077339667 -0.018817523
-0.015473464 0.017920334 -0.0051979586 0.022915483 0.006066236 0.0033127733 -0.009285271 0.018121816
0.00906397 0.014484008 -0.0017160623 -0.007098406 -0.0088968845 0.010075545 0.020549025 -0.024511132
0.009837202 -0.0025780594 -0.0051472443 -0.008298238 0.005988434 0.033582173 -0.0047485307 -0.009572718
-0.0036405446 -0.007339293 0.006188969 -0.016264908 0.0012365074 -0.00015581174 0.005705737 -0.017700737
-0.0021531181 -0.0065749544 -0.009295674 -0.0015045563 -0.008212936 -0.014883633 0.017069286 -0.00817987
-0.003204377 0.01058594 0.020882018 0.0077595576 -0.01720726 -0.011837437 -0.01121556 0.00664165
0.003281358 0.0041426327 -0.011708846 0.0009862767 0.010146696 -0.0011090887 0.0021280055 -0.013827916
-0.009826432 0.000644386 0.0051159374 0.008938865 0.0030884827 0.0033921897 -0.021112928 -0.022274029
0.0005005071 -0.0050637093 -0.003111797 0.008884816 0.0132841645 -0.014415698 -0.012066094 -6.6387904e-05
-0.00022445623 -0.0071211876 -0.012052216 -0.009652622 -0.013650315 -0.004045475 -0.0044360496 -0.0152224535
0.013621859 0.00011550024 0.00069681293 -0.0074842963 -0.0036992799 -0.0071809758 -0.017288491 -0.0014886173
0.0019209556 -0.0065605463 0.0060930355 -0.020300366 -0.027353117 -0.001619998 -0.0012398482 -0.018398996
-0.001355557 -0.0076642726 0.010534536 -0.0068745674 0.005786659 -0.013190859 0.00430989 -0.013915449
0.0056432784 0.015202982 -0.013044702 -0.005659907 -0.033658847 0.00510957 0.012227371 0.008292366
00000000: f46d 58bb 7c8f ba3b d43a 1ebc 6fcd 453c
00000010: de05 b0bc 3959 b83b ecd6 b1bc 3bad acbc
00000020: 23be abbb bb8b 6c3c a108 4aba 0c82 30bc
00000030: 211c 053c a847 053c 8684 df3b 4da2 d23b
00000040: 58a3 84ba 79d1 29bb 96f6 00bc 78ad c0bc
00000050: 6e89 44bc 4979 4abb 78ef 593c f78b 053b
00000060: 4499 f7bc 3b76 83bb 540a e83b a55b a2bc
00000070: 4af6 083c 3722 febb 2147 c7bc 9d2f 733c
00000080: ffbd 4ebc 63e4 9e3c dc9b 173c 7881 883b
00000090: 49cb 78bc 951b 72bc 3574 373a 4f30 9bbb
000000a0: 0e25 ddba e38c a53b 3ac2 323c 3e45 983b
000000b0: 2815 dbbb 0ada 913b 90bb 99bc 0d6f ddb9
000000c0: 8166 243c b2c3 de3b c16c c43b 97db 863c
000000d0: 7ed3 4f3b cc1a f73b 99e0 f23b 45cd b73b
000000e0: 0f82 d8ba 8abb f0bc b8f9 01bc 44e6 863c
000000f0: 6308 ecbb 345a c3ba c09c 663c 84d9 923c
00000100: a22f 77bb 8c42 2cbc d70c 8d3b 33e6 07bb
00000110: bf6a 303c ea97 403c b137 363c 5e22 913c
00000120: 20c8 98b7 19bd 053c bb4d 8f3c 80b3 71bb
00000130: 50b8 2fbb f132 753b 106a b2ba 85d4 07bc
00000140: 2d18 59bc 148c 8f3a 1bdb 3e3c b76c 923b
00000150: 8cb8 06bc 426e 9e3b 8ade 2f3b edc3 e03b
00000160: 9658 f1bb cdda 053c 9896 04bb c0e5 463b
00000170: 161a 033c e0f4 a63c 4ce0 5ebc 4ad2 053c
00000180: b52e f73b 485a 84bb 4802 c73b fbd7 833c
00000190: 23cf bd3b 86ab c33c 99aa debb 66c4 b9bb
000001a0: 23d5 06bc 2ce8 063c 0590 ba3c 9294 a33b
000001b0: bb3d 4cbc 8521 87b7 f4bc 413b cf9d 123c
000001c0: 2852 20bb c547 ec3b 7df7 0c3c 137d 0d3b
000001d0: 79ce 213c 3bba da3b 1a57 e2b9 2bb4 3fbc
000001e0: dd8c 7dba 7614 80bc c52c b73b e70d f13c
000001f0: a2a7 89bc e5df 10bc 42f7 a53b f274 26bc
00000200: 0920 523b fc9e 4f3b 7115 ef3b 6fd1 4bbc
00000210: 0149 1abc f9e6 9cbc 07a3 683c 6913 9b3c
00000220: 0d67 793c bcd8 d63b 12dc 40bb c0ba a83c
00000230: 178b d93b 2243 4a3c 376d fd3b 3527 9abc
00000240: 6984 7dbc aacd 923c a353 aabb 40b9 bb3c
00000250: 47c7 c63b 1d1b 593b 4021 18bc 3474 943c
00000260: 0c81 143c 554e 6d3c 7fed e0ba bf99 e8bb
00000270: 3dc4 11bc e613 253c 6e56 a83c 92cb c8bc
00000280: 372c 213c a9f4 28bb 37aa a8bb 55f5 07bc
00000290: a03a c43b 768d 093d 9099 9bbb e4d6 1cbc
000002a0: 3496 6ebb 747e f0bb d6cc ca3b fc3d 85bc
000002b0: 4e12 a23a 6561 23b9 31f7 ba3b 2301 91bc
000002c0: 541b 0dbb b772 d7bb e24c 18bc 8834 c5ba
000002d0: 8d8f 06bc 7bda 73bc e3d4 8b3c dd04 06bc
000002e0: 8600 52bb a770 2d3c c410 ab3c e343 fe3b
000002f0: 3df6 8cbc cff1 41bc 78c1 37bc 33a2 d93b
00000300: 0d0c 573b ecbe 873b 76d6 3fbc f445 813a
00000310: 543e 263c d75e 91ba 0276 0b3b 7c8e 62bc
00000320: 0bff 20bc 03ec 283a 98a3 a73b 5174 123c
00000330: 2468 4a3b 804f 5e3b 05f5 acbc 0678 b6bc
00000340: 7734 033a 79ed a5bb 4aef 4bbb 9f91 113c
00000350: d3a5 593c d22f 6cbc deb0 45bc bc39 8bb8
00000360: 035c 6bb9 da58 e9bb a876 45bc 0826 1ebc
00000370: 92a5 5fbc e78f 84bb 485c 91bb 9967 79bc
00000380: 382e 5f3c b838 f238 53aa 363a d43e f5bb
00000390: 9e6f 72bb 644e ebbb 98a0 8dbc b51d c3ba
000003a0: 93c8 fb3a daf9 d6bb 16a8 c73b f44c a6bc
000003b0: a513 e0bc 1d56 d4ba 6782 a2ba 7eb9 96bc
000003c0: f2ac b1ba 9424 fbbb 0c99 2c3c 0d44 e1bb
000003d0: 049e bd3b 791e 58bc fa39 8d3b a0fd 63bc
000003e0: 40eb b83b ee15 793c 72b9 55bc be76 b9bb
000003f0: dcdd 09bd 2e6e a73b 5055 483c b4dc 073c

action_model._discrete_distribution.branches.0.bias f4 [3]
0.0007607035 0.006643428 -0.0075437184
00000000: f369 473a 1db1 d93b 4c31 f7bb

exp_avg f4 [128, 6]
2.1357553e-05 -4.4355943e-06 0.0 -4.5926885e-10 -0.00020058345 3.4795226e-05 -0.0010378172 -9.533153e-06
0.0 -1.1367509e-08 0.00020073101 -0.00010749855 -0.00018348268 5.897463e-06 0.0 -4.4697384e-09
0.0004913243 -6.6801476e-05 0.00033517883 3.7065402e-06 0.0 4.707159e-09 -0.00035924886 -5.2400963e-05
0.00033688912 -4.2239162e-07 0.0 4.2779447e-09 -0.000265496 -4.5690434e-05 0.00013237241 4.040638e-06
0.0 -4.8260934e-10 5.1437324e-05 -0.00017217718 0.00083995366 -7.3547308e-06 0.0 6.6365162e-09
-0.00034653614 -0.0002969964 0.00018848061 -2.2432473e-06 0.0 1.5896329e-09 -4.622654e-05 -8.064269e-05
-0.00044301501 6.686365e-06 0.0 -6.572455e-09 0.00088391826 -6.504807e-05 -0.00054877833 -2.2782e-06
0.0 -1.8359633e-09 -6.523444e-05 6.095329e-05 0.00065562787 1.4910299e-06 0.0 3.6047139e-09
-0.00033170212 -0.00029535496 -5.3428575e-06 8.621628e-07 0.0 -1.2238653e-09 1.691634e-05 -7.262826e-05
5.8672806e-05 3.4567754e-06 0.0 -5.7971217e-10 8.3661536e-05 -7.06101e-05 0.00036844015 -2.12265e-06
0.0 3.2037397e-09 -0.00013372768 -9.3199895e-05 -0.00014256588 -2.87599e-06 0.0 -4.631936e-09
0.00028369552 -2.6490306e-07 -9.1000635e-05 -1.8983654e-06 0.0 -1.437375e-09 0.00019290649 0.000102628685
0.0008998695 -4.343593e-07 0.0 6.944527e-09 -0.0009842999 -0.00063711836 0.00044377253 -6.453273e-06
0.0 4.967577e-09 -0.00014957156 0.0002406078 0.00014269493 1.3794889e-06 0.0 1.3815772e-09
8.785166e-05 9.681356e-07 0.00022959255 9.12276e-07 0.0 2.9021165e-09 -0.00039783065 -0.00013802045
-0.00020197708 8.4970625e-06 0.0 -5.529749e-09 0.00081989187 -0.00012011361 -0.00076058554 -1.12948255e-05
0.0 -5.9305156e-09 0.0001266104 0.00014748282 0.0005298788 -4.8739776e-06 0.0 4.246808e-09
-0.00033687818 -0.00018277555 0.0002887718 -6.0647644e-06 0.0 3.4842138e-09 -0.00015239313 2.8998868e-06
0.0005700209 3.6280298e-06 0.0 6.1340075e-09 -0.00063833257 -0.00029881106 -0.0003759314 -5.138796e-06
0.0 -3.110257e-09 0.00020780321 0.0001303419 -0.0006532621 7.0208444e-06 0.0 -1.0933457e-08
0.00056438544 -0.00025502619 -0.00011041856 -1.2501426e-06 0.0 -1.9067183e-09 0.00020324848 0.00010271984
-0.00039902676 -5.996639e-06 0.0 -3.3617384e-09 -0.00022269625 -4.244249e-05 0.00016537854 -6.4458413e-06
0.0 3.7710546e-09 -0.00013383156 3.387408e-05 1.4473593e-05 3.7892182e-06 0.0 -1.6115732e-11
-7.372087e-05 2.8737983e-05 -9.730205e-06 3.071192e-06 0.0 -5.227038e-10 5.3394022e-05 -2.3734407e-05
-0.000425852 1.428148e-06 0.0 -5.8098264e-09 0.0005238243 0.00013878784 0.000107163025 -1.9335154e-07
0.0 2.2586473e-09 -6.4138156e-05 -0.00012634903 0.0005844425 -6.2488853e-06 0.0 5.547114e-09
-0.0001606229 6.53028e-05 0.00027931618 3.3336462e-06 0.0 2.9503513e-09 -0.0001721835 -0.0001209536
4.614813e-05 -1.0538622e-06 0.0 1.5567095e-09 -0.00019915035 1.2174982e-05 -0.0005183048 -6.8373706e-06
0.0 -3.927659e-09 0.00024767162 5.719822e-05 0.0011721373 -1.1816303e-05 0.0 9.802191e-09
-0.00093151635 -0.0005209968 0.0001325057 -5.4462575e-06 0.0 2.1241606e-09 -0.00026872914 -0.000110269335
0.00020774943 -3.901914e-06 0.0 1.779379e-09 -0.00016252906 2.3894738e-05 0.0002851991 -5.8752203e-06
0.0 3.7414183e-09 -0.0001904954 -9.846311e-05 -0.00030790785 -2.610063e-06 0.0 -1.2587359e-09
00000000: ff28 b337 77d5 94b6 0000 0000 587c fcaf
00000010: b653 52b9 17f1 1138 5e07 88ba 95f0 1fb7
00000020: 0000 0000 d54a 43b2 527b 5239 d870 e1b8
00000030: 4265 40b9 d2e2 c536 0000 0000 3c94 99b1
00000040: 37cc 003a c517 8cb8 f1ba af39 e0bd 7836
00000050: 0000 0000 9cbc a131 9159 bcb9 1bc9 5bb8
00000060: 7ea0 b039 10c5 e2b4 0000 0000 33fd 9231
00000070: 4532 8bb9 bba3 3fb8 73cd 0a39 d194 8736
00000080: 0000 0000 9da8 04b0 68be 5738 768a 34b9
00000090: 5630 5c3a a8c8 f6b6 0000 0000 6a07 e431
000000a0: 4baf b5b9 2fb6 9bb9 e1a2 4539 b28a 16b6
000000b0: 0000 0000 3c7a da30 5fe3 41b8 b71e a9b8
000000c0: 7844 e8b9 705b e036 0000 0000 edd3 e1b1
000000d0: c0b6 673a 6b6a 88b8 e4db 0fba 2ee3 18b6
000000e0: 0000 0000 3755 fcb0 79ce 88b8 19a8 7f38
000000f0: 71de 2b3a 661f c835 0000 0000 ccb6 7731
00000100: 4ee8 adb9 dfd9 9ab9 cc46 b3b6 606f 6735
00000110: 0000 0000 ef34 a8b0 90e7 8d37 0050 98b8
00000120: 7217 7638 f3fa 6736 0000 0000 9e59 1fb0
00000130: 7273 af38 8214 94b8 332b c139 d972 0eb6
00000140: 0000 0000 c928 5c31 4039 0cb9 5074 c3b8
00000150: bd7d 15b9 2201 41b6 0000 0000 f126 9fb1
00000160: f8bc 9439 0038 8eb4 98d7 beb8 57cb feb5
00000170: 0000 0000 238d c5b0 f146 4a39 5b3a d738
00000180: 38e5 6b3a e331 e9b4 0000 0000 b59c ee31
00000190: a003 81ba 4a04 27ba 24aa e839 3189 d8b6
000001a0: 0000 0000 45af aa31 4fd6 1cb9 aa4b 7c39
000001b0: 61a0 1539 e126 b935 0000 0000 ede1 bd30
000001c0: 003d b838 e3f0 8135 c8be 7039 21e3 7435
000001d0: 0000 0000 936e 4731 ed93 d0b9 95b9 10b9
000001e0: cfc9 53b9 9b8e 0e37 0000 0000 3000 beb1
000001f0: 03ee 563a 81e5 fbb8 0862 47ba e87e 3db7
00000200: 0000 0000 5ec5 cbb1 b8c2 0439 9ea5 1a39
00000210: 90e7 0a3a 268b a3b6 0000 0000 51eb 9131
00000220: 069f b0b9 70a7 3fb9 4b66 9739 ee7f cbb6
00000230: 0000 0000 f06e 6f31 b8cb 1fb9 ad9b 4236
00000240: 746d 153a 1479 7336 0000 0000 4dc3 d231
00000250: c655 27ba bea9 9cb9 a918 c5b9 ec6d acb6
00000260: 0000 0000 38bc 55b1 c0e5 5939 63ac 0839
00000270: ad3f 2bba 9894 eb36 0000 0000 dad5 3bb2
00000280: 44f3 133a 09b5 85b9 8390 e7b8 93ca a7b5
00000290: 0000 0000 5807 03b1 191f 5539 4b6b d738
000002a0: 7734 d1b9 bd36 c9b6 0000 0000 5404 67b1
000002b0: 9283 69b9 4704 32b8 7769 2d39 5b49 d8b6
000002c0: 0000 0000 8c92 8131 2355 0cb9 0414 0e38
000002d0: 9cd3 7237 464a 7e36 0000 0000 67c1 8dad
000002e0: 979a 9ab8 5912 f137 ea3e 23b7 ad1a 4e36
000002f0: 0000 0000 03ae 0fb0 65f3 5f38 4019 c7b7
00000300: e344 dfb9 cbae bf35 0000 0000 c69f c7b1
00000310: 4151 093a 9487 1139 b6bc e038 119c 4fb4
00000320: 0000 0000 8b36 1b31 e981 86b8 8f7c 04b9
00000330: 4635 193a 84ad d1b6 0000 0000 ee98 be31
00000340: e26c 28b9 2cf3 8838 2f71 9239 9bb7 5f36
00000350: 0000 0000 21bf 4a31 288c 34b9 78a8 fdb8
00000360: 2d8f 4138 6e72 8db5 0000 0000 d9f3 d530
00000370: 04d3 50b9 2643 4c37 d9de 07ba 916c e5b6
00000380: 0000 0000 0ef4 86b1 ecd9 8139 1fe8 6f38
00000390: 67a2 993a a33e 46b7 0000 0000 7e66 2832
000003a0: 0131 74ba 8193 08ba 3af1 0a39 ffbe b6b6
000003b0: 0000 0000 a1f8 1131 37e4 8cb9 6640 e7b8
000003c0: 50d7 5939 30ed 82b6 0000 0000 558e f430
000003d0: 906c 2ab9 8f71 c837 c686 9539 c223 c5b6
000003e0: 0000 0000 dd8d 8031 b8bf 47b9 fb7d ceb8
000003f0: b16e a1b9 8a28 2fb6 0000 0000 d5ff acb0

exp_avg_sq f4 [128, 6]
1.2665699e-07 1.08090495e-10 0.0 6.8151547e-18 1.7351245e-07 1.18484465e-07 4.8800877e-07 1.9013258e-10
0.0 1.9356147e-17 1.5459054e-07 2.6118474e-07 1.6421288e-07 1.2312054e-10 0.0 6.1816994e-18
1.0597667e-07 1.0384678e-07 5.378213e-08 2.4325817e-11 0.0 2.9778554e-18 4.069115e-08 3.6750947e-08
4.6399474e-08 1.8887189e-11 0.0 2.1218177e-18 3.0133315e-08 2.6998654e-08 1.5827314e-07 7.7497696e-11
0.0 5.160847e-18 2.7132959e-08 1.0780579e-07 2.1506463e-07 8.603442e-11 0.0 1.0650892e-17
7.106421e-08 1.3345978e-07 2.5890545e-08 1.3321488e-11 0.0 1.5408574e-18 4.653022e-09 2.0923263e-08
4.6954042e-07 3.8207487e-10 0.0 2.0326751e-17 7.407941e-07 4.0855997e-07 9.601825e-08 3.1356348e-11
0.0 3.9367056e-18 1.6215813e-08 7.266873e-08 7.132998e-08 5.7367753e-11 0.0 5.205524e-18
1.563542e-07 8.272857e-08 2.5232936e-08 3.278089e-11 0.0 1.5941657e-18 3.2583774e-08 2.459315e-08
8.1915566e-08 2.7191372e-11 0.0 3.3648001e-18 8.479403e-09 4.595699e-08 3.5150507e-08 1.3656794e-11
0.0 1.368864e-18 5.8701866e-09 2.0839401e-08 1.212013e-07 1.0029979e-10 0.0 9.714647e-18
2.8968404e-07 1.0692308e-07 2.4895668e-08 3.3116093e-11 0.0 2.241923e-18 1.0700358e-07 3.1960187e-08
5.262248e-07 2.0873471e-10 0.0 1.5843268e-17 8.618273e-07 4.430607e-07 3.5598333e-07 2.2636565e-10
0.0 1.2224954e-17 7.558003e-08 2.1062668e-07 1.0575565e-07 1.0996928e-10 0.0 3.9980584e-18
3.7504134e-07 1.15207484e-07 5.6063516e-08 3.377931e-11 0.0 2.1003981e-18 1.4573001e-07 5.558074e-08
3.563878e-07 3.0847655e-10 0.0 1.2981455e-17 5.9428965e-07 3.4870615e-07 1.5304397e-07 7.294904e-11
0.0 6.923396e-18 9.013419e-08 9.050491e-08 1.5518182e-07 9.439191e-11 0.0 7.931315e-18
2.3020667e-07 1.14936334e-07 2.9085444e-07 9.0386906e-11 0.0 8.3771434e-18 3.3146193e-08 1.9244786e-07
1.6813165e-07 1.31402e-10 0.0 1.0009989e-17 4.3445223e-07 1.7549078e-07 3.3242973e-08 2.7252214e-11
0.0 2.6926253e-18 1.0903385e-07 3.4628954e-08 2.923035e-07 1.7532147e-10 0.0 1.862711e-17
8.053094e-08 1.848071e-07 2.802488e-08 3.7885868e-11 0.0 1.7769643e-18 1.5010639e-07 4.523545e-08
2.8967509e-07 1.3214783e-10 0.0 9.788618e-18 1.7300253e-07 1.6424187e-07 2.0809516e-07 7.126127e-11
0.0 7.442919e-18 6.779744e-08 1.2097685e-07 3.458316e-08 3.022804e-11 0.0 2.3353153e-18
6.47298e-08 4.2163318e-08 1.0542523e-07 6.1369354e-11 0.0 3.4316431e-18 6.927839e-08 7.433833e-08
1.1091128e-07 9.922535e-11 0.0 6.899556e-18 1.9625091e-07 9.625648e-08 4.2205606e-08 1.193611e-11
0.0 1.1522282e-18 1.1920861e-08 2.1308395e-08 8.191228e-08 3.845842e-11 0.0 3.7522435e-18
1.6639147e-08 5.530953e-08 4.471088e-08 4.2013133e-11 0.0 2.9352961e-18 1.0927654e-07 5.2706586e-08
3.135422e-08 2.2110433e-11 0.0 1.5315986e-18 4.9809255e-08 3.3405467e-08 5.8294315e-08 2.1684913e-11
0.0 2.0230923e-18 5.826099e-08 2.794001e-08 6.1993654e-07 3.0204886e-10 0.0 2.1154383e-17
5.7571856e-07 4.1202748e-07 6.548806e-08 4.5436648e-11 0.0 2.3676651e-18 3.0442177e-08 5.4558047e-08
3.8817294e-08 1.0929647e-11 0.0 1.0954357e-18 1.3249405e-08 2.0738948e-08 3.0141675e-07 9.0788696e-11
0.0 7.9114614e-18 7.097368e-08 1.4101715e-07 8.754184e-08 6.754082e-11 0.0 4.3183034e-18
00000000: 35ff 0734 8ab1 ed2e 0000 0000 516f fb22
00000010: bd4e 3a34 8671 fe33 b5ff 0235 900d 512f
00000020: 0000 0000 6987 b223 86fd 2534 f538 8c34
00000030: 7e52 3034 5a5f 072f 0000 0000 8010 e422
00000040: 4a95 e333 5f02 df33 14fe 6633 dff8 d52d
00000050: 0000 0000 19ba 5b22 64c4 2e33 18d8 1d33
00000060: c348 4733 2b22 a62d 0000 0000 0190 1c22
00000070: ee6b 0133 abea e732 caf1 2934 536b aa2e
00000080: 0000 0000 d266 be22 0212 e932 dc82 e733
00000090: 84ec 6634 1331 bd2e 0000 0000 6a79 4423
000000a0: f69b 9833 254d 0f34 e965 de32 a65a 6a2d
000000b0: 0000 0000 f263 e321 6ae0 9f31 beba b332
000000c0: 2515 fc34 420c d22f 0000 0000 2f7b bb23
000000d0: fcda 4635 0e58 db34 9732 ce33 1ce8 092e
000000e0: 0000 0000 223d 9122 f34a 8b32 0f0e 9c33
000000f0: 122e 9933 594e 7c2e 0000 0000 c90c c022
00000100: 51e2 2734 83a8 b133 d0bf d832 002c 102e
00000110: 0000 0000 e141 eb21 3df2 0b33 e940 d332
00000120: 8fe9 af33 872d ef2d 0000 0000 4747 7822
00000130: cfac 1132 3f62 4533 64f8 1633 bb40 702d
00000140: 0000 0000 3802 ca21 b5b2 c931 5402 b332
00000150: 8f23 0234 c38f dc2e 0000 0000 2034 3323
00000160: df85 9b34 969d e533 27da d532 68a5 112e
00000170: 0000 0000 ba6c 2522 d7c9 e533 9944 0933
00000180: e541 0d35 9981 652f 0000 0000 dc20 9223
00000190: 5258 6735 cddd ed34 fa1d bf34 44e4 782f
000001a0: 0000 0000 b782 6123 904e a233 9f28 6234
000001b0: c91b e333 33d3 f12e 0000 0000 9880 9322
000001c0: 4a59 c934 fc67 f733 7dca 7033 1f90 142e
000001d0: 0000 0000 66fb 1a22 f679 1c34 abb7 6e33
000001e0: 9155 bf34 3796 a92f 0000 0000 3077 6f23
000001f0: 4687 1f35 cf35 bb34 6854 2434 a96a a02e
00000200: 0000 0000 a06d ff22 cc8f c133 9a5b c233
00000210: 0ea0 2634 ec91 cf2e 0000 0000 934e 1223
00000220: ba2e 7734 ebd2 f633 bb26 9c34 4ec3 c62e
00000230: 0000 0000 f187 1a23 a05c 0e33 aaa3 4e34
00000240: ad87 3434 607a 102f 0000 0000 d6a6 3823
00000250: a93e e934 8a6e 3c34 09c7 0e33 88b6 ef2d
00000260: 0000 0000 41ae 4622 fe25 ea33 f0ba 1433
00000270: e3ed 9c34 9bc4 402f 0000 0000 05ce ab23
00000280: 5af0 ac33 646f 4634 5dbb f032 b29f 262e
00000290: 0000 0000 e81d 0322 ee2c 2134 e748 4233
000002a0: a484 9b34 4f4c 112f 0000 0000 7191 3423
000002b0: 93c2 3934 765a 3034 c370 5f34 87b4 9c2e
000002c0: 0000 0000 314c 0923 0998 9133 dde5 0134
000002d0: 9688 1433 bff1 042e 0000 0000 dc50 2c22
000002e0: 9501 8b33 0f17 3533 2266 e233 e0f3 862e
000002f0: 0000 0000 e835 7d22 33c6 9433 eea3 9f33
00000300: 1f2e ee33 e832 da2e 0000 0000 778c fe22
00000310: 0ab9 5234 8fb5 ce33 8e45 3533 76fb 512d
00000320: 0000 0000 f309 aa21 80cc 4c32 a809 b732
00000330: c1e7 af33 5524 292e 0000 0000 f06e 8a22
00000340: dfed 8e32 798d 6d33 2208 4033 95c6 382e
00000350: 0000 0000 2d96 5822 6aab ea33 815f 6233
00000360: 54aa 0633 457c c22d 0000 0000 2906 e221
00000370: dbed 5533 b379 0f33 475f 7a33 15be be2d
00000380: 0000 0000 2247 1522 a33a 7a33 bb00 f032
00000390: b769 2635 990d a62f 0000 0000 601d c323
000003a0: 148b 1a35 a034 dd34 71a2 8c33 1ed5 472e
000003b0: 0000 0000 eeb3 2e22 87bf 0233 3553 6a33
000003c0: 11b8 2633 c146 402d 0000 0000 64a8 a121
000003d0: 809f 6332 6e25 b232 67d2 a134 7ea5 c72e
000003e0: 0000 0000 d2f0 1123 316a 9833 806a 1734
000003f0: a3fe bb33 1a86 942e 0000 0000 3951 9f22

exp_avg f4 [128]
-0.00022419787 -0.0004813687 0.00029845044 0.00018715579 -2.1709395e-05 0.000204623 -0.00037166505 -0.000113407674
0.00033799792 -0.00011507606 7.560392e-05 4.4046432e-05 0.00017499331 -0.00010733547 -0.0001444285 -9.591743e-05
-2.0251156e-05 -0.00032795966 6.8747955e-05 4.6379686e-05 0.00043010525 -0.00057152763 -0.00024570798 -0.00030679928
0.00018390169 -0.00025994985 0.00035636834 -6.348091e-05 -0.000303 -0.0003262426 0.00019147665 0.00015511045
7.289996e-05 -9.382457e-06 -0.00031657427 0.00016858421 -5.327173e-05 -0.0003455887 -0.0005968874 -0.00027527835
-0.00019775648 -0.00029717325 -0.00013228909 0.00037725247 -0.00039798938 2.6544762e-05 -0.00013756871 -0.00040603054
-0.0001551727 -0.0005253563 -0.00050405436 -0.00020335121 -9.673156e-05 -0.00039074072 -0.00030496897 0.00017287633
3.9797203e-05 -0.0002152591 -0.00017335945 0.00029499712 -0.00018027493 0.00053711183 0.0003229441 -0.00020421173
-2.6993383e-05 7.827749e-05 -0.00010340537 -0.00020084449 -0.00043497235 5.546761e-05 -1.592046e-05 -0.00013270178
5.856504e-05 -0.00079562346 -0.00017049703 -0.00029924963 -0.000233189 8.103126e-05 -0.00034043659 -0.0002202958
-0.0005763792 7.5820644e-05 -0.00036212374 4.6438516e-05 -0.00043784492 -8.6349355e-05 -0.0001438139 0.00026601917
-0.0006385177 -5.9268597e-05 0.00017948923 -0.00011609364 0.00018793358 -9.734993e-05 -9.951382e-05 0.00027969613
-0.00044947353 4.875629e-05 0.00028191888 5.1926156e-05 -2.6806068e-05 7.047578e-07 -0.00015638833 -3.75221e-06
0.00010458859 -0.00051627366 -0.00025250125 -0.0001664781 -4.1937674e-05 -0.00018091242 0.00019210481 -0.00049096846
8.8765286e-05 -0.00022015709 -0.000268139 0.00022961109 -5.0270235e-05 -0.00021948949 -4.3908007e-05 -6.4009228e-06
-0.00024003397 0.0002767014 -0.00057107554 -0.000107500004 -0.00019934248 8.474907e-05 0.000318828 -0.0003325216
00000000: a816 6bb9 3760 fcb9 5779 9c39 403f 4439
00000010: 921c b6b7 1190 5639 0adc c2b9 48d5 edb8
00000020: 5035 b139 fd54 f1b8 8c8d 9e38 7fbe 3838
00000030: 697e 3739 4b19 e1b8 bb71 17b9 4727 c9b8
00000040: 07e1 a9b7 00f2 abb9 c72c 9038 cf87 4238
00000050: c07f e139 92d2 15ba 5ed2 80b9 e7d9 a0b9
00000060: bcd5 4039 e149 88b9 f3d6 ba39 0e21 85b8
00000070: f9db 9eb9 8a0b abb9 1fc7 4839 25a5 2239
00000080: dee1 9838 5969 1db7 e1f9 a5b9 fbc5 3039
00000090: 1670 5fb8 2130 b5b9 6f78 1cba 3c53 90b9
000000a0: da5c 4fb9 ebcd 9bb9 15b7 0ab9 f8c9 c539
000000b0: 3ba9 d0b9 71ac de37 5240 10b9 7fe0 d4b9
000000c0: dbb5 22b9 11b8 09ba 8422 04ba ad3a 55b9
000000d0: 5cdc cab8 55dc ccb9 3ee4 9fb9 2346 3539
000000e0: eceb 2638 2db7 61b9 d3c7 35b9 d8a9 9a39
000000f0: 2f08 3db9 f7cc 0c3a d350 a939 ab21 56b9
00000100: d96f e2b7 e828 a438 56db d8b8 c899 52b9
00000110: 000d e4b9 e5a5 6838 ed8c 85b7 dd25 0bb9
00000120: bca3 7538 6391 50ba 73c7 32b9 9be4 9cb9
00000130: 3284 74b9 54ef a938 a07c b2b9 34ff 66b9
00000140: 2718 17ba e601 9f38 6ddb bdb9 fac6 4238
00000150: 8d8e e5b9 7516 b5b8 c0cc 16b9 7d78 8b39
00000160: 3362 27ba 2c97 78b8 4635 3c39 4c77 f3b8
00000170: 0910 4539 5828 ccb8 13b2 d0b8 2ea4 9239
00000180: 51a7 ebb9 ab7f 4c38 83ce 9339 49cb 5938
00000190: 98dd e0b7 962e 3d35 2cfc 23b9 7ace 7bb6
000001a0: 9256 db38 8a56 07ba 2562 84b9 a090 2eb9
000001b0: 3ce6 2fb8 4fb3 3db9 be6f 4939 56b4 00ba
000001c0: 8027 ba38 f8d9 66b9 0295 8cb9 c2c3 7039
000001d0: 41d9 52b8 c326 66b9 dd29 38b8 82c7 d6b6
000001e0: a1b1 7bb9 3c12 9139 3bb4 15ba a071 e1b8
000001f0: 9706 51b9 4fbb b138 5f28 a739 4b56 aeb9

exp_avg_sq f4 [128]
1.2606624e-07 3.0477898e-07 1.6028366e-07 4.7957627e-08 3.4584104e-08 1.07700814e-07 1.4058764e-07 1.6143876e-08
4.909582e-07 5.963971e-08 7.572974e-08 3.069048e-08 4.0941497e-08 2.2631047e-08 1.0089229e-07 2.9281662e-08
3.8708336e-07 2.9362013e-07 9.748527e-08 5.769795e-08 3.8065926e-07 1.1437314e-07 1.0989182e-07 1.3962739e-07
2.0050314e-07 3.839145e-08 3.082936e-07 4.0415923e-08 1.8637198e-07 1.094173e-07 2.9470543e-08 7.113721e-08
1.2009355e-07 1.7715477e-08 6.742859e-08 6.38819e-08 2.8361773e-08 4.0807667e-08 4.5244929e-07 6.793228e-08
2.0059584e-08 1.3031848e-07 8.605303e-08 9.412959e-08 3.2758095e-07 5.6525106e-08 9.108784e-09 1.5001093e-07
1.2393971e-07 4.1604542e-07 1.6134162e-07 1.18690565e-07 2.4454161e-08 1.5751635e-07 6.831739e-08 5.4728805e-08
1.5637971e-08 1.5007681e-07 4.7574403e-08 9.7186444e-08 1.1225752e-07 2.567884e-07 5.4585776e-08 4.5024617e-08
1.5024264e-08 1.8574244e-08 1.17471025e-07 8.94801e-08 2.7467334e-07 5.1818965e-08 1.4395959e-08 1.2089302e-08
7.366424e-08 3.783959e-07 3.8566842e-08 1.5113903e-07 4.57414e-08 4.521435e-08 1.1653857e-07 2.5572749e-07
3.208319e-07 1.324544e-07 1.0432853e-07 2.1338154e-07 1.4842975e-07 8.499086e-08 7.079102e-08 3.3618753e-07
2.6471696e-07 5.718261e-08 6.756081e-08 2.2246546e-08 6.564305e-08 2.310646e-08 1.5224961e-07 1.6151694e-07
2.7564687e-07 1.8483864e-07 5.9198314e-08 7.3490575e-08 1.8026695e-08 1.1571465e-07 3.8328235e-08 3.7775344e-08
2.6334808e-08 7.217531e-08 1.2262666e-07 3.648311e-08 6.044385e-08 5.598878e-08 1.0054651e-07 1.582484e-07
1.9499335e-07 1.2844865e-07 3.9259568e-08 1.1924058e-07 2.211706e-08 3.080329e-08 1.11789625e-07 4.2878946e-07
1.0675715e-07 1.3300095e-07 4.5078102e-07 6.943841e-08 6.904885e-08 1.1633413e-08 6.058063e-08 3.0603212e-07
00000000: d35c 0734 81a0 a334 701a 2c34 f8f9 4d33
00000010: a089 1433 2649 e733 70f4 1634 c2ac 8a32
00000020: 64ca 0335 4713 8033 dda0 a233 8ad0 0333
00000030: a7d7 2f33 3366 c232 1faa d833 0e87 fb32
00000040: 55d0 cf34 d8a2 9d34 1859 d133 91cf 7733
00000050: 695d cc34 4c9d f533 abfd eb33 7cec 1534
00000060: e249 5734 d8e3 2433 8d83 a534 c795 2d33
00000070: 8a1d 4834 ccf8 ea33 6926 fd32 18c4 9833
00000080: 10f3 0034 bf2c 9832 42cd 9033 722f 8933
00000090: 33a0 f332 8144 2f33 28e8 f234 2ae2 9133
000000a0: 7e4f ac32 aced 0b34 27cc b833 4a24 ca33
000000b0: 62de af34 03c6 7233 db7c 1c32 b112 2134
000000c0: 4a14 0534 d95c df34 3f3d 2d34 d4e2 fe33
000000d0: 450f d232 c421 2934 e2b5 9233 f50e 6b33
000000e0: 4354 8632 cd24 2134 9c54 4c33 d0b4 d033
000000f0: 3912 f133 bbdc 8934 b271 6a33 1761 4133
00000100: b50e 8132 328d 9f32 6144 fc33 3528 c033
00000110: d176 9334 8e8f 5e33 1952 7732 50b1 4f32
00000120: 5831 9e33 5626 cb34 b1a4 2533 c848 2234
00000130: 3375 4433 b431 4233 c243 fa33 eb4a 8934
00000140: cd3e ac34 ca38 0e34 370b e033 df1d 6534
00000150: 0f60 1f34 3884 b633 c605 9833 437d b434
00000160: 6c1e 8e34 f298 7533 f315 9133 ac18 bf32
00000170: a6f7 8c33 a57b c632 0e7a 2334 706d 2d34
00000180: 9efc 9334 0f78 4634 3c41 7e33 dfd1 9d33
00000190: 1fd9 9a32 cd7e f833 579e 2433 6e3e 2233
000001a0: db36 e232 ccfe 9a33 5cab 0334 9bb1 1c33
000001b0: 5ccd 8133 5178 7033 07ec d733 fdea 2934
000001c0: 5d5f 5134 b2eb 0934 5a9e 2833 9a08 0034
000001d0: eefb bd32 934c 0433 ff10 f033 6034 e634
000001e0: 5d42 e533 06cf 0e34 df02 f234 2b1e 9533
000001f0: 0248 9433 4bdc 4732 8e18 8233 bc4c a434
