Basic_Path_Finding/Assets/TorchModels/results/PlayerMaze1/PlayerMaze.onnx (onnx, 74869 bytes, 9 tensors)

network_body.observation_encoder.processors.0.normalizer.running_mean f4 [8]
000000 c8 6f 96 40 67 bb df 3e 34 97 d8 be 6e fd 9f c1
       4.701145 0.43697664 -0.4230286 -19.998745
000010 b3 fc ff 3e b0 79 9d b1 7a 2a f7 3f 51 36 0d 3e
       0.49997482 -4.5831356e-09 1.9309838 0.13790251

network_body._body_endoder.seq_layers.0.weight f4 [128, 8]
000000 23 b4 a7 be 8d 01 8d 3c fc 72 81 bd 7a 9a b7 3e
       -0.3275462 0.017212654 -0.0632076 0.35860044
000010 b1 7a 48 bf ef 88 4c bd 3e 06 be bd d2 29 ee be
       -0.7831221 -0.049935278 -0.09278534 -0.4651628
000020 cc f3 2d 3e 8f c9 6b be 77 90 ca bd c9 bc 88 be
       0.16987532 -0.23026107 -0.09890836 -0.26706532
000030 95 14 b8 bd 7e a2 21 be d4 ab 39 be 99 29 a5 be
       -0.08988301 -0.15784642 -0.18131953 -0.322583
000040 dd 73 ef bd ea 2d e4 3e 01 be 8b be 32 a3 7b 3d
       -0.11692021 0.4456628 -0.272934 0.061434932
000050 fe e0 5e be 02 4f c4 be df 9a 80 be fd 4a 87 be
       -0.21765515 -0.38341528 -0.25118157 -0.264244
000060 ae 04 9f bd 38 56 53 3d 00 06 7b be b3 b6 8c be
       -0.077645645 0.051595896 -0.24514008 -0.27483138
000070 a5 d9 91 3e 58 77 ab 3e b3 28 20 3e f5 77 04 3f
       0.28486362 0.3348949 0.15640526 0.5174554
000080 b5 82 ee be a0 22 a9 3e d5 0d a6 bd 51 79 16 3f
       -0.46584097 0.3303423 -0.08108107 0.58778864
000090 30 56 04 bf 60 85 2f bf 19 ff 9c bc b1 6f 36 be
       -0.5169401 -0.6856289 -0.019164609 -0.17816044
0000a0 2a a1 2e bc c7 f8 1c bf 1f 7e d1 3e d2 14 8a 3f
       -0.010658542 -0.61317104 0.40916535 1.0787604
0000b0 49 7a 10 3f f3 af 76 3d a8 a8 6c 3c de 60 9c 3e
       0.5643659 0.060226392 0.014444508 0.30542654
0000c0 bc 23 dd 3e a3 8b 8d 3e 1d 7d 47 bf b0 23 11 3e
       0.43191326 0.27645597 -0.7792528 0.1417377
0000d0 4a 4b 49 be 58 60 0d 3e da 72 e1 3e a2 08 66 be
       -0.19657627 0.13806283 0.44032937 -0.2246423
0000e0 98 1d 20 3e 96 b5 1c 3e bd 42 a3 be 0a 6b c2 3e
       0.15636289 0.15303645 -0.31886855 0.3797229
0000f0 27 08 14 3e 31 e4 d8 3e 7a 0d 17 bf ec f3 0e 3d
       0.14456235 0.42361596 -0.5900494 0.03490059
000100 26 95 fb 3e ff a8 75 3e 03 48 c0 3d c7 e8 8a be
       0.4913723 0.23990248 0.09388735 -0.2713072
000110 91 39 8b 3e 95 e1 a6 bd 65 a1 9d be 3d 69 dc 3e
       0.27192357 -0.08148495 -0.30787197 0.4304904
000120 fb 93 0b 3f ac 7c dc be 43 5e 61 be 67 6d 0e 3e
       0.54522675 -0.43063867 -0.22008614 0.13908921
000130 49 d2 45 bf 37 48 7f 3d 70 00 57 be 8a b4 25 3e
       -0.77273995 0.06232473 -0.2099626 0.16182151
000140 0b c8 39 3e b2 27 7d 3e 6f 0f f5 3e e1 b7 be bd
       0.18142717 0.24722174 0.47863337 -0.09312416
000150 30 7d 17 3f 5d 30 2b be 15 2e 76 3f ae 05 94 3d
       0.59175396 -0.16717668 0.96164066 0.07227646
000160 54 62 80 3f c7 8d 59 bd fe 3d 23 3c 69 fb f3 bd
       1.0030007 -0.053113725 0.009963511 -0.11913187
000170 54 f6 06 3f c6 0f 56 3f 55 a5 81 3d 08 60 ed be
       0.52719617 0.8361782 0.06330363 -0.4636233
000180 b6 32 1b bf 92 30 0e be f5 e3 c1 3e b0 cf c2 3e
       -0.60624254 -0.13885716 0.3786923 0.38049078
000190 53 a4 14 bf ce 5b b0 bd ec d8 e2 bd ba 58 ac be
       -0.5806324 -0.0861126 -0.11076531 -0.33661443
0001a0 af 15 c3 bb ef df c6 3e fd 1d 39 3e 02 6f cf bd
       -0.0059535126 0.38842723 0.18077846 -0.10128595
0001b0 16 7d 95 bd a9 53 ce 3e da 00 81 3d 10 e3 81 be
       -0.07299249 0.40298203 0.062989905 -0.25368547
0001c0 a1 59 da 3e f9 6b bf bd d1 1f 99 bd 53 6e 20 bf
       0.42646506 -0.09346766 -0.074767716 -0.6266834
0001d0 0e 68 42 bf f4 56 a9 3e bd a5 52 be 85 26 4f 3c
       -0.75940025 0.33074152 -0.20571037 0.012643461
0001e0 1d f5 8d 3e 18 11 8b 3e df 01 0e 3e ae 5f 5b be
       0.2772607 0.2716148 0.13867901 -0.21423218
0001f0 17 1f c5 be 72 3e aa 3e 5c 28 70 be f0 89 a9 3e
       -0.38500282 0.33250767 -0.23452896 0.3311305
000200 40 2a e1 3e 42 a6 ba 3e 05 d3 67 be d8 9b 35 3f
       0.43977547 0.3645497 -0.22639091 0.70940924
000210 8d be 43 bf 12 5c 42 3d 53 91 ae be da 36 26 be
       -0.7646263 0.047451086 -0.3409525 -0.16231862
000220 e2 7b c2 3e b2 f6 9e 3f 45 88 fe 3d 8a 56 e0 bd
       0.3798514 1.2419035 0.12428335 -0.10954006
000230 71 bb 26 be f8 f7 a7 3e bf ee 08 3f 57 a3 b1 be
       -0.1628244 0.32806373 0.534893 -0.3469493
000240 77 f3 d0 bb ba 55 c9 3d 33 f6 55 3e df 06 bf 3e
       -0.0063766795 0.09830804 0.20894699 0.3730993
000250 46 86 e5 3c a7 45 13 3f 4e 41 26 3d 8c f6 19 be
       0.028018128 0.57528156 0.040589623 -0.15035456
000260 3e cb ea be 94 b7 3a bd 4b 32 8b be 19 28 2e be
       -0.45858186 -0.04558523 -0.27186808 -0.17007484
000270 ca bb 21 be 0b e1 df be 5f 93 3a be c8 8c a9 3e
       -0.15794292 -0.43726382 -0.1822028 0.3311522
000280 8c 7c 9b 3e 04 81 23 3e a4 70 0c bf c5 59 8d be
       0.3036846 0.15967184 -0.54859376 -0.2760755
000290 8e 6d 8d be 7c 80 cb 3e 48 59 87 3e 4a 25 ad be
       -0.27622646 0.39746463 0.26435304 -0.33817512
0002a0 bb 27 30 be ff cc ff 3e fc 31 50 3e b1 9c 3d be
       -0.17202656 0.49961087 0.20331568 -0.18516804
0002b0 ee 0f dd be ba f8 9d 3e ea 0d d3 be bc 25 a8 3c
       -0.43176216 0.30853826 -0.41221553 0.020525806
0002c0 58 62 66 bf ac 54 96 3c c5 c6 1a 3e 4b f5 20 3f
       -0.8999381 0.018350922 0.15114887 0.6287429
0002d0 b8 63 8d 3c a7 69 e4 be f2 0d 96 3d 98 85 e6 3e
       0.017259464 -0.44611856 0.073268786 0.450238
0002e0 1b 60 04 be e6 1b a0 3e f1 79 e9 be 03 7e 4e be
       -0.12927286 0.31271285 -0.45600846 -0.20165257
0002f0 b3 38 32 3e 8a c3 b6 be 1e 2b b1 3e a2 f9 df be
       0.17404442 -0.3569606 0.34603208 -0.43745142
000300 18 21 89 be f1 3d f1 be fe 86 cf be d2 91 86 be
       -0.2678306 -0.4711757 -0.40532678 -0.26283127
000310 9b 8b 2c 3f fd 10 4e 3e 7d c1 8b 3e 37 1a 58 be
       0.6740052 0.20123668 0.27296057 -0.2110375
000320 e3 f3 22 bf 2b 97 dc bc ba d8 5b bf 6d 3c 0a 3e
       -0.6365339 -0.026927551 -0.85877573 0.13499613
000330 dd 62 07 bf 33 1b 70 3d e7 28 d5 3d 39 01 ca be
       -0.5288523 0.05861969 0.10408192 -0.39454058
000340 33 eb 0f 3f 6e 7c 91 3e ec 4c cb 3d b8 4c 99 be
       0.5621826 0.28415245 0.09926781 -0.29941344
000350 18 14 14 bf aa 51 b1 bd c6 b1 1c be f1 37 45 3e
       -0.5784316 -0.08658154 -0.1530219 0.19259621
000360 93 7d a2 3d a6 91 8a bd a3 0e 5a be 01 99 39 bd
       0.07934108 -0.067660615 -0.21294646 -0.04531193
000370 40 5c 27 bf 54 5b a0 3e e4 2f 34 bd e0 a5 1b 3e
       -0.6537514 0.31319678 -0.043990985 0.15199995
000380 4e ff 19 be 84 02 68 3f 08 4a 27 bd 8c fa ce 3d
       -0.15038797 0.9062884 -0.040842086 0.10106382
000390 0e ee da 3d 65 3a 0e 3e 76 f6 b6 3e a6 30 9f bd
       0.106899366 0.13889463 0.3573491 -0.07772951
0003a0 48 4a e3 3d f4 0c a8 be 37 6a 91 be 93 f6 66 be
       0.110981524 -0.32822382 -0.28401348 -0.22554998
0003b0 00 9a 83 3e 3c f3 27 3e b6 5e b9 3e 81 02 ae 3e
       0.2570343 0.1640138 0.3620507 0.33986285
0003c0 01 a8 14 bd 02 5e 9d 3d ab d1 e9 3d eb ce 80 be
       -0.036293034 0.07683946 0.11416944 -0.25157866
0003d0 82 5d f6 bd 0b 14 bb be 14 55 ad be 54 2b b5 be
       -0.12029554 -0.3653873 -0.33853972 -0.3538462
0003e0 c1 1e 06 3e 54 b0 1b bf 66 30 04 bf 42 b3 34 be
       0.13097669 -0.6081593 -0.5163635 -0.17646506
0003f0 33 b1 b1 bc 93 59 4f be a2 b7 73 bd 7f b0 79 be
       -0.02169094 -0.20249014 -0.059501298 -0.24383734

network_body._body_endoder.seq_layers.0.bias f4 [128]
000000 ad e7 05 bd 5b 8d 73 bb 36 50 17 bc 89 bd 60 3c
       -0.032691646 -0.0037163112 -0.009235432 0.013717064
000010 d6 9c a4 bc e5 9f aa bc 8d 9d 33 bc cd 5e 9e 3c
       -0.020094316 -0.020828197 -0.010962856 0.019332314
000020 01 49 5a 3c 7f 85 46 bb 65 d1 60 bb e7 0f a7 bc
       0.01332307 -0.0030291972 -0.0034304496 -0.020393325
000030 42 d2 f8 bb d3 fc 32 bb 84 87 7b bd 5c 02 c9 bb
       -0.007593424 -0.002731134 -0.061408535 -0.0061343145
000040 3b 41 83 bc 55 ab 33 bc c8 72 ab bb fa ec 17 bc
       -0.016022315 -0.010966142 -0.005232189 -0.009272808
000050 8e f7 db bb 27 52 cf bc 9e 66 8f bc 45 11 d9 bc
       -0.0067128604 -0.025307728 -0.017504986 -0.026497493
000060 7f 60 12 bd d6 2f 17 bc ae 51 62 3c 52 04 5b bc
       -0.035736557 -0.009227714 0.013813419 -0.013367729
000070 9f 8a 78 bc 01 60 7e 3a 3d 1f 6f bc 9d 86 16 3c
       -0.015169769 0.0009703637 -0.01459485 0.009187368
000080 34 cf b1 bc c1 99 39 3a 24 cd 85 bb af 62 13 3c
       -0.021705247 0.0007080101 -0.0040832926 0.008995696
000090 ae 91 79 bc 59 71 09 bd 96 0b 1c bd 35 a0 f1 bc
       -0.015232487 -0.033555362 -0.038096987 -0.029495338
0000a0 a3 b0 4a bc 1b 92 a8 bc 46 45 0a bd b0 a6 a2 bc
       -0.012371215 -0.020577481 -0.03375747 -0.019854873
0000b0 09 a2 29 3b 8e a7 ec bb 5f 6a 92 ba 33 c1 ca bc
       0.0025883934 -0.0072221225 -0.0011170617 -0.024750328
0000c0 7b 26 a6 b9 68 4b a5 bc 64 e2 a6 bc a5 d6 0f 3b
       -0.00031690657 -0.020177558 -0.020371623 0.0021948006
0000d0 39 97 0e bb 6c 5c 9c bc 66 c9 fe 3b e0 69 ba bc
       -0.0021757616 -0.019087039 0.0077754734 -0.022755563
0000e0 38 21 78 bc fe 10 97 39 f6 81 22 bc 8d 9c 89 bc
       -0.015144639 0.00028813625 -0.00991868 -0.016798282
0000f0 5e 17 bd bc fc be 42 bb f7 e6 54 bc 85 62 19 bd
       -0.023082431 -0.0029715886 -0.012994519 -0.03744747
000100 d0 22 a7 3c 5d 05 74 3b 03 7d d8 bc cf c9 66 bc
       0.020402342 0.0037234642 -0.026426798 -0.014086201
000110 c8 7d fc bb 30 93 9a 3b ed 66 09 3b b0 ba 53 3c
       -0.007705424 0.004717253 0.002096589 0.012922928
000120 f6 7f df 3b 17 e0 b3 bc 54 8e 84 bc 86 c3 0a bd
       0.006820674 -0.02195744 -0.016181149 -0.033877872
000130 f7 ce ea bc cc e3 37 3b 06 4d ba bc 7c bc e6 bb
       -0.028663142 0.0028059362 -0.022741806 -0.007041512
000140 4d 79 d3 bc 24 57 95 ba bc 94 a2 bc ba 46 5a 3c
       -0.025814677 -0.0011393768 -0.019846313 0.013322527
000150 2b 12 f3 ba fd 6c 1e bc 5a 1a af 3c 6c bb c9 bc
       -0.0018544843 -0.0096695395 0.02137487 -0.024625503
000160 4b 32 2e bc 23 b8 4a bc 76 1f 8c bc dd 56 a8 bc
       -0.010632108 -0.012373003 -0.017104845 -0.020549232
000170 60 63 86 bc 83 22 02 bc 42 07 c8 bc 9f e9 5e bc
       -0.016404808 -0.007942799 -0.024417523 -0.013605504
000180 56 90 0e bc 5f dc b7 bc ad 81 1d 3c 00 b5 0e bd
       -0.008701405 -0.022443948 0.009613437 -0.034840584
000190 4d a0 bb bc c6 41 e6 ba 73 30 2d 3c 1e ba 39 bb
       -0.022903586 -0.001756721 0.010570633 -0.0028339694
0001a0 b1 46 44 bc b6 0c c1 bc 1a 3b a1 bb 55 30 a7 ba
       -0.011979745 -0.023565631 -0.0049203755 -0.0012755493
0001b0 78 9d e8 bb 5f f5 45 bd fd 68 09 bc 45 39 9a 3c
       -0.00709885 -0.048329707 -0.008386848 0.018826136
0001c0 5a 49 b7 ba 70 42 91 3b dd 0c a3 3b 69 55 c1 ba
       -0.0013983652 0.004432969 0.0049758987 -0.0014750186
0001d0 00 81 b9 bc 35 4e 1e bd 22 aa 01 bc 82 ef cd bc
       -0.02264452 -0.038648803 -0.007914098 -0.02513862
0001e0 27 bb ac bc cd d3 1c bd 8a bc ef bc 65 57 53 3b
       -0.021085335 -0.038287926 -0.029264707 0.0032248136
0001f0 90 86 9b 3c e2 08 78 bc 52 da 19 bd ec 4e 2d bb
       0.018985063 -0.015138837 -0.037561722 -0.0026444746

network_body._body_endoder.seq_layers.2.weight f4 [128, 128]
000000 b7 04 75 3d 17 a5 cc 3d ed 64 44 3d e0 52 aa 3c
       0.05981895 0.09992426 0.047947813 0.020791471
000010 0c 99 df bc 6f 55 8b 3d 32 bf c2 bd 96 33 e8 bd
       -0.027294658 0.068034045 -0.09509124 -0.11337964
000020 23 aa 87 3d 40 cb 39 3e 2a 91 04 bd d1 65 7e bd
       0.06624248 0.1814394 -0.032365 -0.06210882
000030 1c a8 8c bb fd 58 c3 bd 74 c6 a5 3c 41 92 0d 3e
       -0.004292501 -0.095384575 0.020236231 0.13825323
000040 48 f4 1a 3e 73 24 14 3d d7 26 60 bd e9 ad f1 3d
       0.15132248 0.036167573 -0.05472454 0.11800749
000050 56 be 77 bd e7 66 bd 3d d5 e9 b3 bd e1 d5 19 bd
       -0.060484253 0.09248143 -0.08784834 -0.037557486
000060 5f 1a 0e be f4 63 53 3d 6d c5 48 bd 07 04 23 3e
       -0.13877247 0.051608995 -0.049016405 0.15919505
000070 49 18 bd bd 1c b1 90 bd 71 f6 17 3e 90 bd 9a bd
       -0.09233148 -0.07065031 0.14840104 -0.075556874
000080 62 e0 3e be 46 ce cc 3d 35 e4 56 bd 90 92 22 3e
       -0.18640283 0.10000281 -0.05246373 0.15876222
000090 e8 d3 af bd cb 45 0d bd e4 fc 04 be e0 c8 2f be
       -0.0858534 -0.034490388 -0.12987095 -0.17166471
0000a0 74 29 b1 bd 7c 6c 83 3d 3e 70 b0 3d 95 e9 53 3e
       -0.08650485 0.06417176 0.086151585 0.20694573
0000b0 53 f2 74 3d 36 19 31 bd f9 4a a7 bd 56 a3 10 be
       0.05980141 -0.043236934 -0.08168597 -0.14124808
0000c0 34 b2 8f 3d d6 86 90 3d e4 63 f1 bc 13 fe 9d bc
       0.070164114 0.07056968 -0.029466577 -0.019286191
0000d0 1e 56 26 bd 38 35 1c bd 97 92 a7 3d df f2 1b bd
       -0.04060947 -0.03813669 0.08182257 -0.038073417
0000e0 ed 32 10 3e 35 f7 94 3b e1 c9 b3 bd 5e 80 1f 3e
       0.14081927 0.004546071 -0.0877874 0.15576312
0000f0 42 0d 98 3e c6 30 be 3c bd c2 2d 3d 9e e4 7c bd
       0.29697615 0.023216616 0.042422045 -0.061741464
000100 16 23 c9 bc 84 6d f9 bd e9 16 97 3d c0 34 2b 3d
       -0.024552863 -0.121790916 0.07377417 0.041798353
000110 58 9a 0d 3e 8b 99 e9 bd 90 13 2a 3e ba f9 3e bd
       0.13828409 -0.11406239 0.16609025 -0.046624877
000120 b4 26 6e bd 9b 0a 44 3e bf 42 e8 3c fd 91 83 be
       -0.05814238 0.1914467 0.02835214 -0.25697318
000130 0b fe de bd 96 b5 15 be bf a5 58 bc 06 5d 55 be
       -0.108882986 -0.14620051 -0.013223111 -0.20836267
000140 26 78 d0 3c 52 43 06 3e 43 b5 4c 3c d6 dc 18 be
       0.025447916 0.13111618 0.012494388 -0.14927992
000150 df cc b3 3d ba c5 91 3d 32 22 41 3d 6b 60 39 3e
       0.087793104 0.071177915 0.04715175 0.18103187
000160 8e 5c ec 3d 1b 89 50 bd a1 62 f3 3b 7d 55 97 3d
       0.11541091 -0.050912004 0.007427529 0.073893525
000170 ee e8 f2 3c e4 7a ff 3b 47 ba 0e bd 9c 2e 19 3d
       0.029652085 0.007796632 -0.034845617 0.037397966
000180 f8 aa 08 3b 71 2f fa 3b a0 e8 72 bd 13 32 b8 bd
       0.0020853858 0.00763505 -0.05930388 -0.08993926
000190 75 6c 4b be d4 3f a0 bb 62 07 cc 3d 39 c3 1a 3d
       -0.19865592 -0.0048904214 0.09962346 0.037783835
0001a0 c4 f8 5b 3d 5b 33 8d 3d f4 ac ea bd 6c a4 ee bc
       0.05370404 0.06894561 -0.114587694 -0.029131137
0001b0 8c 92 5e 3d 00 98 d4 bd a5 b1 a0 3d 6b 9d 25 3d
       0.054338977 -0.10380554 0.07846383 0.04043333
0001c0 c7 8a b1 3d aa 95 c3 bd 18 ba dd 3b 2e f5 11 bd
       0.08669048 -0.095500305 0.006766569 -0.035634212
0001d0 d7 ae dc bc 66 ad 90 bd 82 84 9a bd 59 d7 05 be
       -0.026938839 -0.07064323 -0.07544805 -0.1307043
0001e0 04 db a2 3d 27 dc d2 3d 58 f3 1a 3e aa 54 56 bc
       0.0795193 0.10295897 0.15131891 -0.013081709
0001f0 9c 92 53 be a8 fa 8f bd ea 52 77 bd 76 6d e9 3c
       -0.20661396 -0.07030231 -0.060381807 0.028494578
000200 0c 9b c6 3d b6 a5 14 bb 2a 4f 30 3e c2 20 60 bc
       0.096975416 -0.002268178 0.17217699 -0.013679685
000210 73 a8 16 bc 2f 90 99 bd d8 ad 52 3d d1 06 bf bd
       -0.009195435 -0.07498204 0.05143532 -0.09327472
000220 f7 6d b8 bd e8 e4 c2 bd 88 0b 27 be 1d 1a 1a 3d
       -0.09005349 -0.09516317 -0.16312993 0.03762256
000230 60 d9 44 3d 59 01 b7 3c 58 8e b7 3c 6f b4 80 3c
       0.048058867 0.02233951 0.022406742 0.015711037
000240 b4 98 27 bd 92 4a 8c 3d 2d e8 32 bd cd 3e 84 bd
       -0.040917113 0.06850161 -0.04367845 -0.06457291
000250 b2 1e e7 bd d1 55 8c bb 63 0f 88 3d 22 4c ab bd
       -0.112851515 -0.004282691 0.0664356 -0.083641306
000260 35 62 06 be a6 44 57 3d ab fb a2 bd 46 4a 99 bd
       -0.131234 0.052555703 -0.07958158 -0.0748487
000270 72 01 db 3c 31 2a 4d bd 41 83 32 bd e1 80 8b bd
       0.026734088 -0.050089065 -0.043582205 -0.06811691
000280 87 00 88 bd a7 a8 03 3c cb bf 63 3d ae 4a d1 bb
       -0.066407256 0.008035815 0.05560283 -0.0063870763
000290 9f 4a e0 3d ef 15 4a bd 25 80 2d 3d c6 9d d1 3d
       0.10951733 -0.049337324 0.042358536 0.10235171
0002a0 19 41 b2 3c e6 f3 88 3d 1e 0b d9 bd d5 bc 10 be
       0.021759557 0.06687145 -0.105978236 -0.14134534
0002b0 9d ea 7b bd 6c a3 19 ba 6c e2 d5 bb c1 de bb bd
       -0.06150304 -0.00058608386 -0.0065272357 -0.09173346
0002c0 d4 46 a5 39 4c e9 02 3e a9 c0 8d 3d 38 1e 9f 3d
       0.00031524024 0.12784308 0.06921513 0.07769436
0002d0 32 e3 2e 3d 51 6b 9a 3d a7 51 bc 3d 3b 91 69 be
       0.04269714 0.0754 0.091952614 -0.22809307
0002e0 4e ae 28 bd 33 a3 7c bd ef 28 c7 bc e7 c8 d6 3d
       -0.041181855 -0.061679076 -0.02431151 0.10487538
0002f0 64 18 6a 3d e7 fd cf bd 57 1a 0f 3e b1 09 2a 3d
       0.057152167 -0.1015585 0.13974892 0.04151315
000300 79 f8 0c bd c9 63 04 3d e7 d3 ed bd d4 75 89 3c
       -0.03441665 0.032321725 -0.11612683 0.016779818
000310 1b 52 5b 3d 6e 52 0b be 53 55 78 3c 3e a3 9e 3d
       0.0535451 -0.13605663 0.015157062 0.0774598
000320 ee 97 af bb 17 62 d3 3b 53 04 3c bc 2f ca a0 bc
       -0.0053586876 0.006450902 -0.01147564 -0.019627659
000330 18 8d c5 3d f7 62 33 3d 31 b7 12 bc 95 df 3a 3c
       0.09646052 0.043795552 -0.008954809 0.011405845
000340 43 df a2 ba 1e 31 62 bd ed 92 fb 3c d1 ed 2c 3e
       -0.0012426156 -0.055222623 0.030709708 0.16887595
000350 82 cb 29 3e 1f c6 f3 b8 f1 61 b5 3c a5 1d 12 3d
       0.16581538 -0.00011624046 0.022141429 0.035672802
000360 cf be 16 3e e5 3c 0e 3e 47 a3 35 bc b8 05 e5 bc
       0.14721225 0.13890417 -0.011086292 -0.027956828
000370 13 18 ed bd 8e 47 d2 3d 6a 0a cc 3d 46 97 7e 3c
       -0.115768574 0.10267554 0.09962924 0.015538996
000380 85 1e bb bd 05 bc df 3d e7 88 4a 3e 02 c9 49 bd
       -0.091366805 0.10924534 0.19778787 -0.04926396
000390 bd 31 59 3d 75 39 bb bb a8 69 d7 bd 43 37 a5 3c
       0.05302595 -0.0057136365 -0.10518199 0.020167952
0003a0 a9 d1 6c 3d 75 5e 99 bd 57 65 bf bd 01 48 9c bd
       0.057817135 -0.074887194 -0.09345501 -0.07630921
0003b0 00 21 14 3c b8 c3 ed bd 49 fa 22 bc 9e c1 3f be
       0.009041071 -0.11609596 -0.009947368 -0.18726203
0003c0 93 84 a6 bc d1 99 d7 bb ca f1 05 bd e9 d7 be bc
       -0.020326888 -0.0065796156 -0.03270129 -0.023296313
0003d0 6e 4b 23 be cd f7 e1 bc 9b bc d2 3c 5b 00 69 3d
       -0.15946743 -0.027583981 0.0257247 0.056885105
0003e0 65 58 36 3b 35 bc 7e bc 4e 04 31 3d c2 d6 69 3d
       0.0027823683 -0.015547802 0.043216996 0.057089575
0003f0 90 c0 4c bd 5c 6c 24 3e fb 2c a1 bc a4 a4 2f 3d
       -0.04998833 0.16056961 -0.019674769 0.042881623

network_body._body_endoder.seq_layers.2.bias f4 [128]
000000 a2 5f 47 3b 13 8f 4c bb 51 30 ff 39 9c 60 c2 bc
       0.0030421992 -0.0031213209 0.0004867339 -0.023727708
000010 89 a9 ad bc ea e0 a6 bc 50 29 0c bc 9e 18 d3 3b
       -0.021199005 -0.02037092 -0.008554772 0.0064421436
000020 4d 76 78 3c 85 d0 d4 bc 24 09 ca bb d3 c1 10 bc
       0.015164924 -0.025978336 -0.0061656404 -0.008835274
000030 14 26 99 bc 90 e5 72 bc d3 f5 a8 bc 1d 32 23 bd
       -0.018694915 -0.01482524 -0.02062503 -0.039842714
000040 5c 6b 32 bc 44 0a f6 3b ef 6c 3f bc 94 f6 9b bc
       -0.010889854 0.007508548 -0.011683687 -0.019038476
000050 2d 2f fa bb 86 cf ad bc 0c 20 ae 3c ef 47 64 3c
       -0.0076350183 -0.021217119 0.021255516 0.013933166
000060 98 f0 10 ba 27 2f c8 bc 83 84 a3 bb 45 3f 90 39
       -0.00055290153 -0.024436546 -0.004990162 0.0002751296
000070 9e 4b 35 3b 4e bf da bc 2b 40 a4 bc e5 b8 85 3a
       0.002766348 -0.02670255 -0.020050129 0.0010202198
000080 67 b8 8a bc c4 e1 a9 bb 2e 97 be bb 50 60 87 3b
       -0.016933633 -0.005184384 -0.005816362 0.0041313544
000090 60 54 20 bd bf f3 9d bc cb 40 9c bc 14 d1 86 bc
       -0.039142966 -0.019281266 -0.019073864 -0.016457118
0000a0 e8 d6 ee bc 2b 12 14 3b 9b 99 32 3b e2 da 39 bc
       -0.02915521 0.0022593837 0.00272522 -0.01134369
0000b0 6d 96 94 bb 1b 07 9a 3c 98 02 74 bb 82 6a 7a 39
       -0.0045345337 0.018802216 -0.0037232991 0.00023881535
0000c0 c4 1a e6 bc b1 dd 12 3b 7c 91 d2 ba ee 43 cb 3b
       -0.028088935 0.002240997 -0.0016065086 0.006203166
0000d0 33 7f 71 bc 3c 6c e0 bc a4 66 d8 3c 57 3b c4 bc
       -0.014739799 -0.02739536 0.02641613 -0.023954077
0000e0 1f e0 d8 bc 2b 72 4f bc ce e6 30 bc ee a1 82 bb
       -0.026474057 -0.012661497 -0.010797216 -0.0039865887
0000f0 80 cd 3e bc 45 0d b0 bc 6f b4 74 3b ee 35 3a bc
       -0.011645675 -0.021490702 0.0037338992 -0.011365397
000100 f8 77 89 bc a7 21 78 bc d9 f4 01 bd 7c ec 8c 3a
       -0.016780838 -0.015144742 -0.031727646 0.001075163
000110 86 09 b5 bc 92 2b b8 3b 25 db e9 bc 57 f0 2e bc
       -0.022099268 0.0056204284 -0.028546879 -0.010677419
000120 9f f6 a3 bc 59 72 c4 bc 25 0b 96 bc cb 8f d7 3a
       -0.020015059 -0.023980306 -0.018315861 0.0016446052
000130 62 4f 3b 3c db 55 e6 bc a3 36 d9 bc 10 4e c8 bc
       0.011432501 -0.028117111 -0.02651531 -0.024451286
000140 60 4f 37 3b 70 e5 19 bc 75 f1 ab bc 05 21 9e bb
       0.0027970895 -0.009393081 -0.02098916 -0.0048257136
000150 a6 30 5b bc 01 1f 9d 3c b7 c1 9c 3a d6 e7 31 3c
       -0.013378298 0.019179823 0.0011959587 0.010858497
000160 05 7c ee 3b a0 17 d5 bc 2d 08 df bc 7f 68 f6 ba
       0.007277968 -0.026012242 -0.027225578 -0.0018799453
000170 8a d9 ad bc e1 20 36 bb b4 85 29 3c df 7e 22 bb
       -0.021221895 -0.0027790593 0.010346819 -0.002479486
000180 1d 8e 66 bc 8d c3 a2 3b f4 a4 a6 3a c1 de 4c 3c
       -0.014071968 0.004967159 0.0012713955 0.012504281
000190 7e d2 30 bc 3b 9f 36 3c 25 28 8f 3b 19 7a 5a bb
       -0.010792373 0.011146362 0.0043687993 -0.0033336936
0001a0 34 f4 1f ba 5e 40 e6 bc 8c 00 88 bc bd 45 47 3c
       -0.0006101758 -0.028106865 -0.016601823 0.012162623
0001b0 9a 07 93 bb d9 c8 36 bd b2 dc 67 bc 04 ad 48 bb
       -0.00448699 -0.044625137 -0.014151739 -0.0030620703
0001c0 24 f9 89 bc 6b d8 d1 bc cb 47 9d bc b1 9f 8d 3b
       -0.016842432 -0.025615891 -0.019199273 0.004322015
0001d0 6a 8e fd bc d1 17 1c bc 31 60 a0 3c df d3 dd bc
       -0.030951697 -0.009527163 0.019577118 -0.027078567
0001e0 72 8d 12 bc 23 e1 9d bc 0a f7 d9 bc ce b2 13 bc
       -0.008944856 -0.019272393 -0.026607055 -0.009014798
0001f0 9c bb 0e bc 27 ff 07 3c f1 6c 3c bc 34 42 41 bc
       -0.008711722 0.008300579 -0.011500583 -0.011795569

action_model._continuous_distribution.log_sigma f4 [1, 2]
000000 21 d9 a8 3c b6 7d 18 3c
       0.020611348 0.009307316

action_model._continuous_distribution.mu.weight f4 [2, 128]
000000 02 ab 24 bb 3e 40 35 bb 00 a3 1e bc c5 a0 8c bb
       -0.0025126343 -0.00276567 -0.009682417 -0.004291626
000010 54 b7 d7 3c ae 5c 86 3c ec 8a e0 3c 9c 5c 26 bc
       0.026332535 0.016401615 0.027409993 -0.010153916
000020 43 7c c1 b9 cd de 88 3b 29 e3 52 3c 92 2c 89 3c
       -0.0003690441 0.0041769505 0.012871542 0.016744886
000030 dc c4 83 bb ae 7b 83 3b 0f 3e a5 3b 9c c4 2d 3d
       -0.00402127 0.0040125465 0.0050427984 0.04242383
000040 fe 5a f2 3a 78 1c 2a bc 29 fb c9 3a 90 81 32 3c
       0.0018490253 -0.010382764 0.0015409935 0.010895148
000050 43 8b a2 bb 3b ad 04 3d 7d 17 e7 bc 72 e1 7a ba
       -0.004960449 0.032391768 -0.028209442 -0.0009570337
000060 fc 5e 69 bc 99 77 9b 3b 98 d4 12 3a fe 4a 4f bc
       -0.014243837 0.0047444818 0.0005601137 -0.012652157
000070 32 a7 9a bc d2 f6 15 3c 4e bb 30 3c 32 08 07 bc
       -0.018878553 0.009153085 0.010786844 -0.0082417
000080 50 d1 36 3c 4f 20 8e bc 3e 70 67 3c e6 1a a3 bc
       0.011158302 -0.01734939 0.014125882 -0.019910287
000090 76 09 a0 3c 37 32 2e 3d 8f ac 14 3d 49 ab 16 3a
       0.019535761 0.042528357 0.036297377 0.00057475694
0000a0 50 7e 06 3c 48 90 61 bc 8f b5 e5 bb 76 83 96 3c
       0.008208826 -0.0137673095 -0.007010169 0.018373232
0000b0 3f 7b 37 bd 17 73 b8 bb 14 28 ca 3b eb 3e fc 3a
       -0.04479527 -0.005628954 0.0061693285 0.0019244825
0000c0 ba 24 e1 3c e8 e5 1e bc cb 0d fa bb 4b 9b 94 3b
       0.027483333 -0.009698369 -0.007631039 0.004535114
0000d0 ac 68 3b bb 97 67 b3 3c 44 1c e3 bc 5a 8a 0a 3c
       -0.0028596325 0.021899981 -0.027723439 0.008455837
0000e0 76 4a 1d 3c eb 97 d6 3b d3 4b 48 3b f3 c5 70 3b
       0.009600272 0.0065488718 0.0030562773 0.003673908
0000f0 41 a1 62 bb fa 1d dc 3b 08 3c 7d bc af 77 93 3c
       -0.0034580978 0.0067174407 -0.015456207 0.018001406
000100 81 d3 af 3b 81 d1 4a 3b 65 d2 33 3c 2a b0 04 ba
       0.0053657894 0.0030947628 0.010975455 -0.0005061651
000110 13 1f 9b 3c f5 cf bc bc 61 c2 df 3c a6 88 24 3a
       0.018935716 -0.02304838 0.027314367 0.0006276466
000120 36 c1 fe 39 41 4e 32 3c 1d e9 0b bb f1 ff 5d bc
       0.0004859061 0.010882915 -0.0021348663 -0.013549791
000130 60 e8 b9 bc 48 d6 b6 3c 2d 2a 82 3c ea b3 a5 3c
       -0.022693813 0.022318974 0.015889252 0.020227391
000140 60 bb aa bc 1e 2e 23 3b f7 3a f3 3c 10 cf ee 3c
       -0.0208413 0.0024899314 0.029691203 0.02915147
000150 26 3b db b9 51 b1 23 bd 5f 92 cc bc b2 f8 56 bc
       -0.00041815004 -0.039964024 -0.024972139 -0.013120817
000160 e9 fc 56 bc b4 ff 85 3c a6 55 f7 b9 55 6f 0b 38
       -0.013121822 0.01635728 -0.00047175324 3.324387e-05
000170 80 1c 48 3b 54 f3 0e bc e6 00 23 bc 76 4c 1a 3c
       0.0030534565 -0.008725006 -0.009948945 0.009417644
000180 fa eb 86 ba cb 79 92 bb 0b d8 15 bc 11 e5 c3 bc
       -0.0010293715 -0.0044700853 -0.009145747 -0.023912938
000190 16 18 d6 3b 79 7f 0e bc 77 a2 ec 3b 7e 93 d7 3b
       0.006533633 -0.008697384 0.0072215158 0.0065788617
0001a0 a6 a3 5d b8 d3 77 8e 3c f5 a4 c6 bb 21 12 24 bc
       -5.2842915e-05 0.017391121 -0.006062145 -0.010014088
0001b0 af 83 1f bc f4 49 4c ba f1 54 69 ba 56 d7 83 bc
       -0.009735986 -0.00077930023 -0.0008900902 -0.016093891
0001c0 0e d7 07 3d 13 76 18 3c 6d 8e 54 bb 2e 2e 60 bc
       0.033164077 0.009305495 -0.0032433525 -0.013682885
0001d0 b4 85 bf 3c e1 50 d0 bb 11 85 8f bb ca 18 19 ba
       0.023379184 -0.0063572978 -0.0043798764 -0.00058401807
0001e0 d2 ad c6 3c 86 50 db 3b d8 03 a2 3a 32 10 c8 bb
       0.024252806 0.0066929488 0.0012360765 -0.0061054463
0001f0 f0 fb 20 3c f9 19 80 bc 2e bc fd ba c3 2e e7 3b
       0.009825692 -0.015637385 -0.001935845 0.007055135
000200 e8 8b 01 3d 7c 76 ef 3b 53 1b 87 ba bf 14 a6 bb
       0.031627566 0.0073078256 -0.0010307826 -0.005068391
000210 57 7c 2e b9 72 fd 56 bc 14 f3 b1 3c a0 e0 d8 3c
       -0.00016640253 -0.0131219495 0.021722354 0.026474297
000220 5d 63 9c 3b ce 6e cf bb 1c f9 e4 bb cf 4e a9 3c
       0.004772587 -0.0063303476 -0.006987704 0.020667462
000230 2f b7 5b 3b ab fa 23 bc 4b 27 f2 bc da f2 ce bc
       0.0033525934 -0.010008494 -0.029559752 -0.025262285
000240 4a db 34 3a 8d 0e 0b bc 12 1c 01 3c 89 f8 fc 3b
       0.00068991317 -0.008487356 0.007880228 0.0077200574
000250 12 ef 38 3b ea 99 90 bc b5 eb ce 3c 0a df 0e 3d
       0.002821867 -0.017651517 0.025258878 0.034880675
000260 b7 f8 71 39 de e4 fa 3a 64 28 3c bb 35 8a dc b9
       0.00023076205 0.0019141694 -0.0028710598 -0.00042064642
000270 26 43 9d bb de eb 52 bc d9 f7 44 bc 45 54 05 3c
       -0.0047992645 -0.012873618 -0.012021982 0.008137767
000280 46 c9 da 3b d1 cf a9 38 94 4d fd 3c 1f 4e 37 bc
       0.0066768257 8.097257e-05 0.030920781 -0.011188059
000290 94 fb 80 bc ee b8 60 ba d0 37 83 3b d7 0e 30 bb
       -0.015744962 -0.00085724785 0.004004456 -0.0026864314
0002a0 98 df 59 bc fa 55 cf bb 06 66 02 3c 14 f0 bb 3c
       -0.013297938 -0.006327388 0.007958895 0.022941627
0002b0 dd a0 fc bc fc a0 ec 3b 5e 5f 80 bb 9c 2b c5 3b
       -0.030838424 0.0072213393 -0.0039176187 0.0060171615
0002c0 ff 00 05 3c a3 9d 23 3c 9b 75 13 3b fb 1d fb 3a
       0.008117913 0.009986314 0.0022500518 0.0019158715
0002d0 20 03 b8 3b bc 3c 72 bc c4 26 61 3c b6 4b ba 3b
       0.005615607 -0.014784988 0.013742153 0.005685295
0002e0 9c 0c 0b bc 94 dd 1a 39 da 3a 82 3b 48 49 9c 3b
       -0.008486893 0.00014769129 0.003974301 0.004769478
0002f0 3d dc 05 bd d6 9e 8b 3a db 9c f0 3b a3 ea b2 3c
       -0.03268074 0.0010652195 0.0073429174 0.0218404
000300 b9 f9 10 3b 9b c9 8b 3c e1 5f 8b ba 1a 43 2a bb
       0.0022121503 0.017063906 -0.0010633433 -0.0025979937
000310 f4 72 c3 bc 5c b7 58 bb 8a 0e d7 39 c0 1c f1 3b
       -0.023858525 -0.0033068275 0.00041018828 0.0073581636
000320 f1 07 59 bc 37 8b b9 3a e3 ed 06 bc 7d 07 7b bb
       -0.013246522 0.0014155869 -0.008235428 -0.0038304024
000330 5e 1f 2f 3c 3d 48 f9 ba 14 1f 8e bb c8 82 1c bc
       0.010688631 -0.0019018721 -0.004337201 -0.009552665
000340 10 27 ab bb fe 20 a7 bb 4d 4d fb 3a 04 48 9e 3c
       -0.0052231625 -0.0051003685 0.0019172818 0.01932145
000350 03 42 b0 3b 09 b1 94 3c af 18 60 bc b7 b7 b6 3b
       0.005378963 0.018150823 -0.01367776 0.0055760997
000360 f0 bf 2c 3c 81 43 18 bc 1c df dd ba 18 e0 06 bc
       0.010543808 -0.009293438 -0.0016927454 -0.008232139
000370 11 09 8b bc 7a 16 68 3b 23 32 d5 3c 9f 59 8d 3c
       -0.016972097 0.0035413788 0.026024884 0.017254649
000380 da b5 95 bb c7 66 aa 3c 06 3d a9 ba 86 d4 80 3c
       -0.0045687975 0.020800961 -0.0012911863 0.01572634
000390 ca fb df b6 a6 03 17 3c ce 75 80 bb 62 87 4c bc
       -6.67523e-06 0.009217178 -0.0039202934 -0.01248345
0003a0 a3 5d a9 3b fd 6f 8f bc e4 b2 b1 bc ac 5c 0b 3c
       0.005168633 -0.017509455 -0.021691747 0.008505981
0003b0 a7 21 dc ba af 8d 95 bb 0e 5c 8c ba 8b 8f 20 3a
       -0.0016794697 -0.004564009 -0.0010708587 0.0006124905
0003c0 d5 e6 31 3c 28 b8 3b 3c 38 4f 00 3b 7e 74 1a 3c
       0.010858257 0.0114574805 0.0019578468 0.009427188
0003d0 cc d5 1c bc 0e 87 a9 bb 23 e9 95 3b 1e 70 64 3a
       -0.0095724575 -0.0051735705 0.004574911 0.00087142165
0003e0 80 e5 df 3c ad 27 fb 3b 03 7e 06 bc 26 09 eb bb
       0.027331114 0.007664642 -0.0082087545 -0.0071727214
0003f0 39 e6 3a 3c bd 3a 84 ba bd 41 b3 3a 08 54 0a 3c
       0.011407428 -0.0010088306 0.0013676208 0.008442886

action_model._continuous_distribution.mu.bias f4 [2]
000000 a5 c0 8a bc 30 b0 37 3c
       -0.016937563 0.01121144

onnx::Div_51 f4 [8]
000000 50 c7 17 3f c6 65 06 3e 46 0f 15 40 5e 82 7a 3d
       0.592885 0.13124761 2.3290572 0.061159484
000010 58 b9 5f 3b 7c 1b 48 3b 98 45 ce 3e f4 f4 2f 3f
       0.0034137573 0.003053396 0.4028747 0.68733144
