BasicAvoidance/Assets/results/BasicAvoidance1/PlayerAvoidance.onnx (onnx, 74465 bytes, 8 tensors)

network_body.observation_encoder.processors.0.normalizer.running_mean f4 [6]
000000 9e 99 78 bf 5e fd ff 3e 00 00 00 00 ff f1 7e 3c
       -0.971094 0.4999799 0.0 0.015560626
000010 3e f1 02 3f 30 e5 71 40
       0.51149356 3.7796135

network_body._body_endoder.seq_layers.0.weight f4 [128, 6]
000000 0a 0d 0d bf f8 8a d0 3d 71 b3 c5 be 76 48 f0 3e
       -0.5509802 0.10182756 -0.38613465 0.46930283
000010 68 19 92 be e9 f9 1b 3f 20 18 1a 3f 48 97 32 bf
       -0.28535008 0.6092821 0.6019306 -0.69762087
000020 0c 64 59 3f 56 a0 09 3e ca 85 25 3f 6b dd 25 3e
       0.84918284 0.1344007 0.6465727 0.16197746
000030 41 14 04 bf 2c 05 cb 3e 94 b7 05 3f 88 7c 22 bf
       -0.51593405 0.39652383 0.52233243 -0.6347127
000040 87 91 3d be d7 f8 15 3f df 4b e1 bd ba f1 a1 be
       -0.18512546 0.58582824 -0.110007994 -0.31629735
000050 6e 0b 6e bf 47 a8 34 3e 00 4d 76 3b 78 c1 2e bf
       -0.9298619 0.17642318 0.0037582517 -0.6826396
000060 db 76 91 be f5 e4 08 3f 89 51 54 bf 2d d4 68 bd
       -0.28410992 0.5347436 -0.8293691 -0.05684297
000070 13 4d ee bc c8 34 a9 3e 4c e8 37 be e8 d3 87 3e
       -0.029089486 0.3304808 -0.17959708 0.2652886
000080 4a c9 73 bc dc 97 14 bf 26 90 9a 3f 50 a8 c0 bc
       -0.014879534 -0.5804422 1.2075241 -0.023517758
000090 35 58 61 be e3 7b 30 3d 0e 19 fc bd cc ca 08 bf
       -0.22006305 0.043086898 -0.12309466 -0.53434443
0000a0 9e 9a 3f 3e 05 9d de 3e 76 55 ac be 68 82 9f bd
       0.18711326 0.4347917 -0.33658952 -0.07788545
0000b0 ae 70 16 bf fa 0a 36 bf 89 9f 9f be 08 a9 2a 3e
       -0.58765686 -0.711105 -0.31176403 0.16666043
0000c0 1b 10 74 bd 75 ec 3c 3e e7 f8 02 3f e7 f3 d0 be
       -0.059585672 0.18449576 0.51161045 -0.40811083
0000d0 ef f1 df be 72 44 36 bf b9 ee e6 3c 4c 0e 9f 3e
       -0.43739268 -0.7119819 0.028190004 0.31065595
0000e0 1f 68 5e 3e 69 4e 97 be 5a d5 4f bf 13 2a 7c bd
       0.21719407 -0.2955201 -0.81184924 -0.061563563
0000f0 a2 5b 70 be 25 d5 e1 3e f0 2b 33 be 1c d0 1a be
       -0.23472455 0.4410793 -0.1749723 -0.1511845
000100 61 9b 03 bf 17 af 67 3e dd d4 1c 3f f1 da 78 be
       -0.51408964 0.22625385 0.61262304 -0.2430227
000110 c8 e1 3d be fb 9d c8 be 1e 24 28 bf f1 e9 21 bf
       -0.1854316 -0.3918303 -0.6568011 -0.6324759
000120 81 0b 5b bd bf 50 fb 3e 61 2e 95 3e 16 ea 9f bd
       -0.053477768 0.49085042 0.29136947 -0.0780832
000130 65 8a 56 3e 56 ec 95 be 5c 5a 35 3e cb d2 5c be
       0.20951231 -0.29281873 0.1771025 -0.21564786
000140 f8 68 1c 3e 26 e6 b3 3e 5f 33 84 3e 93 f0 ab 3e
       0.15274417 0.35136527 0.25820443 0.3358198
000150 25 b3 15 3f 22 9e cd be 31 95 ce 3c bc d6 ba be
       0.5847648 -0.40159708 0.025217624 -0.36491954
000160 b0 f4 02 3f 94 68 b0 3d 63 f5 12 bf 4a 32 3b be
       0.51154613 0.08613697 -0.5740568 -0.18280903
000170 3f 70 d5 be 64 da 05 be f0 45 00 3d d5 57 f8 bd
       -0.416872 -0.1307159 0.031316698 -0.12126128
000180 07 ba 81 be d0 7c a7 be c6 26 c9 3e a9 c2 08 bf
       -0.2533724 -0.32712412 0.39287394 -0.5342203
000190 59 65 a1 3e 10 06 bf 3e 7f 1f 13 3e 04 16 2d 3e
       0.31522635 0.37309313 0.14367484 0.1690293
0001a0 a2 ec d1 3e 20 c1 b4 bb 6b c8 a5 3e 01 4a f3 be
       0.4100085 -0.0055161864 0.3237947 -0.47517398
0001b0 df 93 ed bd 3d 13 37 3e 8d 87 06 be 89 95 80 3d
       -0.1160047 0.17878433 -0.13137646 0.062785216
0001c0 f5 5a 4d be fd c5 95 3e 40 20 7e bf 91 27 f2 bd
       -0.20054229 0.29252616 -0.9926796 -0.11823953
0001d0 f8 2d 0c bf 22 62 27 3f 01 fd d7 be 57 25 b3 3e
       -0.5475764 0.65384114 -0.42185214 0.34989426
0001e0 d8 84 77 3e ba 01 2e 3e 9c e1 ed bd 3a dc 57 be
       0.2417177 0.16992846 -0.11615297 -0.21080104
0001f0 25 43 f8 bd 0f b5 ac be 26 bd 15 bf 9f ef 41 3f
       -0.12122182 -0.33731887 -0.5849174 0.7575626
000200 b5 02 44 3e 5c cf ef be 56 41 7f bf 11 bb da be
       0.19141658 -0.4683789 -0.9970907 -0.42720845
000210 e4 5f 42 3f ff e7 de bd 8c b5 21 3f f2 b5 0a bf
       0.7592757 -0.108840935 0.63167644 -0.54183877
000220 7c 70 24 3f 32 02 73 3f be 20 13 bf 5c 61 27 bd
       0.6423414 0.94925225 -0.57471836 -0.040864334
000230 f9 68 0e bd 21 ff 86 be f9 da 1e bf ed 21 43 3e
       -0.03476808 -0.26366523 -0.62052876 0.1905591
000240 69 fc 10 bd 7f 61 9a be fb 4a c3 3e f9 ad 00 bf
       -0.035396967 -0.3015251 0.38143143 -0.5026546
000250 0d a1 cb be 08 31 c0 be 8c 73 80 bf 71 3c db be
       -0.3977131 -0.37537408 -1.0035262 -0.4281955
000260 2a 98 dd bd e5 e5 5c 3e f7 fa 29 3f 59 dc 3b 3f
       -0.108200386 0.21572073 0.66398567 0.733831
000270 23 57 3a bf 38 51 4d 3d ef 35 7d bd 60 18 70 bf
       -0.7278921 0.050126284 -0.061819013 -0.93787193
000280 c4 0f 4d 3e 31 8d fb be 3f 55 31 3d 17 2e 76 3e
       0.20025545 -0.49131158 0.043294188 0.2404102
000290 3d d6 7e 3d 10 85 23 be 8b 19 56 bf f2 52 f5 3e
       0.062216032 -0.15968728 -0.83632725 0.47914845
0002a0 03 72 93 bc b0 de b6 be fa db b4 bd bf 00 9d 3e
       -0.017998701 -0.35716772 -0.0883102 0.30664632
0002b0 0e 70 93 3e dc bd ac bd 16 e0 8b 3e a2 fa 43 3e
       0.28796428 -0.0843465 0.27319402 0.19138578
0002c0 78 d8 c7 3d f9 7d 07 be e3 b8 b6 3e f9 a2 ae be
       0.09758085 -0.13231649 0.35687932 -0.34108713
0002d0 55 72 59 bd 2b 4a 2f 3c e1 74 7e be 6f cb e6 3e
       -0.05308755 0.010698835 -0.24849273 0.45077083
0002e0 b6 66 d6 3d 03 9d 13 3f 8e b3 1f 3f 8a dd a9 be
       0.10468809 0.57661456 0.62383354 -0.33176833
0002f0 5b 88 fb bd 3e 7a 98 be e6 41 1a bf 7d cf 2c bf
       -0.12281867 -0.29780763 -0.60256803 -0.675041
000300 27 c5 2c bf 10 4f 50 3e ad f6 59 3d 52 5e 45 3f
       -0.6748833 0.2034266 0.053213764 0.77097046
000310 e1 04 31 3d bf 07 83 3e 23 7c 6b be 6f c0 f5 3d
       0.043217544 0.25591847 -0.22996573 0.119995944
000320 1c f0 58 bf c1 72 6e bd 64 c2 62 3f 14 0e 72 be
       -0.8474138 -0.058214907 0.88577867 -0.23638183
000330 db c7 d8 3e f3 fb 35 3f c3 90 8c 3f 38 a1 06 3e
       0.42339978 0.7108757 1.0981678 0.13147438
000340 0b 36 16 bf 69 93 b9 be b1 6e 96 3e 5b c4 03 3f
       -0.58676213 -0.36245278 0.29381326 0.5147149
000350 a1 40 0e 3f 67 64 0a bf 4d 70 e6 be 84 c9 73 be
       0.55567366 -0.5405945 -0.45007554 -0.23807341
000360 43 5d 3f 3e 59 33 9a 3e 67 af ea bd 4b 57 56 3e
       0.1868792 0.301173 -0.114592366 0.20931737
000370 72 80 fc bd af 06 dd 3e f9 c0 e6 3e be be 0c 3f
       -0.123291865 0.43169162 0.450691 0.5497855
000380 60 52 73 3f 31 65 db 3e d1 98 c6 3e 51 82 c5 3e
       0.9504757 0.4285064 0.38788465 0.38575986
000390 c4 38 4b 3f 92 4f 9e 3e 01 27 99 be b2 66 1d 3e
       0.7938349 0.30920082 -0.2991257 0.15371206
0003a0 f9 1d 11 3f eb d9 1a be 81 d6 65 3e 9b 5c 00 3f
       0.5668636 -0.15122192 0.22445108 0.50141305
0003b0 f1 fc 0e bf aa ef aa bd 58 d7 26 3e 49 67 24 3e
       -0.5585471 -0.083464935 0.16293085 0.16055025
0003c0 23 b1 c0 be 92 ca 4a 3e 6e 71 ff 3e 34 df f9 bd
       -0.37635145 0.19803837 0.49891227 -0.12200776
0003d0 05 ef 98 be 14 4c cd bd 53 33 e3 bb 3d 09 0c 3f
       -0.29869857 -0.100242764 -0.0069336086 0.54701596
0003e0 f4 ed d8 3e 3d d4 a8 3c f5 a7 3b bf a3 cb 83 3e
       0.42369044 0.020609016 -0.7330316 0.257413
0003f0 d6 1e 74 be 76 b7 cf 3e c9 49 69 be d2 1d 9f 3e
       -0.23839888 0.40569657 -0.22782053 0.3107744

network_body._body_endoder.seq_layers.0.bias f4 [128]
000000 11 b3 ba 3d 4f 4f d3 bd 3d bc d2 3d 5f 9a e0 bc
       0.091161855 -0.10317861 0.1028981 -0.02741736
000010 b8 38 ea 3d 87 8f 5b 3d d3 51 e2 3d f2 72 23 3e
       0.114365995 0.053603675 0.11050763 0.15961817
000020 d7 bc 3c 3e f8 b1 a5 3d b2 7e 15 3e 57 4d b8 bd
       0.18431412 0.080905855 0.14599112 -0.089991264
000030 72 77 08 3e ea b3 d1 bd 6f 34 e9 bd df 8c e5 3d
       0.13326815 -0.10239394 -0.11386954 0.1120851
000040 14 4b a9 3d 89 ba 69 ba 5f a4 3a 3d 35 7f 7d 3d
       0.08266273 -0.00089160405 0.045566913 0.061888892
000050 6c 7f 1f bd c6 98 97 3d f5 63 d2 bc c3 86 29 3d
       -0.03893988 0.07402186 -0.025682429 0.041388284
000060 02 e8 c6 3d 6e 79 96 3d 3f d7 12 3e 72 80 34 bc
       0.09712221 0.073473796 0.14339922 -0.011016952
000070 f4 97 b6 bd 39 15 97 bc e8 50 b7 bd 01 1e 35 bd
       -0.089157015 -0.018442737 -0.089509785 -0.044218067
000080 f0 8d 3f 3d 8c dd d5 3c c4 84 0e be d0 21 56 3d
       0.04676622 0.026106618 -0.13917834 0.05227834
000090 53 00 13 be 5c 81 a5 bd 60 c7 68 bd 7b 91 c9 bd
       -0.14355592 -0.08081314 -0.056830764 -0.09842201
0000a0 d9 94 8e 3d 12 30 e1 bd 60 84 44 bd ec 69 b8 bd
       0.06961984 -0.10995497 -0.047977805 -0.09004578
0000b0 8d 87 4e bd 9d 57 16 be 8a 6c 69 3d 1d b4 07 3e
       -0.05042224 -0.1468186 0.056988277 0.13252302
0000c0 bb 77 62 3c 1a 03 cc bd ab 85 27 3e c3 20 ff 3d
       0.013822491 -0.09961529 0.16359584 0.12457421
0000d0 b8 62 e9 3d c8 01 c9 3d 50 39 13 be 78 24 0a be
       0.11395782 0.09814793 -0.14377332 -0.13490474
0000e0 c7 f3 c3 3d a7 a3 04 bc ab 46 05 be e6 9a d0 bd
       0.09567981 -0.008095658 -0.13015239 -0.101857945
0000f0 1d f1 c2 bd cb 4c f7 bd 7d 4f 83 3d df 3f a9 bd
       -0.09518645 -0.12075194 0.064116456 -0.082641356
000100 b0 ab 99 bd b4 99 2b bd b9 e4 a2 3d 0a 5e b6 bd
       -0.0750345 -0.04189463 0.07953782 -0.08904655
000110 5b 2a f0 bd fa 28 b6 bd ab bc e0 bc 2e af 9b 3c
       -0.11726829 -0.088945344 -0.027433714 0.01900443
000120 f1 c1 13 bd bb 54 ea bd da 62 10 3e 09 f2 ab 3d
       -0.03607363 -0.11441942 0.14100209 0.08395774
000130 5d 51 13 3c 64 04 1c 3e 84 b0 d4 3d 0f 53 32 bc
       0.0089915665 0.1523605 0.1038523 -0.0108840605
000140 16 ba 8d 3d b9 b1 31 3d 14 af 72 3d e6 eb bc bd
       0.06920259 0.04338238 0.059249 -0.092246816
000150 fd ef df 3d e3 12 49 3d c1 ce 7a bd 41 f8 ba bd
       0.10934446 0.049090277 -0.061232332 -0.09129382
000160 a0 97 bb bd 01 90 9b 3d 95 fe 99 bd f4 d8 d6 3d
       -0.091597795 0.07595826 -0.07519261 0.10490599
000170 64 16 da 3c 19 33 d4 bd dc 9c c2 bc 7a 69 b9 bd
       0.026622005 -0.103613086 -0.023756437 -0.09053321
000180 d4 51 14 be 94 70 a3 bd 50 33 ef bd 6e 14 02 3d
       -0.1448434 -0.07980457 -0.11679709 0.031757765
000190 09 83 ca bd 03 20 37 3d 0a 5c 82 bd fd 31 d8 3d
       -0.09888274 0.044708263 -0.06365211 0.105564095
0001a0 d2 9e e1 bc b8 c1 b1 3d 9e 26 0c bd 96 e2 c1 3d
       -0.027541552 0.08679527 -0.034216516 0.09467046
0001b0 77 e8 e1 bd ec 07 3d 3c 58 b9 e7 3d ce e3 97 bd
       -0.11030667 0.011537533 0.113146484 -0.07416497
0001c0 75 30 ac 3b 70 78 44 be f9 6d fe bd 6f 2c 06 3e
       0.0052548 -0.19186568 -0.12423319 0.13102888
0001d0 ac cd b0 3d 14 b5 17 3e b3 94 5a 3d 55 67 10 3e
       0.08632979 0.1481517 0.053364467 0.14101918
0001e0 c9 59 2d be 49 b9 c7 3d c7 31 5b bd fd 9a ca 3d
       -0.16928782 0.09752137 -0.05351427 0.09892843
0001f0 93 94 a9 3d 80 4d e4 bc 83 7e cf bd 8a 1c 7a bd
       0.082802914 -0.027868986 -0.10131552 -0.061062373

network_body._body_endoder.seq_layers.2.weight f4 [128, 128]
000000 51 ae 74 3d dd 46 ad 3d 14 e2 e2 3c 63 3c a0 bd
       0.059736554 0.08460782 0.027695693 -0.07824018
000010 d5 a4 c2 3d 1f ff 05 3e b9 4a 01 3e f7 e1 83 3d
       0.095040955 0.13085602 0.1262616 0.06439584
000020 97 55 63 3d d1 21 8c bc 44 29 35 be a4 ea 97 3d
       0.055501547 -0.017105969 -0.17691523 0.07417801
000030 c5 20 c3 3c 4c 57 2e 3c 0e 36 3a bd 9e bb 10 be
       0.023819337 0.01064093 -0.045461707 -0.1413407
000040 13 69 b4 bd 6c a0 1d 3e ed 78 6c bd 9a 2b 57 3c
       -0.08809104 0.15393227 -0.05773251 0.013132954
000050 e6 3d df 3d 2e 3f 3d bc 77 dd e6 bd f5 e7 f6 bc
       0.10900478 -0.011550708 -0.1127271 -0.030139903
000060 77 44 27 bc 7d e3 41 3e 50 eb ce 3d fe 7e 5b bd
       -0.010209194 0.18934436 0.10103476 -0.053587906
000070 a7 2e f1 3d 0f 9b 82 3e fa 8c 46 bc f8 9b 00 bd
       0.11776476 0.25508925 -0.012118572 -0.031398743
000080 51 e7 94 3d d6 64 c5 3d dc 8a 3f bd 2b 17 0d be
       0.072706826 0.096383736 -0.046763286 -0.13778369
000090 86 4b f6 bd 87 32 be 3d 01 28 94 3c 61 1e 2a bb
       -0.12026124 0.09286981 0.018085482 -0.0025958049
0000a0 08 a4 ff bd ba 40 80 bd 61 57 f8 bd 34 83 b9 bd
       -0.12482458 -0.062623456 -0.12126041 -0.09058228
0000b0 93 1d 03 3e 6c 34 63 3d 1d 02 22 3e 51 62 fd bd
       0.1280425 0.055469915 0.15821119 -0.12372268
0000c0 00 88 2c 3b 7e 5f 17 be 51 a5 ef 3c 8b b9 f1 bc
       0.002632618 -0.14782521 0.029253634 -0.02950742
0000d0 4b 5c d7 3d 2f 01 6b bd 1f 55 1f 3e 1c 2f 0c 3e
       0.1051565 -0.057374176 0.15559815 0.13689846
0000e0 2e 8d 55 3d 4a bf d4 3d 14 d5 f0 bd 24 3e f8 3c
       0.052136593 0.10388048 -0.117593914 0.030303068
0000f0 29 2d 90 bd b7 bb 80 bb df 07 11 be 0b 7b d7 bd
       -0.070398636 -0.0039286274 -0.14163159 -0.105215155
000100 9e 46 20 3e a8 ac 23 bc 28 e1 89 bd b0 23 16 bc
       0.15651938 -0.009989895 -0.06732398 -0.009163782
000110 5c 62 f7 3d 7d 9e f9 bd 2a e6 21 bd 45 be e7 3c
       0.120793074 -0.12188432 -0.039526142 0.02828897
000120 a6 cc fa 3d f2 2c ab bd 92 18 98 3d ee d4 e2 bd
       0.12246065 -0.08358182 0.074265614 -0.11075769
000130 ea 7a 09 bd 80 26 a2 bd c7 f3 99 3d 87 66 45 3e
       -0.033564486 -0.079174995 0.075172 0.19277392
000140 2d 1e 97 bd 92 7d 37 3e bf 9e 2c 3d a2 b7 3f 3e
       -0.073788024 0.17918995 0.04214358 0.18722394
000150 b8 6c 8d bc 54 e2 3b 3e 84 07 35 be 5e 16 25 3c
       -0.017263755 0.18348056 -0.17678648 0.0100761335
000160 7f 30 2f 3d 3b e9 f5 3d 56 07 37 be 78 97 fd 3c
       0.04277086 0.12007376 -0.17873892 0.030956015
000170 3e 91 d5 3d 49 26 04 be 98 d6 ba 3d bb 49 4c bd
       0.104280934 -0.1290523 0.09122962 -0.049875002
000180 f4 92 e4 bd ec 3a 12 3d bb ff 34 3d cf 5a 9d 3c
       -0.111608416 0.035700724 0.044189196 0.01920834
000190 18 7a c2 bc d1 c7 12 be f3 0f a0 bd 7b 2c 92 3b
       -0.02373986 -0.14334036 -0.07815542 0.004460869
0001a0 9b b1 4d 3c 2b 69 8d bc 7d 6e 1e 3c ca ff 13 be
       0.0125545515 -0.017262062 0.009669897 -0.14453045
0001b0 00 d3 d4 38 85 27 7e bc f0 4f a1 3c a6 4a 03 3e
       0.000101482496 -0.015512352 0.019691437 0.12821445
0001c0 1e 5e 4d 3e 0d 36 dd bc d4 ee d1 bd e8 38 d5 ba
       0.20055434 -0.027003312 -0.10250631 -0.001626757
0001d0 9c fe a3 bd c2 f5 6c bb 4e 57 cf bc 9d b9 b3 3d
       -0.08007547 -0.0036157225 -0.025310185 0.08775637
0001e0 fa 40 92 3d 0d e1 aa bd aa 1c 9a 3c bf ec 29 3d
       0.071412995 -0.08343706 0.018812496 0.041485544
0001f0 72 bc 8e 3d 84 47 09 bd a4 d0 10 be 69 a9 3b 3e
       0.06969537 -0.03351547 -0.1414209 0.18326344
000200 d3 48 0d 3e f6 c9 4f bd b0 cf 3e be b5 08 f8 bd
       0.13797311 -0.050729714 -0.18633914 -0.12111036
000210 94 35 14 bc 3c 9e 75 3d a0 06 01 bd 33 e6 9f 3e
       -0.009045977 0.059965357 -0.03150046 0.31230316
000220 4c 6f 59 bd cf d0 21 bd 97 14 21 3d e4 b0 19 bd
       -0.053084657 -0.039505776 0.039326277 -0.03752221
000230 ea ad 78 bc 1c a6 8d bd 0e 58 44 3e a9 2a a0 3b
       -0.015178183 -0.069164485 0.19174215 0.004887898
000240 71 e7 34 be a5 52 af bc 01 71 ea 3c 59 8a 37 3e
       -0.17666413 -0.021401713 0.028618338 0.17923869
000250 1c bc 35 be c1 a0 03 3e 39 4c af bd 3a eb 95 bb
       -0.1774754 0.12854291 -0.0855946 -0.0045751603
000260 b8 bf 96 3c 97 38 2e 3c 66 b9 56 3c ce af 1b 3e
       0.018401965 0.010633609 0.013105726 0.15203783
000270 2d cc b2 bc 60 4f ad bd 70 66 f4 bd 85 97 07 bc
       -0.021825874 -0.08462405 -0.11933601 -0.008275871
000280 1a 14 4e bc 7d 2e 28 be 1d b9 ca 3d 4a 5b 2a be
       -0.012578035 -0.16423984 0.09898589 -0.16636387
000290 07 7a 39 3c 9c 60 be bd 01 e5 f6 bd 19 08 a2 bd
       0.0113205975 -0.092957705 -0.12055398 -0.07911701
0002a0 d4 f5 29 3d 53 39 69 bc 11 16 1c 3e fb 53 83 bd
       0.041494206 -0.014234859 0.15242793 -0.064125024
0002b0 45 a8 02 be 67 26 b9 3d a1 55 8c bd 8d 2c 2c 3e
       -0.12759502 0.09040528 -0.0685227 0.1681387
0002c0 5c 51 7c bd cb 37 9e bd 10 eb 2a 3d 1e 8d f8 3d
       -0.061601028 -0.077254854 0.04172808 0.12136291
0002d0 ff 30 08 be f8 75 21 bd 01 b1 1b bd e8 25 3b 3e
       -0.1329994 -0.039419144 -0.0380106 0.18276179
0002e0 78 c5 ba 3d be 88 44 bd 22 8b 88 3b 6b b6 00 be
       0.091196954 -0.04798197 0.0041669765 -0.12569587
0002f0 92 14 f7 bd 94 62 01 3d 31 e2 86 3c 1b 6f e9 3c
       -0.1206447 0.031588152 0.016465278 0.028495362
000300 4f 48 5d 3d aa f6 3b 3c 01 f6 ce 3c eb 0b 1c 3d
       0.054024037 0.0114723835 0.025263788 0.038097303
000310 ed 72 a6 bc 80 35 c2 38 82 a1 a7 bc a5 7b 0c be
       -0.020318473 9.260606e-05 -0.020462755 -0.13719042
000320 bd 83 84 bd 24 d1 cc 3d fe 3d 9e 3d d2 ab 80 3d
       -0.064704396 0.10000828 0.07726668 0.06282772
000330 e4 8a f1 3c f3 f1 3a bc cf 82 f7 3c 37 c0 a4 3d
       0.029485174 -0.011410224 0.030213742 0.080444746
000340 05 cc 2e bd 21 af 8a bc 17 f4 90 3d 1d b7 67 be
       -0.042675037 -0.016929211 0.070778064 -0.22628446
000350 ee b4 18 be ad 29 68 3d eb cf 4a be 68 11 82 bd
       -0.14912769 0.05668037 -0.19805877 -0.06350976
000360 f5 2b 12 be 97 ae c7 3d 86 8b 43 be 17 ab ec 3c
       -0.14274581 0.09750097 -0.19096193 0.028890176
000370 df 29 eb 3c 91 63 4f bc 16 b0 7b bd 72 a6 92 bc
       0.02870649 -0.012658016 -0.061447226 -0.017901633
000380 81 50 be 3d 02 9b f8 bb 39 d4 50 be be f8 24 3e
       0.09292699 -0.0075868377 -0.20393457 0.16110513
000390 e9 5d 5b 3e de 32 4b bd e2 46 07 3e 9f 93 af 3d
       0.21422543 -0.049609058 0.13210633 0.08573078
0003a0 e4 db 08 bd 92 73 24 be 6f 82 27 3d d7 d5 58 bd
       -0.03341283 -0.16059712 0.040895876 -0.05293831
0003b0 68 22 ad bd c5 cb 25 bd 74 36 58 3c c7 60 94 3d
       -0.08453828 -0.040477533 0.013196576 0.07245021
0003c0 18 d1 66 3d 7b 63 bf bc a1 ef 16 bc f1 5d ba bd
       0.05635175 -0.023362866 -0.009212405 -0.09099949
0003d0 fa 7a 9c 3d e8 a3 4a bd 48 c9 6a bd a1 ec 51 3d
       0.076406434 -0.04947272 -0.057320863 0.051251058
0003e0 f6 42 be bd aa 39 ae 3c 31 09 a3 bd 76 86 3f 3d
       -0.092901155 0.02126773 -0.079607375 0.04675909
0003f0 4b 8c 74 3d fd 07 8c bd 7b bf b8 3c d6 23 8c 3c
       0.059704106 -0.06837461 0.022552243 0.017106932

network_body._body_endoder.seq_layers.2.bias f4 [128]
000000 a9 d1 d7 3c 34 41 1c bc 14 d0 2f bd 8d 93 c0 3d
       0.026345091 -0.00953703 -0.04292305 0.09403143
000010 ee f7 6c bd 35 bc b9 bd 07 df a6 3d bf 5c 00 3e
       -0.05785363 -0.09069101 0.08148008 0.1253538
000020 98 e3 4c bd 26 52 73 3d 3a 21 7c bd 66 28 a9 3c
       -0.050021738 0.059404515 -0.061555125 0.020649146
000030 7b b0 d1 bd d7 c1 a5 bd 53 9b df bd 11 76 46 bc
       -0.10238739 -0.08093613 -0.109182976 -0.01211311
000040 0b 22 9c bd 97 29 ac bd 51 94 a2 3d 8e c8 5d 3c
       -0.07623681 -0.0840637 0.07938445 0.0135365855
000050 f3 f4 13 3e db 73 5e ba 5f 62 67 bd de f7 8a bd
       0.1444891 -0.0008485892 -0.0564903 -0.06785558
000060 e9 a4 3b 3d c7 3d 9e 3d cc 18 01 3d 14 63 d2 bd
       0.045811567 0.07726627 0.03151779 -0.10272804
000070 29 08 bd 3d de 26 9a bb b5 fc bd bd 60 5a c0 3d
       0.09230072 -0.0047043404 -0.09276716 0.09392238
000080 67 7b e7 bd a3 b7 ca bd d0 18 f4 bd 24 bb 64 3d
       -0.11302834 -0.09898307 -0.11918795 0.055842534
000090 69 a5 8e bd a3 26 bd 3d c1 0a 94 bd ff b3 03 be
       -0.06965143 0.09235885 -0.07228614 -0.12861632
0000a0 79 d2 ae bd cc b3 b0 bd e6 89 ce ba d7 b8 98 bd
       -0.08536238 -0.086280435 -0.001575765 -0.074571304
0000b0 4f f8 14 bd 94 47 c2 3c f3 48 bb 3d 3c 06 57 bd
       -0.036369618 0.023715772 0.09144773 -0.05249618
0000c0 60 b5 67 bd 6a 24 a4 bc 62 fe 6e 3d 29 13 83 bd
       -0.056569457 -0.020036895 0.058348067 -0.06400139
0000d0 2f a0 b2 3d e5 90 df 3d 82 c8 1b bd 8e da 95 bd
       0.08721959 0.10916308 -0.038033016 -0.073170766
0000e0 9c 79 f4 3d 7e 42 97 3d 73 35 a4 3d d2 95 b8 bd
       0.11937258 0.07385729 0.08018007 -0.09012951
0000f0 01 0f 63 3d 9d f4 4b 3d 4d 33 d1 bd cf 6e dc bd
       0.05543423 0.04979383 -0.10214863 -0.107633226
000100 ba b6 08 bd 20 0f bf 3c e1 ab 8a bd f5 c2 b3 3d
       -0.033377387 0.023322642 -0.067710645 0.087774195
000110 c6 27 83 3d 7f 32 ff 3d 1b 74 0e 3e b1 1b ee 3d
       0.064040706 0.12460803 0.13911478 0.116263755
000120 79 df c8 bd fb 90 8e 3d 3c c4 22 3d 3b 2d e0 3c
       -0.09808249 0.069612466 0.039737925 0.027365318
000130 df 24 f7 bd 08 83 39 bd ee 3a 78 bc ba d0 92 bd
       -0.120675795 -0.045290977 -0.015150769 -0.07168718
000140 0e f6 72 3d 4b 76 6d 3c 3b 81 c5 3d a3 cd 98 3c
       0.059316687 0.014493535 0.096437894 0.018652743
000150 73 27 ee 3d bf 42 d5 bd 6f e3 cb bd 29 bd a6 bd
       0.11628618 -0.104131214 -0.09955489 -0.08141548
000160 25 e2 97 3a bd 0c 93 3d 4e 5e 9f 3d cd d5 9d 3d
       0.0011587782 0.07180164 0.07781659 0.07706795
000170 e5 f4 f8 3d 45 17 a8 bd c3 ec 69 bd 09 2e f6 bd
       0.12156085 -0.08207563 -0.05711056 -0.12020499
000180 e0 60 65 bd c1 c1 2a 3c 34 c0 3f bd 2d cd b7 bd
       -0.05600059 0.010422171 -0.04681416 -0.08974681
000190 b7 a5 c7 bd 55 84 52 3d 86 b4 ff 3d cd 14 14 3d
       -0.097484045 0.051395733 0.12485604 0.03615265
0001a0 aa be f5 3d fa d5 1c 3d d7 f8 fb bd dc 20 9d bd
       0.11999257 0.03829 -0.12303322 -0.07672283
0001b0 24 a5 31 bd fe 99 19 be 6b a6 12 be 5a ce de 3d
       -0.04337038 -0.1500015 -0.14321296 0.10879202
0001c0 08 4e ef bc 4a 7a 92 3d 77 7e ac 3d 9e 70 20 bd
       -0.029212013 0.07152231 0.08422559 -0.0391699
0001d0 28 1c b8 bd 23 ea 0c bc d2 26 ac bd 6b 98 19 3d
       -0.089897454 -0.008600744 -0.08405842 0.037498873
0001e0 2a d4 9c bd 44 6d e4 3d b0 7c 97 bc d7 2e 72 bd
       -0.076576546 0.11153653 -0.018492073 -0.0591267
0001f0 62 74 ed 3d e8 55 a5 bc 3b 69 77 3d 4b 13 f7 3d
       0.11594464 -0.020182565 0.06040309 0.12064227

action_model._discrete_distribution.branches.0.weight f4 [3, 128]
000000 af 05 1f 3d ac 5a f9 bc 89 47 7d 3d f7 3e fc bc
       0.03882378 -0.030438744 0.0618358 -0.030791743
000010 7f 56 47 3d 29 98 aa 3c 23 26 4a 3c 63 59 70 bc
       0.048666473 0.020824509 0.012338194 -0.014669749
000020 7b a9 26 3d 1b e0 c1 3c 32 ad 5f 3d 54 15 25 3d
       0.040688973 0.023666432 0.05460853 0.040303543
000030 9b 78 98 3c c0 56 11 3d 88 bb 16 bc 07 46 88 3d
       0.018612197 0.035483122 -0.009199984 0.06653982
000040 fc 92 bc 3c eb 62 88 3c 83 34 4d bc 6e 56 3a 3d
       0.023019306 0.01664873 -0.012524727 0.045492582
000050 44 01 b8 bc 3c e0 08 bd a6 6b 0d 3c 80 29 de 3c
       -0.022461541 -0.03341697 0.008631622 0.027119398
000060 09 f6 d7 bc 61 0e d8 3b 67 13 8c bd f6 77 94 3c
       -0.026362436 0.006593511 -0.06839638 0.018123608
000070 90 bf 9b 3c 52 e0 ec 3c cf 9d 7d 3d 6b a9 5f bd
       0.019012243 0.028915558 0.061918076 -0.05460493
000080 55 6a c4 3c d9 51 5e 3d a1 25 31 3d 14 42 df 3c
       0.023976484 0.054277275 0.043248776 0.027253188
000090 e2 24 a9 3c 85 fa b7 bc 3f 72 3c 3c 07 e4 66 3d
       0.02064747 -0.022458324 0.011501848 0.056369808
0000a0 9c 0f 07 3d 4a 54 21 3d e2 f4 11 bd a9 a0 78 3c
       0.03297387 0.039387025 -0.03563393 0.015175023
0000b0 03 10 4f 3d 2e fb 56 3d e2 b3 21 3c 9c 3e 59 3d
       0.05055238 0.052485637 0.009869548 0.053038225
0000c0 78 d3 71 3d 46 35 15 bd c9 e8 42 3d 78 ec 54 3d
       0.059039563 -0.03642776 0.047585282 0.051983327
0000d0 c2 5a a1 3b 19 5e 47 bc 39 04 5e 3d 0f c0 03 3d
       0.0049241493 -0.012168431 0.054203246 0.032165583
0000e0 51 3b d2 3c 7e a8 5a bd 1e dd 30 3b c8 b2 06 3d
       0.02566305 -0.053383343 0.0026987265 0.032885343
0000f0 d3 f1 07 3d 73 be cb 3c 45 90 0e 3d dc aa cf 3c
       0.033189606 0.024871087 0.034805555 0.025350027
000100 67 e9 e2 bb ec fc 0e 3d 8b 2a 1f 3c 79 8a 21 bd
       -0.0069247964 0.034909174 0.009714733 -0.0394387
000110 62 59 a7 bd e2 b7 81 bc a4 1b 5b bc 3e 3f 91 bc
       -0.08171345 -0.015834752 -0.013373289 -0.017730352
000120 bd b2 29 bc 8a f0 00 3d 28 b5 99 3c b2 2b 24 3c
       -0.010357556 0.031479396 0.01876314 0.010020183
000130 ec b9 9c 3c b4 8f d9 3b e7 cd 33 3d ce db 0a 3b
       0.019131623 0.006639445 0.043897536 0.0021188143
000140 a7 7b 0a 3d 3e 4b a5 3d 69 f9 a0 3c 11 97 f4 bc
       0.03380933 0.08070992 0.019650178 -0.02985719
000150 6b 28 08 bd 51 21 bd 3c 58 bb 8c 3d 7f 5a 29 3d
       -0.03324167 0.023087176 0.068716705 0.04134607
000160 b4 e6 ea bc d9 67 47 bd 2d 03 ab 3c 66 0a 73 bd
       -0.028674461 -0.04868302 0.020875538 -0.05933609
000170 a2 17 c0 3a 95 84 9f 3c 63 bc 9c bc ce 0b 1d 3d
       0.0014655481 0.0194724 -0.019132799 0.038341336
000180 e9 90 06 3d 2e b3 4b bd 88 5b 9d 3c ec ef 64 3c
       0.03285304 -0.049731426 0.019208685 0.013973217
000190 46 69 00 3d 61 8b 6e 3c d5 a2 f0 bb 1b 3b f9 3c
       0.031350397 0.014559598 -0.00734363 0.030423691
0001a0 1e 0e de 3b ee eb 60 bd 21 ab 29 3d a7 4a 21 3d
       0.0067765852 -0.0549125 0.041422967 0.039377835
0001b0 40 f3 84 3d b9 8d fc 3c a5 a8 1a 3d 65 5c 94 3c
       0.06491709 0.030829297 0.03775849 0.018110463
0001c0 73 c0 82 3d 3d 13 95 3c 73 03 68 bb b3 fc bf 3c
       0.06384363 0.01819765 -0.0035402447 0.023435926
0001d0 4e 40 54 bc 86 10 24 bd a6 c3 79 bc 78 a5 8e bd
       -0.012954785 -0.04005482 -0.0152444 -0.069651544
0001e0 ae ba b1 3c a8 0c 02 bc 8a 91 7d 3d b6 e2 43 3d
       0.021695461 -0.007937588 0.061906375 0.04782363
0001f0 27 64 df bc 8b dc 14 bd ef 39 7a bd cf 15 e3 3b
       -0.027269436 -0.03634314 -0.061090406 0.00693009
000200 a7 ba 91 bd 33 74 0b bc e6 e2 0f bd 15 67 a6 3d
       -0.07115679 -0.008511591 -0.035128497 0.0812513
000210 0a 3f 2f bd fa 75 16 bd f2 e1 aa 3c 4c 23 75 3d
       -0.042784728 -0.036733605 0.020859692 0.059848115
000220 36 0c 00 3c 93 28 13 bd fa 4a 2c bd 24 2d 9d bd
       0.007815411 -0.035927366 -0.04206369 -0.076746255
000230 cd f8 59 bd d6 d5 2f bd 31 9e 71 bd 35 64 8a bd
       -0.05321579 -0.04292854 -0.058988754 -0.06757394
000240 f2 32 7b bd ec a8 02 bd 34 d3 6f 3d d3 f2 81 bd
       -0.061327882 -0.031899378 0.05855103 -0.06345143
000250 6a 41 a5 3d 55 04 3a 3d 76 fe c1 bd 52 dc 22 bd
       0.08069117 0.045414288 -0.09472363 -0.039760895
000260 0e 78 86 3d 0c 21 0d 3c 18 e1 70 3d 65 e3 38 bd
       0.06565867 0.008613836 0.058808416 -0.045138735
000270 57 ac 21 3d 3a cf 82 bd 35 1d dd bc bc d7 fc 3d
       0.039470997 -0.063871816 -0.026991466 0.123458356
000280 b4 cd 4e bd a7 08 01 bd df 90 45 bd c1 43 c1 3c
       -0.050489143 -0.031502392 -0.048233863 0.023591878
000290 6b 81 6b bd b6 db a8 3d 57 ed 70 bd 3d a1 d3 bc
       -0.05749647 0.082450315 -0.058820095 -0.02583372
0002a0 b4 d5 18 bd 86 23 42 bd 9b 7e 01 bc 50 d8 06 bd
       -0.03731318 -0.04739716 -0.00790372 -0.032921135
0002b0 3d e2 b2 bc 99 86 42 bd 38 1c 0c 3d 69 96 d2 bc
       -0.021836394 -0.047491644 0.0342066 -0.025706487
0002c0 1c f6 d7 bc 67 ff a3 bc 8e 15 a6 bc c7 99 da bc
       -0.026362471 -0.020019246 -0.02027395 -0.026684655
0002d0 30 26 d7 3c af 62 ac 3d 3a 8a e8 bc 50 76 45 bd
       0.026263326 0.0841726 -0.028386224 -0.048208535
0002e0 0c e9 34 3d b8 f8 d3 3d 63 51 42 3d ad 47 39 bd
       0.044167563 0.10350174 0.047440898 -0.04523437
0002f0 ee 2d 07 3c 09 bb 08 3c fc ac 14 bd f0 4d 3c bd
       0.008250697 0.008345374 -0.036297783 -0.045972764
000300 82 71 74 bc 72 15 7f bd 45 15 6d bd 6c 56 a1 3d
       -0.0149196405 -0.06227631 -0.057881612 0.07877812
000310 ee ff ea 3d 33 21 08 3d bf e2 7e 3d 5a 57 8e 3d
       0.11474596 0.033234786 0.06222796 0.06950255
000320 c5 e3 10 bd 35 d4 ec 3b 01 74 7b 3c 66 ed f3 3c
       -0.035373468 0.0072274455 0.015347482 0.029776286
000330 01 5d 3b bd cd 1b 25 3c db 2b 7f bd ac 2d 2c bd
       -0.045742992 0.010077429 -0.062297683 -0.042035744
000340 72 cb bd 3c c1 21 7e bc 7d df 3b 3d 09 a2 44 3d
       0.0231683 -0.015510977 0.045867432 0.04800609
000350 b0 15 c3 3d 1e 1a 43 bd 39 7f a9 bc d7 5a 08 bd
       0.09525621 -0.04763233 -0.020690547 -0.033289757
000360 5e 89 fb 3c af 58 00 3e ae b0 96 3c ed 8d fb 3d
       0.03070515 0.1253383 0.018394794 0.122829296
000370 13 ae 60 3d bb 9b 9b bd f0 d9 0d bd 9a 75 a6 bc
       0.05485351 -0.075980626 -0.03463167 -0.020319749
000380 f6 76 72 bd 53 7a a0 3c 21 2c 49 bd 44 34 8b bd
       -0.05919548 0.019589579 -0.04911435 -0.06797078
000390 42 f7 44 bd 1e f2 ca 3a de e9 7f 3d e5 69 66 3c
       -0.048087366 0.0015483533 0.062478893 0.014063333
0003a0 6c 49 87 3d 34 96 26 3d 8a fa da bc e5 25 42 bd
       0.06605801 0.04067059 -0.026730794 -0.04739942
0003b0 d6 2a e9 bc 89 96 46 bd 26 f2 d4 bc b5 21 97 3d
       -0.028462809 -0.048483405 -0.025994372 0.07379476
0003c0 07 d4 42 bd 95 cc 89 3c 34 cf 19 3d 24 9e 9d bd
       -0.047565486 0.016821185 0.03755112 -0.076961786
0003d0 80 bd 58 bd 4a a9 88 3c 86 e7 c5 bc 93 bc 9f 3d
       -0.052915096 0.016682286 -0.02415825 0.077996396
0003e0 1d 33 10 bd 22 a4 56 3d fa fb 8b bd 95 40 f0 bc
       -0.035204995 0.052402623 -0.0683517 -0.02932767
0003f0 36 70 be 3d 55 e6 d5 3b 6d 37 b7 3d 3c e0 72 3d
       0.09298746 0.006527702 0.089461185 0.059295878

action_model._discrete_distribution.branches.0.bias f4 [3]
000000 eb b0 9e 3c 75 59 ae 3c d8 4f 1c bd
       0.01937147 0.02128289 -0.038162082

onnx::Div_52 f4 [6]
000000 e6 da 18 40 db 62 b4 3b 27 58 a1 3b 6b 79 04 3d
       2.3883605 0.0055049486 0.0049238387 0.032342356
000010 68 d6 a6 3d b8 2b 21 41
       0.081463635 10.0731735
